lightning_model_releases/lightning_quantile_test/model_params/0.5_81054_1334_lightning_quantile.ckpt (torch, 311310 bytes, 15 tensors)

model.0.weight f4 [128, 131]
0	0x3cea6ca6	0.02861626
1	0x3ccbd8e4	0.024883695
2	0xbd4188db	-0.047249656
3	0xbda8f7ec	-0.08250412
4	0xbd4beb40	-0.0497849
5	0x3dfaed9e	0.12252353
6	0xbd2751ce	-0.0408495
7	0x3dafa632	0.08576621
8	0xbbd412a3	-0.006471948
9	0xbd6a8354	-0.05725415
10	0x3d976d31	0.073938735
11	0xbc936cf0	-0.017996281
12	0xbd1c5e38	-0.03817579
13	0xbd95def9	-0.07317919
14	0x3d397749	0.045279775
15	0xba563ca4	-0.00081724883
16	0x3e0fb99a	0.14035645
17	0x3c4164da	0.01180383
18	0xbd8c8181	-0.068606384
19	0xbc951ab6	-0.018201213
20	0xbda2978d	-0.07939062
21	0xbd5dc4f7	-0.05414292
22	0x3d7c0348	0.061526567
23	0xbc92778e	-0.017879274
24	0xbd07d0a2	-0.033157952
25	0xbc3b68c9	-0.011438557
26	0xbd83a382	-0.06427671
27	0xbe188938	-0.14896095
28	0x3c0c6891	0.008569852
29	0xbdc408a2	-0.09571959
30	0xbb4642e8	-0.0030252282
31	0xbd8eb9c8	-0.06969029
32	0x3d8ef703	0.069807075
33	0xbd2128b3	-0.039345454
34	0xbdcb376c	-0.0992268
35	0x3cf04949	0.02933182
36	0xbbbe5928	-0.005808968
37	0x3cdddf52	0.027084026
38	0xbd36a2f5	-0.044589
39	0x3c94b1b7	0.018151147
40	0x3ca58562	0.020205203
41	0xbd482123	-0.048859727
42	0xbcbbd3f7	-0.022928221
43	0x3d016eb3	0.03159971
44	0x3caace91	0.020850452
45	0xbd3e0824	-0.046394482
46	0x3d80c7c4	0.06288102
47	0xbd0e124c	-0.034685418
48	0xbc54a705	-0.012979274
49	0xbde68ca7	-0.11257296
50	0xbdf59afe	-0.11992453
51	0x3e4951ce	0.19660112
52	0x3d0b0c51	0.033947293
53	0x3e199af7	0.1500052
54	0x3caf06e8	0.021365598
55	0xbc349645	-0.011022155
56	0xbe644c5a	-0.22294751
57	0xbe4fdb45	-0.20298488
58	0x3e20ad3e	0.15691087
59	0xbd5be884	-0.05368854
60	0xbd379912	-0.044823714
61	0xbd08e8f6	-0.033425294
62	0x3c83675c	0.016040497
63	0xbcb85d83	-0.022505527
64	0x3cb882cb	0.022523304
65	0xbd632c7b	-0.05546234
66	0x3d781d76	0.06057497
67	0xbd2fcb54	-0.04291852
68	0xbda91307	-0.08255582
69	0x3c44b2ff	0.012005567
70	0x3e07a8e6	0.13248023
71	0x3d8e41af	0.06946122
72	0x3d8a60d9	0.067567535
73	0xbe253a73	-0.16135578
74	0xbd6bf3de	-0.057605617
75	0xbd25fc57	-0.040523853
76	0xbdbbe834	-0.091751486
77	0x3b711610	0.0036786832
78	0xbb195137	-0.0023394355
79	0x3d92fd03	0.071771644
80	0xbddf7882	-0.10911657
81	0xbdb81bd0	-0.0898968
82	0xbdffef85	-0.124968566
83	0xbddf1d32	-0.108942404
84	0x3ddfbfe6	0.109252736
85	0x3c2df9aa	0.010618607
86	0x3d5f6c76	0.054546796
87	0xbe2f68a7	-0.17129765
88	0xbce628e6	-0.028095674
89	0x3dc35484	0.095376045
90	0xbd91490f	-0.07094013
91	0x3d3ec544	0.046574846
92	0x3ccaba06	0.024746906
93	0x3a7e9d49	0.00097127684
94	0x3ba7ebc8	0.005124543
95	0xbcce07f1	-0.025150271
96	0x3d44541c	0.047931775
97	0xbd817cdb	-0.063226424
98	0xbd21824a	-0.039430894
99	0xbdd4c8c4	-0.103898555
100	0xbd7e59b5	-0.06209727
101	0xbc88beb3	-0.016692495
102	0xbd1c7a94	-0.038202837
103	0xbe0b9eb2	-0.13634756
104	0xbda64022	-0.08117701
105	0xbd3df848	-0.046379358
106	0xbd97ceb9	-0.07412476
107	0xbe2b3410	-0.16719079
108	0xbe06ce8c	-0.13164729
109	0xbd008e6d	-0.031385828
110	0x3dd28085	0.102784194
111	0x3c872f60	0.016502082
112	0xbd0c3c03	-0.03423692
113	0xbe1ff5c2	-0.15621093
114	0xbdce7920	-0.100816965
115	0x3d6b5c46	0.057461046
116	0x3c5fd770	0.013662204
117	0x3d955ece	0.07293473
118	0xbe894a83	-0.2681466
119	0xbd8cd02b	-0.068756424
120	0xbcaff2d1	-0.021478089
121	0xbdd2160e	-0.10258113
122	0xbd4b12a6	-0.04957833
123	0xbdfa88fc	-0.12233159
124	0xbdbee969	-0.09321863
125	0xbd837f51	-0.06420768
126	0xbd581d7f	-0.052762505
127	0xbddee1e0	-0.10882926
128	0x3c797922	0.015226634
129	0xbdaf9fa8	-0.08575374
130	0x3d223c31	0.039608184
131	0xbb0c34cb	-0.0021393772
132	0x3ca88b64	0.02057428
133	0x3e6dba1d	0.23215528
134	0x3f1a029b	0.60160226
135	0xbdc8282d	-0.09773288
136	0xbf06ea0f	-0.52700895
137	0xbdcb7191	-0.099337704
138	0xbe421449	-0.1895305
139	0x3dfab2f5	0.122411646
140	0xbd49073d	-0.04907917
141	0xbe46ba15	-0.19406922
142	0x3ce8921a	0.02838998
143	0x3ec11a0f	0.37715194
144	0x3ea69e3d	0.325426
145	0x3d874ade	0.06606077
146	0xbc169c88	-0.009192593
147	0x3d84f5f1	0.06492222
148	0x3dd76ed6	0.10519187
149	0x3e71b8c7	0.23605643
150	0x3df00210	0.117191434
151	0xbdcad9d9	-0.099048324
152	0x3e84ae14	0.2591406
153	0xbde0df92	-0.10980143
154	0x3e8853c6	0.26626414
155	0xbeaca7fa	-0.33721906
156	0xbea3081d	-0.31842127
157	0x3e240101	0.16016008
158	0x3e8f7df7	0.2802579
159	0x3d97de7a	0.07415481
160	0x3e436c75	0.19084342
161	0x3eede800	0.46466064
162	0xbc8cbe67	-0.017180635
163	0xbd8abf18	-0.067747295
164	0x3e15fc34	0.14646989
165	0x3e2d1d1a	0.16905633
166	0x3dc211e7	0.09476071
167	0x3d3c90b5	0.04603644
168	0x3ddb8fcf	0.10720789
169	0x3d750b82	0.059825428
170	0xbe47b6b4	-0.1950329
171	0x3c6db277	0.014507881
172	0x3c99790c	0.018734477
173	0x3e1c957d	0.152914
174	0x3e0286c6	0.12746724
175	0xbd048d1c	-0.032361135
176	0xbe315648	-0.1731807
177	0x3c7f1d21	0.01557091
178	0x3e3ca9b3	0.1842411
179	0x3dc00bff	0.09377288
180	0x3e1d9521	0.1538892
181	0xbd6d64cf	-0.057957467
182	0xbf5a8716	-0.85362375
183	0xbdf252c4	-0.118321925
184	0xbe543e52	-0.20726898
185	0xbd9aaa9d	-0.07552073
186	0xbd0f3e87	-0.03497174
187	0x3f604b4d	0.876149
188	0x3f157280	0.5837784
189	0xbe87e4a5	-0.2654163
190	0xbe4428dd	-0.19156213
191	0x3ee7d542	0.4527989
192	0xbeb7ee76	-0.3592412
193	0x3e26d480	0.16292
194	0x3d70f422	0.058826573
195	0xbdcf7d00	-0.10131264
196	0xbe0069ba	-0.12540331
197	0xbdd4777a	-0.10374351
198	0x3df2f878	0.11863798
199	0xbe05a6ae	-0.13051865
200	0xbe0be864	-0.13662869
201	0xbdc74add	-0.09731076
202	0x3e754a8e	0.23954222
203	0x3d90bd2c	0.07067332
204	0xbc4284dc	-0.011872496
205	0x3e327afe	0.1742973
206	0xbea5e341	-0.32399943
207	0x3d17a11b	0.037018877
208	0x3e2946a2	0.1653085
209	0xbe1e234c	-0.15443152
210	0x3e40182a	0.18759218
211	0x3e402991	0.18765856
212	0x3e0691ed	0.13141604
213	0x3ee8e9ff	0.45491025
214	0x3e28ff03	0.16503529
215	0x3dc6dfa2	0.09710623
216	0xbdc2ae16	-0.095058605
217	0xbe6efee6	-0.23339424
218	0x3e6c141b	0.23054545
219	0xbe3321a3	-0.174933
220	0xbede10ea	-0.4337228
221	0x3e7f56ad	0.24935408
222	0xbe8a4ade	-0.27010244
223	0x3dffd54b	0.12491854
224	0x3bd5654d	0.00651232
225	0xbe37327a	-0.17890349
226	0x3cfc5e47	0.030806674
227	0x3db501ab	0.08838209
228	0xbc14b511	-0.009076373
229	0xbdc4b914	-0.09605613
230	0x3df63027	0.12020903
231	0xbe4dcf44	-0.20098597
232	0x3e84e8f9	0.25958994
233	0x3e7f1c11	0.2491305
234	0x3e71a240	0.2359705
235	0x3e5acdb0	0.21367526
236	0xbe148809	-0.14505018
237	0xbd8814b2	-0.06644572
238	0x3e401bd0	0.1876061
239	0x3d9ebbbb	0.077506505
240	0x3ca111e9	0.01966186
241	0xbe04fcec	-0.12987107
242	0x3d8ae7da	0.067825034
243	0x3d96c7f4	0.07362357
244	0x3d9dce7a	0.07705398
245	0xbdafa0bb	-0.08575579
246	0xbe675d28	-0.2259413
247	0x3ced6b0c	0.028981708
248	0xbf27e291	-0.6558009
249	0x3f59aab0	0.85026073
250	0xbbedac35	-0.0072531947
251	0xbd8e0743	-0.06934979
252	0x3dd0328c	0.10165891
253	0x3d4153c3	0.047199022
254	0x3d585da8	0.052823693
255	0xbd6aedbb	-0.057355624

model.0.bias f4 [128]
0	0xbe0cdeb2	-0.13756827
1	0x3e453178	0.19257152
2	0x3e07232c	0.13197011
3	0x3de4da38	0.111744344
4	0x3e101028	0.14068663
5	0x3ddbdf98	0.107360065
6	0xbd9f8fa5	-0.0779107
7	0xbc2ae7cc	-0.010431241
8	0x3ccdc495	0.025118152
9	0x3daaf9cc	0.08348426
10	0x3cc3bee0	0.023894727
11	0x3c798aac	0.015230816
12	0x3c537539	0.012906366
13	0xbd573e77	-0.052549805
14	0x3d7d58a4	0.061852112
15	0xbd893b06	-0.06700711
16	0x3dc2b47e	0.095070824
17	0xbc502466	-0.012703991
18	0x3cd6de18	0.02622895
19	0x3e2192c2	0.1577864
20	0x3de3b305	0.1111813
21	0xbbd5117b	-0.006502328
22	0x3d93ccc6	0.07216792
23	0x3d887713	0.066633366
24	0x3da86ccd	0.08223877
25	0x3dc18a42	0.09450199
26	0x3d1fe3e2	0.039035685
27	0x3b454200	0.0030099154
28	0x3e254bb2	0.16142157
29	0x3de9ad67	0.11410027
30	0x3e215000	0.15753174
31	0x3df27e85	0.11840538
32	0x3ddf0d66	0.108912274
33	0xbd78e64e	-0.06076651
34	0x3d6b9cac	0.05752246
35	0x3c8a99f4	0.016919114
36	0x3d9214cb	0.07132872
37	0x3dee58cd	0.11638031
38	0x3e02ea78	0.12784755
39	0xbd59f26b	-0.053209703
40	0x3c53b516	0.012921592
41	0xbd3bd49b	-0.045857053
42	0x3db223a2	0.08698203
43	0x3e136166	0.14392623
44	0x3da1d713	0.0790235
45	0x3b961d60	0.0045811385
46	0x3e0d91b5	0.13825114
47	0x3c4a4f63	0.012348029
48	0xbaf8e380	-0.0018988699
49	0xbc870864	-0.016483493
50	0x3d4505ed	0.048101354
51	0x3d5d4566	0.05402126
52	0x3e03b36d	0.12861414
53	0x3c15068e	0.009095801
54	0xbdbd2343	-0.09235241
55	0xbd9f5721	-0.077802904
56	0x3dda6d12	0.10665335
57	0x3d29c8b2	0.041451164
58	0x3d39419a	0.04522858
59	0x3dfe5c27	0.124199204
60	0x3d240949	0.040047918
61	0x3d9d33c6	0.076758906
62	0x3d160523	0.036625993
63	0x3d534197	0.051576223
64	0x3dcbcf92	0.099517
65	0xbc6d4a00	-0.014482975
66	0x3cdc15d6	0.026865881
67	0xbaa68ec0	-0.0012707338
68	0xbc044725	-0.008073603
69	0x3cab81cf	0.020935921
70	0x3d3c37be	0.045951597
71	0x3d7200f2	0.059082933
72	0xbda97fd2	-0.08276333
73	0x3c15ce23	0.009143385
74	0x3c900a01	0.017582895
75	0x3d35028f	0.044191893
76	0xbd36fde5	-0.044675726
77	0xbc892efd	-0.016746039
78	0x3e3227c5	0.17397983
79	0xbd18d5cf	-0.03731328
80	0x3d6faefb	0.058516484
81	0xbb13c06d	-0.0022545115
82	0xbda11435	-0.07865182
83	0x3da8ffad	0.08251891
84	0x3e1fc436	0.15602192
85	0x3e058f23	0.13042884
86	0x3d31cf67	0.043410685
87	0xbd94fd92	-0.07274927
88	0xbc807f76	-0.015685778
89	0x3c3af2d6	0.011410436
90	0xbcc4364c	-0.023951672
91	0x3d46621a	0.0484334
92	0x3e225308	0.15851986
93	0xbd740adc	-0.05958067
94	0xbd7b5047	-0.061355855
95	0x3d74da32	0.0597784
96	0x3d4bd1b6	0.049760543
97	0xbd359c8e	-0.044338755
98	0xbba7bf05	-0.005119207
99	0xbd1abb4e	-0.037776284
100	0x3cc4f162	0.024040882
101	0x3d90d374	0.070715815
102	0xbabc4a38	-0.0014365381
103	0xbc29ca44	-0.010363165
104	0x3d118f08	0.035536796
105	0x3db6b07b	0.0892038
106	0xbc1a3d14	-0.009413976
107	0xbcc44425	-0.023958275
108	0xba313fe3	-0.0006761534
109	0x3d99fd04	0.07518962
110	0x3e4393e7	0.19099389
111	0xbd357b9b	-0.044307332
112	0x3bb41d43	0.0054966523
113	0x3d8c4f3b	0.068510495
114	0x3e285eb5	0.16442378
115	0x3c644e70	0.013934717
116	0xbd10b7a5	-0.035331387
117	0x3e479fbf	0.19494532
118	0xbb3fb442	-0.002925173
119	0x3da4ea45	0.08052496
120	0x3e261b50	0.16221356
121	0x3d51ff0f	0.051268633
122	0xbc7c2778	-0.015390269
123	0x3de77cf3	0.11303129
124	0xbd09cfb6	-0.033645354
125	0xbd0159d4	-0.031579807
126	0x3e2498f1	0.16073968
127	0x3d619caf	0.055081066

model.3.weight f4 [64, 128]
0	0xbd91acce	-0.07113038
1	0x3ddcab44	0.10774854
2	0xbd90f04a	-0.070770815
3	0xbd0facae	-0.03507679
4	0x3c2b5369	0.010456898
5	0x3c903a3f	0.017605899
6	0x3c545b01	0.01296115
7	0x3d8fd0ae	0.07022224
8	0x3d67d463	0.056599032
9	0xbd94001e	-0.07226585
10	0xbd5b68cd	-0.053566743
11	0xbda638fc	-0.08116338
12	0x3d87dbd4	0.06633726
13	0xbb977781	-0.0046224003
14	0xbd01944c	-0.031635568
15	0xbd315e4a	-0.04330281
16	0x3cff43b4	0.031160213
17	0x3c6b1070	0.014347181
18	0x3d467a5e	0.048456542
19	0x3dbab903	0.091173194
20	0x3d9bddaf	0.07610642
21	0xbd5490f2	-0.051896043
22	0x3c18ba70	0.009321794
23	0xbd662fd9	-0.056197975
24	0xbd02a0f5	-0.03189178
25	0x3c30ff13	0.010803002
26	0x3d8c4bd6	0.06850402
27	0xbd2285bb	-0.039678317
28	0xbd399af7	-0.0453138
29	0xbbaacc5a	-0.005212349
30	0x3d1a43f4	0.03766246
31	0x3b97a684	0.0046280045
32	0x3d948187	0.07251268
33	0xbda2f04b	-0.079559885
34	0x3cfb7987	0.030697597
35	0x3d8918d3	0.06694188
36	0x3da14653	0.078747414
37	0xbd51eb84	-0.051249996
38	0xbd61d776	-0.05513712
39	0x3befa00e	0.007312781
40	0xbc63534b	-0.013874839
41	0x3d219427	0.03944793
42	0x3da39ac4	0.079885036
43	0x3c8883ae	0.016664352
44	0xbcd4c0e6	-0.025970887
45	0x3d456252	0.04818947
46	0xbd467e26	-0.04846015
47	0x3b17ed50	0.002318222
48	0x3c323158	0.010876022
49	0xbc73b498	-0.0148746
50	0x3d50dbd3	0.05099089
51	0xba80ecb4	-0.0009836168
52	0x3d1ab4d1	0.037770096
53	0x3d35f052	0.04441864
54	0x3b2319bb	0.0024887163
55	0xbd29f9c3	-0.041497957
56	0x3da07311	0.07834447
57	0x3d49c222	0.049257405
58	0xbc5d1640	-0.013494074
59	0xbd5e35a9	-0.054250393
60	0x3c551233	0.013004827
61	0x3d7fedee	0.062482767
62	0x3d45d21f	0.04829609
63	0xbbd00931	-0.006348752
64	0x3d792eb3	0.06083555
65	0x3aeb0a1f	0.0017932093
66	0x3d122fa1	0.035689954
67	0xbd2a47c6	-0.041572355
68	0xbb003e4e	-0.0019568386
69	0xbc89df1c	-0.01683002
70	0x3c39cf3e	0.011340914
71	0xbdac2a7b	-0.0840654
72	0x3aa84df6	0.0012840617
73	0xbd8433b2	-0.064551726
74	0xbd91c47e	-0.07117556
75	0xbdb1d677	-0.08683484
76	0xbd51bb66	-0.051204108
77	0x3c629020	0.013828307
78	0x3cfc3787	0.030788196
79	0x3caa7470	0.020807475
80	0x3cf98050	0.030456692
81	0xbd4c6c88	-0.04990819
82	0xba5cf57b	-0.00084289134
83	0xbd9ff472	-0.07810296
84	0xbc0f71fb	-0.008755202
85	0x3cb8a195	0.022537986
86	0x3c390a32	0.011293935
87	0xbd91bdd2	-0.071162835
88	0x3d898d07	0.06716352
89	0x3d907fe8	0.07055646
90	0xbd222c0d	-0.03959279
91	0xbd9a2f6c	-0.07528576
92	0x3c1de16b	0.009636263
93	0x3ccdd9c5	0.025128255
94	0xbcd81825	-0.0263787
95	0xbd26515d	-0.040604938
96	0x3c9e3e14	0.01931671
97	0xbd8738d0	-0.06602633
98	0xbd261492	-0.04054696
99	0x3ce7a2b0	0.028275818
100	0x3d896b84	0.0670996
101	0x3e2f90d6	0.17145094
102	0x3d91bcce	0.0711609
103	0x3b9d9586	0.0048090843
104	0x3caa2eb3	0.020774221
105	0x3d9bb598	0.07602996
106	0xbd772fdc	-0.060348377
107	0x3d86b899	0.06578178
108	0x3db47c96	0.088128254
109	0xbc85943c	-0.016306035
110	0x3dc293d7	0.095008545
111	0xbcc29622	-0.02375323
112	0xbd3ad6fa	-0.045615174
113	0x3d6f65ea	0.058446802
114	0x3d818261	0.06323696
115	0xbbd0aee0	-0.006368503
116	0xbda340b1	-0.07971323
117	0x3d877236	0.06613581
118	0x3d0ead32	0.03483314
119	0xbd8ab7c1	-0.067733295
120	0x3c6778ae	0.014127893
121	0x3d7e2955	0.062051136
122	0x3d18df7e	0.037322514
123	0xbccdc03f	-0.025116084
124	0xbd74c294	-0.059755877
125	0x3decde7b	0.11565872
126	0x3d8fa622	0.07014109
127	0x3d8977c3	0.06712296
128	0xbcf46d37	-0.029837234
129	0xbce8afbf	-0.028404115
130	0xbda6f6bc	-0.081525296
131	0xbd205d31	-0.039151374
132	0x3ca1908d	0.019722247
133	0xbdc9fc8d	-0.09862623
134	0xbb919d02	-0.0044437656
135	0x3d8f37a7	0.06993037
136	0x3ca04615	0.019564668
137	0x3c29db60	0.0103672445
138	0xbd4271e4	-0.047471896
139	0xbcbab5a2	-0.022791687
140	0xbdc07e13	-0.09399047
141	0xbd72eb6b	-0.059306543
142	0x3c2f2324	0.0106895305
143	0x3c82e0d5	0.015976349
144	0x3cba0768	0.02270861
145	0xbd8d99f5	-0.069141306
146	0x3b393f06	0.0028266325
147	0xbdb945da	-0.09046526
148	0xbdab2d48	-0.08358246
149	0xbd2a24fb	-0.041539174
150	0xbddd333b	-0.10800787
151	0x3c894e68	0.01676102
152	0x3c640bd8	0.013918839
153	0x3d1c271e	0.038123243
154	0x3af5e5e8	0.0018760534
155	0x3c8d2824	0.017231055
156	0x3b83757a	0.004011807
157	0x3b66c5d0	0.003521312
158	0xbdd69d30	-0.104792
159	0xbd6e15b0	-0.05812615
160	0xbdb318b6	-0.087449476
161	0xbd51ea7b	-0.05124901
162	0xbb46ae6e	-0.003031637
163	0x3daab355	0.08334986
164	0xbcbdf8d2	-0.023189936
165	0xbd8dca2d	-0.069233276
166	0xbaa05369	-0.0012231889
167	0x3d7929a6	0.060830735
168	0xbb3b07f5	-0.0028538678
169	0xbdb51215	-0.088413395
170	0xbc085447	-0.008320875
171	0x35e1077a	1.6765982e-06
172	0x3c6d16e0	0.014470786
173	0x3da557a3	0.08073356
174	0x3d652f87	0.05595353
175	0xbdb0efed	-0.08639512
176	0x3d89a0a3	0.06720092
177	0xbda201dc	-0.07910511
178	0xbd90c679	-0.07069106
179	0x3cb48a77	0.022038681
180	0xbca211a6	-0.019783806
181	0x3d551219	0.052019212
182	0x3d2cdc66	0.042202376
183	0xbd0bcd65	-0.034131426
184	0x3d64490d	0.05573373
185	0xbd81e940	-0.06343317
186	0x3c86f114	0.016472377
187	0x3c12e8cc	0.008966636
188	0x3c7cf5d9	0.015439474
189	0x3d877bf4	0.06615439
190	0x3cae67a6	0.021289658
191	0xbd8dc4d8	-0.069223106
192	0x3d4f1f24	0.050566807
193	0x3d59596d	0.0530638
194	0xbd224bdc	-0.039623126
195	0x3d81f3b1	0.063453086
196	0xb9122b2f	-0.00013939732
197	0xbcbfd354	-0.023416199
198	0x3bb51c1a	0.0055270316
199	0x39818600	0.00024704635
200	0xbd289dc7	-0.041166093
201	0xbba0245e	-0.004887148
202	0xbc8dd92c	-0.01731547
203	0xbda5aeb8	-0.080899656
204	0xbd9f8a70	-0.07790077
205	0x3ceded60	0.029043853
206	0xbd8dd619	-0.069256015
207	0x3b0dabe0	0.0021617338
208	0x3d20a6c4	0.03922154
209	0x3d693073	0.05693097
210	0x3d0ab69b	0.033865552
211	0x3cdf1a52	0.02723423
212	0x3d0fcbd7	0.035106506
213	0xbd9f9858	-0.07792729
214	0x3d7d2bb6	0.061809264
215	0xbda7682f	-0.08174168
216	0xbd9b668e	-0.0758792
217	0xbd6528ce	-0.055947118
218	0x3db0ebf1	0.08638752
219	0x3d4aa92a	0.049477734
220	0x3bb98c6f	0.005662493
221	0x3d144191	0.03619534
222	0xbdcb7eda	-0.099363044
223	0xbdaca741	-0.08430339
224	0x3c0acf9a	0.008472348
225	0xbd294563	-0.041325938
226	0x3cdf021e	0.02722269
227	0xbd807942	-0.06273128
228	0x3d627bac	0.055293724
229	0xbe0cc60d	-0.13747425
230	0x3cceacbc	0.02522885
231	0x3cd8540e	0.026407268
232	0xbd893f51	-0.0670153
233	0x3d421260	0.047380805
234	0x3cf6a857	0.030109568
235	0xbd6c3325	-0.057665963
236	0xbd953aa8	-0.072865784
237	0x3c0aa9ca	0.008463332
238	0xbd828bfc	-0.06374356
239	0xbbca1fda	-0.006168348
240	0x3ca8ec4e	0.020620491
241	0x3c868e55	0.016425291
242	0xbd8b1308	-0.06790739
243	0x3d884433	0.06653633
244	0x3c9fcb33	0.019506073
245	0xbcfaea2b	-0.030629238
246	0xbd2839c1	-0.041070703
247	0x3c91505d	0.017738516
248	0xbce94432	-0.0284749
249	0x3d280069	0.041016016
250	0x3d39a33e	0.045321696
251	0x3d34eeef	0.044173177
252	0xbcd2c297	-0.025727553
253	0x3d3eeeb7	0.046614375
254	0x3d2caa06	0.042154334
255	0xbcc0e9b4	-0.023548938

model.3.bias f4 [64]
0	0x3e266d60	0.16252661
1	0xbd7aec0c	-0.061260268
2	0x3e5bc14d	0.21460457
3	0xb9a79367	-0.00031962545
4	0xbdc18f01	-0.09451104
5	0x3e5923bf	0.21205042
6	0x3d5f4388	0.054507762
7	0xbd3c28f9	-0.045937512
8	0xb9ab932d	-0.00032725316
9	0x3d5152d9	0.0511044
10	0xbce4ffbf	-0.02795398
11	0x3e7cc93f	0.24686144
12	0x3e40eef5	0.18841155
13	0x3e8de50c	0.2771381
14	0x3e42530c	0.18976992
15	0xbc7574b1	-0.014981435
16	0xbdbea438	-0.09308666
17	0xbd11799a	-0.03551636
18	0x3e662500	0.22475052
19	0x3d580c72	0.052746244
20	0x3d891dca	0.06695135
21	0xbcf70f28	-0.030158594
22	0x3e72833d	0.23682876
23	0x3e1ca8d7	0.15298782
24	0x3e646b1f	0.22306488
25	0x3e60ab26	0.21940288
26	0x3e302889	0.17202963
27	0x3e88aa5c	0.26692474
28	0x3e3059ad	0.17221709
29	0xbd873615	-0.06602112
30	0x3df45aa6	0.11931352
31	0xbc540e1f	-0.01294282
32	0xbd4f704c	-0.050644204
33	0x3e61e122	0.22058538
34	0x3e221fd6	0.15832457
35	0xbd7c5b21	-0.061610345
36	0xb721dcc4	-9.647749e-06
37	0x3dd1b389	0.10239322
38	0x3d899eb4	0.06719723
39	0x3e6e3554	0.2326253
40	0x3cc2e848	0.023792401
41	0x3c81b5c1	0.015833737
42	0xbca3a35c	-0.019975357
43	0x3e44e5f0	0.19228339
44	0xbbd3e4ce	-0.0064664846
45	0xbddcf576	-0.107890055
46	0x3da76d5b	0.08175155
47	0xbc6f863f	-0.014619409
48	0x3d3cfb97	0.046138372
49	0x3e345370	0.17609954
50	0x3df456b4	0.119306
51	0x3d26616a	0.040620245
52	0x3e6ac3c3	0.2292624
53	0x3e03f9d7	0.12888275
54	0x3cd3f401	0.025873186
55	0xbb5bf72d	-0.0033564076
56	0xbdaf8e0b	-0.085720144
57	0x3e2e3a62	0.17014459
58	0x3e23fbb8	0.16013992
59	0x3e66fa2b	0.22556369
60	0x3e2cbc1e	0.16868636
61	0xbcf6686a	-0.030079085
62	0xbd64cfaf	-0.055862125
63	0x3e460993	0.1933959

model.6.weight f4 [1, 64]
0	0x3db84a28	0.08998519
1	0xbd39d55d	-0.045369495
2	0x3d600afc	0.054697976
3	0xbc1cda23	-0.009573492
4	0xbd2cd38d	-0.042193938
5	0x3d353d7e	0.044248097
6	0x3daf76cb	0.0856758
7	0xbdcd86b8	-0.10035461
8	0xbd1caed2	-0.03825266
9	0x3d967e36	0.073482916
10	0xbd3af380	-0.045642376
11	0x3d62cadb	0.05536924
12	0x3d85a5b5	0.06525747
13	0x3d35f05c	0.044418678
14	0x3d4003ff	0.04687881
15	0xbd8f0098	-0.06982535
16	0xba4c0c62	-0.00077838276
17	0xbc75587b	-0.014974709
18	0x3d50d4a6	0.050984047
19	0x3b2ff4fa	0.0026848898
20	0xbc9532c7	-0.01821269
21	0xbd785b65	-0.060634036
22	0x3d977060	0.07394481
23	0x3d27207d	0.040802468
24	0x3d5fbffb	0.054626446
25	0x3d9695d4	0.07352796
26	0x3d2fba0e	0.042902045
27	0x3da90a12	0.08253874
28	0x3d3ae24f	0.04562598
29	0xbce6348a	-0.028101224
30	0x3d01f57c	0.031728253
31	0xbdc5ba76	-0.09654705
32	0xbd48e1e5	-0.049043555
33	0x3dc06b0c	0.093954176
34	0x3dd5020f	0.10400783
35	0xbd99e28b	-0.07513913
36	0xbd1ba631	-0.03800029
37	0x3d9c4de1	0.07632042
38	0xbdd3b125	-0.10336522
39	0x3d2a67f4	0.041603044
40	0xbdcc2146	-0.09967284
41	0xbd260ea4	-0.040541306
42	0xbd66298e	-0.056191973
43	0x3d206cb6	0.039166175
44	0xbcae033b	-0.021241775
45	0xbd59e587	-0.05319741
46	0x3d72def1	0.059294645
47	0xbd19a817	-0.03751382
48	0xbddb27b5	-0.10700933
49	0x3d923931	0.07139815
50	0x3d94f221	0.07272745
51	0xbc22f7a2	-0.009946736
52	0x3d1cd944	0.03829314
53	0x3d26b9bb	0.04070447
54	0x3b55e6d2	0.00326388
55	0xbc458214	-0.012054939
56	0xbdbab2f9	-0.091161676
57	0x3d78222c	0.060579464
58	0x3d2d034a	0.042239465
59	0x3d8d937e	0.069128975
60	0x3d3fab5f	0.04679429
61	0xbd1489bf	-0.036264177
62	0xbd404f9b	-0.046950918
63	0x3d36ea10	0.044656813

exp_avg f4 [128, 131]
0	0x36d07500	6.2125036e-06
1	0xb5cd5c0a	-1.5300477e-06
2	0x379e5bdd	1.8877845e-05
3	0xb7ca6d1c	-2.4131085e-05
4	0x32a5cc9c	1.9301574e-08
5	0x20877bee	2.29519e-19
6	0xb1de628d	-6.4722543e-09
7	0x2f0f7285	1.304646e-10
8	0x33f739c7	1.15123434e-07
9	0x362047b2	2.388359e-06
10	0xb358b553	-5.0456332e-08
11	0x3486eee7	2.513327e-07
12	0x328cb5b1	1.6380769e-08
13	0xb2d02455	-2.4230909e-08
14	0xb5f20bca	-1.8033836e-06
15	0x365499e9	3.168005e-06
16	0xb766cff4	-1.3757486e-05
17	0xb5e4ee5f	-1.7056699e-06
18	0xaf5ea14d	-2.0248088e-10
19	0x3486eee7	2.513327e-07
20	0x36063506	1.999842e-06
21	0x357ccacd	9.417243e-07
22	0x35918d27	1.0844423e-06
23	0xb3cd6dc2	-9.566021e-08
24	0x332bdf5e	4.001719e-08
25	0x364ffbac	3.0991896e-06
26	0x36352b29	2.6996224e-06
27	0x328e07fc	1.6534607e-08
28	0x348e45cd	2.6500348e-07
29	0xb5a731cd	-1.2456964e-06
30	0xb4e9e5a7	-4.3566726e-07
31	0x3770b380	1.4346908e-05
32	0xb44e716b	-1.9226506e-07
33	0x383c39ee	4.4876644e-05
34	0x37b1b4b7	2.1184196e-05
35	0xb74a4c44	-1.2057895e-05
36	0x36fa8b2b	7.466782e-06
37	0x3586f3f8	1.0054782e-06
38	0x38a073c6	7.650959e-05
39	0xb788a968	-1.629135e-05
40	0x380a4931	3.296993e-05
41	0xb87c3f86	-6.0140643e-05
42	0x37344961	1.0745921e-05
43	0x3800b981	3.0690342e-05
44	0x3809626c	3.2755008e-05
45	0xb7438603	-1.1654108e-05
46	0xb804df13	-3.1679006e-05
47	0x37535a36	1.2597584e-05
48	0x37b7b9f1	2.1901886e-05
49	0x3774a952	1.4582956e-05
50	0x37111acb	8.648912e-06
51	0xb70459a5	-7.888685e-06
52	0x3678360e	3.6986344e-06
53	0x36ec4948	7.041879e-06
54	0xb79eff69	-1.8954002e-05
55	0x384f219a	4.938394e-05
56	0xb8148188	-3.5406585e-05
57	0x384630b5	4.725224e-05
58	0xb6ccc4de	-6.102592e-06
59	0x3696b302	4.4911876e-06
60	0xb6b3b22f	-5.355359e-06
61	0x36397f55	2.7641265e-06
62	0x37438b8c	1.16553965e-05
63	0x376d706b	1.4152475e-05
64	0xb78491d0	-1.5803525e-05
65	0x377abbc5	1.494488e-05
66	0xb720b24e	-9.578258e-06
67	0x36e94ec5	6.953111e-06
68	0xb4395c5b	-1.7263066e-07
69	0x3791fffa	1.7404545e-05
70	0xb813a96c	-3.5205318e-05
71	0xb65dfa6b	-3.3077329e-06
72	0x36d52b50	6.352937e-06
73	0xb686e529	-4.020189e-06
74	0x373ff0b2	1.1440528e-05
75	0xb373ef9b	-5.6795766e-08
76	0x3608c43e	2.0379807e-06
77	0x37debfc8	2.6553767e-05
78	0x32a01a4b	1.8638408e-08
79	0xb3026b95	-3.036583e-08
80	0xb72190d8	-9.630072e-06
81	0xb1e7c036	-6.7448367e-09
82	0xb5dc4328	-1.6410822e-06
83	0x9091525d	-5.7319316e-29
84	0x90d38ab5	-8.343854e-29
85	0x3791b78c	1.7370818e-05
86	0xb6c1eda7	-5.7795146e-06
87	0x316b5f55	3.425119e-09
88	0x372a82da	1.0163256e-05
89	0x36c8dd0a	5.986197e-06
90	0xb6eed29e	-7.117472e-06
91	0xb7e15476	-2.686142e-05
92	0x37578228	1.2845303e-05
93	0x36924991	4.3597033e-06
94	0xb6414ba0	-2.880326e-06
95	0x37bfda4a	2.2870623e-05
96	0xb6fa2f49	-7.4560853e-06
97	0x36d6f078	6.4056912e-06
98	0xb8782dc4	-5.917043e-05
99	0xb769515d	-1.3906826e-05
100	0x371d49e0	9.37513e-06
101	0xb652eaf7	-3.1429206e-06
102	0x353b68e8	6.981559e-07
103	0x37466f77	1.1827672e-05
104	0xb62606d6	-2.4739907e-06
105	0x374278b5	1.1591405e-05
106	0x00000000	0.0
107	0xb5a5430b	-1.231297e-06
108	0x3799d1bf	1.8336692e-05
109	0x351af80d	5.773043e-07
110	0x37799a0a	1.4877422e-05
111	0x00000000	0.0
112	0x870658d8	-1.0107148e-34
113	0xb6f22451	-7.21639e-06
114	0x3721bc08	9.640127e-06
115	0x38331cbc	4.2703687e-05
116	0x00000000	0.0
117	0xb7871327	-1.6102173e-05
118	0x38806863	6.122959e-05
119	0x3845c739	4.7154e-05
120	0xb800ea06	-3.073553e-05
121	0x383d4e01	4.513376e-05
122	0xb789c7fc	-1.6424798e-05
123	0x3bd10f36	0.006379987
124	0x3bbac75b	0.0057000346
125	0x3bfee70b	0.0077790073
126	0x3b88b786	0.0041722683
127	0x3bd7e5a8	0.0065886565
128	0x3b2ed8b8	0.0026679467
129	0x3b98d5ee	0.0046641743
130	0x3d9059d4	0.07048383
131	0x390ea4ac	0.0001360352
132	0xba1e2df3	-0.00060340686
133	0x3964987d	0.0002180058
134	0xbb019a0c	-0.0019775657
135	0xb788f61f	-1.6327072e-05
136	0x38d554c5	0.00010172421
137	0xb7af37e1	-2.0887646e-05
138	0xb87dd6db	-6.052e-05
139	0x38f4e46b	0.00011677373
140	0xb71e3cd2	-9.431695e-06
141	0x38cc15d3	9.731543e-05
142	0xb88cc2c5	-6.711999e-05
143	0xb8ecd3c5	-0.00011292802
144	0xb932ac68	-0.00017039629
145	0x36833cab	3.911167e-06
146	0x39608826	0.00021413024
147	0xb7220202	-9.65642e-06
148	0xb89a492b	-7.356921e-05
149	0xb8be7b0e	-9.082827e-05
150	0xb8349dcc	-4.3062304e-05
151	0x37a1f574	1.9306994e-05
152	0x37fbc2e1	3.001228e-05
153	0xb7c03440	-2.2912514e-05
154	0x38b3e6a0	8.5783424e-05
155	0xb9cd198d	-0.00039119684
156	0x38c16294	9.221319e-05
157	0xb563dfd6	-8.4889814e-07
158	0xb83d4792	-4.5127766e-05
159	0xb83f6304	-4.5630164e-05
160	0xb7f9d0a6	-2.9780273e-05
161	0xb8b34545	-8.5482876e-05
162	0x394363aa	0.00018633777
163	0xb8ad9d7e	-8.278618e-05
164	0x3a3a2f4f	0.00071023864
165	0x39611be7	0.00021468067
166	0xb9c2b708	-0.00037138932
167	0xb8b1a360	-8.470449e-05
168	0xb8608b68	-5.3535594e-05
169	0x3aa4a0bd	0.0012560111
170	0x3965f54c	0.00021930522
171	0xb92cce4c	-0.0001648005
172	0xba4a5192	-0.00077178434
173	0x39e07e8f	0.00042818903
174	0x387bdb80	6.004749e-05
175	0x3a4c95e4	0.0007804318
176	0x3a0822e2	0.0005193186
177	0xba12e464	-0.0005603491
178	0x3a23e423	0.00062519516
179	0xb9241966	-0.0001564972
180	0xb929f160	-0.00016207015
181	0xb788b103	-1.629489e-05
182	0x3a85ca36	0.0010207358
183	0xb8473b7a	-4.750069e-05
184	0x3a6cc2e4	0.00090317265
185	0x39afca81	0.00033529478
186	0x3a1b3d4c	0.00059219147
187	0xbaee6efe	-0.0018191037
188	0xb9410ac8	-0.0001840993
189	0x393de4c6	0.0001810967
190	0x398a1641	0.00026337992
191	0xb90eb3cc	-0.00013609155
192	0x39cc31c9	0.00038947005
193	0x39b0f524	0.0003375198
194	0xb9807be5	-0.0002450637
195	0x399e3be0	0.0003018072
196	0x39b651bd	0.00034774645
197	0xb7b0e17b	-2.1085832e-05
198	0x3883128c	6.2500214e-05
199	0xb890d4df	-6.9061054e-05
200	0x37f61b14	2.9338094e-05
201	0xb9343ba1	-0.00017188351
202	0xb920280b	-0.00015273706
203	0xb90da875	-0.00013509563
204	0x39355955	0.00017294784
205	0xb998cfb7	-0.0002914646
206	0x3a54c77f	0.00081168854
207	0x37222632	9.6648455e-06
208	0xb851cfbd	-5.0022954e-05
209	0xb99a023f	-0.00029374842
210	0x38b86989	8.793461e-05
211	0xb822d619	-3.8823204e-05
212	0x39195c3b	0.00014625576
213	0xb9bd0177	-0.0003604998
214	0x389db95e	7.520871e-05
215	0x39120e72	0.00013929026
216	0xb823b821	-3.903371e-05
217	0xb898fc79	-7.2949515e-05
218	0xb93c17b3	-0.00017937906
219	0x354802ef	7.4510075e-07
220	0x39414a74	0.0001843365
221	0xb8b3ef4d	-8.5799584e-05
222	0x388bb686	6.662034e-05
223	0xb9d6a13c	-0.0004093739
224	0xb786553d	-1.6013737e-05
225	0xb79ff047	-1.9066165e-05
226	0x3935fb92	0.00017355222
227	0x3923d6e4	0.00015624944
228	0xb9bad9bf	-0.00035638918
229	0xba11fa0c	-0.0005568571
230	0xb89708f8	-7.201912e-05
231	0x3977b486	0.00023623006
232	0x39cb865d	0.00038819286
233	0xb8c343e6	-9.310972e-05
234	0xb987c14f	-0.00025893233
235	0x38d1e244	0.00010008042
236	0x390f1ad9	0.00013647544
237	0x00000000	0.0
238	0xba10f94a	-0.0005530311
239	0x39c429e8	0.00037415256
240	0x383dd20b	4.525673e-05
241	0x3988914b	0.00026048193
242	0xb9ed0b73	-0.00045212693
243	0xb987c0ac	-0.00025892758
244	0x3a63ce60	0.0008690115
245	0x3a1bdada	0.0005945392
246	0x384a24d5	4.8194855e-05
247	0x00000000	0.0
248	0x3b10f236	0.0022117025
249	0xbab8f1af	-0.0014110113
250	0x3a8ae877	0.0010597844
251	0x3a1922a0	0.00058416463
252	0xb9af9076	-0.00033486233
253	0xba0545dc	-0.0005083957
254	0x3e2ad174	0.16681463
255	0x3e097024	0.13421685

exp_avg_sq f4 [128, 131]
0	0x30805e8f	9.340101e-10
1	0x3287c10a	1.5803852e-08
2	0x3190dff1	4.2164108e-09
3	0x3405ad0f	1.2449549e-07
4	0x3006971e	4.8963666e-10
5	0x3012718c	5.327585e-10
6	0x3010f2c2	5.2731874e-10
7	0x3050576d	7.57942e-10
8	0x30274787	6.085589e-10
9	0x30324a2a	6.4861416e-10
10	0x301941ec	5.5754756e-10
11	0x2fdc853c	4.0112436e-10
12	0x2fb089f7	3.2112243e-10
13	0x30069b3a	4.8969506e-10
14	0x3079df33	9.090286e-10
15	0x308e9bf4	1.0376184e-09
16	0x304406e1	7.131416e-10
17	0x302dbe47	6.3207434e-10
18	0x2fdcd89a	4.0171672e-10
19	0x2fbda411	3.4495476e-10
20	0x2fd1a2e8	3.813263e-10
21	0x307259b6	8.8166574e-10
22	0x3080949b	9.355462e-10
23	0x3081ecdf	9.453308e-10
24	0x3055ed11	7.782584e-10
25	0x301c67b2	5.689983e-10
26	0x3040ce81	7.0142653e-10
27	0x3009e821	5.0170185e-10
28	0x30634c15	8.269024e-10
29	0x304f5642	7.542874e-10
30	0x3063ae99	8.2830237e-10
31	0x308620ca	9.759102e-10
32	0x3036f9ad	6.6566025e-10
33	0x34ea3b3f	4.3629004e-07
34	0x31a54267	4.809681e-09
35	0x31e00c68	6.5206684e-09
36	0x31fed23e	7.4162747e-09
37	0x30d01f65	1.5142915e-09
38	0x3599625c	1.1428015e-06
39	0x331395a9	3.436222e-08
40	0x32d67365	2.4965354e-08
41	0x32c573be	2.2986452e-08
42	0x32e9be03	2.7211177e-08
43	0x32d793a8	2.509644e-08
44	0x331e6eac	3.6887897e-08
45	0x33101d93	3.355451e-08
46	0x32bfd570	2.2332387e-08
47	0x32bd6bd5	2.2051532e-08
48	0x32b6253b	2.1204519e-08
49	0x32dffb1e	2.6074812e-08
50	0x32e31fed	2.6440796e-08
51	0x336a40a4	5.454116e-08
52	0x334c42dd	4.7558263e-08
53	0x33656098	5.340607e-08
54	0x335335a0	4.9176037e-08
55	0x33350a5f	4.215178e-08
56	0x33ab5b32	7.979396e-08
57	0x336cf158	5.5167533e-08
58	0x31c93d41	5.8568337e-09
59	0x3214eb35	8.668214e-09
60	0x31af4f81	5.102209e-09
61	0x31f3fce5	7.1009816e-09
62	0x320726ee	7.866886e-09
63	0x3200575e	7.470446e-09
64	0x31e9974c	6.798393e-09
65	0x32030dcb	7.62834e-09
66	0x31d3bf32	6.1626446e-09
67	0x31d1c0ad	6.1046053e-09
68	0x31a87196	4.9023567e-09
69	0x31d8f844	6.314652e-09
70	0x31d53519	6.2051524e-09
71	0x31ab19b0	4.9796753e-09
72	0x31a611a9	4.8332436e-09
73	0x31b15bbc	5.161807e-09
74	0x319d70a8	4.582109e-09
75	0x319c1604	4.5427004e-09
76	0x31ac2e42	5.0111177e-09
77	0x31a3aba3	4.763437e-09
78	0x3183d8bc	3.8372416e-09
79	0x31a3b13d	4.764074e-09
80	0x32055588	7.7610665e-09
81	0x3172005f	3.5215846e-09
82	0x32292db5	9.847487e-09
83	0x319f8504	4.642631e-09
84	0x312f590f	2.5516476e-09
85	0x31751175	3.5662115e-09
86	0x31950ab2	4.3376867e-09
87	0x31c9c50c	5.8722716e-09
88	0x31b94e34	5.3930993e-09
89	0x31df05fa	6.4908336e-09
90	0x31f032e4	6.990705e-09
91	0x31e3ff78	6.635613e-09
92	0x31bffad3	5.587347e-09
93	0x319cf617	4.5681747e-09
94	0x31abdfad	5.002184e-09
95	0x31c84df5	5.829629e-09
96	0x31c28251	5.6609584e-09
97	0x31fe06dd	7.393153e-09
98	0x31cc1abc	5.9402208e-09
99	0x3178caed	3.62041e-09
100	0x31908c36	4.2068917e-09
101	0x31cb79bf	5.9219185e-09
102	0x3221e19b	9.42273e-09
103	0x31e3cb4b	6.6296812e-09
104	0x31ac2991	5.0105844e-09
105	0x31af425d	5.100715e-09
106	0x00000000	0.0
107	0x32079ed6	7.894149e-09
108	0x31f3f2f5	7.099852e-09
109	0x31cf1d5c	6.0278307e-09
110	0x31c85aaf	5.8310756e-09
111	0x00000000	0.0
112	0x32d9be82	2.5348758e-08
113	0x33e7fa7a	1.0802337e-07
114	0x343a99fb	1.7378618e-07
115	0x33607064	5.2256283e-08
116	0x00000000	0.0
117	0x349c50f0	2.9116154e-07
118	0x34871cbb	2.5166614e-07
119	0x33dcba04	1.02783844e-07
120	0x33b0c687	8.2317506e-08
121	0x33b9ef15	8.6582226e-08
122	0x33a75289	7.7915566e-08
123	0x3b8a52e3	0.0042213066
124	0x3b8b3684	0.004248442
125	0x3b88ffe1	0.004180894
126	0x3b8b8cf6	0.004258747
127	0x3b9441ea	0.004524459
128	0x3b932016	0.004489909
129	0x3b90ea54	0.0044224653
130	0x3f11963c	0.56869864
131	0x338dd987	6.605392e-08
132	0x3600f5e9	1.9216625e-06
133	0x350209ed	4.844322e-07
134	0x376aca6b	1.3994616e-05
135	0x33b1f71a	8.287152e-08
136	0x3393d3b3	6.883729e-08
137	0x3393b7ef	6.878678e-08
138	0x33962016	6.990756e-08
139	0x339d681f	7.329822e-08
140	0x33a5a3d9	7.713215e-08
141	0x33846202	6.1645565e-08
142	0x338a4b14	6.4397824e-08
143	0x33d22b05	9.786712e-08
144	0x339295d2	6.825907e-08
145	0x33c8b6db	9.346487e-08
146	0x339de5ec	7.352705e-08
147	0x3380e36f	6.0018344e-08
148	0x3387daab	6.326203e-08
149	0x33f134b7	1.1232026e-07
150	0x338161cc	6.02482e-08
151	0x338e6e9e	6.6325114e-08
152	0x3354ebde	4.9574616e-08
153	0x338b6c9f	6.49245e-08
154	0x33d6afb8	9.9971146e-08
155	0x33e4734f	1.0638052e-07
156	0x33e767d2	1.07756605e-07
157	0x33c16001	9.004726e-08
158	0x33a6803a	7.753302e-08
159	0x3386271c	6.246975e-08
160	0x33a9832b	7.893535e-08
161	0x33862296	6.2461524e-08
162	0x33cd62b9	9.564014e-08
163	0x338461a9	6.164493e-08
164	0x385c7a92	5.256624e-05
165	0x350665d0	5.0067047e-07
166	0x353eb045	7.103702e-07
167	0x356bd11e	8.784863e-07
168	0x3452af43	1.9621534e-07
169	0x39098fa0	0.00013118843
170	0x3610b294	2.1561618e-06
171	0x3626a9de	2.4834803e-06
172	0x360911e1	2.0424998e-06
173	0x3632bdc8	2.6634534e-06
174	0x36405c73	2.8664042e-06
175	0x3650dfaa	3.1124605e-06
176	0x363c7dd6	2.808743e-06
177	0x362b5589	2.5530774e-06
178	0x362a7860	2.5402042e-06
179	0x3640b375	2.8714687e-06
180	0x3627d028	2.5006102e-06
181	0x361b2573	2.3118598e-06
182	0x36d68fbb	6.3944294e-06
183	0x3694efc2	4.438655e-06
184	0x3698d69c	4.554937e-06
185	0x36a11b3c	4.8013444e-06
186	0x36a715d0	4.979527e-06
187	0x36e73a07	6.8910917e-06
188	0x36b30692	5.3353806e-06
189	0x35083fe8	5.0756944e-07
190	0x35421df1	7.23142e-07
191	0x35234408	6.082123e-07
192	0x35358676	6.762342e-07
193	0x352c3134	6.4146593e-07
194	0x352b4ad0	6.381133e-07
195	0x3524a530	6.133514e-07
196	0x3515bd89	5.5782635e-07
197	0x3526397a	6.192346e-07
198	0x351d2e82	5.8554735e-07
199	0x352f31f0	6.526525e-07
200	0x350de411	5.2858474e-07
201	0x3500eff5	4.80329e-07
202	0x3526d9e6	6.2156903e-07
203	0x350de91a	5.28658e-07
204	0x3524128d	6.1121756e-07
205	0x35053487	4.96228e-07
206	0x3515c1df	5.5788945e-07
207	0x351fa32d	5.946957e-07
208	0x3517d6ff	5.6564744e-07
209	0x353b9afa	6.988845e-07
210	0x35433d17	7.273206e-07
211	0x35059862	4.9768107e-07
212	0x351452a0	5.525453e-07
213	0x35210526	5.9984666e-07
214	0x3512409f	5.4483274e-07
215	0x351deb21	5.8829215e-07
216	0x350dccb8	5.28245e-07
217	0x350bd5b5	5.209252e-07
218	0x3512884d	5.458758e-07
219	0x35445da6	7.3151966e-07
220	0x3512c30e	5.467308e-07
221	0x350c8d5f	5.2359786e-07
222	0x34d63238	3.9897145e-07
223	0x351f8556	5.9426145e-07
224	0x35193762	5.7077534e-07
225	0x350e1333	5.292706e-07
226	0x351569cf	5.56608e-07
227	0x3505485c	4.965166e-07
228	0x35095e2e	5.1173527e-07
229	0x351e7b67	5.903916e-07
230	0x350d3621	5.260536e-07
231	0x3500280d	4.7742e-07
232	0x351c7ec3	5.829899e-07
233	0x34e1cbd8	4.2057832e-07
234	0x35088620	5.0859126e-07
235	0x352d5a35	6.457879e-07
236	0x3517613c	5.639338e-07
237	0x00000000	0.0
238	0x352bcd0a	6.4000835e-07
239	0x354056a9	7.165168e-07
240	0x3558621a	8.0609027e-07
241	0x3528b885	6.285339e-07
242	0x36f99818	7.4384843e-06
243	0x3717f17a	9.0565245e-06
244	0x3716a355	8.978725e-06
245	0x370dbed4	8.448686e-06
246	0x35dc7a6d	1.6426908e-06
247	0x00000000	0.0
248	0x37e4547c	2.721906e-05
249	0x37b811f3	2.1942868e-05
250	0x37151d79	8.887954e-06
251	0x37169bde	8.976987e-06
252	0x370dea67	8.458831e-06
253	0x37122c79	8.712633e-06
254	0x3f15bf0b	0.58494633
255	0x3f15e754	0.58556104

exp_avg f4 [128]
0	0x383d4732	4.5127417e-05
1	0x3a51e577	0.000800691
2	0xba579d90	-0.0008225078
3	0xb9dec142	-0.00042487128
4	0x3ae94bc6	0.0017799072
5	0xb9cc0c0f	-0.00038918896
6	0x3783695d	1.566548e-05
7	0x18647600	2.9527884e-24
8	0x381b1bf0	3.69809e-05
9	0xba12d392	-0.00056009844
10	0x3a1044ae	0.0005503398
11	0x39aa56ad	0.00032489505
12	0xb95a11f0	-0.00020796782
13	0x0219425c	1.1259709e-37
14	0x0218e8bf	1.1233991e-37
15	0x0214d14d	1.0933389e-37
16	0x3a24e16a	0.0006289693
17	0xb9eb2aaa	-0.0004485448
18	0x3a434a09	0.0007449692
19	0x3a72cd04	0.0009262117
20	0xb8d801c8	-0.000103000144
21	0x021ae376	1.1379411e-37
22	0xb9ab5bc2	-0.00032684027
23	0x00000000	0.0
24	0x00000000	0.0
25	0xba4e0baf	-0.00078600174
26	0x38ec6160	0.000112714944
27	0x00000000	0.0
28	0x3a1ab1b7	0.00059011154
29	0xbaa64b9a	-0.0012687326
30	0x3993ce18	0.00028191577
31	0xb993d8ac	-0.00028199458
32	0xb9b6934b	-0.00034823487
33	0x00000000	0.0
34	0xba3a5d88	-0.0007109274
35	0x00000000	0.0
36	0xbab3fd6a	-0.001373214
37	0x39dd7dcc	0.0004224613
38	0xb7df9740	-2.6654103e-05
39	0x02118245	1.0690303e-37
40	0x38b640ac	8.690482e-05
41	0xb8a6a994	-7.947083e-05
42	0xba607884	-0.000856288
43	0xb93c2e00	-0.00017946213
44	0x00000000	0.0
45	0x00000000	0.0
46	0xb93e2a08	-0.0001813547
47	0xb8c933e0	-9.594089e-05
48	0x00000000	0.0
49	0x00000000	0.0
50	0xb8995060	-7.3105795e-05
51	0x31b3617a	5.2206675e-09
52	0x39927190	0.000279319
53	0x393cd550	0.00018008542
54	0x021d99dd	1.1578695e-37
55	0x38785c54	5.9213795e-05
56	0x3a8526d5	0.0010158668
57	0x00000000	0.0
58	0x00000000	0.0
59	0xba16960f	-0.00057444064
60	0xba6de63c	-0.000907514
61	0xba050f3a	-0.00050758163
62	0xb939c560	-0.00017716503
63	0x398de8ec	0.00027067156
64	0xb97979c8	-0.00023791858
65	0x021363f7	1.0828543e-37
66	0xba4d9ae2	-0.0007843209
67	0x00000000	0.0
68	0x3911ad00	0.00013892725
69	0x38de4b37	0.00010599795
70	0x39cebbc0	0.00039431266
71	0x00000000	0.0
72	0x2f670f38	2.1014734e-10
73	0x389a9294	7.3705945e-05
74	0x384e7668	4.92245e-05
75	0xb9c35710	-0.00037258165
76	0x37bc00d2	2.2411728e-05
77	0x02106400	1.0608148e-37
78	0x3af28b51	0.0018504654
79	0x00000000	0.0
80	0xbb0faeea	-0.0021924325
81	0x021db6b8	1.1586976e-37
82	0x394b3f52	0.00019383177
83	0xb9a8ffc8	-0.0003223403
84	0x395ffe10	0.00021361583
85	0xb99699d8	-0.00028724852
86	0x39b459a4	0.00034399063
87	0x38c17760	9.2251925e-05
88	0xb8de1740	-0.000105901156
89	0x3977fec4	0.00023650663
90	0x00000000	0.0
91	0x00000000	0.0
92	0xba63489a	-0.0008670181
93	0x39491edc	0.0001918035
94	0xb8a33d02	-7.783809e-05
95	0x00000000	0.0
96	0xba0cecf8	-0.0005375887
97	0x3979feef	0.0002384146
98	0x398a955c	0.00026432693
99	0x00000000	0.0
100	0xba35dedc	-0.00069378107
101	0xba9ae494	-0.0011817389
102	0x399433b2	0.00028267276
103	0x348ce000	2.6240014e-07
104	0xba22b05b	-0.00062060886
105	0x3a2b6e5d	0.0006539578
106	0xb6c0f1f5	-5.7502134e-06
107	0x39a2147c	0.0003091431
108	0xb985b0dc	-0.00025499507
109	0x3a015080	0.0004932955
110	0xba436acc	-0.00074545736
111	0x131dc1b1	1.9911683e-27
112	0x394ddfa0	0.0001963363
113	0xb9d61894	-0.00040835573
114	0xba7cc754	-0.00096427393
115	0x00000000	0.0
116	0x0212e521	1.0792143e-37
117	0xb9b3f608	-0.00034324848
118	0x0211b427	1.0704619e-37
119	0x36f79000	7.3779374e-06
120	0xba5675e6	-0.00081810204
121	0x36515a00	3.1195814e-06
122	0x00000000	0.0
123	0x385cb7a0	5.26231e-05
124	0x3ad21474	0.0016027824
125	0x3874f7d3	5.8404938e-05
126	0x39903230	0.00027503213
127	0x39347820	0.00017210888

exp_avg_sq f4 [128]
0	0x34eafcf6	4.376995e-07
1	0x385dc265	5.287155e-05
2	0x36f640fb	7.338936e-06
3	0x372b8224	1.0222695e-05
4	0x38139f5b	3.5195942e-05
5	0x3491699c	2.7085196e-07
6	0x35052cb8	4.9611435e-07
7	0x34aa6538	3.1738614e-07
8	0x375001ba	1.2398168e-05
9	0x37a00297	1.9074692e-05
10	0x38c35b85	9.3153714e-05
11	0x363ea830	2.8410104e-06
12	0x36b4a85e	5.3840186e-06
13	0x30887b55	9.930355e-10
14	0x2f220e98	1.4738999e-10
15	0x312b4746	2.492429e-09
16	0x38a3dd2c	7.813642e-05
17	0x371ac5df	9.225186e-06
18	0x36d7f5f5	6.4361325e-06
19	0x3870eb06	5.743934e-05
20	0x37023e30	7.763083e-06
21	0x301b43fd	5.648529e-10
22	0x3850f218	4.9816532e-05
23	0x00000000	0.0
24	0x00000000	0.0
25	0x380e69d4	3.3954e-05
26	0x38a19e15	7.706523e-05
27	0x00000000	0.0
28	0x37980c37	1.81255e-05
29	0x3880f06a	6.148296e-05
30	0x37453a7d	1.1755733e-05
31	0x36a6b751	4.9685264e-06
32	0x36f17d3d	7.1969394e-06
33	0x00000000	0.0
34	0x36a4ea3a	4.9148484e-06
35	0x00000000	0.0
36	0x386be31c	5.6239878e-05
37	0x38abe1e2	8.195989e-05
38	0x3809e8a2	3.288e-05
39	0x2e4f9743	4.7200698e-11
40	0x36156540	2.2261665e-06
41	0x36582a54	3.2211146e-06
42	0x37f39a01	2.9039571e-05
43	0x389bd559	7.430715e-05
44	0x00000000	0.0
45	0x00000000	0.0
46	0x3832c36b	4.2620504e-05
47	0x385e993e	5.3071642e-05
48	0x00000000	0.0
49	0x00000000	0.0
50	0x373a2afb	1.1096471e-05
51	0x350d0936	5.2539997e-07
52	0x38bc708e	8.9855035e-05
53	0x385dd7c5	5.2891457e-05
54	0x30453f1b	7.175786e-10
55	0x35ed50d2	1.7681398e-06
56	0x38b069f3	8.4120686e-05
57	0x00000000	0.0
58	0x00000000	0.0
59	0x370eab9f	8.503818e-06
60	0x389e5a76	7.550877e-05
61	0x36be36f8	5.6688405e-06
62	0x369dc3c2	4.701754e-06
63	0x38203716	3.8198275e-05
64	0x37d98ae1	2.5933086e-05
65	0x2ec5a958	8.988604e-11
66	0x390de45f	0.00013531883
67	0x00000000	0.0
68	0x3587a003	1.0104853e-06
69	0x34aea5b3	3.2530588e-07
70	0x376f7019	1.427161e-05
71	0x00000000	0.0
72	0x349c2601	2.9084916e-07
73	0x36950657	4.441284e-06
74	0x358028a3	9.54857e-07
75	0x3739e065	1.1079105e-05
76	0x3638a507	2.7514195e-06
77	0x2ef8702f	1.1297662e-10
78	0x3876f08c	5.8874997e-05
79	0x00000000	0.0
80	0x3921c8dc	0.00015428982
81	0x2ec45f58	8.9299845e-11
82	0x32c7da95	2.3266049e-08
83	0x36d52f5a	6.353407e-06
84	0x3789ce73	1.6427808e-05
85	0x3831fd4f	4.2436e-05
86	0x367034d7	3.5793544e-06
87	0x358740b3	1.0077114e-06
88	0x36dec630	6.6391876e-06
89	0x375cb32f	1.3154741e-05
90	0x00000000	0.0
91	0x00000000	0.0
92	0x37b3d440	2.14373e-05
93	0x3530ca29	6.585929e-07
94	0x366536a5	3.4155466e-06
95	0x00000000	0.0
96	0x37a8b3ec	2.0110943e-05
97	0x3480d444	2.3996301e-07
98	0x359476f4	1.1061479e-06
99	0x00000000	0.0
100	0x393f2c12	0.00018231597
101	0x39811cad	0.00024626162
102	0x36e17e52	6.720228e-06
103	0x366396f7	3.391351e-06
104	0x369cc300	4.6718633e-06
105	0x37ce4e93	2.4593703e-05
106	0x3509823e	5.1226004e-07
107	0x361bd34d	2.3219793e-06
108	0x386850ae	5.538825e-05
109	0x38097529	3.277246e-05
110	0x389a0762	7.3446674e-05
111	0x341cdc9b	1.4608888e-07
112	0x37efe1dc	2.8596194e-05
113	0x379c2e2d	1.8618151e-05
114	0x387c7b39	6.0196242e-05
115	0x00000000	0.0
116	0x30fdb10f	1.8458496e-09
117	0x382f0570	4.1728315e-05
118	0x2da552d9	1.879512e-11
119	0x36ed7e28	7.077837e-06
120	0x37837f13	1.567559e-05
121	0x369ac251	4.612179e-06
122	0x00000000	0.0
123	0x370f8f7a	8.55687e-06
124	0x3826b752	3.9748214e-05
125	0x36275a47	2.4937488e-06
126	0x3803cdde	3.1424563e-05
127	0x38acc9bb	8.239174e-05

exp_avg f4 [64, 128]
0	0xbc948248	-0.01812853
1	0x3cb371f1	0.021904917
2	0xbcc3c954	-0.023899712
3	0xbd58dd1e	-0.05294525
4	0x3d2cd490	0.042194903
5	0xbad498dc	-0.0016219872
6	0xb90f2bac	-0.00013653812
7	0x9775d4ba	-7.943227e-25
8	0x3ceab736	0.028651815
9	0x3c6b76d0	0.014371589
10	0x3b65b37e	0.0035049613
11	0xbac77f26	-0.0015220388
12	0x3d1f5f8f	0.03890949
13	0x8211473d	-1.0673362e-37
14	0x821e7c79	-1.1643729e-37
15	0x8215a40d	-1.0993871e-37
16	0x3c8851c3	0.01664055
17	0xbc4b67d8	-0.012414895
18	0x3dbd2a97	0.09236639
19	0x3cb0d955	0.021588007
20	0x3c77be28	0.01512102
21	0x021f4ec1	1.1704076e-37
22	0x3ab2fc28	0.0013655471
23	0x00000000	0.0
24	0x00000000	0.0
25	0x3c28bdf8	0.010299198
26	0x3cc35b72	0.023847315
27	0x00000000	0.0
28	0x3d4de52a	0.050267376
29	0xbbc1c548	-0.0059134103
30	0x3d92b302	0.07163049
31	0xbc2b00d7	-0.010437212
32	0x3c405d80	0.011741042
33	0x00000000	0.0
34	0xbd737908	-0.059441596
35	0x00000000	0.0
36	0x3b3dbbc8	0.0028951038
37	0xbb441d74	-0.0029924782
38	0x3b5c9cf0	0.0033662878
39	0x821c5560	-1.1485571e-37
40	0x3d088a47	0.033334997
41	0x3b1700d0	0.0023041256
42	0x39e8e080	0.00044417754
43	0x3c851990	0.01624754
44	0x00000000	0.0
45	0x00000000	0.0
46	0x3ba52384	0.005039634
47	0xbc27073a	-0.010194594
48	0x00000000	0.0
49	0x00000000	0.0
50	0x3c3747ec	0.011186581
51	0x336e31f0	5.545911e-08
52	0x3d0dcea0	0.03462088
53	0x3cbc2061	0.022964658
54	0x821b41b4	-1.1406457e-37
55	0xbbfb10a8	-0.0076618977
56	0x3d406588	0.046971828
57	0x00000000	0.0
58	0x00000000	0.0
59	0x3ab0a2e0	0.0013476275
60	0x3c8443d1	0.016145619
61	0xbc588664	-0.013215635
62	0xbc6e20b0	-0.0145341605
63	0x3ca6024e	0.02026477
64	0x3c052e76	0.008128753
65	0x821dde88	-1.1598402e-37
66	0x3aea0c70	0.001785649
67	0x00000000	0.0
68	0xbb096b3e	-0.0020968462
69	0xb9f20108	-0.00046158605
70	0x3d89ad42	0.067224994
71	0x00000000	0.0
72	0xaee0a488	-1.0215567e-10
73	0x3b179670	0.002313044
74	0xbc29a688	-0.010354646
75	0x3bc0acd8	0.0058799796
76	0x38baa144	8.899209e-05
77	0x021494bd	1.0916009e-37
78	0x3d0e76d9	0.03478131
79	0x00000000	0.0
80	0x3ac2c1a0	0.001485873
81	0x821746e7	-1.1114076e-37
82	0xb9aa8720	-0.00032525603
83	0xbca57c80	-0.020200968
84	0x3b981934	0.0046416763
85	0x3ca65c0a	0.02030756
86	0x3d1e7264	0.03868331
87	0xbc6403e4	-0.013916943
88	0xbc165e88	-0.009177811
89	0x3c81cedc	0.015845709
90	0x00000000	0.0
91	0x00000000	0.0
92	0xbc361707	-0.011113889
93	0xbb9c7a4d	-0.0047753216
94	0x387d9e00	6.046705e-05
95	0x00000000	0.0
96	0xb81b1400	-3.6973506e-05
97	0xbba76f7f	-0.005109727
98	0xbb405da8	-0.0029352698
99	0x00000000	0.0
100	0x3c11edf0	0.008906826
101	0x3b84d7b4	0.004054034
102	0x3da981f7	0.08276742
103	0x3d347146	0.04405334
104	0xbd84e4c0	-0.06488943
105	0x3d035c71	0.03207058
106	0xb9ca3b30	-0.0003857254
107	0x3cf3bdd9	0.029753612
108	0x3cc13306	0.0235839
109	0xbc4e0592	-0.01257457
110	0x3c29b14c	0.010357212
111	0x142851b1	8.497943e-27
112	0x3d7bb74c	0.061454102
113	0x3b589a80	0.0033051074
114	0x3c836771	0.016040536
115	0x00000000	0.0
116	0x8214b77e	-1.0925982e-37
117	0x3b11e1d3	0.0022259846
118	0x8214f87f	-1.0944638e-37
119	0x3cfb0aae	0.03064474
120	0xbca1c28f	-0.019746093
121	0x3cdd4693	0.027011191
122	0x00000000	0.0
123	0x3bc17d88	0.005904857
124	0xbb324008	-0.002719881
125	0x3a01ecba	0.00049562345
126	0x3c1de6c4	0.009637538
127	0x3c246964	0.010034893
128	0x174451a5	6.3434066e-25
129	0x36cb7c88	6.064369e-06
130	0x1437de9a	9.283039e-27
131	0x390b3c34	0.000132785
132	0x382d2e4e	4.128954e-05
133	0x02166a66	1.1050794e-37
134	0x8218ef5c	-1.1235889e-37
135	0x021934dd	1.1255836e-37
136	0x38f63dcb	0.00011741704
137	0x3818865e	3.6364763e-05
138	0x34d1d44c	3.908375e-07
139	0x1633c306	1.4521043e-25
140	0x39598893	0.0002074561
141	0x0212b82f	1.0779244e-37
142	0x021d89c0	1.1574071e-37
143	0x0216b271	1.107147e-37
144	0x34ab343a	3.1889232e-07
145	0x1adae004	9.0524604e-23
146	0x394216e0	0.00018509803
147	0x0b950bcb	5.7410456e-32
148	0x18068f92	1.7391579e-24
149	0x021e06d5	1.1609967e-37
150	0x35945f24	1.1054549e-06
151	0x00000000	0.0
152	0x00000000	0.0
153	0x3851afcf	4.9993218e-05
154	0x34aa2583	3.169226e-07
155	0x00000000	0.0
156	0x38d8dd56	0.0001034091
157	0x3827feed	4.005332e-05
158	0x17b27300	1.153201e-24
159	0x35bcdba8	1.407102e-06
160	0x392633f7	0.00015850352
161	0x00000000	0.0
162	0x36328782	2.6602943e-06
163	0x00000000	0.0
164	0x381258c8	3.4891797e-05
165	0x33c1b6d6	9.0205205e-08
166	0x3882db84	6.239771e-05
167	0x00000000	0.0
168	0x395d4cfd	0.00021104883
169	0x93ed33dd	-5.9878352e-27
170	0x38cb46de	9.692994e-05
171	0x3762499e	1.348779e-05
172	0x00000000	0.0
173	0x00000000	0.0
174	0x3793f111	1.763602e-05
175	0x3753b32c	1.2618297e-05
176	0x00000000	0.0
177	0x00000000	0.0
178	0x3890e378	6.9088244e-05
179	0x021b80cc	1.1424564e-37
180	0x34b4b458	3.365883e-07
181	0x38939052	7.036388e-05
182	0x02169b5c	1.1064845e-37
183	0x36143d66	2.2089457e-06
184	0x3798c51b	1.8211596e-05
185	0x00000000	0.0
186	0x00000000	0.0
187	0x39119e44	0.00013887236
188	0x350ddd7a	5.2848884e-07
189	0x391720dc	0.00014412723
190	0x397b47e8	0.00023964013
191	0x9275bf00	-7.7543794e-28
192	0x38962cad	7.160879e-05
193	0x02165119	1.1043533e-37
194	0x344f6df1	1.9318374e-07
195	0x00000000	0.0
196	0x35c6138e	1.4757841e-06
197	0x3673c460	3.6324127e-06
198	0x391f9a48	0.00015220896
199	0x00000000	0.0
200	0x1518a8c3	3.0829285e-26
201	0x354a009b	7.5251745e-07
202	0x389d0296	7.486825e-05
203	0x38d5931c	0.00010184033
204	0x199e37cc	1.6359353e-23
205	0x00000000	0.0
206	0x34e6891b	4.2940596e-07
207	0x00000000	0.0
208	0x347ec648	2.3727728e-07
209	0x0218f4dd	1.1237469e-37
210	0x0212bf32	1.0781256e-37
211	0x3929ec11	0.00016205038
212	0x38dd83ba	0.00010562637
213	0x353e9525	7.099755e-07
214	0x396c7de2	0.00022553609
215	0x1a264581	3.438414e-23
216	0x39761405	0.00023467846
217	0x359e24c7	1.1782621e-06
218	0x00000000	0.0
219	0x00000000	0.0
220	0x384552c2	4.7045534e-05
221	0x137d5bf5	3.1978428e-27
222	0x381995a6	3.6617414e-05
223	0x00000000	0.0
224	0x38f67cb2	0.000117534204
225	0x021f1958	1.1688748e-37
226	0x170717c1	4.3650834e-25
227	0x00000000	0.0
228	0x34de100c	4.1362398e-07
229	0x36bf118a	5.6942854e-06
230	0x39323f81	0.0001699906
231	0x3951e890	0.0002001843
232	0x35fe7596	1.8958697e-06
233	0x34d33e58	3.9347174e-07
234	0x1590d191	5.8491774e-26
235	0x38b63e75	8.69007e-05
236	0x37a94e7b	2.0182915e-05
237	0x374b866c	1.213104e-05
238	0x19dd5ec7	2.2889145e-23
239	0x021a6246	1.1342336e-37
240	0x3930224a	0.00016797442
241	0x38554526	5.0847557e-05
242	0x37da20db	2.6002925e-05
243	0x00000000	0.0
244	0x02171450	1.1099557e-37
245	0x3527bcad	6.248691e-07
246	0x00000000	0.0
247	0x390482f1	0.0001263728
248	0x38427c8b	4.6369194e-05
249	0x393ce972	0.00018016042
250	0x00000000	0.0
251	0x3954cb44	0.00020293618
252	0x18a978d0	4.3807466e-24
253	0x021240cf	1.0744985e-37
254	0x38eb4247	0.00011218018
255	0x386f49d0	5.7050784e-05
