lightning_model_releases/lightning_quantile_test/model_params/0.5_81054_1335_lightning_quantile.ckpt (torch, 311310 bytes, 15 tensors)

model.0.weight f4 [128, 131]
00000000: 07cb 343d 02d6 d53d 3206 9fbd 986a e5bd
00000010: dda5 17bd 223a 433e a875 f6bc c95f 6b3d
00000020: 0c93 ea3d 3fac 7f3c ee3d 323c 316b af3b
00000030: dbff a63c 7ad4 d7bd 10b0 853d 239d d13d
00000040: 6477 303d e6db 553d 53f9 68bd 286e 953d
00000050: ae73 24be 5ae0 62bd 2c35 0c3e baef abbc
00000060: ba89 083a 1499 23bd 520a 29bd bc94 eabd
00000070: 2c65 87bc 35f6 1ebe bdd8 83bd 8eff 17be
00000080: d7f1 f83d f6a4 36bd 8305 88bd 7ba1 c83c
00000090: 78a9 be3d bade a3bb 87ce 4bbd 2791 e33c
000000a0: 6edb 95ba de5c d5bd 00ad 843d b7f6 5e3d
000000b0: 18a6 913d e84d e7bd 1a43 2bbd 9219 1a3d
000000c0: a944 30bd b646 f7bd d496 e0bd 7f87 563e
000000d0: 43a6 b43d dd3d 303e cc71 2b3d 1006 f83b
000000e0: e365 8bbe 43a4 6bbe c42e 283e a25a 60bd
000000f0: dcf9 b83c a247 4abd f51c b63d 2610 52bc
00000100: f65d f33b ee45 d6bc d9ee 37bd e99c 13be
00000110: 8df0 d5bd 5557 0c3d 4a8c 13bb de8c 573d
00000120: 9ad3 903d b5c5 9bbd 47bf 2abe a22f af3c
00000130: 9126 35bd 5f6a f7bd a4ab bd3c ba57 053e
00000140: 02ce d1bd dad7 0abe 4b51 ccbc b32a 64bd
00000150: d1be f2bc 3960 15be b019 0b3e 7ffc cbbd
00000160: b095 54bd e82e af3b df56 bbbc 0393 923c
00000170: e1f7 9fbc 8a26 453d 0d4d 7ebd 055d 073d
00000180: 2829 03bd fe43 8f3d ca95 5abd 3825 1bbe
00000190: 37d8 5abe f321 d73c 72af 08bd 6fe3 1bbc
000001a0: 47d2 01be 44ab 5d3b b9ce 97bd 0d2c ddbd
000001b0: ab5e 4fbe d366 363d 3e06 e53d 06cc d93b
000001c0: fed3 13bd 6fdb 25be 998c 7fbd d7fa 643c
000001d0: 70d7 5f3c 4b66 fc3d bda8 a1be 8ba0 8dbc
000001e0: a046 9ebd eb7e f1bd 72ad 31bd b3e3 00be
000001f0: 47e4 f0bd c1ef a9bd ee56 43bd 7df6 e1bd
00000200: 43b9 b13b db68 a8bd f627 1d3d e002 df3c
00000210: d2fd 13be 4be9 b63e 355b e43e 3a2e 09bd
00000220: 4087 94bd f3df 50bd c4c7 cc3c 96b3 133e
00000230: f680 783c 57d8 92bd 02ac 7a3e 24c3 15be
00000240: 882d 77bc 8410 24be 5ad4 c23d ab74 903d
00000250: f5fa 6a3e 7e6f 163e 5f05 32bd d99c 48be
00000260: 38de 1cbc 46ee 85bd b4bc 783e cf68 3fbe
00000270: 27d7 78be db3c 8c3e 1a19 6c3c 6f06 f1bd
00000280: c969 333e a848 9d3c a87c 633e ddaf 9dbd
00000290: d0ec a93d 3fb1 943e f6ed 65be 46fe de3d
000002a0: 6de7 0ebd 7791 203c ab21 35bd f744 b3bd
000002b0: 1298 b33c 3e30 3cbe f33b 25bd 8c06 c6bc
000002c0: c639 673d f7ac 4e3e 40e4 7cbd 5f1b e9bd
000002d0: 1d4e d53d f1b5 863d 8eaf 0ebf 314b 02be
000002e0: 5210 28bd 97c0 9fbe fdfd 473e 3c88 e43e
000002f0: a514 d23e 0824 193c 2200 dabd 2730 33be
00000300: 9dce 3a3e fc24 e43d ecb8 aa3d 25b6 313e
00000310: b74c 953e 2c68 bfbe 90c1 983e de68 95bc
00000320: c084 a2bd 10d5 edbc 9986 b23d 84eb 433e
00000330: f21d 78be 07ee 1c3e b02a dcbe df40 253e
00000340: b62c 683c 15d8 acbc d0d5 3dbe 2e3a 253d
00000350: a8a1 dcbd 2915 373e 283f 5b3e 8ce8 563e
00000360: ad2f 2ebe dd3b b4bd df25 03be 43f5 c8bc
00000370: 27ae 993d a267 d43d 48b9 22bd d208 39bd
00000380: 4001 b2bd 16a9 e8bc a8d6 643d 0522 68bc
00000390: 6c07 80bc 4f7a f7bc 9c74 03be 7046 033d
000003a0: adf1 f53c 4a56 9f3e e3a2 0a3d cba3 82bc
000003b0: 0251 3bbe b214 88bd 1b99 82bb 0909 32bd
000003c0: c076 8fbd 37fc a03d 691e 263d a1f4 4dbd
000003d0: a46c 82bc 7ce1 7bbd 5bd6 69bd 0c6b ed3c
000003e0: 2987 0fbf b909 243f e083 7cbc 633b 0b3d
000003f0: 556f 0a3d ec2b 56be 3fb3 193d a7cc 90bd
0.044138934 0.104412094 -0.077648535 -0.11201972 -0.037023414 0.19065145 -0.0300854 0.057464395
0.11453828 0.0156050315 0.010879023 0.0053533544 0.020385673 -0.105385736 0.06527722 0.102350496
0.04308261 0.052211665 -0.0568784 0.07296401 -0.16059753 -0.05538974 0.13692158 -0.020988334
0.0005208511 -0.03994091 -0.041269608 -0.1145415 -0.016527735 -0.15523608 -0.06437824 -0.1484358
0.12155502 -0.044590913 -0.06641676 0.024491062 0.09309667 -0.0050009163 -0.049757507 0.027779175
-0.0011433193 -0.10418104 0.0647831 0.054434504 0.07111758 -0.11294156 -0.04181204 0.037622042
-0.04303423 -0.12074034 -0.10966268 0.20950125 0.088207744 0.17211099 0.041856572 0.007569082
-0.2722617 -0.2301188 0.1642409 -0.054773934 0.02258008 -0.04938472 0.08892242 -0.012821233
0.0074269725 -0.026156392 -0.044905517 -0.14415325 -0.10446272 0.034262974 -0.0022514039 0.052624576
0.0707161 -0.07606069 -0.16674529 0.021385018 -0.044226233 -0.120808356 0.023153134 0.13021746
-0.10244371 -0.13558903 -0.024941107 -0.055704784 -0.029632004 -0.14587487 0.13584018 -0.09960269
-0.051900566 0.005346168 -0.022868572 0.017892366 -0.019527378 0.048132457 -0.0620852 0.033047695
-0.03202167 0.0699539 -0.053365506 -0.15150917 -0.21371542 0.026261305 -0.033370443 -0.009514674
-0.1267787 0.0033824006 -0.07412476 -0.10799418 -0.20250957 0.044531655 0.11182831 0.006646636
-0.036090843 -0.16196989 -0.062389944 0.0139758205 0.013662204 0.12324198 -0.3157405 -0.017288467
-0.077283144 -0.11791786 -0.0433783 -0.1258686 -0.117622904 -0.082976826 -0.047690324 -0.11033342
0.0054236962 -0.082231246 0.038368188 0.02722305 -0.14452294 0.35724863 0.44600835 -0.03349135
-0.072523594 -0.050994825 0.0249976 0.14423975 0.015167465 -0.0717017 0.24479678 -0.14625221
-0.015086539 -0.16021925 0.09513159 0.07053503 0.22947295 0.14690968 -0.043462154 -0.19591083
-0.009574465 -0.06539588 0.24290735 -0.18692325 -0.24300824 0.2739018 0.014410282 -0.11768805
0.17520823 0.019199684 0.22215521 -0.07699559 0.082971215 0.29041478 -0.22454056 0.108883426
-0.034888674 0.0098003065 -0.04422156 -0.087533884 0.021923099 -0.18377778 -0.040340375 -0.024173044
0.05645158 0.20183168 -0.061741114 -0.11382174 0.104152896 0.06577671 -0.55736625 -0.12723996
-0.04103119 -0.31201622 0.19530483 0.4463519 0.41031376 0.009346969 -0.106445566 -0.17498837
0.18242879 0.11139867 0.08336052 0.17354639 0.2916009 -0.37384164 0.29835176 -0.018238481
-0.07935476 -0.02903226 0.08717079 0.19132811 -0.24230173 0.15325175 -0.43001318 0.16138028
0.014170816 -0.02109913 -0.18538594 0.040338688 -0.10773021 0.17879166 0.21410811 0.20987147
-0.17010374 -0.088004805 -0.12807415 -0.024531012 0.0750392 0.10371329 -0.03972748 -0.045174427
-0.08691645 -0.028400939 0.055868775 -0.014168267 -0.015628539 -0.030209688 -0.12837452 0.032049596
0.030022467 0.3112052 0.033846747 -0.015947243 -0.18292621 -0.06644572 -0.0039855368 -0.043465648
-0.07005072 0.07860606 0.040556345 -0.050282124 -0.015920945 -0.061494336 -0.05708919 0.028981708
-0.56065613 0.64077336 -0.015412301 0.033992182 0.03379758 -0.20915192 0.037524458 -0.07070284

model.0.bias f4 [128]
00000000: 0431 11be 7c6e 0f3e f929 fd3d e9b8 ef3d
00000010: 202a 093e 877d 443e 4488 a8bd 2722 2fbc
00000020: bd45 b93c 87d5 963d 8831 713c 15f9 3c3c
00000030: 88ea cabb 1062 45bd 2b9a 833d c043 8bbd
00000040: 5a90 d63d f75d c8bc b44f 8c3c 08ae 2f3e
00000050: 5e27 d73d 7602 d73a 7a98 d3bd 1377 883d
00000060: cd6c a83d 3181 c83d d33f 0e3d 0042 453b
00000070: 7d6d 133e 724e f83d 22b3 1b3e 1c97 cd3d
00000080: 9c9e d53d 4ee6 78bd c2e8 293d f499 8a3c
00000090: 6622 863d 382a f43d b12b 013e 211e 58bd
000000a0: dcc0 e83c c518 1fbd 22f2 bc3d 3308 113e
000000b0: 13d7 a13d 601d 963b fcb8 123e 4c8c a0bb
000000c0: 80e3 f8ba 6408 87bc 0d10 223d 095c a13d
000000d0: 5ab0 063e 606a 813c 2e52 bfbd 92ac a1bd
000000e0: a6d2 d83d b2c8 293d 9a41 393d 5415 e13d
000000f0: ee36 1d3d 5d3d 743d c056 f63c 4fc8 5a3d
00000100: 381d d43d f0c3 923c f992 863c c08e a6ba
00000110: 5664 eabb 27f3 0d3e efab 0b3d f200 723d
00000120: 32dc b1bd 3af3 86bd 66ed d03b 6556 4f3d
00000130: 6215 56bd c02f 72bc 2408 2f3e cfd5 18bd
00000140: 53d4 8d3d 0ba5 29bb d4c8 7dbd 2e25 be3d
00000150: a084 233e 0748 003e c54a 783c e14e a4bd
00000160: ceb2 85bc 5d4a 733c 4c36 c4bc 1a62 463d
00000170: 72eb 223e 980f 82bd 521d 8bbd 32da 743d
00000180: e44d 393d 81d5 a4bd fd6b 02bc 4ebb 1abd
00000190: c07c c03c 6dc3 87bc 5239 0fbc 5c68 8ebc
000001a0: 1f0f 3d3d fef4 b53d d321 fdbb 84f5 6cbd
000001b0: a027 ab3b cc76 ac3d b231 433e eded 13bd
000001c0: 5f89 f4bb 683d 8b3d 3c72 253e 704e 643c
000001d0: 2df4 ccbc 318c ef3d 67f7 833a 7ad4 9e3d
000001e0: e6d5 1e3e 62c2 873d 7827 7cbc 07be bc3d
000001f0: 8298 b13b dfea 93bd 75cd 193e 22a6 5b3d
-0.14178854 0.1400699 0.12361521 0.11705191 0.13394976 0.1918851 -0.082291156 -0.010689295
0.022616262 0.07364946 0.014721282 0.011533995 -0.006192509 -0.048189223 0.064258896 -0.06800032
0.104767516 -0.024458868 0.01712785 0.17156231 0.105055556 0.0016403932 -0.10331817 0.066633366
0.08223877 0.09790266 0.034728836 0.0030099154 0.14397235 0.12124337 0.15205052 0.100385875
0.10430643 -0.06076651 0.04148174 0.016919114 0.0654953 0.11922115 0.12614323 -0.05276311
0.028412275 -0.03884198 0.09225871 0.14163284 0.0790235 0.0045811385 0.14328378 -0.004899537
-0.0018988699 -0.016483493 0.03956609 0.078788824 0.1315321 0.015797794 -0.093418464 -0.07894243
0.10587053 0.041451164 0.04522858 0.10990396 0.038382463 0.059628833 0.030070662 0.053413685
0.103571355 0.017915696 0.016427504 -0.0012707338 -0.0071530743 0.13862287 0.034099516 0.059082933
-0.08684577 -0.065893605 0.0063759563 0.0506195 -0.052266486 -0.014781892 0.17092949 -0.03731328
0.06925263 -0.0025885727 -0.061959103 0.09284435 0.15968561 0.12527476 0.015154545 -0.080228575
-0.016320612 0.014849273 -0.023951672 0.0484334 0.15910128 -0.063506305 -0.06792702 0.0597784
0.045240298 -0.08048535 -0.007960317 -0.037776284 0.023496985 -0.016572678 -0.008741694 -0.017383747
0.046157 0.08884619 -0.0077249794 -0.05785133 0.0052232295 0.08421096 0.19061926 -0.036115576
-0.007462665 0.06798822 0.16156858 0.013934717 -0.025018776 0.11696661 0.0010068238 0.077553704
0.15511283 0.066288725 -0.015390269 0.09215932 0.0054197917 -0.072225325 0.15019782 0.053625233

model.3.weight f4 [64, 128]
00000000: bb00 94bd bf9b 313e 4ee6 a8bd ab22 20bd
00000010: d21c b43c 9668 ebbb 44cf eabc 0c49 8d3d
00000020: 79a8 603d b737 9abd 8217 47bd 3945 a6bd
00000030: 32ca 733d 8a7e 9abb f079 f9bc 86f1 2ebd
00000040: a8f3 173d 47dc 733c 414d 373d 562b c43d
00000050: 27fa 8e3d 44e4 82bd b667 8ebd d92f 66bd
00000060: f5a0 02bd c7f3 8e3c 6efb 903d bb85 22bd
00000070: 7e9b 4abd d482 2a3b 0e3a 003d a145 043c
00000080: 82e1 913d 4bf0 a2bd 89be 853c d318 893d
00000090: 68a8 b53d 8aeb 1ebd c420 7ebd 405c ab3a
000000a0: 9eb9 4dbc 0b4d 013d d226 a73d 5b9d 6e3c
000000b0: e6c0 d4bc 5262 453d ce80 17bd 4ccb c6bb
000000c0: 5831 323c 98b4 73bc 69b3 513d 0cf5 d9bb
000000d0: a1e9 153d f772 143d da3e 0c3b 0bb9 1abd
000000e0: d10a af3d 22c2 493d 4016 5dbc d953 6dbd
000000f0: 136a 2d3a 7759 623d c723 493d 1c15 64bb
00000100: 74c8 903d c016 a83d 3e89 113d c647 2abd
00000110: e829 10bc c67d 2fbc 5dad 233c 7b2a acbd
00000120: fda2 11b9 286b 95bd b3d7 8fbd 79c3 b6bd
00000130: fafd 05bd a84b 873c f4cc 093d 7074 aa3c
00000140: 3b74 1d3d 8a31 57bd 070c 05bc 0daa a2bd
00000150: 86de 76bc 7b2f c03c 9159 973c 20b9 8fbd
00000160: f0b7 7e3d 1ce2 8d3d 0d2c 22bd 6c2f 9abd
00000170: c3f2 103c 9dde d73c f336 e5bc 5d51 26bd
00000180: 13a4 a43c 42c7 eebd 1d00 28bd b0a2 e73c
00000190: 0747 693d ffa5 603d 69bd 943d 24b1 f6b9
000001a0: 4dd0 703c ef7d 8f3d 6140 59bd bc09 7f3d
000001b0: 0b94 ac3d 84e0 05bd 2f09 e13d d65e d6bc
000001c0: 1a6a 5bbd c924 8e3d 718f 923d e0ae d0bb
000001d0: badf 63bd f540 183e 4efa e23c b5a4 95bd
000001e0: 5567 2e3c a8fb 5d3d 7edf 183d c779 abbc
000001f0: 4e59 c6ba b04f a5bc 93cf 8e3d ebe4 7d3d
00000200: c4cf d2bc dd76 2cbd 3ef5 a6bd ce20 1dbd
00000210: d8aa b43c 834e 05be cc87 72bb 407d 903d
00000220: 719c ac3c f6da 493c 871c 29bd da5f b4bc
00000230: abc5 bdbd 6a29 44bd 405b 233c 9311 743c
00000240: 2936 103c 8d0e 8bbd b66c d53b 4d24 e3bd
00000250: 52e9 a8bd cda1 66bd f7f9 97bd 684e 893c
00000260: d80b 643c 4318 213d e914 4bbc 2428 8d3c
00000270: 0d2e 503c 6b28 13bc 0a84 d1bd 15ce 64bd
00000280: 6c86 b3bd 7bea 51bd 14fe e439 55b3 aa3d
00000290: 9313 b23b 77a8 8ebd 22d2 15bb a629 793d
000002a0: 2951 a2b8 2acc b3bd 7254 abbb 84e7 d8bb
000002b0: e016 6d3c a357 a53d 7013 653d fdcf aebd
000002c0: a3a0 893d dc01 a2bd c9ec 8abd a3d4 b23c
000002d0: 667c aabc 6532 643d c8a1 293d baf0 03bd
000002e0: a201 593d 40e9 81bd 14f1 863c ee56 3b3c
000002f0: 876c e63b 608f 8c3d b71e d33c c80f 98bd
00000300: f800 573d 027f 593d 1b99 41bd b1f3 813d
00000310: b753 373a 04ea aabc c627 263c 0086 8139
00000320: de5f 24bd e08c c8ba edc3 7cbc e788 9dbd
00000330: 8326 9dbd 60ed ed3c 35d1 a9bd e0ab 0d3b
00000340: c6ed d63c 6730 753d 5920 ab3c bfd7 e93c
00000350: 18ba 313d dda6 99bd 6104 853d 804e a3bd
00000360: 53b6 95bd 373b 4ebd f1eb b03d 2aa9 4a3d
00000370: b80f d43b 7ae8 183d 112e c9bd 41a7 acbd
00000380: 9787 193c 4e92 3ebd 3678 e63c 4279 80bd
00000390: 19e4 633d 2d4e bebd ed87 d23c 1e31 eb3c
000003a0: ba44 83bd 60f1 e43c aa48 ff3c 6d22 68bd
000003b0: a206 8fbd bd22 0ebc 8063 73bd 6ab2 cdbb
000003c0: d0b7 b33c 5296 c03c 52df 8fbd 3344 883d
000003d0: 8863 aa3c 8aee b73c c139 28bd ecce b33c
000003e0: 4e16 e7bc 72bd 353d 3ea3 393d d7f5 453d
000003f0: 0ceb ccbc 4055 453d 5e80 3a3d d70c bcbc
-0.07226702 0.17344569 -0.08247052 -0.039095562 0.021986399 -0.0071840985 -0.028663285 0.06898698
0.054848168 -0.07530158 -0.048606403 -0.08118672 0.059519 -0.0047147917 -0.030453652 -0.042710803
0.037097603 0.014884061 0.04475141 0.09578578 0.069813065 -0.063911945 -0.06953375 -0.056197975
-0.03189178 0.017450226 0.070792064 -0.039678317 -0.049464695 0.002601792 0.031305365 0.008073241
0.0712309 -0.079559885 0.016326206 0.06694188 0.088700116 -0.038798846 -0.062042966 0.0013073757
-0.012556462 0.031567615 0.08161701 0.014563884 -0.025970887 0.04818947 -0.036988072 -0.0060667153
0.010876022 -0.0148746 0.05119649 -0.0066515263 0.03659976 0.03624245 0.0021399767 -0.037774127
0.08546985 0.049257405 -0.013494074 -0.05794129 0.00066152326 0.0552611 0.049106386 -0.0034802621
0.070694834 0.08207464 0.035531275 -0.041572355 -0.008799054 -0.010711139 0.0099900635 -0.0840654
-0.00013888995 -0.07295829 -0.07023563 -0.08924002 -0.032712914 0.016515568 0.033642724 0.020807475
0.038440924 -0.05253748 -0.008120543 -0.07942591 -0.015067702 0.02346014 0.018475326 -0.07017732
0.062187135 0.069278926 -0.03959279 -0.07528576 0.008846941 0.026351267 -0.027980303 -0.040604938
0.020097768 -0.11659099 -0.041015733 0.028275818 0.056952503 0.054845806 0.072626896 -0.00047052756
0.0146981 0.07006442 -0.053039912 0.062265143 0.084266745 -0.032684818 0.1098808 -0.026168268
-0.053567983 0.0694061 0.071562655 -0.006368503 -0.055633284 0.14868529 0.027707245 -0.07306806
0.010644753 0.054195076 0.037322514 -0.020932091 -0.0015132816 -0.0201796 0.069731854 0.06198589
-0.025733836 -0.042105544 -0.08152245 -0.038361363 0.02205412 -0.13018231 -0.003700721 0.070551395
0.02107069 0.012320271 -0.04128697 -0.022018362 -0.09266218 -0.047891058 0.009970486 0.014896768
0.008801975 -0.06789885 0.0065132035 -0.11090908 -0.08247627 -0.05630665 -0.07420724 0.01676102
0.013918839 0.03932978 -0.012395122 0.017231055 0.012706292 -0.008981804 -0.102302626 -0.055860598
-0.08765873 -0.05124901 0.00043676852 0.08334986 0.0054344623 -0.06965726 -0.0022860845 0.060830735
-7.739879e-05 -0.087791756 -0.0052285725 -0.0066193957 0.014470786 0.08073356 0.05592674 -0.08535764
0.06720092 -0.07910511 -0.067834444 0.021829909 -0.02081127 0.055712122 0.041414052 -0.032211997
0.052980073 -0.06343317 0.016472377 0.0114343 0.0070319804 0.06863284 0.025771482 -0.07424885
0.05249116 0.05309964 -0.047265153 0.063453086 0.00069933705 -0.02086354 0.010141319 0.00024704635
-0.04013049 -0.0015300773 -0.015427572 -0.07692128 -0.07673361 0.029043853 -0.08291856 0.0021617338
0.026236426 0.059860613 0.020889448 0.028545259 0.043390363 -0.0750253 0.06494976 -0.07973957
-0.07310166 -0.05034944 0.08638752 0.049477734 0.0064716004 0.037331082 -0.098232396 -0.08430339
0.009370706 -0.046526246 0.028133493 -0.06273128 0.055637453 -0.092922546 0.02569958 0.028709944
-0.06409593 0.027947128 0.031162579 -0.056673456 -0.06983687 -0.008675274 -0.059421062 -0.006277372
0.021938235 0.023509178 -0.07025017 0.06653633 0.020799413 0.022452611 -0.041070703 0.021949254
-0.028208878 0.044370122 0.045321696 0.048330154 -0.025014423 0.048177004 0.045532577 -0.022955341

model.3.bias f4 [64]
00000000: 55d6 273e 6689 78bd 56f9 5d3e 4406 5f3b
00000010: d1b6 b7bd c680 673e edbf 383d 3167 41bd
00000020: 6917 e7ba 0495 6d3d 6844 edbc b09d 813e
00000030: 842d 503e 9980 913e dfb2 493e d11f 87bc
00000040: e5d4 bebd 4436 17bd 828d 683e 2b09 613d
00000050: 6bf8 8a3d 6ad4 f5bc a36c 833e 53c0 273e
00000060: 6045 6a3e 4df0 673e 476a 303e e082 863e
00000070: 9887 363e 9d13 87bd 7237 053e 99df 85bc
00000080: 37f6 52bd ea0d 6d3e eb55 233e 511a 7cbd
00000090: 75ab 05b9 049a d83d bbfb 863d a259 743e
000000a0: da7a cd3c 76af 823c 40f6 a1bc c4d7 363e
000000b0: 0910 c4bb 48ea d6bd 86c8 bc3d af98 83bc
000000c0: ef5c 383d 77a1 433e a809 ff3d 47c4 233d
000000d0: 2aa0 673e 2b73 083e f5ed c63c ccb6 d43b
000000e0: 65c8 afbd 763c 2a3e 9d77 283e c7d2 6c3e
000000f0: a6e7 423e 8d46 0bbd 1c8f 65bd e52d 483e
0.16390355 -0.06067791 0.21677145 0.0034030834 -0.08970416 0.22607717 0.04510491 -0.04721755
-0.0017630878 0.05800344 -0.028963283 0.2531562 0.20329863 0.28418425 0.1969714 -0.016494663
-0.0931795 -0.036916986 0.22710231 0.054940384 0.06785663 -0.030008513 0.2566882 0.1638196
0.22878027 0.22650261 0.17228042 0.26271725 0.17825162 -0.06595538 0.13009432 -0.016341971
-0.05150434 0.23149839 0.15950744 -0.061548535 -0.00012747741 0.10576251 0.065909825 0.23862317
0.025082994 0.015952807 -0.019770741 0.17855746 -0.005983357 -0.10493904 0.09217934 -0.016064016
0.045010503 0.19104563 0.12453014 0.039982107 0.22619691 0.13325183 0.024283389 0.0064915176
-0.08583144 0.16624627 0.16451879 0.2312728 0.1903368 -0.03400283 -0.056044683 0.19548757

model.6.weight f4 [1, 64]
00000000: ad77 af3d 96ba 35bd 369a 4c3d dc6a 29bc
00000010: 8585 40bd 2499 2c3d 478d a03d 99ac cdbd
00000020: 04b0 19bd 71a5 933d 8065 3cbd 8f0d 713d
00000030: 793d 9f3d cc9f 263d 86d3 3f3d 44b9 8ebd
00000040: 3e09 8aba 6d45 6ebc c91b 3c3d 7806 b93b
00000050: ebbe 8fbc 190d 78bd f815 a23d 2a03 413d
00000060: 070d 593d d919 953d 6b0c 1a3d dc7c a73d
00000070: 4ff0 4c3d 29be c8bc 09dc 093d 0e3d c3bd
00000080: 33bc 48bd 2cae ba3d 37dd c83d b774 99bd
00000090: 42e6 1ebd e927 873d 3215 d3bd d0b6 293d
000000a0: edcb ccbd cc99 29bd 149a 65bd b021 183d
000000b0: a634 a6bc 45a2 64bd b92f 7a3d 6731 1dbd
000000c0: a4a4 dabd 7699 913d 22f6 893d 04d9 35bc
000000d0: 2146 153d f7f3 1c3d e392 8b3b 2338 0ebc
000000e0: 9f6f babd 53d6 593d 2eed 313d 3349 843d
000000f0: 02fe 373d fa0e 12bd d34c 40bd 010c 2a3d
0.08567748 -0.044367395 0.049951755 -0.010340419 -0.047002334 0.042138234 0.078394465 -0.10042686
-0.037521377 0.0720929 -0.045995235 0.05885082 0.07775397 0.040679738 0.046832584 -0.0696893
-0.0010531319 -0.01454292 0.045924935 0.005646523 -0.017547091 -0.060559366 0.079143465 0.047122158
0.05299094 0.07280321 0.0376095 0.08178112 0.050033864 -0.024504738 0.033657108 -0.0953313
-0.049007606 0.09115252 0.098078184 -0.07492965 -0.03879381 0.06599409 -0.10306777 0.04143411
-0.09999833 -0.041406438 -0.056055143 0.037141502 -0.020288777 -0.055818815 0.061080668 -0.038377192
-0.10675934 0.071093485 0.06736399 -0.011099104 0.036443833 0.0383186 0.0042594536 -0.008680376
-0.09103321 0.05318291 0.043439083 0.06459274 0.044919975 -0.035658814 -0.046948265 0.041515354

exp_avg f4 [128, 131]
00000000: 7513 b636 8599 27b7 0fc3 7137 d46a 81b8
00000010: 0280 cc2f 7b44 1db3 cced 8e32 3a1a 0f30
00000020: 2256 09b5 53ad 14b0 dead 0b36 6ecf b7b4
00000030: 55c4 ea35 b845 ab30 462e 6db6 d3cb 66b6
00000040: dfcd 31b7 2e3b b9b5 07fe a034 6ecf b7b4
00000050: 5d7f 3336 caa5 9fb5 9a79 67b3 f3c2 5c34
00000060: 2c0d 1836 f80b c235 42f4 3d36 c0af b832
00000070: 4932 39b4 80ca 7cb5 9310 2436 582e f236
00000080: be79 d1b5 1855 7536 a637 4837 b310 19b7
00000090: 8e8f ca34 a1a5 ba35 50e5 a7b6 dea9 24b7
000000a0: ddc0 f7b7 32b0 b3b8 ec93 a137 f4b0 e0b7
000000b0: ae0d 3438 328d 45b7 ad76 c337 c2c9 b237
000000c0: 17f7 c138 3264 0b37 1199 28b8 6f78 6cb8
000000d0: aeb7 f536 af04 1cb8 20bb 8238 ee3f eb37
000000e0: 006f 99b4 bcd6 f1b2 88e3 acb6 3cb4 e336
000000f0: cd87 1637 087b 4237 077f 7bb6 f420 9b37
00000100: a8e9 06b7 1eb0 2537 2c71 beb7 92fd 9437
00000110: ab1a 9f35 85dd 14b7 b7e0 e7b6 e743 a237
00000120: fbb2 ac36 cf74 32b7 c6a2 eb37 fd77 97b6
00000130: 82f8 6c36 de36 7d38 9119 61b2 ed30 1437
00000140: c750 3cb7 2565 5937 12a1 5337 32ec 3932
00000150: 3943 7fb1 6403 a831 9616 ca36 24a0 9c36
00000160: 6e5c 63b7 0814 63b6 8136 8fb7 ba92 4b35
00000170: af74 b1b7 0004 fdb5 8c8b 9835 6958 1fb8
00000180: e6b8 b237 fe07 a5b6 f6d6 c8b8 138d 8a37
00000190: 6635 5eb6 6248 8db6 c9d5 7b36 9b4f 5fb6
000001a0: 488a 9d36 8e04 0738 0000 0000 64de 74b7
000001b0: b6fb c436 8fdb 5cb7 c7fb 28b6 415e 1802
000001c0: ebba b890 3fb5 4a37 612c ccb7 aecf 8637
000001d0: 0000 0000 cc9f c8b7 bc9d e837 e655 d436
000001e0: ebbc 0938 2a2e 7e38 6e3b c9b8 a2a4 193b
000001f0: 93cd 003a a600 5f3b 5e88 aa3b e31a b53b
00000200: b4a8 903b 76a0 153b e45e d0bb 0000 0000
00000210: 134c f7b8 8c8c 71b9 8aff 183a 0000 0000
00000220: 0000 0000 09c1 65b6 0000 0000 0276 c8b8
00000230: b7f5 1602 0000 0000 ad9a 20b8 98cb 1336
00000240: 0000 0000 8f30 8437 ecbe 6e38 0000 0000
00000250: 01b0 60b6 fd2e e9b5 a655 5cb8 9fd7 ea37
00000260: 0000 0000 0000 0000 0276 c8b8 d93a b337
00000270: 2c20 6138 0aa8 83b2 cae5 3e34 42a0 d7b8
00000280: dfa8 a5b7 0000 0000 1205 5bb9 0000 0000
00000290: ea19 c13a 2150 ecb9 e651 5c38 5d1e b9b5
000002a0: 45be 39b8 a49f 053b 0000 0000 2692 6137
000002b0: e4ac 05b5 ef2f d536 ceee 573a 592c ed39
000002c0: 305b 8838 b8c6 9cb9 6121 fc38 87bf 2839
000002d0: 76d0 d7b6 7b46 2e38 4103 c53a 4cbe 5b39
000002e0: 3abe 9739 2a30 7539 e442 b0b8 b481 3cba
000002f0: 8421 67b8 0000 0000 66bf 8438 9e39 c339
00000300: 5581 7438 9b42 8e37 8f3c ac38 8464 edb8
00000310: 0dc8 c5b8 f075 6039 b5e7 99b8 2893 3cb9
00000320: 0000 0000 91bd 78b8 4d83 0bb8 4822 1739
00000330: 1446 b638 46ed 00b9 4284 1a38 a045 e2b8
00000340: 694a ce37 2c42 4c39 a400 5f38 0000 0000
00000350: d260 7eb6 1a01 7a37 c2f2 e5b8 7367 9cb8
00000360: 3404 2039 dce9 3238 dbb5 3437 79cc 4f36
00000370: 346f 96b6 8ef5 d235 0000 0000 ca1c 1fb5
00000380: 0000 0000 d227 4037 203d 5a35 4a05 ac36
00000390: cc8e 44b5 9f60 a9b6 edf1 2634 b453 2a36
000003a0: eb09 1302 f826 07b9 83d8 1d02 36d5 a033
000003b0: 7805 7b36 0000 0000 b144 8c3a b318 3bb9
000003c0: 01f3 3e38 4aa4 3bb8 8b92 b43a 0000 0000
000003d0: 0000 0000 0000 0000 0000 0000 0000 0000
000003e0: 4f88 123b 29fc 60ba 7c42 a73a 4a9e eeb8
000003f0: a492 4d39 a7e7 a137 d2b3 1c3e ea84 393e
5.4262878e-06 -9.98972e-06 1.4410135e-05 -6.1710976e-05 3.719834e-10 -3.6616694e-08 1.6639113e-08 5.2060367e-10
-5.1161817e-07 -5.4088395e-10 2.0813818e-06 -3.423733e-07 1.7491499e-06 1.2461703e-09 -3.5342687e-06 -3.4391312e-06
-1.0597955e-05 -1.3800798e-06 2.9987152e-07 -3.423733e-07 2.6747214e-06 -1.1894674e-06 -5.3894475e-08 2.0560019e-07
2.2657432e-06 1.445761e-06 2.8305371e-06 2.1500341e-08 -1.7247761e-07 -9.417199e-07 2.4447552e-06 7.217557e-06
-1.5607145e-06 3.6557376e-06 1.1933886e-05 -9.123399e-06 3.7729882e-07 1.3906284e-06 -5.0036833e-06 -9.814712e-06
-2.9534503e-05 -8.568204e-05 1.9261577e-05 -2.6785281e-05 4.2928084e-05 -1.177499e-05 2.3301074e-05 2.1313204e-05
9.248981e-05 8.308374e-06 -4.0196875e-05 -5.6378947e-05 7.322952e-06 -3.719766e-05 6.233738e-05 2.8043953e-05
-2.8579234e-07 -2.8153742e-08 -5.1524876e-06 6.786109e-06 8.972315e-06 1.15919465e-05 -3.7475854e-06 1.8492785e-05
-8.041425e-06 9.875772e-06 -2.2702465e-05 1.7761053e-05 1.1854185e-06 -8.873064e-06 -6.9104967e-06 1.9343524e-05
5.1468355e-06 -1.0636823e-05 2.808998e-05 -4.514119e-06 3.531139e-06 6.0371e-05 -1.3102537e-08 8.832879e-06
-1.1224481e-05 1.29577575e-05 1.2614082e-05 1.0822122e-08 -3.7145595e-09 4.889829e-09 6.0226985e-06 4.667805e-06
-1.3551775e-05 -3.3837296e-06 -1.7072309e-05 7.583691e-07 -2.115438e-05 -1.8851133e-06 1.1365496e-06 -3.7990892e-05
2.1305354e-05 -4.9183136e-06 -9.576783e-05 1.6516575e-05 -3.311166e-06 -4.210554e-06 3.7526354e-06 -3.3275926e-06
4.6950627e-06 3.219075e-05 0.0 -1.4595313e-05 5.870558e-06 -1.3164142e-05 -2.5180505e-06 1.1194246e-37
-7.2863196e-29 1.2082338e-05 -2.433936e-05 1.6070753e-05 0.0 -2.391627e-05 2.7730006e-05 6.3280922e-06
3.283929e-05 6.0601313e-05 -9.5954965e-05 0.0023444076 0.00049134454 0.0034027486 0.0052042445 0.005526887
0.004414642 0.0022831238 -0.006358968 0.0 -0.00011792048 -0.00023035909 0.0005836418 0.0
0.0 -3.423602e-06 0.0 -9.558724e-05 1.1090776e-37 0.0 -3.8291026e-05 2.2023214e-06
0.0 1.5758238e-05 5.692143e-05 0.0 -3.3481049e-06 -1.7373528e-06 -5.2531854e-05 2.799538e-05
0.0 0.0 -9.558724e-05 2.1365866e-05 5.3674143e-05 -1.5326822e-08 1.7778726e-07 -0.00010281849
-1.974817e-05 0.0 -0.00020887356 0.0 0.0014732454 -0.00045073128 5.252836e-05 -1.3792411e-06
-4.428464e-05 0.0020389343 0.0 1.3445073e-05 -4.979795e-07 6.353475e-06 0.0008237184 0.00045237204
6.50197e-05 -0.00029902696 0.00012022514 0.00016093078 -6.4317674e-06 4.1550473e-05 0.0015030877 0.00020956359
0.00028942694 0.00023382963 -8.404793e-05 -0.0007190958 -5.5105906e-05 0.0 6.329901e-05 0.00037236226
5.8294583e-05 1.6958735e-05 8.212879e-05 -0.00011319763 -9.4309544e-05 0.0002140624 -7.338767e-05 -0.00017983897
0.0 -5.9304355e-05 -3.3262466e-05 0.00014413253 8.691489e-05 -0.00012295422 3.6839636e-05 -0.000107894884
2.4591764e-05 0.00019479607 5.316794e-05 0.0 -3.7905306e-06 1.4901418e-05 -0.00010964788 -7.4579286e-05
0.00015260355 4.2656306e-05 1.0771178e-05 3.0964422e-06 -4.483294e-06 1.5717685e-06 0.0 -5.927401e-07
0.0 1.1453363e-05 8.1300277e-07 5.126615e-06 -7.3223487e-07 -5.0478407e-06 1.5547967e-07 2.5380696e-06
1.0802701e-37 -0.0001288912 1.1596674e-37 7.4893634e-08 3.7405098e-06 0.0 0.0010701624 -0.00017842911
4.5525845e-05 -4.473728e-05 0.0013776583 0.0 0.0 0.0 0.0 0.0
0.0022359078 -0.00085824967 0.0012760903 -0.00011378208 0.00019604951 1.9300567e-05 0.15302971 0.18117109

exp_avg_sq f4 [128, 131]
00000000: f2bd 9730 20b0 9e32 8480 a731 57fa 2734
00000010: 9f6b 6730 0293 6630 a468 3330 7a91 3c30
00000020: 57d6 6930 ac30 5930 9c49 8830 bf0e 1430
00000030: 5ae2 1f30 478c 3d30 c7bb 9930 b8c0 9f30
00000040: ae18 5530 96be 6130 46e2 0a30 c8ee 0330
00000050: fea4 0430 deae 9730 4c52 a030 7cec 9b30
00000060: 4c45 8530 e89a 8630 6184 7630 dc78 2930
00000070: 0e94 8a30 c16f 4730 3237 6630 553e 9b30
00000080: 2369 4930 f03f 0635 aaed d231 fbf9 0432
00000090: ccf9 2532 6527 de30 76e8 af35 a9e2 1d33
000000a0: 0d54 f832 2730 f632 e5d4 0d33 5d78 0e33
000000b0: 05fc 4333 dc53 2533 6b0d e332 7762 ea32
000000c0: fc74 fc32 0b8a d132 cb59 1133 b2de 6733
000000d0: 0975 5f33 2453 9533 da2f 8433 904a 8f33
000000e0: 2d0e d333 5b92 8c33 dc93 ed31 b0a6 2932
000000f0: b0c5 d131 1578 0932 f330 1b32 8273 1632
00000100: f54d 0832 a8da 1932 5387 0432 02ed 0432
00000110: 0369 b631 4fd1 0332 abea e731 2996 dc31
00000120: 3955 a031 e410 ba31 fa3d c631 92d1 cc31
00000130: 7e2a 1832 5279 f931 ff43 ae31 7083 f831
00000140: 02ec 1032 5e85 b231 dd78 0932 fc39 bf31
00000150: 9db7 9231 7b11 a031 b2c2 9b31 8420 f631
00000160: d526 0432 1927 0332 23ee fa31 0216 e931
00000170: a5f1 e531 14ec a231 cecf da31 07fb fd31
00000180: 6c93 dc31 b485 0532 dbdc f631 0d0a b931
00000190: f904 a431 3cf2 0032 06fc 2b32 b946 1b32
000001a0: aa12 fa31 255b ff31 0000 0000 b0f7 1432
000001b0: f157 1232 fa36 0a32 3add fd31 a395 8a2f
000001c0: b180 2633 702e 2134 869d 4534 ebae 5733
000001d0: 0000 0000 504b a934 ce18 a034 f890 fc33
000001e0: 4e91 cb33 1cf3 d133 6bbb c533 7d31 2e3b
000001f0: 9383 253b 939b 2e3b bc73 2c3b b411 2d3b
00000200: 4da1 313b 331a 323b e381 233f 0000 0000
00000210: 2e7d 1a35 bc93 4e34 681b 5836 0000 0000
00000220: 0000 0000 a568 1532 0000 0000 1eaf 5333
00000230: 173e b12f 0000 0000 dd17 0e33 631e 1a32
00000240: 0000 0000 f695 3e33 04a5 3933 0000 0000
00000250: 80c1 a232 c7de b933 6500 4433 b46e ed32
00000260: 0000 0000 0000 0000 1eaf 5333 e76d 0c33
00000270: 3ae4 3b34 c891 2733 5b2d 6731 dd20 3833
00000280: 666f 4833 0000 0000 b2a5 4833 0000 0000
00000290: c160 1b37 ed09 9e34 2557 6234 db91 6834
000002a0: dbb0 fd33 8e9f ab37 0000 0000 5819 8e33
000002b0: b828 3734 15ee 3133 4dac f335 0783 dd35
000002c0: 395f c135 7fc1 7b35 a464 9135 3cdd 5535
000002d0: 05e7 2b35 463d 9b34 440f c535 d9df 6835
000002e0: d356 8035 fe84 a235 a76a df35 c7eb cf35
000002f0: 0706 da35 0000 0000 e69c ad34 d49f 9634
00000300: 3e87 e034 1f32 eb34 4a1a c234 332d c034
00000310: 79fe 9f34 5440 b734 176e 8934 849e 9c34
00000320: 0000 0000 3a1d 4f34 02e4 3e34 dfce 8c34
00000330: 08d5 a234 d756 4e34 5d57 5c34 bda1 8a34
00000340: 95da a334 6857 3f34 5e70 3c34 0000 0000
00000350: 2c09 d833 af4a c033 7121 2134 28c8 1134
00000360: 8bda 6534 fcd8 5034 135b aa33 d18b fb32
00000370: abb8 0733 82f4 f132 0000 0000 c0da 1f32
00000380: 0000 0000 1822 1833 aa0b 9631 4631 2134
00000390: 2bb7 2732 2ea2 2132 86a1 0032 3512 b531
000003a0: 9630 2f2f 6dc5 bf33 2195 d62e 4c7f a431
000003b0: 774e 0233 0000 0000 a8c4 0b35 6c17 d834
000003c0: a2ba 3035 0f4d 0e35 79b4 1c37 0000 0000
000003d0: 0000 0000 0000 0000 0000 0000 0000 0000
000003e0: b440 9836 a11b ae36 79bc 7336 c566 5d36
000003f0: 497c fa35 050e 8c34 feee e63d 007f cd3d
1.1040682e-09 1.8473713e-08 4.87495e-09 1.564416e-07 8.419025e-10 8.3882423e-10 6.5268524e-10 6.8600736e-10
8.50695e-10 7.9013307e-10 9.916223e-10 5.386304e-10 5.816553e-10 6.8957146e-10 1.1185585e-09 1.1623547e-09
7.752402e-10 8.212536e-10 5.052566e-10 4.799685e-10 4.825579e-10 1.1036396e-09 1.1664922e-09 1.1344947e-09
9.696719e-10 9.79381e-10 8.96824e-10 6.1653593e-10 1.0082901e-09 7.255459e-10 8.375195e-10 1.129545e-09
7.327278e-10 5.001193e-07 6.1388237e-09 7.74025e-09 9.661061e-09 1.6163823e-09 1.3106171e-06 3.6760557e-08
2.8909222e-08 2.8660066e-08 3.3022747e-08 3.317142e-08 4.5631186e-08 3.8493326e-08 2.643238e-08 2.7285962e-08
2.938986e-08 2.4393577e-08 3.384211e-08 5.398642e-08 5.2027676e-08 6.9534764e-08 6.155433e-08 6.672519e-08
9.828032e-08 6.54588e-08 6.9144175e-09 9.874995e-09 6.105175e-09 8.001753e-09 9.033317e-09 8.757413e-09
7.933967e-09 8.955489e-09 7.71418e-09 7.737301e-09 5.3088356e-09 7.672795e-09 6.7496635e-09 6.419914e-09
4.6663016e-09 5.4152327e-09 5.7696043e-09 5.961007e-09 8.857226e-09 7.2606463e-09 5.0717968e-09 7.2326927e-09
8.435565e-09 5.195644e-09 8.001931e-09 5.5654237e-09 4.2700337e-09 4.6586e-09 4.533228e-09 7.163239e-09
7.692241e-09 7.634093e-09 7.3030306e-09 6.7836945e-09 6.692249e-09 4.7416595e-09 6.3682597e-09 7.3918076e-09
6.4196026e-09 7.7720195e-09 7.1846507e-09 5.3853513e-09 4.7735935e-09 7.505658e-09 1.00108135e-08 9.038268e-09
7.2780795e-09 7.4318387e-09 0.0 8.671051e-09 8.518314e-09 8.045157e-09 7.3884197e-09 2.5208377e-10
3.876693e-08 1.5011187e-07 1.8404361e-07 5.0217675e-08 0.0 3.15335e-07 2.982037e-07 1.1761034e-07
9.479355e-08 9.776542e-08 9.2076185e-08 0.002657979 0.0025255426 0.0026643022 0.00263141 0.0026408257
0.00271042 0.002717626 0.63870066 0.0 5.755163e-07 1.923899e-07 3.220246e-06 0.0
0.0 8.696735e-09 0.0 4.9286534e-08 3.224023e-10 0.0 3.3083655e-08 8.970889e-09
0.0 4.437421e-08 4.322375e-08 0.0 1.8947276e-08 8.655257e-08 4.5635165e-08 2.7640773e-08
0.0 0.0 4.9286534e-08 3.2696246e-08 1.749876e-07 3.9015305e-08 3.3640706e-09 4.2870727e-08
4.6667445e-08 0.0 4.6716828e-08 0.0 9.261247e-06 2.9437015e-07 2.1079593e-07 2.1659746e-07
1.18134004e-07 2.0459087e-05 0.0 6.617e-08 1.7058017e-07 4.142756e-08 1.8155057e-06 1.6503917e-06
1.4407334e-06 9.378636e-07 1.0832632e-06 7.967062e-07 6.403864e-07 2.8915582e-07 1.4682087e-06 8.6752476e-07
9.562012e-07 1.2108646e-06 1.6645835e-06 1.5491322e-06 1.624402e-06 0.0 3.233792e-07 2.8055968e-07
4.1821653e-07 4.380863e-07 3.6154444e-07 3.5795674e-07 2.980121e-07 3.413321e-07 2.559834e-07 2.91726e-07
0.0 1.928901e-07 1.7778078e-07 2.622755e-07 3.0329852e-07 1.9216837e-07 2.0520879e-07 2.5822183e-07
3.0520155e-07 1.782006e-07 1.7549743e-07 0.0 1.0059952e-07 8.9542816e-08 1.500646e-07 1.3576994e-07
2.1406792e-07 1.9450448e-07 7.932808e-08 2.9283827e-08 3.160009e-08 2.8167282e-08 0.0 9.304756e-09
0.0 3.5421266e-08 4.3669006e-09 1.5012219e-07 9.762327e-09 9.408309e-09 7.487307e-09 5.269863e-09
1.5933418e-10 8.930042e-08 9.758084e-11 4.7875e-09 3.0339347e-08 0.0 5.206771e-07 4.0250177e-07
6.5836696e-07 5.301126e-07 9.340344e-06 0.0 0.0 0.0 0.0 0.0
4.5374854e-06 5.1888205e-06 3.6319527e-06 3.2991386e-06 1.8662623e-06 2.6087233e-07 0.11276053 0.10033989

exp_avg f4 [128]
00000000: 6cef 7f36 8b92 b43a d707 8eba 7c95 d3b9
00000010: 28b4 2fba 5032 a6ba 5c24 ce39 9ebc 49b8
00000020: 3886 8cba ec23 d0ba e2d1 32bb a2e1 683a
00000030: c4f1 97ba 44a8 1302 1e22 1402 9b22 1d02
00000040: f806 b9ba 0f47 71ba f28b b0b9 08c9 e1ba
00000050: d835 79ba 1e16 1a03 a61f 9d39 0000 0000
00000060: 0000 0000 a40d e3ba 6496 9cb9 0000 0000
00000070: b649 a2ba 607b 82bb 7def aaba ac9e ddb8
00000080: be85 75ba 0000 0000 3a6e 5eba 0000 0000
00000090: 5233 2bbb 8a51 7fba 04b4 c0ba 1f15 1f02
000000a0: da9f 94b9 5e9c e3b9 7c91 45bb f617 52ba
000000b0: 0000 0000 0000 0000 8749 14bb 9245 b9ba
000000c0: 0000 0000 0000 0000 8a86 dbba 3ff6 e2b9
000000d0: 0c8e 0fba 3c9f d4ba 1e74 1702 273a ce37
000000e0: 6e88 ecba 0000 0000 0000 0000 5785 92ba
000000f0: d297 0fbb d243 aaba e03e 67ba b4a8 e9ba
00000100: 9927 97ba aaac 8939 485d efba 0000 0000
00000110: f2dc a0b7 700f 57ba 71f9 81ba 0000 0000
00000120: 12bf 5938 b81c 2cb9 7282 40b9 369c ebba
00000130: 0065 36b9 0000 0000 1871 9cb9 0000 0000
00000140: c2bb fcbb 175d 1402 c17a ee38 0208 68ba
00000150: 2ba2 b9ba 485a 2c39 70ce 26ba 4738 2a39
00000160: 30a0 11ba 105d 10ba 0000 0000 0000 0000
00000170: 22be f5ba 1ff2 0439 0d69 e639 0000 0000
00000180: b048 1fbb b4f2 9cb9 51d8 b438 0000 0000
00000190: 517e b1bb b8f0 1802 7b23 27ba 0a08 40b9
000001a0: ec62 f9ba 1ecc 2bba 2951 9137 24b0 d338
000001b0: 69b4 c0ba fc93 32b9 da06 8cbb 592e 1e02
000001c0: 9bf5 06bb d451 fbba 4bb0 33bb 0000 0000
000001d0: 4997 1f02 d650 68b8 dbc2 1602 6141 d3b9
000001e0: 3cac 85ba fc29 48b9 0000 0000 3375 c9b9
000001f0: 41f9 1d02 ac6c 1602 a4af 58ba 96ca bdba
3.8137323e-06 0.0013776583 -0.0010836077 -0.0004035643 -0.00067025656 -0.0012679789 0.00039318472 -4.8097798e-05
-0.0010721153 -0.0015879846 -0.0027285744 0.00088837196 -0.0011592438 1.0848144e-37 1.0883114e-37 1.154447e-37
-0.0014116457 -0.0009204009 -0.00033673603 -0.001722605 -0.00095066195 4.528192e-37 0.00029968953 0.0
0.0 -0.0017322791 -0.00029866688 0.0 -0.0012381587 -0.0039819926 -0.0013041344 -0.00010567656
-0.00093659374 0.0 -0.0008485053 0.0 -0.0026123119 -0.00097396283 -0.0014702086 1.1687537e-37
-0.00028347858 -0.00043413317 -0.003014653 -0.0008014435 0.0 0.0 -0.0022626834 -0.0014135113
0.0 0.0 -0.001674847 -0.00043289547 -0.0005476184 -0.0016221772 1.1127052e-37 2.4584193e-05
-0.001804603 0.0 0.0 -0.0011178654 -0.002191056 -0.0012990183 -0.000882132 -0.0017826767
-0.0011532187 0.0002625932 -0.0018262053 0.0 -1.9176372e-05 -0.00082038995 -0.0009916258 0.0
5.191478e-05 -0.00016413897 -0.00018359142 -0.0017975632 -0.00017394498 0.0 -0.000298389 0.0
-0.007712812 1.0900038e-37 0.00011371589 -0.0008851291 -0.001416271 0.0001643683 -0.0006363159 0.00016233428
-0.0005555181 -0.00055070315 0.0 0.0 -0.0018748681 0.00012678698 0.00043947287 0.0
-0.00243048 -0.00029935467 8.623361e-05 0.0 -0.0054166694 1.1236279e-37 -0.00063758314 -0.00018313542
-0.0019026673 -0.0006553548 1.732314e-05 0.00010094073 -0.0014702204 -0.00017030531 -0.0042732777 1.1621308e-37
-0.002059317 -0.0019174167 -0.0027418311 0.0 1.1724892e-37 -5.5388395e-05 1.107618e-37 -0.00040293767
-0.0010198425 -0.00019089127 0.0 -0.00038425028 1.1606071e-37 1.1051447e-37 -0.00082659186 -0.0014479931

exp_avg_sq f4 [128]
00000000: cc75 0735 79b4 1c37 e304 c236 6a87 2137
00000010: bf99 1138 9afc bb36 561d a735 c3a2 0d35
00000020: 7a19 5537 c7b1 a637 61a7 9438 2076 8436
00000030: 5661 1b36 9907 9b2d 8165 c12f fc86 0431
00000040: c355 9f38 4840 ae36 96dc b336 b4bb 9238
00000050: b883 af36 9a1a be31 1085 ba37 0000 0000
00000060: 0000 0000 71c8 0f38 35b4 7538 0000 0000
00000070: 7380 3537 9800 aa38 589d 4e37 569b 2336
00000080: 6189 e136 0000 0000 e636 a036 0000 0000
00000090: 5030 9938 c750 c738 c54e 0538 2160 782e
000000a0: 445b 2b36 3627 7536 51f8 c537 e428 6238
000000b0: 0000 0000 0000 0000 5976 2b38 166b 1a38
000000c0: 0000 0000 0000 0000 d401 4237 463c 1b35
000000d0: 1a43 8d38 2403 5d38 fb4a 802f 6c09 3d35
000000e0: 48f7 7d38 0000 0000 0000 0000 3987 b736
000000f0: eaee a138 4c18 9136 2bf1 6636 96c3 3538
00000100: 2e20 e337 1959 2a35 4cac ea38 0000 0000
00000110: c372 4735 129f 9836 0229 2437 0000 0000
00000120: 3ddc d034 8104 3335 0c53 3a35 8ed4 4537
00000130: fec3 cb35 0000 0000 382d 4538 0000 0000
00000140: f8b7 3a39 91b8 0a2e 8fb0 3a33 1f2e b836
00000150: a910 8a37 9c17 1e38 8c49 e935 893b 7135
00000160: 5194 a936 1739 3537 0000 0000 0000 0000
00000170: 1f20 cb37 3243 0435 7858 6136 0000 0000
00000180: 2e75 d537 a37d f235 a027 6835 0000 0000
00000190: e4fe 0e39 0743 0230 6a1e ad36 7d8c 5836
000001a0: 4d50 ca36 f752 1438 5812 3d35 3f2a b435
000001b0: 72b6 5138 4a9d a337 7c91 ab38 a30c 9833
000001c0: 7e75 e037 3ed2 aa37 c744 4838 0000 0000
000001d0: c263 2c2f 1402 d235 84f8 432d fabc b036
000001e0: c103 7337 d529 8f36 0000 0000 1df9 8b36
000001f0: e7ab 7933 ba69 282f 8e53 c637 0b5e ad38
5.0462836e-07 9.340344e-06 5.7822194e-06 9.627876e-06 3.471388e-05 5.602441e-06 1.2451007e-06 5.276344e-07
1.2701721e-05 1.9871526e-05 7.088367e-05 3.947658e-06 2.3153457e-06 1.7624834e-11 3.5178618e-10 1.9285258e-09
7.597685e-05 5.1930874e-06 5.3602953e-06 6.996785e-05 5.2307405e-06 5.532752e-09 2.223489e-05 0.0
0.0 3.4280532e-05 5.8580383e-05 0.0 1.0818348e-05 8.106342e-05 1.2315191e-05 2.437931e-06
6.7215155e-06 0.0 4.7747626e-06 0.0 7.3046074e-05 9.5041054e-05 3.178303e-05 5.647405e-11
2.553411e-06 3.6530669e-06 2.3599861e-05 5.392068e-05 0.0 0.0 4.0879797e-05 3.6816193e-05
0.0 0.0 1.1563727e-05 5.782971e-07 6.7359026e-05 5.269343e-05 2.333634e-10 7.04217e-07
6.05502e-05 0.0 0.0 5.469567e-06 7.7215795e-05 4.3241653e-06 3.441305e-06 4.3335916e-05
2.7075494e-05 6.345959e-07 0.00011190082 0.0 7.430028e-07 4.548471e-06 9.78471e-06 0.0
3.8903264e-07 6.668925e-07 6.941125e-07 1.1791604e-05 1.518172e-06 0.0 4.7010573e-05 0.0
0.00017806876 3.1541495e-11 4.346708e-08 5.4889965e-06 1.645864e-05 3.7692123e-05 1.7381258e-06 8.986613e-07
5.053859e-06 1.0801733e-05 0.0 0.0 2.4214443e-05 4.9271614e-07 3.3579108e-06 0.0
2.5446145e-05 1.806697e-06 8.6484397e-07 0.0 0.0001363713 4.7388976e-10 5.1593424e-06 3.2268283e-06
6.0294174e-06 3.5363217e-05 7.043468e-07 1.342334e-06 4.99994e-05 1.9504358e-05 8.181014e-05 7.08035e-08
2.6757592e-05 2.036348e-05 4.774777e-05 0.0 1.567875e-10 1.5646824e-06 1.1139648e-11 5.2672085e-06
1.4484803e-05 4.266602e-06 0.0 4.1715234e-06 5.8131175e-08 1.5317073e-10 2.3642348e-05 8.2668e-05

exp_avg f4 [64, 128]
00000000: 95fc 19bd f486 65bb 79e4 8ebd 7448 a1bd
00000010: 7ddd 0abd 3907 cdbc 47ee 8339 9999 0c38
00000020: 103a 25bd 42bf 8fbb 6406 afbc 4a06 28bc
00000030: cca8 97bd 3453 1a82 aa50 1a82 b950 1382
00000040: 3730 8dbc 28a4 c7bd ee23 42bc 4842 a5bc
00000050: 14f2 afbd d5d5 6483 3bce 1cba 0000 0000
00000060: 0000 0000 fb8a debc c0b5 5e3c 0000 0000
00000070: 700b 3dbd 9ac0 49bd de91 71bd f49f 14bd
00000080: f97f 8bbd 0000 0000 c2d3 04be 0000 0000
00000090: 7c46 81bc a5db 07bd b042 83bb 0000 0000
000000a0: 8c44 d0bd 843f 99bd c29e 9abd 765d 0abc
000000b0: 0000 0000 0000 0000 fd9d e2bc e190 9abc
000000c0: 0000 0000 0000 0000 448e 52bd 54c5 35bc
000000d0: 68f1 9dbb 6e0f 10bd ecc4 1582 c468 5e39
000000e0: 67e4 15bd 0000 0000 0000 0000 98d1 88bd
000000f0: a071 29bc a8d3 7cbd 778b 11be fce1 a3bb
00000100: 9092 cebc 8eeb 98b8 f424 b1bc 0000 0000
00000110: 0f3d 1bba 2288 7ebd edfe 78bd 0000 0000
00000120: 84f9 ebba 2049 a3bc 4af3 f1bb 5536 8bbd
00000130: 9145 be3a 0000 0000 28c9 bcbb 0000 0000
00000140: 8692 0dbd 9ee7 1282 16e6 3c3a 6874 a9bd
00000150: ec27 15bd 223e 65bc 0a10 e7bd b82d bbbc
00000160: b42b eabd b356 83bd 0000 0000 0000 0000
00000170: 8c01 ddbc 2cb6 f43a 800f 2bbc 0000 0000
00000180: 5844 e7bc 3907 bb3b f1f7 c4bb 0000 0000
00000190: 883f a5bc 9678 1082 daf1 5ebd b643 8cbc
000001a0: 2243 1dbe 40f8 7eba 305e 99ba 0a48 743c
000001b0: e87a cfbb 218b 33bc 4205 38bd 81c8 1702
000001c0: b23a 7fbc a92a e5bc ca4e a5bc 0000 0000
000001d0: d962 1b82 489a a2ba 81fe 1d82 beee 0ebd
000001e0: a7fa 06bd 104e 2fbd 0000 0000 8339 9bbd
000001f0: d9ec 1882 a96d 1182 f165 d1bb 74a8 c4bc
00000200: b8ba a520 fb4d 4d02 4bf9 0330 48a4 b635
00000210: 3674 0f34 40b3 0835 f8ae 1f02 5888 8a2e
00000220: d493 9435 97f1 da34 2b0d d11e f456 b634
00000230: 8c4d d11f adc5 1502 ef8a 1502 7e04 1602
00000240: 7da6 c734 818a 1321 a0f5 c035 3b81 3496
00000250: 86f3 ff97 6947 1a02 7833 0934 0000 0000
00000260: 0000 0000 e12c ef34 9856 2433 0000 0000
00000270: f7d7 7135 60cb 0420 adee 1830 04d7 d635
00000280: 2bf1 3d9d 0000 0000 4141 0636 0000 0000
00000290: 84fb 1035 9a29 7833 7870 0d34 0000 0000
000002a0: eb76 fa35 63c8 d313 f4e6 2035 03b1 081e
000002b0: 0000 0000 0000 0000 559e 831f e545 6d2e
000002c0: 0000 0000 0000 0000 e2a5 242f 4be6 1935
000002d0: 0077 5d1e d878 5f2f 9b8e 1f02 29b7 300e
000002e0: a807 041f 0000 0000 0000 0000 8a27 b935
000002f0: f1b9 a434 0e47 c935 ccb0 2036 8fed 8c1c
00000300: e530 7920 2c61 1b02 0f18 7834 0000 0000
00000310: 9557 c71f 7401 ca35 7e65 be35 0000 0000
00000320: b635 732f 9f0e 1435 be4c 2833 0f6d 0e35
00000330: de78 da2e 0000 0000 7f41 e61e 0000 0000
00000340: 3ffb da33 df5b 1602 6a8c 720e fa8d c135
00000350: 7cb3 dc34 be78 1935 dca7 ce35 2a77 1620
00000360: 0ce2 951f 74f7 c735 0000 0000 0000 0000
00000370: a322 2135 31f6 df33 f20f 9234 0000 0000
00000380: 6eb4 1a35 aee9 220f 8193 0e2f 0000 0000
00000390: ae05 b833 f9fe 1e02 3c4e 8e35 1bbd d635
000003a0: a541 fe35 b8fa 9734 e037 9b1d fb9c 0210
000003b0: ecc2 c632 f506 1e35 223d a32e eb19 1002
000003c0: 4de1 bc2f 9cb4 1820 70ef ab34 0000 0000
000003d0: 30bf 1d02 0a68 1d02 0000 0000 748f b435
000003e0: b108 0f35 404b 4e30 0000 0000 b3fd de35
000003f0: 267f 1d02 df02 1102 e676 5734 f075 fe34
-0.037594397 -0.0035023065 -0.069771715 -0.078751475 -0.033902634 -0.025027858 0.00025163798 3.352165e-05
-0.040338576 -0.0043868134 -0.021365352 -0.010255406 -0.07405242 -1.1338011e-37 -1.1337283e-37 -1.0823021e-37
-0.017234905 -0.09748107 -0.011849387 -0.020173207 -0.085910946 -6.7248645e-37 -0.00059816585 0.0
0.0 -0.02716588 0.013593137 0.0 -0.046153486 -0.049255945 -0.058977 -0.036285356
-0.06811518 0.0 -0.12971404 0.0 -0.01578068 -0.033168454 -0.0040057525 0.0
-0.10169324 -0.07482818 -0.07549812 -0.008445134 0.0 0.0 -0.027663225 -0.018867912
0.0 0.0 -0.051405206 -0.01109441 -0.0048200376 -0.035170965 -1.1003305e-37 0.00021210598
-0.036594775 0.0 0.0 -0.06680602 -0.010342032 -0.06172529 -0.14213358 -0.0050013047
-0.02521637 -7.2918e-05 -0.021624066 0.0 -0.0005921879 -0.062141545 -0.06078999 0.0
-0.0018003439 -0.01993233 -0.0073837386 -0.067974724 0.0014516582 0.0 -0.0057612844 0.0
-0.034563564 -1.0792857e-37 0.00072059163 -0.08274156 -0.036415026 -0.013991864 -0.11282356 -0.022848949
-0.11434117 -0.06413021 0.0 0.0 -0.026978277 0.0018670014 -0.010440707 0.0
-0.028230831 0.005707648 -0.006011002 0.0 -0.020171896 -1.0614056e-37 -0.054429866 -0.01712213
-0.1535764 -0.0009726323 -0.0011701044 0.014909754 -0.0063317902 -0.010958464 -0.04492689 1.115127e-37
-0.015577959 -0.027974444 -0.020179171 0.0 -1.1415969e-37 -0.0012405599 -1.1607577e-37 -0.03489565
-0.032953884 -0.042799056 0.0 -0.07579329 -1.1235168e-37 -1.0684388e-37 -0.006390326 -0.024006106
2.8075647e-19 1.5083401e-37 4.801179e-10 1.3607869e-06 1.336019e-07 5.092479e-07 1.1731689e-37 6.299733e-11
1.1069883e-06 4.0781444e-07 2.2134182e-20 3.3963408e-07 8.8643234e-20 1.1003521e-37 1.0986663e-37 1.1021549e-37
3.7187775e-07 4.9988846e-19 1.4376601e-06 -1.4581062e-25 -1.6540463e-24 1.1334627e-37 1.2777843e-07 0.0
0.0 4.4549873e-07 3.8262982e-08 0.0 9.0093766e-07 1.1248126e-19 5.5636457e-10 1.600682e-06
-2.5138623e-21 0.0 2.0005539e-06 0.0 5.4010184e-07 5.7779836e-08 1.3172564e-07 0.0
1.8661061e-06 5.3461485e-27 5.9940726e-07 7.236385e-21 0.0 0.0 5.5742596e-20 5.394964e-11
0.0 0.0 1.4974647e-10 5.733206e-07 1.1724251e-20 2.0324664e-10 1.1722401e-37 2.1781863e-30
2.795842e-20 0.0 0.0 1.3795081e-06 3.068267e-07 1.4996347e-06 2.3944767e-06 9.32583e-22
2.1107298e-19 1.1415488e-37 2.3105552e-07 0.0 8.442467e-20 1.5050596e-06 1.4185641e-06 0.0
2.2119803e-10 5.5155573e-07 3.9185345e-08 5.3057823e-07 9.9349626e-11 0.0 2.4379286e-20 0.0
1.01971175e-07 1.1046625e-37 2.989641e-30 1.4420941e-06 4.1108785e-07 5.7172645e-07 1.539705e-06 1.2744922e-19
6.347792e-20 1.4898674e-06 0.0 0.0 6.0027577e-07 1.0429029e-07 2.720622e-07 0.0
5.763203e-07 8.032222e-30 1.2967229e-10 0.0 8.569201e-08 1.168118e-37 1.0602594e-06 1.5999279e-06
1.894358e-06 2.8308364e-07 4.108593e-21 2.5758913e-29 2.3138874e-08 5.886971e-07 7.423241e-11 1.0586887e-37
3.4357087e-10 1.293466e-19 3.2025446e-07 0.0 1.1589406e-37 1.1564396e-37 0.0 1.3452795e-06
5.32843e-07 7.50493e-10 0.0 1.6614125e-06 1.1571028e-37 1.0653742e-37 2.006669e-07 4.7396998e-07
