lightning_model_releases/lightning_quantile_test/model_params/0.5_80558_1331_lightning_quantile.ckpt (torch, 311310 bytes, 15 tensors)

model.0.weight f4 [128, 131]
0	0x3b20b8be	0.0024524177
1	0x3e17fca2	0.14842466
2	0xbe01f478	-0.12690914
3	0x3cb69619	0.022288369
4	0xbc25e36a	-0.0101250205
5	0x3cd8ab0b	0.026448747
6	0xbe06f04e	-0.13177606
7	0x3e284832	0.1643379
8	0xbd4a43df	-0.049381133
9	0x3c347cb4	0.01101606
10	0x3d5f20a1	0.054474477
11	0xbcb9139d	-0.02259236
12	0xbd5f01fe	-0.05444526
13	0xbd88ded6	-0.066831276
14	0xba344790	-0.0006877119
15	0xbc94d292	-0.018166814
16	0x3e2f4642	0.17116645
17	0x3d307f2d	0.043090034
18	0xbd3472d7	-0.044054832
19	0xbcf74076	-0.030182105
20	0xbdd1e029	-0.10247833
21	0xbb5e9441	-0.0033962878
22	0x3dfaef6c	0.12252697
23	0xbd415f60	-0.047210097
24	0x3d0ee9b2	0.034890838
25	0x3c91bcf4	0.017790295
26	0xb9776047	-0.00023591622
27	0x3dd86107	0.105653815
28	0x3dc03f90	0.093871236
29	0xbe845da8	-0.25852704
30	0xbcf9d9e8	-0.030499414
31	0x3c634455	0.013871272
32	0x3da5d7ce	0.08097802
33	0x3c0f29df	0.00873801
34	0xbdd5c740	-0.104383945
35	0x3ddb671b	0.10713025
36	0x3df1c5c7	0.11805301
37	0xbdbf443d	-0.09339187
38	0xbccecece	-0.025245097
39	0xbdbcfd72	-0.09228028
40	0x3d10f0ee	0.03538602
41	0x3ceec1fc	0.029145233
42	0x3e008b0c	0.12553042
43	0x3e10d182	0.14142421
44	0x3d64bbc9	0.05584315
45	0xbe073109	-0.13202299
46	0x3da526ed	0.08064065
47	0x3c97a0d5	0.018509308
48	0x3daa8d2f	0.0832771
49	0xbdc38da6	-0.09548502
50	0xbded10d2	-0.11575474
51	0x3e60447d	0.21901126
52	0x3d89376a	0.067000225
53	0x3e859c5b	0.26095852
54	0xbcc1ac55	-0.023641745
55	0xbe9e1d77	-0.30881855
56	0xbe82c437	-0.25540325
57	0x3e04e699	0.12978591
58	0x3d8c9a9e	0.068654284
59	0xbe0669de	-0.13126323
60	0xbd7dad6d	-0.06193297
61	0x3d21144d	0.039326
62	0x3d11a78d	0.03556018
63	0xbde6a415	-0.11261765
64	0x3cf357b1	0.0297049
65	0xbdac1a75	-0.08403484
66	0x3d9aa661	0.075512655
67	0xbe12b9ae	-0.14328644
68	0xbdd713f3	-0.10501852
69	0xbcc3bf13	-0.023894822
70	0x3e6ea23a	0.23304072
71	0x3d310b56	0.0432237
72	0x3da78a13	0.081806324
73	0xbd218a2f	-0.039438423
74	0xbe3ac4f3	-0.18239193
75	0x3c00f5bd	0.007871089
76	0xbd72ec7d	-0.059307564
77	0x3c088199	0.00833168
78	0x3d6a961c	0.05727206
79	0x3de96c86	0.11397652
80	0xbe39153c	-0.18074507
81	0xbd1622de	-0.036654346
82	0x3ba46bd3	0.0050177365
83	0x3c174247	0.00923211
84	0x3e0b2579	0.13588513
85	0xbe099f7e	-0.13439748
86	0x3d3ed984	0.046594158
87	0xbe3a3b47	-0.18186675
88	0xbcda5f16	-0.026656669
89	0xbd3085f1	-0.043096486
90	0x3e0678a6	0.13131961
91	0xbd7e599b	-0.062097173
92	0xbd56e0c8	-0.05246046
93	0x3ddf5920	0.10905671
94	0xbbfaf51e	-0.007658615
95	0x3cb87760	0.02251786
96	0xbd454e6e	-0.0481705
97	0x3dc23460	0.09482646
98	0x3d63c9fa	0.05561254
99	0xbd426de2	-0.047468074
100	0xbe0aa02a	-0.1353766
101	0x3e036693	0.12832098
102	0xbd8d6d12	-0.06905569
103	0x3db4b779	0.08824057
104	0x3da1b382	0.078955665
105	0xbe24d77b	-0.16097824
106	0xbd97ceb9	-0.07412476
107	0xbad88007	-0.0016517647
108	0xbcb1a139	-0.021683322
109	0x3a9da610	0.001202764
110	0x3e15c053	0.14624147
111	0x3db2dbe4	0.08733347
112	0xbd2fa7cf	-0.042884644
113	0xbe3d7811	-0.18502833
114	0xbb2b7544	-0.0026162425
115	0xbdd44dc2	-0.103663936
116	0x3c5fd770	0.013662204
117	0x3e003b90	0.12522721
118	0xbea631fd	-0.32460013
119	0xbd2b9b8c	-0.041896388
120	0xbd70832b	-0.05871884
121	0xbd527adf	-0.05138671
122	0x3d9b339a	0.075782016
123	0xbe2ac4dd	-0.1667666
124	0xbd33a4cd	-0.04385834
125	0xbd29bb9c	-0.041438684
126	0x3b85489b	0.004067493
127	0xbd89274d	-0.06696949
128	0x3c73037b	0.014832373
129	0xbd8dc6e1	-0.06922699
130	0x3d266960	0.040627837
131	0x3dc57d55	0.09643046
132	0xbe85302a	-0.2601331
133	0x3e870d62	0.26377398
134	0xbdac7de9	-0.08422453
135	0xbe495c5b	-0.19664137
136	0xbd948740	-0.072523594
137	0xbdb1e3c5	-0.08686022
138	0x3cccc7c4	0.0249976
139	0xbc9c5940	-0.019085526
140	0x3d0b53a6	0.03401532
141	0x3dbdb37c	0.092627496
142	0x3d84d8a3	0.06486633
143	0xbd8358fc	-0.06413457
144	0xbc772d88	-0.015086539
145	0x3ceffabc	0.029294364
146	0xbcf495a8	-0.029856518
147	0x3d9074ab	0.07053503
148	0x3da3008b	0.07959088
149	0xbd8de196	-0.06927793
150	0x3dd0c6cd	0.10194168
151	0xbda45fb7	-0.08026069
152	0xbc1cde38	-0.009574465
153	0xbe664f95	-0.22491296
154	0x3d5f97f0	0.05458826
155	0xbd4057f0	-0.046958864
156	0x3d3f437e	0.046695225
157	0xbd4fde34	-0.05074902
158	0xbd1a5176	-0.037675343
159	0xbe0ebfa8	-0.13940299
160	0x3da2a493	0.07941546
161	0x3dd010dc	0.10159466
162	0x3e211c15	0.15733369
163	0xbe835186	-0.25648135
164	0xbd3e59cf	-0.046472367
165	0x3dc6132b	0.09671625
166	0xbe0e3214	-0.13886291
167	0xbd82bb32	-0.06383361
168	0x3daf27a8	0.08552486
169	0xbe2f41d6	-0.17114958
170	0xbe4870c6	-0.1957427
171	0xbd6647aa	-0.056220688
172	0x3e05ad43	0.13054375
173	0xbdfae469	-0.12250597
174	0xbcc7465c	-0.024325542
175	0xbe6e7f96	-0.23290858
176	0xbd1c159f	-0.038106557
177	0xbe2a349c	-0.16621631
178	0xbbdafc40	-0.0066829026
179	0xbd537da6	-0.0516335
180	0xbdff8eb5	-0.12478391
181	0x3e83de9f	0.25755784
182	0x3e67eba6	0.22648486
183	0x3df55d45	0.119806804
184	0x3ec9ba3c	0.39399898
185	0xbc1a761b	-0.009427573
186	0xbe5bdd1b	-0.21471064
187	0xbeea96f8	-0.45818305
188	0x3e3e0a9d	0.18558736
189	0xbd7ee3a5	-0.062228817
190	0xbe625f50	-0.22106671
191	0x3db5bb9b	0.088736735
192	0xbdd7e822	-0.10542323
193	0xbdfeb305	-0.12436489
194	0xbd33e207	-0.04391673
195	0x3d08b7a4	0.03337826
196	0xbdd37a39	-0.103260465
197	0x3da46507	0.08027082
198	0x3e1edb45	0.15513332
199	0xbe591f73	-0.21203403
200	0xbe4bc0d9	-0.19897784
201	0xbda26b92	-0.07930674
202	0x3d01d363	0.031695735
203	0xbe0e12e1	-0.13874389
204	0xbda2f5eb	-0.079570614
205	0xbe930829	-0.28717163
206	0x3d49101f	0.04908764
207	0xbe3865c6	-0.18007573
208	0xbdca7f5b	-0.098875724
209	0x3e14e3f1	0.14540078
210	0x3b85ccfc	0.004083274
211	0x3dc4371a	0.09580822
212	0xbde31cfb	-0.11089512
213	0xbe0a2c25	-0.13493402
214	0xbe1653b2	-0.14680365
215	0x3db5a154	0.088686615
216	0xbe3205cb	-0.17385022
217	0xbd4a2dc4	-0.04936005
218	0x3d07b126	0.033127926
219	0x3d41d762	0.047324546
220	0x3e984c3c	0.29745662
221	0x3da3698f	0.07979118
222	0xbe112dec	-0.14177674
223	0xbbd9b33a	-0.00664368
224	0xbe9faa81	-0.31184772
225	0xbdc00f51	-0.093779214
226	0x3e53e227	0.20691739
227	0x3df3397d	0.118761994
228	0xbe200fc2	-0.15631011
229	0xbea4b299	-0.3216751
230	0xbdad149b	-0.08451196
231	0x3ef95462	0.4869719
232	0xbda09ad9	-0.07842035
233	0xbdc68660	-0.09693599
234	0xbcb446de	-0.022006448
235	0xbde57ae6	-0.11205082
236	0x3d484dde	0.048902385
237	0xbd8814b2	-0.06644572
238	0x3d945508	0.07242781
239	0x3c984ca2	0.018591229
240	0xbe208586	-0.15675935
241	0xbe0f023b	-0.13965695
242	0xbe3a8ad4	-0.18217021
243	0xbe00283a	-0.12515345
244	0x3e20eaa7	0.15714513
245	0xbdd4a881	-0.10383702
246	0xbdf92702	-0.12165643
247	0x3ced6b0c	0.028981708
248	0x3e647839	0.22311486
249	0xbeabe91f	-0.33576295
250	0xbe33bf6f	-0.17553495
251	0xbe34621b	-0.1761555
252	0x3db4b988	0.0882445
253	0xbd97dac1	-0.07414771
254	0xbe0b82a2	-0.13624051
255	0xbe166759	-0.14687862

model.0.bias f4 [128]
0	0xbdbc70ae	-0.092011794
1	0xba9fd459	-0.0012194022
2	0x3d058c00	0.032604218
3	0x3cb54058	0.022125408
4	0x3d562929	0.052285347
5	0x3da59c5d	0.080864646
6	0xbe306fb1	-0.17230107
7	0x3dc4eac9	0.09615094
8	0xbd47023d	-0.04858612
9	0xb9927f38	-0.00027942075
10	0x3b8a9e36	0.004230286
11	0x3e87f92e	0.26557297
12	0xbdddcd93	-0.10830226
13	0x3d29b602	0.04143334
14	0x3d750ad7	0.05982479
15	0xbcf6b073	-0.030113434
16	0x3d33eb1d	0.043925393
17	0xbdeb4f9f	-0.11489796
18	0xbd5edc5d	-0.054409374
19	0x3e43b02f	0.19110177
20	0xbae3c260	-0.0017376654
21	0xbc005857	-0.007833562
22	0x3d0c2e87	0.03422406
23	0x3d6f80a9	0.05847231
24	0x3d900db9	0.070338674
25	0x3c4cffd6	0.012512168
26	0x3cb546e5	0.022128532
27	0xbd5ce775	-0.053931672
28	0x3d9a5511	0.075357564
29	0x3d8b936f	0.0681523
30	0x3d9eff85	0.0776358
31	0x3d6bd0f2	0.057572313
32	0xbcf3e33b	-0.029771438
33	0xbd1bca2e	-0.03803461
34	0xba49174c	-0.0007671013
35	0x3c3a2147	0.011360473
36	0x3d251ab8	0.040308684
37	0x3d6fc194	0.05853422
38	0x3da3f4c7	0.08005672
39	0x3cf470d7	0.029838962
40	0xbd872c5c	-0.06600258
41	0xbde2ab8f	-0.110678785
42	0x3ce54b1b	0.027989915
43	0x3dcb7564	0.099345
44	0x3e669fed	0.22521944
45	0x3b961d60	0.0045811385
46	0x3d737346	0.059436105
47	0x3c111c8a	0.008856902
48	0x3df3fc46	0.11913352
49	0xbc870864	-0.016483493
50	0xbcbf2e9b	-0.023337653
51	0x3d16c0d1	0.036804978
52	0x3dbe2fa8	0.092864335
53	0xbd87871e	-0.066175684
54	0xbc587371	-0.013211117
55	0x3c41b8d9	0.011823856
56	0x3dbd167f	0.092328064
57	0x3d29c8b2	0.041451164
58	0x3c7fa0a7	0.015602267
59	0x3d0360f9	0.032074902
60	0x3b7c7413	0.0038521334
61	0x3ba72ab6	0.005101527
62	0xbd7c9aa1	-0.061670903
63	0x3dacf802	0.08445741
64	0x3cd1f97a	0.025631655
65	0xbd98fa14	-0.074695736
66	0x3cf5e12c	0.030014597
67	0x3ebcb304	0.36855328
68	0x3cce3169	0.025170045
69	0x3d763099	0.06010494
70	0xbd376622	-0.044775136
71	0x3c19fdb7	0.009398869
72	0xbcc19bd8	-0.023633882
73	0x3e6b73e1	0.22993423
74	0x3d340ff3	0.043960523
75	0xbd3b3da0	-0.045713067
76	0x3da75c15	0.0817186
77	0xbb0d3b68	-0.0021550301
78	0x3e3cb16a	0.18427053
79	0xbd18d5cf	-0.03731328
80	0x3d415086	0.047195934
81	0x3d54af16	0.051924787
82	0xbd7ff446	-0.062488817
83	0xb8accd7b	-8.239873e-05
84	0x3d4f9ac2	0.050684698
85	0xbce54626	-0.027987551
86	0xbd252bb3	-0.040324878
87	0x3e1232bb	0.14277165
88	0xbdc6c6d4	-0.09705892
89	0xbd886d23	-0.06661441
90	0x3e9e36b1	0.309011
91	0x3d4a20ca	0.049347676
92	0x3da13871	0.078720935
93	0x3e656c9d	0.22404714
94	0xbd74621a	-0.05966387
95	0x3dc98624	0.098400384
96	0xbd097bdf	-0.0335654
97	0x3d8a8551	0.06763709
98	0x3e417c04	0.18894964
99	0xbda4af61	-0.08041263
100	0xbd5d2ff8	-0.054000825
101	0xbc345e42	-0.011008801
102	0xbd921754	-0.07133356
103	0xbe1405cf	-0.14455341
104	0xbd74ffd6	-0.059814297
105	0x3dc188d9	0.0944993
106	0xbd985853	-0.074387215
107	0xbe01f72f	-0.1269195
108	0xbcc0202e	-0.023452844
109	0x3e0898c6	0.13339528
110	0x3e1043db	0.14088385
111	0x3e14358b	0.1447355
112	0xbd8a9ca7	-0.0676816
113	0x3b02e398	0.0019972082
114	0x3de180d9	0.11010904
115	0x3cb1778a	0.021663446
116	0x3d56fc22	0.052486546
117	0x3de97193	0.11398616
118	0x3dcab72b	0.09898218
119	0x3c41d932	0.011831569
120	0x3d56b9c6	0.05242326
121	0xbb95b483	-0.004568638
122	0x3e144f75	0.14483435
123	0xbd0f0d3e	-0.034924738
124	0x3e571eab	0.21007793
125	0xba50de71	-0.00079677167
126	0x3c412872	0.011789428
127	0x3c11e92b	0.008905689

model.3.weight f4 [64, 128]
0	0xbd7093c5	-0.058734674
1	0xbd0f408b	-0.034973662
2	0xbd605d12	-0.05477626
3	0xbcb870b4	-0.022514679
4	0x3c7a6274	0.015282262
5	0xba089c00	-0.0005211234
6	0xbd827f69	-0.06371958
7	0x3c453609	0.012036809
8	0x3d81fd3f	0.06347131
9	0xbd7883aa	-0.06067244
10	0xbd01292e	-0.031533413
11	0xbe038532	-0.12843779
12	0x3d9c0a92	0.076192036
13	0x3d28b7f7	0.041191068
14	0xbcd8cf64	-0.026466079
15	0xbe5d0fcd	-0.21588059
16	0x3cb06599	0.02153282
17	0x3c8f9821	0.017528595
18	0x3d4bc4bd	0.04974817
19	0x3dd63baf	0.104606025
20	0x3db65e49	0.08904702
21	0xbd562bf1	-0.052288
22	0xbd90dfbc	-0.07073924
23	0xbd4df9ce	-0.05028706
24	0x3dd653b1	0.104651816
25	0x3c6f67fc	0.014612194
26	0x3d9391c7	0.07205539
27	0x3c58c198	0.01322975
28	0xbc875b45	-0.016523013
29	0xbb1f96d1	-0.0024351368
30	0x3d4cf916	0.050042234
31	0xbb145e94	-0.002263938
32	0x3d852c28	0.06502563
33	0x3dc51854	0.09623781
34	0x3d02d2a8	0.03193918
35	0x3d947b3b	0.07250067
36	0x3da6b3ed	0.08139787
37	0xbd835927	-0.06413489
38	0xbd4d9407	-0.050189998
39	0xbdd6ca42	-0.10487796
40	0xbc39e238	-0.011345439
41	0x3d358ba6	0.044322632
42	0x3db33330	0.087499976
43	0xba9e0c0e	-0.0012058036
44	0xbea998fb	-0.33124527
45	0x3d456252	0.04818947
46	0xbd438d9a	-0.047742464
47	0xbc5fd9c2	-0.013662757
48	0x3d5b0865	0.053474803
49	0xbc73b498	-0.0148746
50	0x3d6f7879	0.0584645
51	0x3d862e2b	0.065517746
52	0x3d0366cb	0.032080453
53	0x3d49c255	0.049257595
54	0x3d87c1f4	0.066287905
55	0xbd9f7e4b	-0.0778776
56	0x3d981fed	0.07427964
57	0x3d49c222	0.049257405
58	0x3dda61b3	0.10663166
59	0xbd301022	-0.042984135
60	0x3ba30f26	0.004976171
61	0x3d8adece	0.06780778
62	0x3d6f9871	0.05849499
63	0xbbd8d588	-0.006617252
64	0x3d90f584	0.070780784
65	0xbdb87e7b	-0.09008499
66	0x3cab50d8	0.020912573
67	0xbe68b649	-0.22725786
68	0xbcc44927	-0.023960663
69	0xbc98513d	-0.018593425
70	0x3cb7ab12	0.02242044
71	0x3db83f90	0.089964986
72	0xbc0615ee	-0.008183939
73	0xbe5feebb	-0.21868412
74	0xbd8c3c77	-0.0684747
75	0xbd8a535b	-0.0675418
76	0xbd9005a2	-0.070323244
77	0x3dc54e40	0.09634066
78	0x3c8b0671	0.016970845
79	0x3caa7470	0.020807475
80	0x3d382566	0.04495754
81	0x3ca34714	0.019931354
82	0x3b9f50fb	0.0048619485
83	0xbd72591e	-0.05916702
84	0xbd2ef800	-0.04271698
85	0xbd040925	-0.032235283
86	0x3c43493c	0.011919316
87	0xbdd18cec	-0.10231957
88	0x3da450ce	0.08023225
89	0x3d9c9e89	0.07647426
90	0xbe974630	-0.29545736
91	0xbe1d21c5	-0.15344913
92	0x3c951fb8	0.018203601
93	0xbc95cc64	-0.018285938
94	0xbbec2e73	-0.0072076856
95	0xbd41a0c6	-0.047272466
96	0x3c9186e8	0.017764524
97	0xba9c6b7c	-0.0011933888
98	0xbd922421	-0.07135797
99	0xbd04086e	-0.0322346
100	0x3d82d05b	0.06387397
101	0x3e454f32	0.19268492
102	0x3db65014	0.089019924
103	0xb9fa6d12	-0.0004776498
104	0x3ceab65d	0.02865141
105	0x3d81cb14	0.06337562
106	0xbdec1e5b	-0.11529227
107	0x3d81b92f	0.06334149
108	0x3da5af2e	0.080900535
109	0x3c2a8651	0.010408
110	0x3e1b4bd7	0.1516565
111	0xbe33a926	-0.17544994
112	0xbd186e4a	-0.037214555
113	0x3d88262f	0.06647908
114	0x3d74ad41	0.05973554
115	0xbe823878	-0.25433707
116	0x3df2e5c7	0.11860233
117	0x3e7cca15	0.24686463
118	0xbe4d10d6	-0.20025954
119	0xbd55351c	-0.052052602
120	0x3cc21dab	0.023695787
121	0x3d80c07e	0.06286715
122	0xbe4c0b46	-0.19926175
123	0xbc4d8979	-0.012544983
124	0xbd6e4f38	-0.058181018
125	0xbdc75192	-0.09732355
126	0x3d97bf0d	0.07409487
127	0x3d504f43	0.05085684
128	0xbcf49639	-0.029856788
129	0xb99d22b1	-0.0002997122
130	0xbdb34f61	-0.08755375
131	0xbd22606d	-0.03964274
132	0x3bfc7fb0	0.007705651
133	0xbda32270	-0.07965553
134	0xbb169d34	-0.0022981884
135	0x3d909a7c	0.070607156
136	0x3c835f35	0.01603661
137	0x3c2428f3	0.010019529
138	0xbd32882e	-0.043586902
139	0xbcb8efac	-0.022575222
140	0xbdc6e8ef	-0.09712397
141	0xbdc8ca6f	-0.09804236
142	0x3c3d2ecf	0.011546805
143	0x3b8a77d2	0.0042257095
144	0x3c1871b2	0.009304451
145	0xbda181dd	-0.078860976
146	0xbbe00289	-0.0068362397
147	0xbd98f790	-0.07469094
148	0xbdb43022	-0.08798243
149	0xbd1a2549	-0.037633214
150	0xbd645f78	-0.05575511
151	0x3c894e68	0.01676102
152	0xbd61b97e	-0.05510854
153	0x3d0e144d	0.03468733
154	0x3bfd81dd	0.007736428
155	0x3b3d7a23	0.002891191
156	0xbbce3311	-0.0062927087
157	0x3b1910d0	0.0023355968
158	0xbddf84fd	-0.109140374
159	0xbd63e956	-0.05564245
160	0xbdb26bd2	-0.08711971
161	0xbda3928a	-0.079869345
162	0xbb7e26d1	-0.003878046
163	0x3d9f50f2	0.07779111
164	0x3ce5aaba	0.02803551
165	0xbd6c3a68	-0.057672888
166	0xbbe53a1a	-0.0069954516
167	0x3d938b2c	0.07204279
168	0x3a47299b	0.0007597447
169	0xbdbc4856	-0.091934845
170	0xbc65bcc4	-0.014022056
171	0xbbec7dab	-0.007217129
172	0x3be5edf9	0.007016894
173	0x3da557a3	0.08073356
174	0x3d54250a	0.051793136
175	0xbda81a84	-0.082081825
176	0x3a06564c	0.00051245536
177	0xbda201dc	-0.07910511
178	0xbd92c2b4	-0.07166043
179	0x3cb4c1ca	0.022065062
180	0xbcb66340	-0.022264123
181	0x3cf9f70d	0.03051331
182	0x3bd3aa08	0.0064594783
183	0xbd122c8d	-0.03568702
184	0x3d46ea1e	0.048563115
185	0xbd81e940	-0.06343317
186	0xbc93cf10	-0.018043071
187	0x3bfb4d5d	0.0076691345
188	0x3d5c1b6d	0.053737093
189	0x3d896e8b	0.067105375
190	0x3c948293	0.018128669
191	0xbd66222a	-0.056184925
192	0x3d3f7867	0.046745684
193	0x3d94986e	0.07255636
194	0xbd674730	-0.056464374
195	0x3d38e7e9	0.04514304
196	0x39d54999	0.0004068136
197	0xbcc0e97a	-0.02354883
198	0x3bae6844	0.005322488
199	0xbce6055e	-0.028078731
200	0xbd2566a6	-0.040381096
201	0xbc37616b	-0.01119266
202	0xbc8adcd1	-0.016950997
203	0xbdb09c19	-0.08623523
204	0xbda0b82a	-0.078476265
205	0x3cb777ac	0.022395931
206	0xbd85615e	-0.06512712
207	0x3b0dabe0	0.0021617338
208	0x3d33a260	0.043856025
209	0x3c76e522	0.015069278
210	0x3cd067bc	0.02544009
211	0x3cb26b4d	0.02177968
212	0x3d4de5e1	0.050268058
213	0xbd93a4ff	-0.07209205
214	0x3d753697	0.059866514
215	0xbda6d194	-0.081454426
216	0xbd98907c	-0.07449433
217	0xbd703385	-0.058642883
218	0xbb4cf891	-0.0031276087
219	0x3d48eb3b	0.04905246
220	0xbb75f63e	-0.0037530805
221	0x3d1541ef	0.036439832
222	0xbdcaa64c	-0.09895
223	0xbd988479	-0.07447142
224	0x3bb95a50	0.005656518
225	0xbd8620d4	-0.0654923
226	0x3cdfda10	0.02732566
227	0xbd1130cc	-0.035446927
228	0x3d279ca7	0.04092088
229	0xbdd22c6d	-0.1026238
230	0x3c9ea1a0	0.019364178
231	0x3cd6bd63	0.026213353
232	0xbd9154e8	-0.07096273
233	0x3d5e74b8	0.05431053
234	0x3d07a1f4	0.033113435
235	0xbd70299a	-0.058633424
236	0xbda253e3	-0.07926156
237	0x3d1582ef	0.03650182
238	0xbd6533b0	-0.055957496
239	0xbc28c106	-0.010299927
240	0x3c94ff69	0.018188195
241	0x3c1afe96	0.009460112
242	0xbda1b817	-0.078964405
243	0x3da37b12	0.07982458
244	0x3cabf387	0.020990146
245	0xbaf83120	-0.0018935539
246	0x3c634a68	0.01387272
247	0x3c5a661a	0.013330007
248	0xbd0431ef	-0.032274183
249	0x3d2b6132	0.04184074
250	0x3df06c0e	0.1173936
251	0x3d478e16	0.048719488
252	0xbccf5fa0	-0.025314152
253	0x3e151708	0.14559567
254	0x3d4baeb8	0.04972717
255	0xbc9c1cfe	-0.019056793

model.3.bias f4 [64]
0	0x3e0ae8eb	0.13565414
1	0xbd9e3b76	-0.07726185
2	0x3e25b471	0.16182114
3	0xbb1b5228	-0.0023700092
4	0xbdc6cc11	-0.09706891
5	0x3db25165	0.08706931
6	0x3b7c4567	0.0038493515
7	0xbdbacd7a	-0.09121223
8	0xbb506506	-0.0031798496
9	0x3ca8a1db	0.020584991
10	0xbcf0ce5a	-0.029395271
11	0x3e384157	0.17993675
12	0x3e1060b1	0.14099385
13	0x3e396cab	0.1810786
14	0x3d406a38	0.046976298
15	0xbd1f94d9	-0.03896031
16	0xbdbf6040	-0.0934453
17	0xbd876a60	-0.06612086
18	0x3dcd2c17	0.10018175
19	0x3d5b8e56	0.05360254
20	0x3d6adc08	0.057338744
21	0xbd0b0be7	-0.033946898
22	0x3e36fb09	0.178692
23	0x3d923b34	0.07140198
24	0x3e084513	0.133076
25	0x3e0b4d48	0.13603699
26	0x3d137ede	0.03600966
27	0x3e42aa15	0.19010194
28	0x3d7f1376	0.06227442
29	0xbd821457	-0.06351536
30	0x3b4e72de	0.0031501572
31	0xbce3a659	-0.027789282
32	0xbd7c1348	-0.061541826
33	0x3e2eeaf0	0.17081809
34	0x3dddf7fe	0.108383164
35	0xbd7702bf	-0.060305353
36	0xbd0c02d9	-0.034182403
37	0x3d3d0aca	0.046152867
38	0x3d0a0f41	0.033705954
39	0xbd718c87	-0.058971908
40	0x3caefe42	0.021361474
41	0x3c577f91	0.013152973
42	0xbd13400c	-0.03594975
43	0xbe095a11	-0.13413264
44	0xbc393619	-0.011304402
45	0xbde7bada	-0.11314936
46	0x3d0a5679	0.033773873
47	0x3bd9203a	0.006626156
48	0x3d51b367	0.051196482
49	0x3e06ce3f	0.13164614
50	0x3da24c60	0.079247236
51	0x3d22176f	0.03957313
52	0x3de394a3	0.111123346
53	0x3c183d3e	0.009291945
54	0x3cd115aa	0.025523026
55	0x3be0bd2f	0.00685849
56	0xbdd70d1b	-0.105005465
57	0x3dc39ff0	0.0955199
58	0x3d3e2f4e	0.046431832
59	0x3e1316a8	0.14364111
60	0x3d77a4ae	0.060459785
61	0xbc63e160	-0.013908714
62	0xbd8a35ac	-0.06748518
63	0x3dcb3ba6	0.099234864

model.6.weight f4 [1, 64]
0	0x3def34d3	0.11679997
1	0xbd318cd7	-0.043347206
2	0x3d91daf9	0.07121844
3	0xbba843ee	-0.005135051
4	0xbceca4df	-0.02888721
5	0x3d8529da	0.06502123
6	0x3dd81570	0.10550964
7	0xbdb7d95e	-0.089770064
8	0xbd29e2a2	-0.0414759
9	0x3dc42480	0.09577274
10	0xbd3b0189	-0.04565576
11	0x3d92fcdf	0.071771376
12	0x3da442b9	0.08020539
13	0x3d7d62e4	0.061861888
14	0x3d88dd1b	0.066827975
15	0xbd414159	-0.04718146
16	0xbb179827	-0.0023131461
17	0xbc750527	-0.014954842
18	0x3d79da2c	0.06099908
19	0xb9ef3a6d	-0.00045629163
20	0xbc90dcfe	-0.017683502
21	0xbd74a2bf	-0.05972552
22	0x3dd7747c	0.105202645
23	0x3d67884c	0.056526467
24	0x3d9c4b9d	0.076316096
25	0x3dbbd564	0.091715604
26	0x3d643f75	0.05572458
27	0x3dc8badf	0.09801268
28	0x3d74f458	0.059803337
29	0xbcd39dbe	-0.025832053
30	0x3d59399a	0.05303345
31	0xbdc73022	-0.097259775
32	0xbd4aecff	-0.049542423
33	0x3e008c1a	0.12553445
34	0x3df3ec74	0.11910334
35	0xbd9a9e9e	-0.07549785
36	0xbc98258c	-0.018572591
37	0x3da65c85	0.081231155
38	0xbdcc7835	-0.09983865
39	0x3d0f53d5	0.034992058
40	0xbdcd97c9	-0.10038716
41	0xbd2511ce	-0.040300183
42	0xbd63bf0b	-0.055602115
43	0xba531b77	-0.0008053104
44	0xbca821ef	-0.020523993
45	0xbd656e9e	-0.056013696
46	0x3d9b40cc	0.075807184
47	0xbd02dda9	-0.031949673
48	0xbde0201c	-0.109436244
49	0x3dae09b8	0.084979475
50	0x3db61f0e	0.08892642
51	0xbc12ae72	-0.008952724
52	0x3d50c8db	0.0509728
53	0x3d46a0aa	0.048493065
54	0xbc104a26	-0.008806741
55	0xb91fd966	-0.00015244409
56	0xbdba1548	-0.0908609
57	0x3da30bd4	0.079612404
58	0x3d48c2da	0.04901395
59	0x3daf2527	0.08552008
60	0x3d993adb	0.07481929
61	0xbce263c7	-0.027635468
62	0xbd376168	-0.04477063
63	0x3d50c532	0.05096931

exp_avg f4 [128, 131]
0	0xb6d2e659	-6.2853037e-06
1	0x3678e976	3.7090772e-06
2	0x3699bab0	4.5814886e-06
3	0x3723b88a	9.758523e-06
4	0x3587acb9	1.0108553e-06
5	0x34400903	1.7884672e-07
6	0xb262ffc1	-1.3213083e-08
7	0x32a76079	1.948523e-08
8	0x33a34386	7.6025614e-08
9	0x35e35d9e	1.6940064e-06
10	0x2ea055c3	7.291192e-11
11	0x3452dd02	1.9638176e-07
12	0x31906b4c	4.20315e-09
13	0x344c8b54	1.9049668e-07
14	0x36160637	2.235536e-06
15	0x368278b4	3.8883536e-06
16	0xb6f783a6	-7.3764995e-06
17	0xb4f63c61	-4.5865002e-07
18	0x2a631b5f	2.0171146e-13
19	0x3452dcf5	1.9638158e-07
20	0x2fa1cd5c	2.9431646e-10
21	0x33023b26	3.032178e-08
22	0xb18e9e36	-4.1507304e-09
23	0x33e39750	1.0598035e-07
24	0x363320ca	2.6692164e-06
25	0xb5ceb428	-1.5400628e-06
26	0xb42a3cba	-1.5854576e-07
27	0xb14f07be	-3.0126865e-09
28	0x357aea81	9.3473506e-07
29	0x34035b5b	1.223356e-07
30	0x33a905b4	7.870713e-08
31	0x372ff0e8	1.0486903e-05
32	0x345e87d5	2.0724777e-07
33	0x392e89d4	0.00016645278
34	0x36b50b3d	5.3955287e-06
35	0xb71163c5	-8.665903e-06
36	0x373fe72d	1.1438312e-05
37	0x34ab449c	3.1901152e-07
38	0x398569d1	0.00025446576
39	0xb79a672d	-1.8406276e-05
40	0x37cef33c	2.4670378e-05
41	0x38a4d18c	7.8591605e-05
42	0xb6931c73	-4.3842533e-06
43	0xb66df000	-3.545545e-06
44	0x37da1d7e	2.6001358e-05
45	0x378d7aeb	1.6865748e-05
46	0x366ed074	3.55861e-06
47	0x37b26162	2.1264601e-05
48	0x374bb11c	1.2140979e-05
49	0x3675d77f	3.663328e-06
50	0x36d0ff84	6.228629e-06
51	0x371fb3b5	9.51898e-06
52	0x37a72ccc	1.9928812e-05
53	0x373d47fc	1.1282038e-05
54	0x37aba016	2.0459334e-05
55	0xb62ae607	-2.5465868e-06
56	0x38c70e88	9.491766e-05
57	0x375b9884	1.30889275e-05
58	0x34d9e08e	4.0582785e-07
59	0x357d8ee2	9.4457766e-07
60	0x36b16ed3	5.2879127e-06
61	0x36403dd6	2.8646223e-06
62	0x36b25be6	5.3155118e-06
63	0x37ee1fc3	2.8386601e-05
64	0x363153b0	2.6423768e-06
65	0xb6f7e64c	-7.3879837e-06
66	0x37150a19	8.883443e-06
67	0x35cc8b76	1.5239773e-06
68	0xb6164934	-2.2394352e-06
69	0xb731ee70	-1.0605538e-05
70	0x3712e100	8.754665e-06
71	0xb6799ef8	-3.7196423e-06
72	0x36092348	2.0435127e-06
73	0xb4e2a424	-4.2215208e-07
74	0x373a8ee2	1.1119731e-05
75	0x349f7ec4	2.9708292e-07
76	0x370085c4	7.660539e-06
77	0xb4d6f106	-4.0035974e-07
78	0xb5b26e68	-1.3294166e-06
79	0x35e51510	1.706796e-06
80	0x371d0875	9.359898e-06
81	0x378a7e72	1.6509763e-05
82	0xb65e8f0d	-3.3163844e-06
83	0x36171c6b	2.2517295e-06
84	0x35701408	8.9436116e-07
85	0xb778ac06	-1.4822004e-05
86	0x378f8906	1.7110735e-05
87	0x34b7b926	3.422112e-07
88	0x37157a43	8.909558e-06
89	0xb7536e8e	-1.2602321e-05
90	0x35661e9f	8.5726236e-07
91	0xb79cf235	-1.8709436e-05
92	0x3776a159	1.4700309e-05
93	0xb5cac051	-1.5106144e-06
94	0x370f8ce1	8.556265e-06
95	0x37745be4	1.4564928e-05
96	0xb75b9947	-1.3089105e-05
97	0x369e1666	4.7113745e-06
98	0x38cb9fea	9.7095806e-05
99	0xb75d5b96	-1.31939505e-05
100	0xb659d8fd	-3.2461824e-06
101	0x36042665	1.9691881e-06
102	0x35b35c11	1.3363334e-06
103	0xb4f4624e	-4.5520068e-07
104	0xb6196f8c	-2.2863705e-06
105	0xb675cab1	-3.6625827e-06
106	0x00000000	0.0
107	0xb76ad2eb	-1.3996595e-05
108	0x3767e042	1.3820887e-05
109	0xb6426bc5	-2.8970983e-06
110	0xb68fd2c2	-4.2862675e-06
111	0x3802022f	3.099645e-05
112	0xb29548e0	-1.7379023e-08
113	0xb7aae7f8	-2.0373598e-05
114	0x38d7059e	0.00010253045
115	0x38607363	5.3513224e-05
116	0x00000000	0.0
117	0x388052ad	6.118915e-05
118	0x38dd2a67	0.00010545999
119	0x3687e137	4.049532e-06
120	0x382edb2e	4.168896e-05
121	0x37b8d35f	2.2032937e-05
122	0x38cf5c94	9.887773e-05
123	0x3cc5e26b	0.024155816
124	0x3cb53dba	0.02212416
125	0x3c863c04	0.01638604
126	0x3c90549d	0.017618472
127	0x3cb71fdb	0.022354057
128	0x3cb5765a	0.022151161
129	0x3cbc2bbc	0.022970073
130	0x3e5affd4	0.21386653
131	0xa3ba0395	-2.0167677e-17
132	0xb98dfc67	-0.0002708167
133	0x361adeec	2.3077546e-06
134	0x397707fe	0.00023558733
135	0x2dc81f8b	2.2751375e-11
136	0x00000000	0.0
137	0x00000000	0.0
138	0x00000000	0.0
139	0x00000000	0.0
140	0x00000000	0.0
141	0x3600e657	1.9207562e-06
142	0x00000000	0.0
143	0x00000000	0.0
144	0x00000000	0.0
145	0x8219be59	-1.1295292e-37
146	0x23c7f4d1	2.1679307e-17
147	0x00000000	0.0
148	0x00000000	0.0
149	0x00000000	0.0
150	0x3811340e	3.4619174e-05
151	0x2224c359	2.232956e-18
152	0x00000000	0.0
153	0xb968e0ea	-0.00022209031
154	0x232b8ee2	9.300185e-18
155	0xa3687522	-1.2601549e-17
156	0x00000000	0.0
157	0x231ed44d	8.610154e-18
158	0xb9092601	-0.00013079496
159	0x22ee969b	6.466949e-18
160	0x00000000	0.0
161	0xa2f3c984	-6.6078645e-18
162	0x361adeec	2.3077546e-06
163	0x383ef5f5	4.5528595e-05
164	0x3a923a72	0.0011156334
165	0x361adeec	2.3077546e-06
166	0x383ef5f5	4.5528595e-05
167	0xb9b801a8	-0.0003509645
168	0x3811340e	3.4619174e-05
169	0x3acc3c64	0.0015581963
170	0x39f71a42	0.00047131075
171	0x3a5365d6	0.0008064186
172	0x39e83f5b	0.00044297692
173	0xb9a28d7d	-0.00031004465
174	0xb849d1f6	-4.8117676e-05
175	0x3832fa85	4.267182e-05
176	0xb9f25abb	-0.00046225436
177	0x397e9ee8	0.00024282525
178	0x3816c14d	3.5942812e-05
179	0x38093f31	3.2722197e-05
180	0x37374b51	1.0925186e-05
181	0xb91d046c	-0.00014974334
182	0xb7ec8186	-2.8193706e-05
183	0x3826e5ba	3.9791434e-05
184	0x39859a37	0.00025482636
185	0x39c5b45a	0.0003770914
186	0x3a1eacce	0.00060529716
187	0xb852982f	-5.0209634e-05
188	0xb8adffd5	-8.296935e-05
189	0x397f8f33	0.00024372041
190	0x38a0976d	7.6576e-05
191	0xb44dfb7f	-1.9183607e-07
192	0x255e429c	1.9277999e-16
193	0x25144d0f	1.2863062e-16
194	0xb91682d8	-0.00014353858
195	0xb98d0976	-0.00026900665
196	0x2488b32c	5.928413e-17
197	0xb8507ebf	-4.9709106e-05
198	0xa3f53680	-2.6586035e-17
199	0x3916dd51	0.00014387562
200	0x394684e2	0.00018932254
201	0x387a636d	5.9697242e-05
202	0x235f56d1	1.2107238e-17
203	0x3824a2ef	3.925239e-05
204	0x23432c81	1.0580395e-17
205	0x3654f727	3.1734323e-06
206	0x380971d9	3.2769374e-05
207	0x2426632c	3.6079514e-17
208	0x23d8f381	2.3521895e-17
209	0xb8962035	-7.1585564e-05
210	0x24685d22	5.0385867e-17
211	0x3823517a	3.893811e-05
212	0x38dabfd0	0.00010430778
213	0x256dbcd4	2.062045e-16
214	0x37381b65	1.0973633e-05
215	0x2350dd42	1.1322556e-17
216	0xb35017a6	-4.8450282e-08
217	0x24ad9552	7.527975e-17
218	0xb847d308	-4.7641835e-05
219	0x232fb641	9.525363e-18
220	0xb8d653f0	-0.0001021995
221	0x243efae4	4.1412195e-17
222	0xb533ee57	-6.7029526e-07
223	0x395753c3	0.00020535201
224	0x3983a807	0.00025111457
225	0x39b7e98d	0.0003507849
226	0xb5454400	-7.348717e-07
227	0x2aaf5a23	3.114879e-13
228	0x38cdd686	9.81512e-05
229	0x39d8b2f4	0.0004133206
230	0xb89b065c	-7.3921605e-05
231	0x36b6170e	5.4267066e-06
232	0xb88e6e1b	-6.7915964e-05
233	0x2b213e44	5.72851e-13
234	0xb95dafc5	-0.00021141682
235	0x240793e3	2.9398724e-17
236	0xb800d099	-3.071185e-05
237	0x00000000	0.0
238	0xb7a15ea8	-1.9236773e-05
239	0xb7f245cb	-2.8881148e-05
240	0x2f841722	2.4027097e-10
241	0xb80d6656	-3.3712327e-05
242	0x3a185576	0.00058110745
243	0x3999032d	0.000291848
244	0x39806649	0.0002449027
245	0xb669f830	-3.486417e-06
246	0x35a95cfc	1.2618543e-06
247	0x00000000	0.0
248	0x3a28b196	0.0006435154
249	0x39f7869e	0.0004721181
250	0x39f43f55	0.00046586493
251	0xb940663b	-0.0001834863
252	0xb8de7fd5	-0.000106095955
253	0x3a763ec5	0.00093935087
254	0x3e7104da	0.23537007
255	0x3dfb2039	0.12262005

exp_avg_sq f4 [128, 131]
0	0x3204bcbd	7.726325e-09
1	0x33af8b92	8.17446e-08
2	0x32a476c4	1.9146121e-08
3	0x35199c9d	5.7224844e-07
4	0x30259597	6.023923e-10
5	0x2fb7e494	3.344992e-10
6	0x31999fef	4.4710684e-09
7	0x317dc15f	3.6926264e-09
8	0x31925e70	4.2598955e-09
9	0x3223bf7f	9.53139e-09
10	0x31c86fa1	5.833457e-09
11	0x311d1804	2.2860158e-09
12	0x310afa9b	2.0224096e-09
13	0x3100dec6	1.8753084e-09
14	0x319de905	4.5957926e-09
15	0x320c57a3	8.168999e-09
16	0x31be3422	5.5356546e-09
17	0x314d0588	2.983457e-09
18	0x311d7fe1	2.2919198e-09
19	0x31884660	3.9661217e-09
20	0x310634e6	1.9529636e-09
21	0x2fe16196	4.09966e-10
22	0x31d74bce	6.2659415e-09
23	0x31a4031e	4.7733826e-09
24	0x31ca2712	5.8834155e-09
25	0x30897ffa	1.0004435e-09
26	0x315dd328	3.227976e-09
27	0x319c4ded	4.5490567e-09
28	0x31890178	3.9873918e-09
29	0x31991da8	4.4562576e-09
30	0x311f5545	2.3186015e-09
31	0x311b25b3	2.2576898e-09
32	0x3161b294	3.284332e-09
33	0x36073f0c	2.0153266e-06
34	0x32db53c1	2.5533042e-08
35	0x32cdf0d6	2.397466e-08
36	0x333c6f0a	4.387315e-08
37	0x32390fd7	1.0772019e-08
38	0x36809626	3.832177e-06
39	0x3430cf14	1.6466612e-07
40	0x3420ba99	1.4969045e-07
41	0x33ed95f4	1.1063449e-07
42	0x33516828	4.8756334e-08
43	0x33fc19cc	1.1739357e-07
44	0x34382dd9	1.7153015e-07
45	0x348aab4a	2.5829132e-07
46	0x33f7710c	1.1522397e-07
47	0x33e1c70a	1.0513584e-07
48	0x3416dc79	1.4050046e-07
49	0x340843fe	1.2690722e-07
50	0x33c63277	9.229273e-08
51	0x349232a5	2.7231468e-07
52	0x34911045	2.7020192e-07
53	0x34924fd5	2.7252705e-07
54	0x34819323	2.4135178e-07
55	0x34ab3363	3.188862e-07
56	0x34b28d80	3.3258038e-07
57	0x34586033	2.0151565e-07
58	0x3250b409	1.2148129e-08
59	0x32b14710	2.0637827e-08
60	0x3308be68	3.183814e-08
61	0x335756be	5.013748e-08
62	0x3346f5a3	4.6323873e-08
63	0x338c009d	6.5193696e-08
64	0x3353b179	4.9288676e-08
65	0x336f2d3c	5.5687664e-08
66	0x333ff26c	4.4691134e-08
67	0x333e1b55	4.426268e-08
68	0x33183552	3.5438752e-08
69	0x32d0d622	2.4311763e-08
70	0x32e38b1d	2.648954e-08
71	0x329e5013	1.8430034e-08
72	0x328a807d	1.6123744e-08
73	0x325139f7	1.2178581e-08
74	0x32f7374d	2.8779732e-08
75	0x32f62fa8	2.865984e-08
76	0x3301a178	3.0182008e-08
77	0x32d1cf4d	2.4425072e-08
78	0x32c7907e	2.3232356e-08
79	0x330a4bac	3.2199452e-08
80	0x334e846a	4.8083542e-08
81	0x32dccc78	2.5704352e-08
82	0x335f8bfa	5.204854e-08
83	0x3323bc9b	3.812293e-08
84	0x330ac25a	3.230739e-08
85	0x3312e184	3.419838e-08
86	0x32b2f426	2.0832953e-08
87	0x32c146e1	2.2500389e-08
88	0x32afc1e1	2.0460847e-08
89	0x3296a688	1.7538028e-08
90	0x329caeb1	1.824023e-08
91	0x33226cc8	3.78175e-08
92	0x33067f8c	3.131531e-08
93	0x32e2b705	2.639309e-08
94	0x33178744	3.528045e-08
95	0x33259369	3.8551125e-08
96	0x3323bb1d	3.8121573e-08
97	0x330a29e6	3.2168735e-08
98	0x32dc01bc	2.561216e-08
99	0x32a07b04	1.8682393e-08
100	0x32a74407	1.9472294e-08
101	0x32358dee	1.0567858e-08
102	0x335c6f34	5.132388e-08
103	0x325f62d0	1.3002776e-08
104	0x31b07b6a	5.1363047e-09
105	0x3245ebab	1.1520494e-08
106	0x00000000	0.0
107	0x331c276d	3.6357438e-08
108	0x32d262d3	2.4492158e-08
109	0x32dd6a56	2.5776142e-08
110	0x32c6a454	2.3124962e-08
111	0x34274017	1.5576403e-07
112	0x33013cbd	3.0090394e-08
113	0x34fd0a00	4.7132198e-07
114	0x356629dc	8.574259e-07
115	0x348a0a96	2.5712205e-07
116	0x00000000	0.0
117	0x35be84a4	1.4194707e-06
118	0x3580f43a	9.607822e-07
119	0x3501b2f7	4.8316673e-07
120	0x34f41446	4.5463293e-07
121	0x34bc4d8b	3.507415e-07
122	0x34a991a6	3.1584676e-07
123	0x3d14e4f9	0.036351178
124	0x3d1139da	0.035455562
125	0x3d11ac40	0.03556466
126	0x3d1c6ec7	0.038191583
127	0x3d1317aa	0.03591124
128	0x3d1677f4	0.03673549
129	0x3d17506a	0.036941923
130	0x4025587d	2.583526
131	0x32af3184	2.0395198e-08
132	0x350ecdff	5.3198886e-07
133	0x333dd926	4.4202487e-08
134	0x36ac209a	5.1297948e-06
135	0x33061e14	3.1226662e-08
136	0x00000000	0.0
137	0x00000000	0.0
138	0x00000000	0.0
139	0x00000000	0.0
140	0x00000000	0.0
141	0x327a0344	1.4552658e-08
142	0x00000000	0.0
143	0x00000000	0.0
144	0x00000000	0.0
145	0x2ef59c05	1.1169025e-10
146	0x330b900a	3.2494462e-08
147	0x00000000	0.0
148	0x00000000	0.0
149	0x00000000	0.0
150	0x34043ac5	1.2314838e-07
151	0x328d4a2e	1.6448293e-08
152	0x00000000	0.0
153	0x33fbeec0	1.1731527e-07
154	0x31b21ca4	5.183738e-09
155	0x3315f10b	3.4910993e-08
156	0x00000000	0.0
157	0x32f370bf	2.8340194e-08
158	0x33c1ba90	9.0211984e-08
159	0x3295a1c5	1.7419447e-08
160	0x00000000	0.0
161	0x31d5e42a	6.225055e-09
162	0x32923003	1.701847e-08
163	0x330c4673	3.2660363e-08
164	0x379c6fe3	1.864875e-05
165	0x336b81a3	5.4833105e-08
166	0x33270303	3.8885457e-08
167	0x34b9e898	3.462817e-07
168	0x3415e406	1.3959661e-07
169	0x3806a6f1	3.2103566e-05
170	0x35ebfb5a	1.7582017e-06
171	0x3628110d	2.5043876e-06
172	0x35e79df9	1.7256817e-06
173	0x35ae394d	1.2980687e-06
174	0x35cbf455	1.5195789e-06
175	0x35403203	7.159835e-07
176	0x353f0948	7.116655e-07
177	0x34fe22ea	4.733659e-07
178	0x34f381e6	4.535679e-07
179	0x35a6835d	1.2406196e-06
180	0x35082275	5.071409e-07
181	0x35c178e9	1.441481e-06
182	0x3504943c	4.938954e-07
183	0x35c19cfc	1.4425309e-06
184	0x35bb8726	1.3971919e-06
185	0x369a03d5	4.5900038e-06
186	0x36aa632a	5.077939e-06
187	0x35f2450f	1.8050504e-06
188	0x34e36c92	4.236104e-07
189	0x356b332e	8.76188e-07
190	0x340d644c	1.3168136e-07
191	0x3422e255	1.5169765e-07
192	0x341ccdda	1.460352e-07
193	0x3399622f	7.142477e-08
194	0x34860e21	2.4969725e-07
195	0x340e3347	1.3243435e-07
196	0x33ac1675	8.013459e-08
197	0x3482396c	2.4256167e-07
198	0x33718d15	5.62405e-08
199	0x33c3d036	9.1182685e-08
200	0x345fee1a	2.0855114e-07
201	0x3401578d	1.2045912e-07
202	0x333f3d91	4.4526647e-08
203	0x33d10eef	9.735037e-08
204	0x33278fea	3.9013607e-08
205	0x3420b448	1.4966747e-07
206	0x3484e748	2.4755195e-07
207	0x333ab8b3	4.3474483e-08
208	0x32a1ec04	1.8850194e-08
209	0x34e20dc9	4.210581e-07
210	0x33fc3dee	1.17459294e-07
211	0x34dc224a	4.1003142e-07
212	0x3533eeee	6.7030385e-07
213	0x33e638f0	1.07205665e-07
214	0x341e8aa2	1.4765331e-07
215	0x33a8ef14	7.866598e-08
216	0x33777b82	5.76215e-08
217	0x3421dcbe	1.5074599e-07
218	0x3502bfc4	4.870783e-07
219	0x332a934f	3.9715186e-08
220	0x3501fef3	4.8427245e-07
221	0x34a33840	3.0402043e-07
222	0x345c706a	2.0529993e-07
223	0x358e81b0	1.0617568e-06
224	0x3536d7f3	6.811453e-07
225	0x348a06a7	2.5709343e-07
226	0x34fff36b	4.767456e-07
227	0x34087d5e	1.2711595e-07
228	0x3493e58b	2.7547898e-07
229	0x34aece72	3.2560234e-07
230	0x34c2c610	3.6279425e-07
231	0x3527e255	6.2541704e-07
232	0x343bc53a	1.7487483e-07
233	0x341c469a	1.4554317e-07
234	0x34d2f920	3.929681e-07
235	0x34237bc4	1.5225584e-07
236	0x351b163f	5.777437e-07
237	0x00000000	0.0
238	0x35114bfc	5.412728e-07
239	0x35022d1a	4.8494405e-07
240	0x34cb11a7	3.782454e-07
241	0x341eee36	1.4801557e-07
242	0x3693b287	4.4017247e-06
243	0x37094b9b	8.18344e-06
244	0x3650db0a	3.1121913e-06
245	0x3519ec00	5.7340367e-07
246	0x3320461c	3.7316667e-08
247	0x00000000	0.0
248	0x371064c6	8.606532e-06
249	0x37023b75	7.762447e-06
250	0x368ac742	4.135917e-06
251	0x35f06a03	1.7912247e-06
252	0x3673ba8c	3.6318406e-06
253	0x36ce1bbb	6.1425067e-06
254	0x3f2e3b85	0.6805957
255	0x3f2064b5	0.62653667

exp_avg f4 [128]
0	0x392ebe8a	0.00016664914
1	0x3a923a72	0.0011156334
2	0x39e652f0	0.00043930812
3	0x393a0a40	0.0001774216
4	0x3a2e298a	0.0006643763
5	0x02123f6f	1.074459e-37
6	0x3b312f5e	0.002703629
7	0xb9e3c650	-0.00043444568
8	0x3a48baf3	0.0007657252
9	0x3a4b8506	0.00077636575
10	0xbab6a277	-0.0013933916
11	0xba331b68	-0.0006832392
12	0x3a825e49	0.0009946312
13	0x39443e10	0.00018715137
14	0x021bbe05	1.1442134e-37
15	0xbb271ad6	-0.0025498173
16	0xbb2b7226	-0.0026160567
17	0x39e1e1be	0.00043083535
18	0x39b3ee3c	0.0003431904
19	0xbaf0d9e6	-0.0018375486
20	0xb999b146	-0.00029314513
21	0x021c10a3	1.1465844e-37
22	0xba32bf91	-0.0006818707
23	0x0219ee67	1.1309083e-37
24	0x3b673a31	0.0035282488
25	0xb8762640	-5.8686594e-05
26	0x3a116340	0.00055461004
27	0xbadafa78	-0.0016706726
28	0x3a89e3fc	0.0010520215
29	0x3b108fa6	0.0022058277
30	0x3ac46cb8	0.0014986014
31	0xb90083d3	-0.0001225614
32	0xb8bec42a	-9.0964444e-05
33	0x390300b4	0.00012493395
34	0x3a1d3a6f	0.0005997782
35	0x021aad10	1.13638e-37
36	0x3a909dac	0.0011033318
37	0xb9724974	-0.00023106282
38	0x393b27e8	0.00017848576
39	0x3a9f0e52	0.0012135005
40	0x3791d6a0	1.738529e-05
41	0x3a207735	0.0006121279
42	0x3a3e3456	0.00072557235
43	0x3a47d081	0.0007622317
44	0x3a08fe8b	0.0005225918
45	0x00000000	0.0
46	0x39cf8542	0.00039581402
47	0x3a093012	0.0005233298
48	0x3ab6dcb0	0.0013951268
49	0x00000000	0.0
50	0xb96c0cc8	-0.00022511475
51	0xbaa1c0a5	-0.0012340738
52	0x39b5d244	0.0003467967
53	0x39e61360	0.00043883454
54	0xb9b3c43c	-0.00034287747
55	0x39d620f8	0.00040841824
56	0xb82a33c0	-4.0579354e-05
57	0x00000000	0.0
58	0xba44fb80	-0.0007514283
59	0x3860b4c0	5.35741e-05
60	0x37c2dcc0	2.3229397e-05
61	0x3a28bd24	0.00064368756
62	0x39c55b9d	0.00037643025
63	0x3a4f546c	0.0007909003
64	0x39a2fa09	0.0003108534
65	0x3a44ffce	0.00075149245
66	0x38c78d70	9.515404e-05
67	0xbad78437	-0.0016442601
68	0xb9c755e8	-0.00038020243
69	0xb8d96310	-0.00010365818
70	0x3a7fbd07	0.00097556453
71	0xbaa62af9	-0.0012677602
72	0xb924d620	-0.00015720027
73	0xbaf1bbe5	-0.0018442838
74	0x3852a544	5.0221817e-05
75	0xb96adc4c	-0.00022398046
76	0x3a9751a8	0.0011544721
77	0xba08061c	-0.00051888986
78	0xb9293e90	-0.00016140402
79	0x00000000	0.0
80	0x3a360279	0.00069431175
81	0x394e1c30	0.00019656192
82	0x397e6882	0.0002426226
83	0x3a2ac855	0.0006514837
84	0x3964853d	0.0002179341
85	0x39e8d10a	0.00044406235
86	0x37c90080	2.39613e-05
87	0xb9fe085e	-0.0004845289
88	0x36361c00	2.7136412e-06
89	0x3a833a44	0.0010011871
90	0xba96fbff	-0.0011519192
91	0xbb0c2008	-0.0021381397
92	0x39fc2fd8	0.00048100832
93	0xba5a3756	-0.0008324286
94	0xb8b367a6	-8.554691e-05
95	0xb562a6d3	-8.443432e-07
96	0xb7b83b00	-2.1961983e-05
97	0x3aa96d4c	0.001292625
98	0x391c5546	0.00014909086
99	0x3ad71bf2	0.0016411527
100	0x3b86413c	0.004097132
101	0xb87e8310	-6.068038e-05
102	0xb99a4994	-0.0002942799
103	0xb764a52e	-1.3628318e-05
104	0x38d6bb60	0.000102392165
105	0xb8727d00	-5.781371e-05
106	0x3b74ea2d	0.0037371025
107	0xb84baeea	-4.8561873e-05
108	0x3a9807e2	0.0011599029
109	0xb9f2815c	-0.00046254217
110	0x3a600fbf	0.0008547268
111	0x39e4ab60	0.00043615233
112	0x39c9d770	0.0003849822
113	0x38b89728	8.801959e-05
114	0xb9b3602a	-0.00034213188
115	0x3ba0de7a	0.004909334
116	0x3afd3400	0.0019317865
117	0xbaf3f35e	-0.0018611958
118	0xb8b669ea	-8.698164e-05
119	0x38ccf588	9.773212e-05
120	0xba2203bc	-0.0006180366
121	0xb94f4184	-0.00019765465
122	0xba231687	-0.00062213134
123	0xb6df2d60	-6.6512002e-06
124	0xba98e3b6	-0.0011664543
125	0xb8500f5a	-4.960536e-05
126	0x39740556	0.00023271641
127	0x3a927752	0.0011174476

exp_avg_sq f4 [128]
0	0x3606e1de	2.0099028e-06
1	0x379c6fe4	1.8648752e-05
2	0x379f2311	1.8970606e-05
3	0x378499fb	1.5807329e-05
4	0x3785dfbe	1.5959024e-05
5	0x2d1c86d7	8.897514e-12
6	0x3786292a	1.5993213e-05
7	0x377aca5f	1.4948279e-05
8	0x374142d6	1.1519258e-05
9	0x37d0cbf0	2.4890498e-05
10	0x388c0728	6.677053e-05
11	0x36dbbef1	6.548937e-06
12	0x367b5324	3.7450309e-06
13	0x389d71b2	7.507521e-05
14	0x2f9c8a6a	2.8474584e-10
15	0x375bed43	1.3108659e-05
16	0x37f89dd2	2.9637395e-05
17	0x36994da7	4.5687952e-06
18	0x36d588ce	6.363821e-06
19	0x388bea28	6.6716515e-05
20	0x371a0739	9.180797e-06
21	0x2e07e818	3.0901587e-11
22	0x375687c6	1.2787006e-05
23	0x2e7af677	5.7062324e-11
24	0x384f5649	4.9433005e-05
25	0x381ac682	3.6901336e-05
26	0x388cf536	6.721394e-05
27	0x36e181cf	6.7206342e-06
28	0x37ce942a	2.4626108e-05
29	0x386529df	5.463685e-05
30	0x37649895	1.3625385e-05
31	0x35426d31	7.2429526e-07
32	0x352840fd	6.267945e-07
33	0x3589f966	1.027988e-06
34	0x36e7c1f3	6.906915e-06
35	0x2f085dfa	1.2402515e-10
36	0x37ad1e3a	2.0637282e-05
37	0x38071848	3.2209122e-05
38	0x37bea5eb	2.2727027e-05
39	0x38a432a3	7.829561e-05
40	0x3618de07	2.2779002e-06
41	0x369f8675	4.754222e-06
42	0x378f79bb	1.7103614e-05
43	0x37cb8a7f	2.4263978e-05
44	0x392505ab	0.00015737738
45	0x00000000	0.0
46	0x3813842b	3.5170622e-05
47	0x37cb0343	2.4201005e-05
48	0x3728a978	1.0053038e-05
49	0x00000000	0.0
50	0x373624fb	1.08566555e-05
51	0x370dca6c	8.451385e-06
52	0x386575ee	5.4707685e-05
53	0x3893a147	7.0395465e-05
54	0x392d5233	0.00016529187
55	0x371be105	9.291111e-06
56	0x382e220d	4.1516545e-05
57	0x00000000	0.0
58	0x37b0a47a	2.1057425e-05
59	0x36f85e3e	7.401947e-06
60	0x388b02e9	6.6285786e-05
61	0x371d2c33	9.36822e-06
62	0x369a13bc	4.591855e-06
63	0x37fbf14a	3.003389e-05
64	0x37666ba8	1.3734134e-05
65	0x37c999ac	2.4032626e-05
66	0x3840caf0	4.5965367e-05
67	0x37f41378	2.9096132e-05
68	0x375bb7aa	1.309618e-05
69	0x3544fa75	7.338015e-07
70	0x37715c89	1.4386264e-05
71	0x37c6015d	2.3604074e-05
72	0x361d8587	2.3472546e-06
73	0x382841e1	4.0115676e-05
74	0x35bd52f6	1.4105742e-06
75	0x37f22fdd	2.8870936e-05
76	0x37580b95	1.28773e-05
77	0x37f7f983	2.9560882e-05
78	0x37ba9551	2.2242459e-05
79	0x00000000	0.0
80	0x39146480	0.00014151819
81	0x3960b6d6	0.00021430416
82	0x34d34f01	3.9359296e-07
83	0x376138e1	1.3424288e-05
84	0x34d27405	3.9199963e-07
85	0x37100f20	8.58659e-06
86	0x3673fc2e	3.635661e-06
87	0x36389aad	2.750817e-06
88	0x378ebe15	1.7016233e-05
89	0x373a88ef	1.1118346e-05
90	0x380eebc5	3.4075016e-05
91	0x36ab1a72	5.0992758e-06
92	0x37bf3b46	2.2796576e-05
93	0x36434139	2.909523e-06
94	0x350999f1	5.126049e-07
95	0x3218ea69	8.900863e-09
96	0x37a112b1	1.92014e-05
97	0x37cdf963	2.4554034e-05
98	0x36eb3647	7.0098645e-06
99	0x3799a403	1.8315395e-05
100	0x38ebf5b4	0.00011251439
101	0x3502061a	4.843765e-07
102	0x371ab48f	9.221155e-06
103	0x34f60981	4.5827986e-07
104	0x36ffa474	7.618737e-06
105	0x37acff5f	2.0622914e-05
106	0x37bed76d	2.275008e-05
107	0x3555dbfd	7.966881e-07
108	0x382b704a	4.0874154e-05
109	0x3822eae6	3.8842576e-05
110	0x362051c3	2.388945e-06
111	0x37f708d2	2.9448802e-05
112	0x380796ab	3.232683e-05
113	0x368b09ca	4.1436624e-06
114	0x37f7eeb9	2.9555858e-05
115	0x3910f4cd	0.00013824106
116	0x38aed64c	8.3368825e-05
117	0x38fa3c89	0.000119322045
118	0x36a073dc	4.7818594e-06
119	0x371621b4	8.948544e-06
120	0x37f80212	2.9564868e-05
121	0x36a619f3	4.9502064e-06
122	0x36c50cd1	5.8725495e-06
123	0x3694d079	4.435013e-06
124	0x370c425a	8.360099e-06
125	0x34f7094b	4.6014097e-07
126	0x355c3add	8.2042044e-07
127	0x38498dab	4.8054073e-05

exp_avg f4 [64, 128]
0	0x3a8affa4	0.0010604751
1	0x3ba2dd26	0.0049702106
2	0x3e0b5946	0.13608274
3	0x3ddf56ed	0.10905252
4	0x3e4110f7	0.18854128
5	0x00000000	0.0
6	0xbbf4f32d	-0.007475278
7	0xbaaa033c	-0.0012970935
8	0x3e5ec0c6	0.21753225
9	0x3e8b77b8	0.27239776
10	0x3d138e02	0.0360241
11	0x3b83fa67	0.004027653
12	0x3e5002b0	0.20313525
13	0x3d954e7b	0.072903596
14	0x82190d8d	-1.1244554e-37
15	0x3cdfcbba	0.027318824
16	0xbbc749b0	-0.0060817823
17	0x3ddb71f7	0.107150964
18	0x3e15df16	0.14635882
19	0x3db7f836	0.08982889
20	0x3e36997f	0.17831992
21	0x821c340e	-1.1476009e-37
22	0x3b5af7f2	0.0033411947
23	0x821c42aa	-1.1480202e-37
24	0xbbbe90aa	-0.005815585
25	0x3e22b366	0.15888748
26	0x3d9ea8ec	0.07747063
27	0x3b0f5c92	0.0021875245
28	0x3e85f624	0.26164353
29	0x3e1a8ae7	0.1509205
30	0x3e82fe00	0.25584412
31	0x3b2fed83	0.002684445
32	0xbb6537a0	-0.0034975782
33	0xba80db26	-0.0009830936
34	0x3e831d7e	0.25608438
35	0x82199a70	-1.1284986e-37
36	0x3e5b4063	0.2141128
37	0x3db12622	0.086498514
38	0x3db41ffa	0.087951615
39	0xb9a86ba0	-0.00032123644
40	0x3d4115b9	0.047139857
41	0x3df3d74a	0.119062975
42	0x3e3a3321	0.18183567
43	0x3dd51ea0	0.10406232
44	0x3c533ee9	0.012893417
45	0x00000000	0.0
46	0x3e1de636	0.1541985
47	0x3d8e933a	0.06961675
48	0x3ce0af86	0.027427446
49	0x00000000	0.0
50	0x3da6df12	0.08148016
51	0xbc5761cb	-0.013145874
52	0x3daa0332	0.08301391
53	0x3de0ec8e	0.10982619
54	0x3d1c4aba	0.038157202
55	0xbce19836	-0.0275384
56	0x3df538a7	0.11973696
57	0x00000000	0.0
58	0xbb9fd0c2	-0.004877181
59	0x3e3e7eb2	0.18603018
60	0x3db366f0	0.08759868
61	0x3e23985b	0.15976088
62	0x3e313c6c	0.17308205
63	0x3df08dbe	0.11745785
64	0x3dd85e20	0.10564828
65	0xbc5f5b5a	-0.01363262
66	0x3e050a83	0.12992291
67	0x3c8541a0	0.016266644
68	0xbab95625	-0.0014140053
69	0x3affe9cd	0.0019524634
70	0x3e36158b	0.17781655
71	0xbb47b5e3	-0.0030473403
72	0x3b1b9722	0.0023741205
73	0x3c8c8603	0.017153746
74	0xbaaca2d9	-0.0013171091
75	0x3dc8bf7b	0.09802147
76	0xbd06dc6c	-0.032925054
77	0xbcba1ea4	-0.022719689
78	0x3e14687f	0.14492987
79	0x00000000	0.0
80	0x3dc307d6	0.09522979
81	0x3ce1c556	0.027559917
82	0x3a986931	0.0011628029
83	0x3e522110	0.20520425
84	0xbbb66590	-0.0055663064
85	0x3ad0e5f5	0.0015937673
86	0x3e0bcf2c	0.13653249
87	0x3c145fd9	0.009056055
88	0x3dc3cedf	0.09560942
89	0x3e083962	0.1330314
90	0x3c222a1c	0.009897735
91	0x3c1cfb28	0.009581365
92	0x3ddd486e	0.108048305
93	0x3bf0e7ac	0.007351836
94	0xbb8db68e	-0.0043247407
95	0xaac5de38	-3.5148425e-13
96	0x3e1caf36	0.15301213
97	0x3d3d19d5	0.046167213
98	0x3baed2a5	0.0053351694
99	0xbc75e67e	-0.015008567
100	0x3db16cf1	0.08663357
101	0xb9ca17ca	-0.00038546167
102	0x3decef80	0.115691185
103	0xbb390b7b	-0.0028235603
104	0x3d638ac8	0.055552274
105	0x3d82a1b4	0.06378499
106	0x3cb995b4	0.022654392
107	0xbb3db4cc	-0.0028946875
108	0x3e116b49	0.14201082
109	0x3dcd94c0	0.100381374
110	0x3c05416a	0.008133272
111	0x3c688df8	0.014194004
112	0x3df22fa6	0.118254945
113	0x3d0d5a08	0.03450969
114	0x3d9c034f	0.076178186
115	0x3acb37c4	0.001550429
116	0x3c231ed8	0.009956084
117	0xbc25c6ff	-0.010118245
118	0x3afa4f51	0.0019097124
119	0x3d868f05	0.065702476
120	0x3dacf58c	0.08445272
121	0x3d1527b0	0.036414802
122	0x3b2b7c28	0.0026166532
123	0x3cba8b5e	0.022771534
124	0x3c4291fb	0.011875625
125	0x3474c31c	2.2795251e-07
126	0x3be6fb93	0.007049033
127	0x3dfb72ba	0.12277742
128	0xb7471e68	-1.1868404e-05
129	0xb7ae1a42	-2.0754644e-05
130	0x38d28420	0.000100381905
131	0xb79336ad	-1.7549226e-05
132	0x399a9f8d	0.00029492044
133	0x821d5d9d	-1.1561404e-37
134	0x39e040ae	0.000427728
135	0xb781b804	-1.5463687e-05
136	0x39ad988a	0.00033110782
137	0x38f44429	0.000116475225
138	0x38d12960	9.973603e-05
139	0x33c117f7	8.991622e-08
140	0x3886f0c8	6.434467e-05
141	0x39662991	0.00021949994
142	0x0211eedd	1.0721468e-37
143	0xb60965e8	-2.0473908e-06
144	0x37805753	1.5299453e-05
145	0x390247f3	0.0001242457
146	0x374f0a0a	1.2340499e-05
147	0xb7d438a3	-2.5298743e-05
148	0xb79b2008	-1.8492356e-05
149	0x021cb53a	1.1513079e-37
150	0xb717e817	-9.054339e-06
151	0x00000000	0.0
152	0x02144e19	1.0895736e-37
153	0xb83b585b	-4.466656e-05
154	0x39ba6408	0.00035551214
155	0x12c0aa6d	1.2158917e-27
156	0x397020fb	0.0002290047
157	0x37fdc9c1	3.02539e-05
158	0x3984ed65	0.00025353875
159	0x32c2d6ce	2.2682254e-08
160	0x16553152	1.7221566e-25
161	0x021452b2	1.0897055e-37
162	0x398d815f	0.00026990005
163	0x02198a53	1.1280362e-37
164	0xb86d0421	-5.650905e-05
165	0x387bdb77	6.0047456e-05
166	0xb7c724b3	-2.3739738e-05
167	0x39812bea	0.00024637516
168	0xa50b2c68	-1.2071374e-16
169	0x386df3ba	5.673219e-05
170	0x39953de8	0.00028465618
171	0xb7c5865b	-2.3546794e-05
172	0x394b0f62	0.00019365319
173	0x00000000	0.0
174	0x38993dea	7.307141e-05
175	0x39dbac3a	0.00041899254
176	0x388f2e44	6.827389e-05
177	0x00000000	0.0
178	0xb83f885d	-4.5664947e-05
179	0xa6392973	-6.4240943e-16
180	0x38f34efb	0.00011601854
181	0xb7ec323f	-2.815679e-05
182	0x37650f92	1.3653089e-05
183	0xb79ad265	-1.8456203e-05
184	0x38a36620	7.791468e-05
185	0x00000000	0.0
186	0x0210437d	1.0598817e-37
187	0x3819c603	3.6662455e-05
188	0xb67a3951	-3.7286266e-06
189	0x396b9c4b	0.0002246957
190	0x38ec358b	0.0001126333
191	0x39d4c20f	0.00040580376
192	0x393a16c5	0.00017746825
193	0x39c9b76a	0.00038474362
194	0x38d2300e	0.00010022531
195	0x3897249c	7.20706e-05
196	0xb757c31e	-1.2860428e-05
197	0xb6e030c6	-6.681398e-06
198	0x38fd1cb6	0.00012069328
199	0x8f672503	-1.13963075e-29
200	0xb7232a7b	-9.725448e-06
201	0x39cba351	0.00038840857
202	0xb719dc24	-9.170766e-06
203	0x331dfd38	3.6784712e-08
204	0xb7a93048	-2.0168853e-05
205	0xb5a5d4fd	-1.2355446e-06
206	0x32c630a4	2.3072353e-08
207	0x00000000	0.0
208	0x396ca4a9	0.00022568055
209	0x391d5302	0.0001500361
210	0x821deeb9	-1.1603048e-37
211	0x39b451b4	0.0003439315
212	0x329a1dff	1.79416e-08
213	0x391f8d97	0.00015216168
214	0x39979658	0.0002891298
215	0xb61eaa30	-2.3642897e-06
216	0xb5b3d62f	-1.3398875e-06
217	0x39aade01	0.00032590333
218	0x395a01ef	0.0002079082
219	0x39362b4b	0.00017373
220	0x38b21319	8.4912586e-05
221	0xb7b05d26	-2.102421e-05
222	0x323d99da	1.103623e-08
223	0x1803ae7a	1.7019441e-24
224	0x38c1d78e	9.243107e-05
225	0x37dbf426	2.6220525e-05
226	0xb7bc0794	-2.2414875e-05
227	0xb758a062	-1.2911945e-05
228	0xb71bbbce	-9.282447e-06
229	0x18ab4a18	4.427728e-24
230	0x38a324cd	7.7793e-05
231	0x13178e6d	1.91291e-27
232	0xb6a61c42	-4.950475e-06
233	0x39cb075e	0.00038724666
234	0xb799475b	-1.8272249e-05
235	0xa716ceea	-2.092885e-15
236	0xb6d499d3	-6.336e-06
237	0x3941183c	0.00018414942
238	0xb64b20ae	-3.026838e-06
239	0x38fdc289	0.00012100215
240	0x3942b8d9	0.00018570143
241	0xb7d6b072	-2.5592952e-05
242	0x3970fa1b	0.00022981355
243	0x39de0619	0.00042347683
244	0xb63a2e92	-2.7743267e-06
245	0x1f150966	3.155975e-20
246	0x398912de	0.00026144733
247	0x39725436	0.0002311029
248	0x390a5811	0.00013193513
249	0x396bc33b	0.00022484075
250	0x398e217b	0.00027109295
251	0x171a2cc0	4.9816566e-25
252	0x33d0281c	9.6930506e-08
253	0x39039e0c	0.0001255201
254	0xb047d976	-7.270481e-10
255	0xb7ac4436	-2.0535761e-05
