lightning_model_releases/lightning_quantile_test/model_params/0.6_81054_1335_lightning_quantile.ckpt (torch, 311310 bytes, 15 tensors)

model.0.weight f4 [128, 131]
00000000: 79de 943d 61ef 483d 4818 adbd 44fd 82bd
00000010: 633b 8bbc 3440 ee3d 4368 87bd d6b9 753d
00000020: bd45 c93d 73a4 1cbc ebac 813d 3d9d f53c
00000030: a9b0 033d ce28 8ebd 1ba9 9e3c 9567 593d
00000040: b737 493d 08b5 313d de8f 9dbd a108 b23d
00000050: c945 ddbd abde 2bbd 194c 6d3d e2b4 483c
00000060: 8d1c 2dbd ad5c 2bbd 0ee6 8bbd 6fc1 02be
00000070: 4c06 d93b 43e4 0abe 2527 15bd 3b20 f4bd
00000080: f781 c53d 8f35 32bd 223e 63bd 80e1 ad3b
00000090: f46e 8d3c f934 373d b03e 3fbd 64c8 46bc
000000a0: fefb cc3c 9cd2 96bd 0645 1a3d 9822 373d
000000b0: bd02 163d 3723 d9bd 97d0 243c 6b38 543c
000000c0: a917 90bc 36db a0bd 0bbb f2bd 552d c63d
000000d0: cf36 343d 3c97 1c3e 3219 2a3d 7296 ec3b
000000e0: 6533 24be 00b8 30be 62d7 ef3d b5c6 a3bd
000000f0: b69e a73c fe82 8cbd e11e 0c3d afd3 32bd
00000100: dfeb aa3b 6785 6cbd bb39 7c3c 6aee c5bd
00000110: ccbe d7bd 0984 d13b 9c1c 643d 0e2d 713d
00000120: 5a11 4e3d 71bd a0bd d596 06be 2bd8 b03b
00000130: f653 75bd fcdc 86bd adaa 123d 93cb 9c3d
00000140: e5df cabd b73e bbbd d28e 98bc 9947 8dbc
00000150: 188a 9e3c 1a09 8dbd bd09 c03d 0052 cebd
00000160: f0db 86bc ba43 48ba 6aef 0abd 6d02 24ba
00000170: 5b0f 213d e111 493d a69a 5fbd 6b76 d3bc
00000180: 2823 f83c 090d eebb 1414 9cbd c5af d2bd
00000190: 23b4 eabd 88ea 4d3c 99f3 2fbd 74bc 0abd
000001a0: d4bd 87bd 21ce 7dbc b9ce 97bd cede 80bd
000001b0: 9d66 21be e5a2 86bc 37f4 8c3d 8667 213c
000001c0: 508c 16bd c671 0cbe 68df 96bd afa5 69bc
000001d0: 70d7 5f3c d869 403d 9722 6bbe 5a4a 87bd
000001e0: a885 6fbd 5515 bbbd 40c8 dfbc 4660 f8bd
000001f0: 7a3a d3bd b7c9 9cbd 4872 34bd 877c d3bd
00000200: ccd5 353c ff8c a0bd a756 093d e002 df3c
00000210: 1269 08be d5a4 9b3e ed99 d13e 3a2e 09bd
00000220: 4087 94bd af21 9dbd c4c7 cc3c 1237 953d
00000230: b5a6 6f3c 57d8 92bd a425 233e 8ce3 e1bd
00000240: 882d 77bc 0b63 44be 0079 ea3d ab74 903d
00000250: 07bf 5a3e 530f ae3d 6533 02be 6057 2ebe
00000260: 38de 1cbc 46ee 85bd 9ca4 2f3e 4038 82be
00000270: 3396 5fbe 0f5a 753e 7dab 153c 9fbb 11be
00000280: 5af0 1e3e a848 9d3c a343 3a3e ddaf 9dbd
00000290: 3b26 b93d d1dd 503e 7fd2 10be 8ef9 093e
000002a0: 7012 00bd b141 493c ab21 35bd 62fa 49bd
000002b0: 0f68 3c3d df9a 88bd 0a19 e33c 9f24 7bbd
000002c0: 5979 55bd eb45 283e bcbe cfbd 80bd c0bd
000002d0: b5c0 653d 523b 2a3d 2795 ecbe d337 39be
000002e0: bd52 d53c 2aee 9dbe 8038 c73d 21cc c93e
000002f0: fc1d 843e 0824 193c 09db b8bd 700b 26be
00000300: b999 dd3d cd52 903d e256 093d 1571 9d3d
00000310: 2ee1 553e 99ff bcbe 728f 6c3e be86 703d
00000320: c084 a2bd 4f75 6fbd 62c7 213d 1134 223e
00000330: dd1a 56be 1876 c03d d4ac c9be e150 483d
00000340: 0d8c 6f3d 7e48 8dbd 414e 12be 2e3a 253d
00000350: 3d40 f5bd 01de 743d 511b 003e aa74 063e
00000360: 335a 0dbe e4d3 8cbd d876 903c b9c4 7fbd
00000370: a2bc 7abd c784 b53c 48b9 22bd 5d40 82bc
00000380: 4001 b2bd 5994 a63c 2991 873d 4d21 4d3c
00000390: 3885 2abd 0299 b0bd 0d11 b9bd 97a6 3b3d
000003a0: a6d0 2b3d 078c 9c3e 167a 3b3d d425 b53c
000003b0: 64a8 0abd b214 88bd d8be 803d c1d2 7bbd
000003c0: 61db 96bd 0980 b13c 8f4a 303d a1f4 4dbd
000003d0: a46c 82bc 7ce1 7bbd 5bd6 69bd 0c6b ed3c
000003e0: 193c fbbe 5de4 fc3e 40a4 8a3c 3ae2 6ebd
000003f0: c067 2fbc 0591 cbbd 3bcc bf3c 1f20 95bd
0.07268996 0.049056415 -0.08451897 -0.06395963 -0.016996091 0.116333395 -0.06611683 0.05999168
0.09827755 -0.009560692 0.063318096 0.029982204 0.032150898 -0.069413766 0.019367745 0.0530773
0.0491254 0.043385535 -0.07693456 0.08693052 -0.10804326 -0.0419604 0.0579339 0.012250157
-0.042263556 -0.04183643 -0.06830989 -0.12769102 0.006623065 -0.13563637 -0.036414284 -0.1192021
0.096439295 -0.04350811 -0.055479176 0.0053064227 0.01726482 0.044728253 -0.046690643 -0.012132738
0.025022503 -0.07364389 0.037663482 0.044710726 0.036623705 -0.1060242 0.010059497 0.012952904
-0.017589407 -0.07854311 -0.11852082 0.09676615 0.043997582 0.15292066 0.041527934 0.007220083
-0.1603523 -0.1725769 0.11711003 -0.07996885 0.020461421 -0.06860922 0.034209136 -0.04365891
0.0052161063 -0.05774441 0.015394623 -0.096646145 -0.105344385 0.0063939136 0.055691347 0.058880858
0.050309516 -0.07848633 -0.13143475 0.005396863 -0.059894525 -0.06585118 0.0358073 0.07656016
-0.09905986 -0.09142821 -0.01862279 -0.017246054 0.019352958 -0.068865016 0.093768574 -0.10074234
-0.016462296 -0.00076394866 -0.03391973 -0.0006256465 0.039321285 0.049089316 -0.054590844 -0.025813302
0.030290201 -0.0072647375 -0.07621017 -0.10287432 -0.114601396 0.012568124 -0.042956922 -0.03387113
-0.06628004 -0.0154910395 -0.07412476 -0.062924966 -0.157618 -0.016435096 0.06882518 0.009851342
-0.036754906 -0.13715276 -0.0736683 -0.014260693 0.013662204 0.04697594 -0.22962414 -0.06605978
-0.058477074 -0.09134928 -0.027317166 -0.12127738 -0.10313888 -0.076556616 -0.0440543 -0.10326486
0.011098336 -0.07839393 0.033529904 0.02722305 -0.13321331 0.30399194 0.4093775 -0.03349135
-0.072523594 -0.0767244 0.0249976 0.072858945 0.014627148 -0.0717017 0.15932328 -0.11029729
-0.015086539 -0.19178407 0.1144886 0.07053503 0.21361934 0.084990166 -0.12714918 -0.17025518
-0.009574465 -0.06539588 0.17152637 -0.2543354 -0.2183464 0.23960136 0.009135124 -0.14231728
0.15521374 0.019199684 0.18189864 -0.07699559 0.09040495 0.20397116 -0.14142798 0.13474104
-0.031267583 0.012283728 -0.04422156 -0.04931105 0.045997676 -0.06670164 0.0277219 -0.06131422
-0.05211768 0.16432922 -0.101438016 -0.09411144 0.056091983 0.04156048 -0.46207544 -0.18087701
0.02604043 -0.30845767 0.097275734 0.3941355 0.25804126 0.009346969 -0.09026153 -0.162153
0.10820336 0.07047043 0.033530124 0.07687584 0.2088668 -0.36913756 0.23101595 0.05872225
-0.07935476 -0.058461484 0.039496787 0.15840174 -0.20908685 0.093975246 -0.3938967 0.048905257
0.058483172 -0.068985924 -0.14287664 0.040338688 -0.11975143 0.059782032 0.1251042 0.13130441
-0.1380394 -0.068763524 0.017634794 -0.06244347 -0.06121505 0.02215804 -0.03972748 -0.015899831
-0.08691645 0.02033441 0.06619484 0.012520147 -0.041630954 -0.08622934 -0.09036455 0.04581317
0.04194703 0.30575582 0.045770727 0.022112764 -0.033851996 -0.06644572 0.062864006 -0.061480287
-0.07366062 0.021667497 0.043039855 -0.050282124 -0.015920945 -0.061494336 -0.05708919 0.028981708
-0.49069288 0.49392977 0.016924024 -0.058321215 -0.010705888 -0.0993977 0.023412814 -0.07281517

model.0.bias f4 [128]
00000000: 99eb 0dbe 95f9 113e d9d4 fb3d af85 e33d
00000010: 263a 0a3e 636c 3e3e eea3 97bd 12e2 51bc
00000020: c84c 853c 3ec2 953d 2004 2a3c 1fb3 af3c
00000030: e364 93bc 5f62 45bd b277 833d 8134 8bbd
00000040: 6805 ce3d 1d35 edbc 027b 5f3c 9d12 2a3e
00000050: 6475 ce3d 8474 043b 8930 c3bd 1377 883d
00000060: cd6c a83d 26fd b93d 2159 dd3c 0042 453b
00000070: ebe6 103e 3a84 f33d ed35 173e 93cd ef3d
00000080: 537a c23d 4ee6 78bd 676e 093d f499 8a3c
00000090: 5e13 853d 7400 e03d dfa8 f43d 311e 58bd
000000a0: d5d2 bc3c c5bb 29bd b960 b93d 1ad0 0d3e
000000b0: 13d7 a13d 601d 963b a122 103e f691 c83a
000000c0: 80e3 f8ba 6408 87bc 055d 223d 1e24 bb3d
000000d0: 07ac 013e aeb4 803c 7d52 bfbd 8a70 abbd
000000e0: 09d4 c93d b2c8 293d 9a41 393d 224d d53d
000000f0: 7a0b 153d 4a49 8b3d f850 de3c 5445 4a3d
00000100: 6de7 c93d 6af1 67bc 0922 2d3c c08e a6ba
00000110: db4c dd3a c425 053e 5d03 013d f200 723d
00000120: 78cd a7bd a35e d2bc 4f7f 423d e01e 3f3d
00000130: 514c 55bd c02f 72bc f991 2a3e cfd5 18bd
00000140: d15e 8d3d baa6 29bb 3a0c 8cbd 3269 b33d
00000150: 9900 1f3e db8d 023e 66d5 353c 6e86 95bd
00000160: dfda 6ebc b656 e83b 4c36 c4bc 1a62 463d
00000170: 0fcb 233e d8f3 8fbd bd87 8fbd 32da 743d
00000180: c05b 2e3d 9515 53bd 5dc2 c1ba 4ebb 1abd
00000190: db22 a73c 5774 85bc b057 60bc 94ef 12bd
000001a0: 5fb3 253d 0a95 a53d 8963 f038 b46c 9dbd
000001b0: b60a baba 974c a23d 9c24 3e3e d70c 14bd
000001c0: 35c3 39bc 7129 803d 1f1d 213e 704e 643c
000001d0: 3b94 793c eaa4 3f3e a8f0 833a 5224 973d
000001e0: 5a7c 193e 0622 7f3d 7827 7cbc bce4 be3d
000001f0: 7026 933c dade 93bd 2271 123e c86f 453d
-0.13859405 0.14255364 0.12296457 0.111094825 0.13498744 0.18596034 -0.07404314 -0.012810247
0.016271964 0.073124394 0.01037696 0.021447716 -0.017992442 -0.048189517 0.064193144 -0.06797124
0.10059625 -0.02895599 0.013640167 0.16608663 0.10080984 0.002021105 -0.09530742 0.066633366
0.08223877 0.09081487 0.027020039 0.0030099154 0.14150588 0.118904546 0.14766665 0.11709132
0.09495988 -0.06076651 0.033552554 0.016919114 0.064978346 0.109375864 0.11946272 -0.052763168
0.023049751 -0.041438837 0.090516515 0.13848916 0.0790235 0.0045811385 0.1407571 0.0015302289
-0.0018988699 -0.016483493 0.03963949 0.09137748 0.1266328 0.015711155 -0.09341905 -0.083710745
0.098548956 0.041451164 0.04522858 0.104151025 0.036387898 0.06801088 0.027138218 0.049382523
0.09858594 -0.014156679 0.010567197 -0.0012707338 0.0016883867 0.13002688 0.031497348 0.059082933
-0.08193487 -0.025679892 0.047484692 0.046660304 -0.052074734 -0.014781892 0.16657247 -0.03731328
0.069028504 -0.002588673 -0.068382695 0.08760299 0.15527572 0.12749426 0.011098241 -0.07301031
-0.01457855 0.007090415 -0.023951672 0.0484334 0.1599543 -0.070289314 -0.07008312 0.0597784
0.04256797 -0.051534254 -0.0014782656 -0.037776284 0.020402363 -0.016290827 -0.013692781 -0.03587301
0.040454265 0.080850676 0.00011462632 -0.07686749 -0.0014193866 0.079247646 0.18568653 -0.036145058
-0.011338045 0.06257904 0.15733765 0.013934717 0.015233095 0.18715253 0.0010066228 0.073799744
0.14988843 0.062288307 -0.015390269 0.09320971 0.017962664 -0.0722024 0.14300969 0.048202306

model.3.weight f4 [64, 128]
00000000: a5c3 90bd 62c6 343e 95f1 a3bd 3af3 17bd
00000010: a7b4 8e3c 8374 1b3d 4a69 d9bc c111 8a3d
00000020: 3f71 623d 217a 9dbd d07d 5ebd 9dc1 9dbd
00000030: 49b7 6d3d 6d7e 9abb e482 f9bc 43f1 2ebd
00000040: 1675 2a3d bbe9 933c 84ff 353d 56fe bb3d
00000050: 0913 8c3d 6bdc 80bd 6655 5fbd d92f 66bd
00000060: f5a0 02bd 15f9 7f3c 94cc 963d bb85 22bd
00000070: 983e 2bbd a631 4c3a dedf 113d 385f da3b
00000080: bb21 923d 4bf0 a2bd 83c7 613c d318 893d
00000090: fc14 bc3d 024e 1bbd 243f 77bd 405c ab3a
000000a0: 207c ffbb e256 fc3c abb6 ae3d daec 8d3c
000000b0: e6c0 d4bc 5262 453d a7fc 27bd 8301 533b
000000c0: 5831 323c 98b4 73bc f238 4e3d 1837 b439
000000d0: b006 213d 920d 0e3d 9a41 0c3b 7ca2 02bd
000000e0: 0805 aa3d 22c2 493d 4016 5dbc 0ddb 69bd
000000f0: 1b3e f43b 1922 7e3d 3581 3c3d a8dd ab3a
00000100: efb4 953d 81ff 17bb de28 2d3d c647 2abd
00000110: 3319 1dbb db00 e4bb 59bd 1d3c 7b2a acbd
00000120: 4302 4aba ba99 8fbd c947 89bd 342e b7bd
00000130: a0c2 fabc a84b 873c 75ac 1c3d 7074 aa3c
00000140: 29dc 0c3d 1731 57bd 3251 cbbb dff4 9fbd
00000150: 1e7f 77bc e485 953c 0f51 7b3c 50a1 8abd
00000160: 7b1b 843d 51e1 853d 0d2c 22bd 6c2f 9abd
00000170: 5e22 3a3c b870 c43c 63a7 cbbc 5d51 26bd
00000180: 2809 a73c 47aa 6dbd 1014 27bd b0a2 e73c
00000190: abec 7b3d 3aa3 613d 488b 903d c97d 1a3a
000001a0: b624 8d3c 21b3 a03d 6ae7 5ebd a056 673d
000001b0: f77b ba3d f98b d1bc 2bb7 cf3d 1357 d2bc
000001c0: f964 55bd 312b 923d 9214 7d3d e0ae d0bb
000001d0: 0b61 cbbc 6ccd d93d 50fa e23c 5cfd 90bd
000001e0: 1f3e 723c 763c 5e3d 7edf 183d 9bc4 c8bc
000001f0: f515 c938 4341 a5bc ee2c 913d 259d 803d
00000200: 9dc0 d7bc 97dd 75bc caf5 a3bd 593d 1cbd
00000210: 4d53 ba3c 307a e1bd cee5 abbb 1349 903d
00000220: e193 aa3c 9ecd 5d3c 3d9f 5ebd c6d6 b3bc
00000230: a28f bcbd 7329 44bd 916d 233c b811 743c
00000240: 9184 773c 37ef 8bbd b349 d43b ad8b cfbd
00000250: 0912 a9bd 754c 31bd d007 9fbd 684e 893c
00000260: d80b 643c 83b0 223d 932c c9bb 2428 8d3c
00000270: 6675 793c 789c 45bc 822f cdbd c668 66bd
00000280: bb10 b4bd 7bea 51bd 27d6 b239 55b3 aa3d
00000290: 56e0 e73b d424 86bd 4040 0dbb a629 793d
000002a0: 0874 f139 871f b5bd 8c21 a6bb 3551 7abb
000002b0: e016 6d3c a357 a53d 48e9 643d bd5d b1bd
000002c0: a3a0 893d dc01 a2bd 0836 8bbd f0c7 ab3c
000002d0: 8598 9bbc f4eb 613d c5a1 293d 501c 05bd
000002e0: 2057 5a3d 40e9 81bd 14f1 863c 289e 403c
000002f0: 5c39 513c 0b66 8b3d 9eff d43c 631a a2bd
00000300: f17b 593d f67e 593d bf00 4abd b1f3 813d
00000310: 2dcb 8e39 e1d2 bbbc 4f3f 1d3c 0086 8139
00000320: 2856 25bd 0b04 09bb 40a7 89bc 58f1 9ebd
00000330: 2a8f a0bd 60ed ed3c ac11 a8bd e0ab 0d3b
00000340: 6196 233d 5c30 753d 55f3 da3c 062a eb3c
00000350: 0123 333d 95e2 9cbd 4502 833d ee35 a4bd
00000360: 4b80 95bd 6125 53bd f1eb b03d 2aa9 4a3d
00000370: 2231 b83b 2442 183d aae5 c9bd 41a7 acbd
00000380: 80b1 203c 8c00 2cbd e3cc e43c 4279 80bd
00000390: c90e 723d 234e bebd 30b3 d63c 28c4 e53c
000003a0: 44e5 83bd aa07 093d 3e80 fb3c 920f 69bd
000003b0: 9f49 93bd e948 473c 1ef6 38bd 9fa1 cebb
000003c0: 49fa b43c 0bd9 b43c 9e68 91bd 3344 883d
000003d0: 1e26 c23b d588 663d c139 28bd 2f17 b13c
000003e0: bf58 dfbc 6a57 373d 3ea3 393d 9cf7 413d
000003f0: 1ee7 cdbc 3d55 453d ea37 4b3d 29ec d6bc
-0.07068566 0.17653802 -0.080050625 -0.037097193 0.017420126 0.03795291 -0.026539464 0.067416675
0.05528378 -0.0768931 -0.054319203 -0.077029444 0.058036122 -0.004714778 -0.030457921 -0.042710554
0.041615568 0.018055787 0.04443313 0.0917937 0.06839568 -0.062920414 -0.0545248 -0.056197975
-0.03189178 0.015623351 0.07363239 -0.039678317 -0.04180774 0.00077893806 0.035613887 0.006664183
0.0713534 -0.079559885 0.013780477 0.06694188 0.0918369 -0.03791619 -0.06036295 0.0013073757
-0.0077967793 0.030803148 0.08530935 0.017324854 -0.025970887 0.04818947 -0.041012432 0.0032196946
0.010876022 -0.0148746 0.050347276 0.00034373323 0.03931302 0.03468091 0.0021401406 -0.03189324
0.08301741 0.049257405 -0.013494074 -0.05709367 0.0074536926 0.062044237 0.04602166 0.0013112323
0.07309901 -0.0023193064 0.042275302 -0.041572355 -0.0023971319 -0.00695811 0.0096276635 -0.0840654
-0.00077060255 -0.07011743 -0.06703145 -0.089443594 -0.030610383 0.016515568 0.038250405 0.020807475
0.03438965 -0.05253705 -0.0062047476 -0.07810377 -0.015105991 0.01825232 0.01533915 -0.06769049
0.06450554 0.06537116 -0.03959279 -0.07528576 0.011360733 0.02397953 -0.02486009 -0.040604938
0.020390108 -0.058023717 -0.040790617 0.028275818 0.061505 0.055087306 0.07057816 0.0005893377
0.01722942 0.07846666 -0.054419912 0.056479096 0.09105676 -0.02557944 0.101423584 -0.025676286
-0.05209825 0.07137144 0.061787196 -0.006368503 -0.024826547 0.10634884 0.027707249 -0.070795745
0.014785319 0.05425688 0.037322514 -0.024507811 9.588517e-05 -0.02017272 0.07088648 0.06279973
-0.026336962 -0.015006444 -0.08005865 -0.038144443 0.022744799 -0.110096335 -0.0052459007 0.07045188
0.020822467 0.0135377925 -0.05435108 -0.021952998 -0.09207083 -0.04789109 0.009974853 0.014896803
0.01510729 -0.06832736 0.006478512 -0.10134063 -0.08255393 -0.043285806 -0.07765162 0.01676102
0.013918839 0.039719116 -0.006139347 0.017231055 0.015225744 -0.012061231 -0.10018827 -0.056252263
-0.087922536 -0.05124901 0.00034110362 0.08334986 0.0070763035 -0.06549993 -0.0021553189 0.060830735
0.00046053552 -0.08843904 -0.005069917 -0.0038195376 0.014470786 0.08073356 0.055886537 -0.08660457
0.06720092 -0.07910511 -0.06797415 0.020969361 -0.018993625 0.055156663 0.04141404 -0.032497704
0.053305745 -0.06343317 0.016472377 0.011756457 0.012770023 0.068065725 0.026000794 -0.07915189
0.053096715 0.053099595 -0.049317118 0.063453086 0.00027235728 -0.022927703 0.0095976135 0.00024704635
-0.040365368 -0.002090695 -0.016803384 -0.077608764 -0.078398064 0.029043853 -0.08206496 0.0021617338
0.039938334 0.059860572 0.026727358 0.028706562 0.043734554 -0.076604046 0.06396917 -0.08018099
-0.072998606 -0.05154932 0.08638752 0.049477734 0.0056210915 0.03717245 -0.09858258 -0.08430339
0.009807944 -0.04199271 0.027929729 -0.06273128 0.05909613 -0.09292247 0.02620849 0.028047636
-0.06440213 0.033454575 0.0307008 -0.056899615 -0.071917765 0.012163379 -0.04515659 -0.006305888
0.022092002 0.02207615 -0.07100032 0.06653633 0.005924954 0.056282837 -0.041070703 0.0216175
-0.027263997 0.0447611 0.045321696 0.04735528 -0.02513462 0.048176993 0.04961387 -0.026235657

model.3.bias f4 [64]
00000000: 9bfc 1c3e cd84 77bd 9056 553e 1958 b23b
00000010: ec23 debd a7aa 5a3e 4cf3 133d 78ad 4abd
00000020: 5561 f9b9 7a60 3b3d 5234 eabc 29c1 7c3e
00000030: 2bc9 453e 58dd 8d3e c661 3c3e b9da a9bc
00000040: 279d bebd 9866 0cbd b286 603e 8b45 593d
00000050: 69f8 8a3d e606 edbc 0ff3 763e ef0a 1e3e
00000060: 1345 5b3e 12e1 5a3e 3406 283e b62b 823e
00000070: ede7 283e b8cf 89bd 9537 003e 255a 5ebc
00000080: ef8b 50bd badc 663e 334b 143e 87f4 78bd
00000090: 7483 de39 91e0 bf3d e75c 893d 0a8d 633e
000000a0: ca4c cf3c 9edc 7c3c 40f6 a1bc 3aac 333e
000000b0: 3470 c0bb dcd2 dabd e1a6 a63d 55f1 46bc
000000c0: 7a67 403d 4b71 423e 7f6c e63d 57a6 253d
000000d0: f7bb 613e a11b 033e 2e87 393d 67d7 9c3a
000000e0: a480 b0bd 9418 213e 2a11 143e 65eb 5e3e
000000f0: 05eb 303e 0eaf 06bd abfa 60bd 97b6 3e3e
0.15330736 -0.060429383 0.20833802 0.005442631 -0.10846695 0.21354161 0.036120698 -0.04948184
-0.000475655 0.045746304 -0.028589401 0.2468306 0.1931502 0.27707934 0.18396673 -0.020734178
-0.09307318 -0.03427753 0.21926382 0.053044837 0.06785662 -0.028933953 0.24116157 0.15433858
0.21413068 0.2137492 0.16408616 0.25423974 0.16494723 -0.06729072 0.12521203 -0.013571297
-0.0509147 0.22545138 0.14481811 -0.060780074 0.0004244108 0.093690045 0.06707173 0.22221771
0.02530517 0.015433459 -0.019770741 0.17546168 -0.0058727507 -0.106847495 0.081372984 -0.012142499
0.046973683 0.1898853 0.11251163 0.040441837 0.22044359 0.12803508 0.045294933 0.001196605
-0.08618286 0.15732032 0.14459673 0.21769483 0.17277153 -0.03288179 -0.054926556 0.1862434

model.6.weight f4 [1, 64]
00000000: 9f71 a93d b30e 36bd 0501 553d 1ef2 6ebc
00000010: 5392 8cbc acf1 303d a96e a13d 1a4b c9bd
00000020: 99b5 25bd 7d5d 903d 2dcd 38bd d629 723d
00000030: df86 a03d 109f 313d f6f8 313d d713 9cbd
00000040: b219 b9ba 0ec4 7bbc ce42 373d df59 843b
00000050: 85be 8fbc f6d5 78bd 8486 a53d 230c 483d
00000060: 910f 563d 2a7f 973d eee7 1e3d 30c6 a83d
00000070: cf9e 483d 8ca2 d1bc c85b 173d bf17 c7bd
00000080: b3c1 47bd b0e0 ac3d b594 c93d 2836 99bd
00000090: 73fd 1dbd b53b 863d b6b4 d2bd 8afa 223d
000000a0: b196 ccbd fc36 29bd b598 65bd 3ff4 1d3d
000000b0: 3b2e a5bc 1dee 60bd 131e 7b3d 07e7 1ebd
000000c0: 22f1 debd b2ac a13d cd88 8c3d 4bbe 30bc
000000d0: b9e5 183d ab02 2e3d 7698 2d3c d16f cdbb
000000e0: b273 babd 336b 5a3d 393c 193d 446c 803d
000000f0: e7f9 4e3d 1cf0 11bd 481f 40bd edac 2d3d
0.08273625 -0.044447612 0.052002925 -0.014584092 -0.017159617 0.043199226 0.07882435 -0.098287776
-0.04045639 0.070490815 -0.045117546 0.05912193 0.078382246 0.043364584 0.04345032 -0.07620972
-0.0014122038 -0.015366567 0.044741444 0.004039034 -0.017546901 -0.060750924 0.080822974 0.0488397
0.05226094 0.073973015 0.038795404 0.08240926 0.048979577 -0.025590204 0.036952764 -0.09721326
-0.04876871 0.08441293 0.09842817 -0.074810326 -0.038571786 0.06554357 -0.10288374 0.039789714
-0.099896796 -0.041312203 -0.056053836 0.03856301 -0.020163646 -0.054914583 0.061307978 -0.038794544
-0.10885836 0.07894267 0.0686203 -0.010787557 0.037328456 0.042483013 0.010595432 -0.006269433
-0.091040984 0.05332489 0.03741095 0.0627065 0.050531294 -0.035629377 -0.046904832 0.042401243

exp_avg f4 [128, 131]
00000000: e84d 1eb6 020d a4b6 b181 0837 bf7e 43b8
00000010: 0ac1 1f30 23c0 d3b2 b105 8e32 642c a3b0
00000020: 492b 1f35 d256 a2af a14e 5f34 a086 dcb3
00000030: 7997 ac35 87fe 5e2f 1f5c 15b6 3bf5 0033
00000040: 5fe5 cdb6 1ac5 91b5 93f9 d434 a086 dcb3
00000050: c249 3336 5835 1db5 3bdb b435 56f4 9835
00000060: 1e04 f735 c4b5 e235 cadc 5ab6 eee4 af32
00000070: b4d5 85b4 d463 fcb4 2cd7 3436 9384 0437
00000080: fa42 8db5 09de 68b8 c4d5 cf36 c5d6 57b6
00000090: 7fc6 71b5 14d9 0c36 a8b7 ccb8 079f bdb6
000000a0: fdc0 25b8 de70 a3b8 e9b6 5837 2dc2 58b7
000000b0: c474 4c36 a262 a4b7 dc2b 3637 0129 0f38
000000c0: 8d06 8938 4d0d 3036 1bef e9b7 3a8f 7eb8
000000d0: 1702 fc36 65a5 32b8 79ae 3438 39da a137
000000e0: 0eb2 e1b7 d4c5 bf36 e09b e3b6 ba74 4037
000000f0: 313a 0ab7 4c0d 3a37 96bc 1836 0234 f0b7
00000100: 8323 ca35 c72c ba36 c74d 8bb7 6ebc 4237
00000110: 9fe5 4236 a606 bb36 0e7a d5b7 5708 cd37
00000120: f563 db36 22d5 53b6 d511 fe37 465d 7fb6
00000130: 60f8 c236 cadb 5b38 553e 3932 4a86 c036
00000140: 24eb 98b6 b8b2 9036 d211 b836 5676 20b1
00000150: 1128 75b0 c8ea e3af 2597 2a30 9569 e035
00000160: c526 20b7 aecc cdb6 ee85 2bb7 7a7c 54b7
00000170: 9573 5fb7 0696 aab6 af01 8236 6143 e6b7
00000180: 9ce4 80b6 8204 55b5 df85 aab8 f60b 2d37
00000190: 84e4 6ab6 2a24 28b5 8eed d636 1fe5 3436
000001a0: 45a7 1eb7 cfe8 dc37 0000 0000 000a 76b6
000001b0: 7623 9535 6a94 17b7 86ff 0fb4 b506 1b82
000001c0: 9739 3fa2 cb49 99b6 88a2 6eb8 7095 e636
000001d0: 0000 0000 e305 5db8 4066 feb5 3e3a 82b7
000001e0: 5005 d537 6316 2838 803a dbb8 7aef 18bb
000001f0: f211 2abb 0018 f7b7 5ed5 a63a 3219 973a
00000200: 3855 ea3a 0110 eeba 01d0 9abd 0000 0000
00000210: 80fa 44b9 29c6 69b9 385e ac39 0000 0000
00000220: 0000 0000 735c 1c82 0000 0000 0696 e5b8
00000230: d402 1e02 0000 0000 0a10 33b8 624c 1502
00000240: 0000 0000 2191 3a37 533f 3238 0000 0000
00000250: 2550 74b6 32a9 f5b5 afcc 81b8 814e ab37
00000260: 0000 0000 0000 0000 0696 e5b8 0070 0338
00000270: 9624 2838 d7c4 8ab2 5865 1402 d56e f2b8
00000280: 3c50 3f37 0000 0000 dacf 73b9 0000 0000
00000290: c2e0 b53a 68a0 03ba 95df 1838 9fd3 cdb7
000002a0: 193c fcb7 54f1 f73a 0000 0000 87d7 1902
000002b0: f7f7 1902 5169 1702 f621 bc39 73c5 3939
000002c0: 8d21 2736 04d3 bc39 558f 7339 e14c 7939
000002d0: ed40 b4b7 e7c9 90b8 2d2c ae3a 1ff9 1138
000002e0: 8836 3439 38b6 e639 1c5b 63b9 54b7 e3b9
000002f0: 3cf7 41b8 0000 0000 1684 f9b6 4cab 7d39
00000300: 3512 3e38 a534 0cb7 aa56 ca38 dd6d f5b8
00000310: d88d 05b9 0ff8 3839 668b 2638 07a6 3139
00000320: 0000 0000 8696 16b7 0022 0539 3a38 7939
00000330: 9d2b 0239 413a 11b9 84f2 d737 1e39 00b9
00000340: 7978 cf38 6d24 1539 063f a638 0000 0000
00000350: 4417 2638 8289 ca38 228f 94b9 a4b7 afb8
00000360: 909b f638 fdf4 8238 0203 1902 6f57 1502
00000370: 9456 1a02 31ea 1302 0000 0000 c2a8 1c82
00000380: 0000 0000 f4d2 1002 0000 0000 0797 1302
00000390: e230 1582 0000 0000 1f0a 1b02 9289 1902
000003a0: 0000 0000 bbf3 e9b8 0000 0000 0000 0000
000003b0: 7c7e 1302 0000 0000 2c71 233a f84d 18b9
000003c0: 040e a2b7 7f10 c2b8 6287 a73a 0000 0000
000003d0: 0000 0000 0000 0000 0000 0000 0000 0000
000003e0: 2a78 013b e2d1 36ba 5882 0c3a 79f4 1b3a
000003f0: d55f 1a39 82b6 1302 be95 243e 2141 253e
-2.3589182e-06 -4.889095e-06 8.136428e-06 -4.6609664e-05 5.811819e-10 -2.4651007e-08 1.6533564e-08 -1.1872427e-09
5.9295104e-07 -2.9529318e-10 2.0797098e-07 -1.02690365e-07 1.2859083e-06 2.0281209e-10 -2.2256352e-06 3.0025358e-08
-6.1361784e-06 -1.0860706e-06 3.9669666e-07 -1.02690365e-07 2.6716011e-06 -5.8564683e-07 1.347485e-06 1.1395994e-06
1.8404132e-06 1.6891213e-06 -3.2613048e-06 2.0476786e-08 -2.492867e-07 -4.7011292e-07 2.6947337e-06 7.89868e-06
-1.0524811e-06 -5.5519897e-05 6.1939663e-06 -3.216251e-06 -9.0068346e-07 2.0987982e-06 -9.761687e-05 -5.651152e-06
-3.95188e-05 -7.793469e-05 1.291719e-05 -1.2919813e-05 3.0466335e-06 -1.9596253e-05 1.0858257e-05 3.4132045e-05
6.533889e-05 2.6233786e-06 -2.7887107e-05 -6.069171e-05 7.5104285e-06 -4.2592543e-05 4.3077835e-05 1.9294313e-05
-2.6905003e-05 5.715274e-06 -6.7832734e-06 1.1471269e-05 -8.23899e-06 1.108956e-05 2.2759536e-06 -2.8634448e-05
1.5060508e-06 5.5484447e-06 -1.660631e-05 1.1607173e-05 2.904191e-06 5.5738083e-06 -2.5448415e-05 2.4441788e-05
6.538345e-06 -3.156551e-06 3.0287463e-05 -3.8052253e-06 5.810565e-06 5.2418363e-05 1.078259e-08 5.737679e-06
-4.557327e-06 4.31234e-06 5.485702e-06 -2.335033e-09 -8.918742e-10 -4.1457882e-10 6.206043e-10 1.6720029e-06
-9.54577e-06 -6.133304e-06 -1.0223577e-05 -1.2665167e-05 -1.3318747e-05 -5.08386e-06 3.874498e-06 -2.7449512e-05
-3.841311e-06 -7.9355243e-07 -8.131167e-05 1.0314388e-05 -3.500173e-06 -6.26375e-07 6.405352e-06 2.6955456e-06
-9.456479e-06 2.6334454e-05 0.0 -3.6662677e-06 1.1111686e-06 -9.034857e-06 -1.3410872e-07 -1.1389526e-37
-2.5915815e-18 -4.568346e-06 -5.689499e-05 6.871931e-06 0.0 -5.269599e-05 -1.8954233e-06 -1.5524329e-05
2.5394052e-05 4.007517e-05 -0.0001045363 -0.0023336099 -0.0025950638 -2.945587e-05 0.0012728383 0.0011527895
0.001787818 -0.0018162729 -0.07559205 0.0 -0.00018785335 -0.00022294432 0.00032876595 0.0
0.0 -1.1487602e-37 0.0 -0.00010947515 1.1608818e-37 0.0 -4.2691863e-05 1.0968712e-37
0.0 1.1120254e-05 4.2497482e-05 0.0 -3.6405484e-06 -1.8303165e-06 -6.1893246e-05 2.0421345e-05
0.0 0.0 -0.00010947515 3.1337142e-05 4.0088395e-05 -1.6154827e-08 1.0902407e-37 -0.00011560103
1.1403168e-05 0.0 -0.00023251717 0.0 0.0013876187 -0.0005021156 3.644785e-05 -2.4536448e-05
-3.0068726e-05 0.0018916526 0.0 1.1302518e-37 1.1311827e-37 1.1123952e-37 0.00035883457 0.0001771653
2.4904468e-06 0.00036015373 0.00023227681 0.0002377513 -2.1487906e-05 -6.904062e-05 0.0013288312 3.4802706e-05
0.00017186452 0.00044004782 -0.00021682348 -0.00043433404 -4.624504e-05 0.0 -7.436155e-06 0.00024191773
4.5316487e-05 -8.3569075e-06 9.648253e-05 -0.00011702974 -0.0001273671 0.00017640016 3.970731e-05 0.00016941885
0.0 -8.975743e-06 0.00012696534 0.00023767437 0.00012414013 -0.00013849979 2.5742927e-05 -0.00012228309
9.892969e-05 0.00014223317 7.927236e-05 0.0 3.9599152e-05 9.6577234e-05 -0.00028335402 -8.378856e-05
0.0001175917 6.244516e-05 1.1241528e-37 1.0971883e-37 1.133898e-37 1.0867064e-37 0.0 -1.1509501e-37
0.0 1.063999e-37 0.0 1.0843197e-37 -1.096082e-37 0.0 1.1390506e-37 1.1280145e-37
0.0 -0.00011155704 0.0 0.0 1.0836154e-37 0.0 0.00062348205 -0.00014524895
-1.9318431e-05 -9.2537135e-05 0.0012781436 0.0 0.0 0.0 0.0 0.0
0.0019755461 -0.0006974024 0.0005359999 0.000594921 0.00014722285 1.0852232e-37 0.16072747 0.16138126

exp_avg_sq f4 [128, 131]
00000000: b02f 3030 13ea 8a32 a262 8231 eba8 e933
00000010: 1473 1c30 1b77 db2f e5bf 1230 d1c2 1b30
00000020: d8c5 1930 0b8a b62f 10b0 ab30 100f 0130
00000030: 26f7 f82f 30d5 3c30 3d6c 8430 15fd 3130
00000040: dc2f 1c30 b135 0430 7b97 e52f 21cd de2f
00000050: 567d dd2f d7fb 9e30 37d1 3c30 dca9 7330
00000060: 83d8 4930 e27e 3d30 98b6 4030 2abc ee2f
00000070: d651 8430 28c3 4330 38c1 4a30 02d7 7730
00000080: 4643 0930 8441 bd34 6e13 a931 7712 dc31
00000090: cd2c 0232 624c ce30 1a24 7735 39e2 f732
000000a0: 7009 b832 fb03 bf32 38ea d532 ac67 c932
000000b0: c8cb 1833 6e16 0233 984e b132 92a7 a832
000000c0: 6b79 b432 8005 a332 891c c932 49a1 1233
000000d0: 1af7 1f33 a6f8 4c33 b341 3933 ee64 4333
000000e0: b554 b233 e894 6933 d321 a531 7977 0732
000000f0: efec 9c31 ddbd cd31 f337 fe31 f090 dc31
00000100: 8f19 d531 beb9 e031 a6a4 bd31 ccc8 ee31
00000110: 2c73 8c31 3f6e c331 2d73 a531 4f2b a831
00000120: 60c6 9231 90e7 7a31 8317 8131 7632 8231
00000130: 067d e131 8219 a931 7d4b 7c31 7212 a431
00000140: ae7e cd31 c970 9131 cd36 f131 6e65 9331
00000150: 4457 8731 a346 5d31 4fdc 5231 e56b b631
00000160: 3ff3 a731 0b3e c431 de13 be31 f655 a131
00000170: cb5b be31 af0c 8b31 cb30 b331 7827 a331
00000180: 14a5 a231 09d5 ce31 6927 c531 98fa 9331
00000190: 260f 8331 18a8 b831 23f9 0d32 2b34 d931
000001a0: 48d1 c531 1c91 b231 0000 0000 7bf6 c831
000001b0: 841c e931 ef6a b431 20ba b331 f3d0 ce2f
000001c0: cb7f 3733 e307 dc33 2a10 fd33 b86a 2333
000001d0: 0000 0000 3ebe 6e34 b62c 7a34 c7cd be33
000001e0: 3fe5 a133 1f8a 8633 97b2 8e33 5251 033b
000001f0: 4322 ed3a 8048 f73a dac4 f73a 7160 fb3a
00000200: 3af5 043b 287c 073b d061 d73e 0000 0000
00000210: 78d5 f134 b02c 9234 8c40 6e36 0000 0000
00000220: 0000 0000 f4b0 c231 0000 0000 a05f 6f33
00000230: 6158 9730 0000 0000 c554 de32 8610 1c31
00000240: 0000 0000 7a03 1833 0224 7133 0000 0000
00000250: b91e 0333 93ef 1334 e09b 1733 459c 7632
00000260: 0000 0000 0000 0000 a05f 6f33 d7a1 d232
00000270: ec46 c733 7c52 8933 2a6c 8430 9235 2d33
00000280: cf58 5f33 0000 0000 fce5 9133 0000 0000
00000290: b5ca 1737 980b c134 65db 0634 9729 6f34
000002a0: df4d da33 a864 a637 0000 0000 829b 1c32
000002b0: 4264 6431 8c0c 2931 6d1f ed35 82b9 0a36
000002c0: a197 cf35 a172 9235 e051 6335 a22a fb34
000002d0: e8d3 1235 223b 7633 2b28 8035 b46f 6c35
000002e0: 2ac8 9a35 f744 5c35 3cb0 d335 3062 eb35
000002f0: 466c c835 0000 0000 7fad c934 8ac4 b434
00000300: 93e1 0735 7ba3 0235 16d0 d834 75af c134
00000310: 0a35 af34 c421 9834 9ff2 ab34 2397 ac34
00000320: 0000 0000 809a 5a34 fbbe 5334 883f a834
00000330: de2a 8434 7d3f 4634 782a 2334 8997 d033
00000340: 3920 3834 dc97 1734 b3ec b733 0000 0000
00000350: 9ef8 e132 ee16 8d33 e677 1534 1fc2 0b34
00000360: 30f2 3d34 5639 4c33 cd76 0132 9415 2f32
00000370: 6294 bf31 5f7c 2c31 0000 0000 2708 1831
00000380: 0000 0000 6a86 b331 0000 0000 5892 2c30
00000390: 7b5b fc30 0000 0000 e647 6c30 f077 8e30
000003a0: 0000 0000 1d4c 0434 0000 0000 0000 0000
000003b0: 34a1 c330 0000 0000 f40e 0235 3bf3 f534
000003c0: 5c6b 1635 33e7 2435 feed 1737 0000 0000
000003d0: 0000 0000 0000 0000 0000 0000 0000 0000
000003e0: fa47 9136 849d 9f36 a360 8736 10ad 6b36
000003f0: b0ee 8e35 f24a 9032 fddc cd3d e269 bf3d
6.4096195e-10 1.6171759e-08 3.794711e-09 1.0880634e-07 5.6916005e-10 3.9920497e-10 5.338719e-10 5.666552e-10
5.594223e-10 3.3203693e-10 1.2491927e-09 4.695133e-10 4.5286547e-10 6.869696e-10 9.635027e-10 6.4751876e-10
5.682048e-10 4.809762e-10 4.176249e-10 4.0527318e-10 4.0288722e-10 1.156759e-09 6.8691314e-10 8.864427e-10
7.3431056e-10 6.893811e-10 7.0108674e-10 4.3425646e-10 9.627523e-10 7.121792e-10 7.376175e-10 9.016362e-10
4.993591e-10 3.5251662e-07 4.9207562e-09 6.404942e-09 7.577182e-09 1.5010182e-09 9.2067205e-07 2.8857459e-08
2.1424711e-08 2.2237137e-08 2.4902974e-08 2.3446624e-08 3.5575596e-08 3.0288383e-08 2.0641252e-08 1.9633976e-08
2.1009972e-08 1.8978199e-08 2.3412456e-08 3.4139962e-08 3.724481e-08 4.7723596e-08 4.3133422e-08 4.549377e-08
8.304179e-08 5.438497e-08 4.8059774e-09 7.885199e-09 4.567134e-09 5.98787e-09 7.3987336e-09 6.41932e-09
6.2020216e-09 6.5403745e-09 5.5193423e-09 6.9495396e-09 4.08763e-09 5.6877805e-09 4.815226e-09 4.894367e-09
4.271712e-09 3.6511416e-09 3.757067e-09 3.7892347e-09 6.5625754e-09 4.9214472e-09 3.6713736e-09 4.775125e-09
5.980687e-09 4.2328776e-09 7.0202533e-09 4.2897943e-09 3.938938e-09 3.2199885e-09 3.0684253e-09 5.3091633e-09
4.8879936e-09 5.7114042e-09 5.5319864e-09 4.6954893e-09 5.5401634e-09 4.0468744e-09 5.2151328e-09 4.7484114e-09
4.7335877e-09 6.0196084e-09 5.737935e-09 4.3067523e-09 3.814324e-09 5.374215e-09 8.263927e-09 6.321462e-09
5.757247e-09 5.196979e-09 0.0 5.8487877e-09 6.7844343e-09 5.2508464e-09 5.2307456e-09 3.761965e-10
4.2724235e-08 1.0245983e-07 1.1784171e-07 3.8048455e-08 0.0 2.2234687e-07 2.329933e-07 8.884995e-08
7.538846e-08 6.264985e-08 6.6448756e-08 0.0020037484 0.0018091876 0.0018866211 0.0018903271 0.0019178522
0.0020287768 0.0020673368 0.42066813 0.0 4.5045067e-07 2.7227134e-07 3.5502335e-06 0.0
0.0 5.6662603e-09 0.0 5.5733494e-08 1.1011815e-09 0.0 2.588275e-08 2.271038e-09
0.0 3.539342e-08 5.6144934e-08 0.0 3.0528756e-08 1.3777598e-07 3.5299195e-08 1.4354616e-08
0.0 0.0 5.5733494e-08 2.4520814e-08 9.27956e-08 6.3945635e-08 9.635006e-10 4.0328423e-08
5.2002004e-08 0.0 6.7939226e-08 0.0 9.047498e-06 3.5957487e-07 1.2559538e-07 2.227374e-07
1.0165581e-07 1.9835614e-05 0.0 9.1157535e-09 3.3235357e-09 2.4599869e-09 1.7667022e-06 2.0671582e-06
1.5466832e-06 1.0911209e-06 8.4683234e-07 4.6783413e-07 5.46976e-07 5.733012e-08 9.548434e-07 8.80794e-07
1.153215e-06 8.2056744e-07 1.5772016e-06 1.7537441e-06 1.4932673e-06 0.0 3.7565403e-07 3.3670614e-07
5.061967e-07 4.866667e-07 4.0384538e-07 3.6076713e-07 3.263488e-07 2.8336774e-07 3.2027762e-07 3.2147463e-07
0.0 2.0359039e-07 1.9720385e-07 3.1338664e-07 2.4618106e-07 1.8463284e-07 1.5196008e-07 9.713319e-08
1.7148058e-07 1.4118217e-07 8.564657e-08 0.0 2.6306505e-08 6.569995e-08 1.3920325e-07 1.3016005e-07
1.7690104e-07 4.7549598e-08 7.5358e-09 1.0191247e-08 5.575701e-09 2.509999e-09 0.0 2.2123545e-09
0.0 5.2248668e-09 0.0 6.27812e-10 1.8361414e-09 0.0 8.5958474e-10 1.0365948e-09
0.0 1.2321148e-07 0.0 0.0 1.4233934e-09 0.0 4.8450534e-07 4.581178e-07
5.6035583e-07 6.14312e-07 9.055713e-06 0.0 0.0 0.0 0.0 0.0
4.329716e-06 4.7569065e-06 4.0345635e-06 3.5118464e-06 1.0649292e-06 1.6797888e-08 0.10051916 0.093463674

exp_avg f4 [128]
00000000: 13f9 64b8 6287 a73a 30d9 bcb9 1241 6a39
00000010: 580b 023a e7e8 a2ba 0540 83b9 1888 e3b7
00000020: ea74 92b9 1643 54b9 7031 3439 1ad8 2939
00000030: 846d 3cb9 db77 1f02 d297 1102 cfc0 1702
00000040: d47b 7aba 8aed f6b9 082b 13b9 2218 12ba
00000050: 36fc 16ba 362a 1a03 ba5f 093a 0000 0000
00000060: 0000 0000 3841 ceb9 fc01 433a 0000 0000
00000070: 69cd 20ba 4a73 b7ba ace0 4b39 7c19 6039
00000080: b20c c6b9 0000 0000 247c 7db9 0000 0000
00000090: 8426 9ab9 daca 0cba 424b 303a cda0 1a02
000000a0: 0d28 5138 e85e 31b9 d0c9 caba 00bb 5ab8
000000b0: 0000 0000 0000 0000 2404 66ba 0193 6c3a
000000c0: 0000 0000 0000 0000 04a7 05ba e370 adb9
000000d0: 8078 ad39 60fd c839 f33c 1302 7702 c437
000000e0: 5c52 2d3a 0000 0000 0000 0000 21b4 63ba
000000f0: 7f08 28ba f453 aab9 de45 adb9 f0d7 d538
00000100: ea75 0a3a e170 1b02 25b5 1bbb 0000 0000
00000110: 51bb 99b8 e688 d1b9 36a9 ecb9 0000 0000
00000120: 5c5a 6db6 43f6 deb9 f8c4 34b9 701d 3dba
00000130: 8b57 20b7 0000 0000 d02e 50b9 0000 0000
00000140: 2561 acbb 8f35 1002 b3b7 afb5 475a c5b9
00000150: 37b3 15ba c3e6 de3a cd13 52b9 4802 9636
00000160: fc4e 6739 9c72 2439 0000 0000 0000 0000
00000170: 89ec 81ba 951c 0eb7 e857 9539 0000 0000
00000180: 79a0 91ba ace4 3338 a817 da38 0000 0000
00000190: 5570 e3ba 8658 1702 c0f2 0f37 441e a139
000001a0: 771d 10ba 7e34 3e3a c8a8 5fb6 d0a8 12b8
000001b0: eebc 8b3a 306c 8c3a d86c e7ba 502b 1402
000001c0: 3918 88ba 37bc dcba cf3b ebba 0000 0000
000001d0: d671 e039 ee82 8bba 308a 1202 7470 5fb9
000001e0: b6c3 40ba 5204 243a 0000 0000 9d7c d239
000001f0: 1447 55b7 5e73 1002 10b3 3a3a db69 543a
-5.4591404e-05 0.0012781436 -0.00036019972 0.0002234022 0.0004960797 -0.001242903 -0.00025033965 -2.7123882e-05
-0.00027934398 -0.00020242887 0.00017184555 0.000161976 -0.00017969875 1.1715872e-37 1.0696488e-37 1.1149061e-37
-0.0009555195 -0.00047097757 -0.00014035043 -0.0005573054 -0.0005759628 4.530499e-37 0.00052403996 0.0
0.0 -0.00039339974 0.00074389554 0.0 -0.0006134124 -0.0013996151 0.00019443285 0.00021371798
-0.00037774962 0.0 -0.00024174206 0.0 -0.00029401865 -0.00053708034 0.00067250815 1.1360281e-37
4.9866783e-05 -0.00016915391 -0.0015471522 -5.2149408e-05 0.0 0.0 -0.0008774421 0.0009024591
0.0 0.0 -0.00050984346 -0.00033081239 0.0003308691 0.00038335752 1.0817346e-37 2.3366169e-05
0.0006611699 0.0 0.0 -0.0008686204 -0.00064099574 -0.00032487477 -0.00033049186 0.00010196853
0.0005281853 1.1419996e-37 -0.0023759094 0.0 -7.330499e-05 -0.00039965584 -0.000451395 0.0
-3.5368348e-06 -0.0004252662 -0.00017239514 -0.00072141644 -9.557126e-06 0.0 -0.00019853865 0.0
-0.005260604 1.059482e-37 -1.309198e-06 -0.0003764203 -0.0005710604 0.0017006028 -0.00020034537 4.470614e-06
0.000220593 0.00015682954 0.0 0.0 -0.0009912412 -8.470514e-06 0.0002848499 0.0
-0.0011110447 4.2889893e-05 0.000103994564 0.0 -0.0017352203 1.1119133e-37 8.579984e-06 0.00030730863
-0.00054975547 0.0007255747 -3.3327833e-06 -3.496633e-05 0.0010661164 0.0010713395 -0.0017656339 1.0885753e-37
-0.0010383195 -0.001684076 -0.0017946901 0.0 0.00042809424 -0.0010643878 1.0766044e-37 -0.0002130883
-0.0007353382 0.00062567473 0.0 0.00040147165 -1.27123385e-05 1.0612558e-37 0.00071220193 0.0008102932

exp_avg_sq f4 [128]
00000000: 8049 bf34 feed 1737 081f ab36 e571 1d37
00000010: 913c 1e38 5dda 3f37 41b9 7b35 78b4 1835
00000020: 490f 4337 79d9 a937 5353 8438 ea67 4136
00000030: f72e 1d36 ce3c df2d c66d 0b30 45a0 3e31
00000040: 9b17 a638 8079 be36 0f62 cd36 3a7b a238
00000050: 6c40 a836 84cb 2e32 8941 3736 0000 0000
00000060: 0000 0000 2984 1338 192a 7d38 0000 0000
00000070: ae91 5c37 c67d 9938 e899 4837 a5fe a236
00000080: f53f c336 0000 0000 5f87 8e36 0000 0000
00000090: 21ac 9c38 8afc be38 45d8 1138 8ad4 b22e
000000a0: 55a2 3836 9b6e 8736 53e5 d237 978f 5238
000000b0: 0000 0000 0000 0000 d8e4 3538 7b99 4238
000000c0: 0000 0000 0000 0000 963c 3037 bab1 8d35
000000d0: 72ee 9938 6707 4838 41c6 b82f 6578 5a35
000000e0: 55f2 6e38 0000 0000 0000 0000 9e1e b636
000000f0: ab13 9d38 3ba0 cb36 5b60 5436 92f7 5338
00000100: 57cc 0138 92bb a92e 5440 f438 0000 0000
00000110: e035 0335 3dd1 0d36 5d77 3637 0000 0000
00000120: 1cd5 9f34 d9af 0c36 23cd c135 bf81 4e37
00000130: f64a d935 0000 0000 827a 5038 0000 0000
00000140: fc4b 4b39 19c2 472e 5372 6433 6441 e436
00000150: 2201 7137 6442 0e38 12af 0736 17f1 4535
00000160: 7eb9 ca36 0b78 1b37 0000 0000 0000 0000
00000170: 65b1 c237 8aae 9e35 d461 2e36 0000 0000
00000180: 3626 c937 916d 0934 2e25 7a35 0000 0000
00000190: 5224 3339 0e05 3830 3686 8836 aa18 df35
000001a0: f338 a836 f749 2538 b5c6 6a35 9781 7535
000001b0: f67a 5d38 9cc5 cc37 6864 aa38 1cdc da33
000001c0: 29af d837 bc3f 9e37 ff82 4638 0000 0000
000001d0: b95e 5634 1eec b338 5b19 8d2d eb48 b936
000001e0: 828f 8837 22ca 9b36 0000 0000 14e6 b336
000001f0: 581c 2033 b947 722f 0a7b b537 4590 a338
3.563e-07 9.055713e-06 5.0998096e-06 9.384447e-06 3.7726542e-05 1.1435329e-05 9.3774366e-07 5.688703e-07
1.1626465e-05 2.0247639e-05 6.309771e-05 2.8819727e-06 2.342216e-06 2.5379168e-11 5.0723903e-10 2.7739742e-09
7.919894e-05 5.6765857e-06 6.1208916e-06 7.747715e-05 5.01429e-06 1.0174407e-08 2.7307271e-06 0.0
0.0 3.5170615e-05 6.0359107e-05 0.0 1.3146941e-05 7.319036e-05 1.1956763e-05 4.8576208e-06
5.8188984e-06 0.0 4.247689e-06 0.0 7.470721e-05 9.106945e-05 3.477211e-05 8.1322574e-11
2.7512626e-06 4.0361897e-06 2.5140738e-05 5.020163e-05 0.0 0.0 4.336689e-05 4.6396144e-05
0.0 0.0 1.0504524e-05 1.0557044e-06 7.3400224e-05 4.769061e-05 3.3610273e-10 8.1386526e-07
5.696931e-05 0.0 0.0 5.427587e-06 7.490007e-05 6.0685247e-06 3.1646548e-06 5.0536888e-05
3.0946303e-05 7.7185494e-11 0.00011646809 0.0 4.88797e-07 2.113243e-06 1.0875837e-05 0.0
2.9771115e-07 2.0963982e-06 1.4439323e-06 1.2308766e-05 1.6189576e-06 0.0 4.970516e-05 0.0
0.00019387895 4.5419755e-11 5.3189364e-08 6.802542e-06 1.4364983e-05 3.391727e-05 2.0218472e-06 7.373905e-07
6.0416633e-06 9.26667e-06 0.0 0.0 2.3209208e-05 1.1822715e-06 2.5984964e-06 0.0
2.397886e-05 1.279898e-07 9.318636e-07 0.0 0.000170843 6.6945993e-10 4.06874e-06 1.6621973e-06
5.01342e-06 3.940795e-05 8.746095e-07 9.145819e-07 5.2805022e-05 2.4410714e-05 8.124934e-05 1.0191454e-07
2.5830772e-05 1.8864746e-05 4.732888e-05 0.0 1.9964763e-07 8.5793654e-05 1.6041104e-11 5.5219184e-06
1.627929e-05 4.6428913e-06 0.0 5.3614003e-06 3.727868e-08 2.2035253e-10 2.1634176e-05 7.799318e-05

exp_avg f4 [64, 128]
00000000: 0f4f d0bc e816 47ba b0a8 ddba 7bbe 893c
00000010: 002a 9439 e463 563c 4c7d aa3a 7c8b cdba
00000020: b835 c23c 5e17 373d 8053 63b9 9c77 08bc
00000030: 60ed bc3c 0401 1682 d7cc 1582 d41b 1f82
00000040: 1745 64bc d5ed 86bc d952 0d3d b6a2 8d3b
00000050: ec7f 9fbb 5ce7 d283 0877 593b 0000 0000
00000060: 0000 0000 b822 543c ee14 a03c 0000 0000
00000070: 9227 383c ed3f 1b3c 163c 353d 1c75 053d
00000080: 3d8b 423c 0000 0000 44ad 44bd 0000 0000
00000090: 3ac3 963c 6b3a 49bc a14c ff3c 0000 0000
000000a0: 80d5 1538 8891 9b3b 88bd 8fbb bc14 b83b
000000b0: 0000 0000 0000 0000 087e 5d3b 8865 e53b
000000c0: 0000 0000 0000 0000 88d3 b23b 3cd8 7fbb
000000d0: f6b6 f53b aadf 683c 1c95 1182 1c40 5d3a
000000e0: 18a8 3e3b 0000 0000 0000 0000 0bfa 0dbd
000000f0: f076 143c d473 303d b000 00bd e381 cc3c
00000100: ca2a b03c 2b94 1282 7a11 2ebc 0000 0000
00000110: 69ee 0fba 4a92 f23c 206c a4ba 0000 0000
00000120: 37e0 8839 38be 133b 0669 9a3c 6464 1fbc
00000130: c3b9 153a 0000 0000 e0d2 863c 0000 0000
00000140: f697 8ebc 48a8 1e82 e5a4 2cb8 d44e 8e3c
00000150: 32fe 1abc 096b 983c 6c91 16bd de94 74bc
00000160: 528d 3cbc 7cf6 983c 0000 0000 0000 0000
00000170: 1432 7c3c 9c5c 9c3a f3c3 aabb 0000 0000
00000180: 5917 e03c 44c0 0c3a 7236 52bc 0000 0000
00000190: c295 d5bb 7158 1782 69f8 153d e213 9e3d
000001a0: 7c44 a83b 267a 093d bfd5 9bba e6b0 31ba
000001b0: b4bf f83c 9923 c13c 20be 3bbb d6f5 1d82
000001c0: dde6 9e3c b814 9dbb ab61 77bc 0000 0000
000001d0: 1cab b03b d261 973c 1292 1982 8487 8dba
000001e0: 846e fdbb 83f4 813d 0000 0000 28fd eeba
000001f0: e09f 8937 11b6 1d82 207a 213c f40d 313c
00000200: 055b c538 6344 1f82 764a 2030 fba5 3439
00000210: 3456 8937 c201 4f0f 1a88 1582 4f17 8a35
00000220: 7d91 2b39 10d5 6e38 4ea7 fe36 f095 1738
00000230: 952c 5739 0594 1102 b618 1102 f6d0 1102
00000240: 0b60 8c37 72f7 4a39 75f7 4139 9f78 2cb1
00000250: 86f1 a6b3 bec9 1502 8384 ab0d 0000 0000
00000260: 0000 0000 4974 d138 bea6 6537 0000 0000
00000270: 4f51 8139 a5b8 1439 7833 2030 9df1 2339
00000280: 5073 5739 0000 0000 9de8 a239 0000 0000
00000290: 541c 1839 18d8 299e 4491 fab2 0000 0000
000002a0: c722 fd39 879d ebb3 2910 d237 39ea 0fb2
000002b0: 0000 0000 0000 0000 869c 4738 76dd 8f38
000002c0: 0000 0000 0000 0000 41e4 4739 e839 f038
000002d0: 0a28 9fab c2a8 3f39 e216 1b02 382d b999
000002e0: 7392 6db2 0000 0000 0000 0000 4d58 9039
000002f0: 4461 8537 4c46 063a 242e 313a fbf5 a733
00000300: b191 0239 1905 1702 bd40 1e34 0000 0000
00000310: 8c23 d593 fb6a 0b3a 6de9 ed39 0000 0000
00000320: 0a1c 008e d373 3239 4ab7 c639 6b44 0439
00000330: f0db f22d 0000 0000 2130 62b2 0000 0000
00000340: 7217 bd33 0f26 1202 4173 710e 35e0 3639
00000350: a6e2 da38 dbeb d038 387f f839 d074 8438
00000360: d7be 0c3a 3e57 f935 0000 0000 0000 0000
00000370: 08c2 0339 4f6c 5c37 b4a8 a138 0000 0000
00000380: bee1 e338 636b 9e0e d47e 7c38 0000 0000
00000390: 7adc 4033 b48a 1a02 fa6e 9b39 cde8 083a
000003a0: db0c 2c36 e0c2 1638 9457 a7a5 5e05 ec8f
000003b0: 15c9 4c34 bfa8 0a39 7a54 4338 1697 1c02
000003c0: 26c2 2339 d7d5 3a39 0225 0c38 0000 0000
000003d0: 48c7 7c0e 133f 6d34 0000 0000 d8f0 1839
000003e0: d7c2 dc38 6b25 5739 0000 0000 6670 033a
000003f0: cdfb 1202 ad9c 1c02 db2c a337 7a38 cf38
-0.025428323 -0.0007594661 -0.0016911235 0.016814461 0.00028260052 0.013085339 0.0013007312 -0.0015681828
0.023707256 0.04470002 -0.00021679513 -0.008329298 0.023062408 -1.1020551e-37 -1.1005577e-37 -1.1689461e-37
-0.013932488 -0.016470829 0.034502838 0.004322375 -0.0048675444 -1.2395808e-36 0.003318252 0.0
0.0 0.012947731 0.01954123 0.0 0.011239903 0.00947569 0.044246756 0.032582387
0.011874017 0.0 -0.0480168 0.0 0.018403638 -0.012281994 0.03116447 0.0
3.5723206e-05 0.0047475733 -0.0043866076 0.005617706 0.0 0.0 0.0033797044 0.007000629
0.0 0.0 0.0054573454 -0.0039038798 0.0074986173 0.014213482 -1.069571e-37 0.0008440034
0.002909189 0.0 0.0 -0.034662288 0.00906156 0.043079212 -0.031250656 0.024964279
0.021504778 -1.0768908e-37 -0.010624284 0.0 -0.0005490543 0.029610772 -0.0012544431 0.0
0.00026106994 0.00225438 0.018848907 -0.009728525 0.00057115796 0.0 0.016457975 0.0
-0.017406445 -1.1656301e-37 -4.1161566e-05 0.017371573 -0.009460019 0.018605726 -0.03675978 -0.014928071
-0.011508303 0.01867222 0.0 0.0 0.015392799 0.0011929455 -0.0052113472 0.0
0.027354883 0.0005369226 -0.012830364 0.0 -0.0065180967 -1.1119109e-37 0.036613856 0.07718636
0.005135117 0.033563755 -0.0011889263 -0.0006778374 0.030364849 0.023576545 -0.002864726 -1.160509e-37
0.019397194 -0.0047937296 -0.015098969 0.0 0.0053914916 0.018479262 -1.1282585e-37 -0.0010797833
-0.0077341218 0.06345465 0.0 -0.0018233405 1.640612e-05 -1.1586789e-37 0.009855777 0.010806549
9.410646e-05 -1.1701101e-37 5.8313476e-10 0.0001722797 1.6371814e-05 1.02062265e-29 -1.098585e-37 1.0288585e-06
0.0001636203 5.694205e-05 7.5892667e-06 3.6140846e-05 0.00020520606 1.0695397e-37 1.0660009e-37 1.0712886e-37
1.6734024e-05 0.00019356402 0.00018498099 -2.509786e-09 -7.77391e-08 1.1004688e-37 1.057059e-30 0.0
0.0 9.9875564e-05 1.3688286e-05 0.0 0.00024665377 0.00014183165 5.82808e-10 0.000156349
0.00020546955 0.0 0.00031072358 0.0 0.00014506403 -8.991473e-21 -2.916989e-08 0.0
0.00048281832 -1.0971694e-07 2.5041476e-05 -8.376952e-09 0.0 0.0 4.759107e-05 6.860022e-05
0.0 0.0 0.0001906315 0.00011454878 -1.1308743e-12 0.00018278047 1.1394169e-37 -1.9146815e-23
-1.3828514e-08 0.0 0.0 0.0002753161 1.5900128e-05 0.00051221694 0.00067588896 7.821287e-08
0.0001245204 1.1095191e-37 1.4738448e-07 0.0 -5.380381e-27 0.00053183705 0.00045378078 0.0
-1.5790718e-30 0.0001701855 0.00037902064 0.00012613989 2.7609887e-11 0.0 -1.3165875e-08 0.0
8.805263e-08 1.0737308e-37 2.9761036e-30 0.00017440396 0.000104372666 9.9621444e-05 0.0004739703 6.3160085e-05
0.00053690135 1.8577337e-06 0.0 0.0 0.00012565416 1.3138239e-05 7.708502e-05 0.0
0.00010866251 3.9053417e-30 6.01996e-05 0.0 4.4904006e-08 1.1353939e-37 0.00029646588 0.00052226783
2.563748e-06 3.594428e-05 -2.9029227e-16 -2.3273464e-29 1.9072134e-07 0.00013223568 4.6570298e-05 1.150443e-37
0.00015617217 0.00017818004 3.3413067e-05 0.0 3.1157349e-30 2.2095291e-07 0.0 0.00014585571
0.00010526709 0.00020517937 0.0 0.0005014002 1.0798649e-37 1.1506034e-37 1.9452002e-05 9.881049e-05
