lightning_model_releases/lightning_quantile_test/model_params/0.6_80558_1331_lightning_quantile.ckpt (torch, 311310 bytes, 15 tensors)

model.0.weight f4 [128, 131]
00000000: 4778 02bc 1452 f43d 2ae8 19be c95c f53c
00000010: 1330 97bc a247 a63d 6948 d0bd 3fb1 2d3e
00000020: d313 87bd ca9e d73b 21bf 0f3d cc0c a6bb
00000030: 96b1 27bd 36fc b0bd 66c9 dbbc 045e 8c3c
00000040: 10b6 4c3e 8f28 843d c70f ddbc 9801 4cbc
00000050: a18f a7bd 9b37 aa3b 7a36 b73d d2a7 5cbd
00000060: cdc2 2a3d 0488 983c dfb8 91bc 297f ee3d
00000070: 17a7 1f3e 3003 8cbe f6ab 18bd ec75 1b3d
00000080: bbfa d83c 7c39 023d e9a7 b8bd 7be3 963d
00000090: c6b4 a03d ef48 bfbd 57a2 25bb 4f22 e3bd
000000a0: 8664 b5bb 8bf2 6d3c 1cb4 133e 66ca 343e
000000b0: 5ee7 0c3e 818d eabd ba29 d73d 6bb3 433c
000000c0: 2502 cc3d c026 d2bd d9f6 f1bd 9244 923e
000000d0: 911a e43d b628 953e 5d10 edbc 6959 a2be
000000e0: d611 83be 7035 243e d1e5 933d ef83 babd
000000f0: 8eae 33bd 30ef cc3d 042a 6b3d a8db c4bd
00000100: 5a97 853d 1237 b5bd b0c9 803d e88a 1abe
00000110: 251a abbd 0c53 dabd 24bb 8c3e 67be bf3d
00000120: aeca 963d cd5e 4dbc 1d50 5dbe 2fcc c7bc
00000130: 9f19 13bc 0b4f 7b3c 4381 b23d 199e c83d
00000140: 5eda 35be 05d2 d2bc 15a8 b03b 8785 1dbc
00000150: 5a0f 003e d4f5 f5bd 2b02 9c3d f513 35be
00000160: 44d3 f8bc be15 45bd 041a ef3d 0c69 a2bd
00000170: b2ab e8bc 99cf ac3d 7d3c c3bc 5cd1 90bc
00000180: 529f 7dbd 8cb1 8b3d 1ad2 1c3d 4572 3e3c
00000190: 6970 0bbe 13c2 003e 0ce0 7cbd 18c9 223e
000001a0: 4c56 bd3d 0cc2 16be b9ce 97bd 5e70 df3c
000001b0: 12e7 ad3a 07d4 413d b3de 4b3e d9af 413e
000001c0: e235 c4bd 08ab 33be e5ea 53bc 8151 aabd
000001d0: 70d7 5f3c ff41 2d3e 6bc7 a9be bee3 41ba
000001e0: 8231 f7bc bab6 49bd 389a 2b3d 628a 33be
000001f0: ed92 12bd ec84 18bd 6984 ed3b 7acf 82bd
00000200: 5025 c63b 3c75 bbbd a534 2e3d 78ce 233e
00000210: bc88 a1be 8ce4 b53e 721c 88bd 83a6 98be
00000220: 4087 94bd c5e3 b1bd 7304 4d3d 4059 9cbc
00000230: 3f80 d83d 3e69 0b3e a3d8 843d fc58 83bd
00000240: 882d 77bc 0804 623d c14c 53bd ab74 903d
00000250: 8b00 a33d 96e1 8dbd 9bb4 c23b eb0e bfbd
00000260: 38de 1cbc 7f28 b2bd 092c d63d a500 d03c
00000270: 479f 053a 7832 0d3d 6089 82bd 3848 49be
00000280: 93a4 a23d e98c 0e3e 5e50 533e 7328 bbbe
00000290: a6f3 8cbd 3ac1 923d b0c9 71be c0b2 023b
000002a0: 9ab3 8fbc 56f0 4bbe 4ea4 b0bd 0237 103d
000002b0: 88fe 823d 542a 07be 7dc0 f13c 2dad 17be
000002c0: d206 41bd cb86 58be acda 31be 3b94 d8bd
000002d0: 35fa 13be 3d15 933e c599 f33d e119 463e
000002e0: dd2a fb3e a3df 9b3d f60b 7cbe 5fae 06bf
000002f0: efd7 803e 1253 443c 8eec b0bd ef14 993d
00000300: 0a75 073d 0f61 20be 203c 8bbd 47c6 0b3e
00000310: 75e9 b5bd 8764 b33d 6ba4 453e 37d2 81be
00000320: 5996 07be a6cd 083d 2aca 60bd ef72 46be
00000330: 1c55 b8bd 0e93 9cbe 3a62 98bd 9b0f 4cbe
00000340: 72c8 03be 6a1f 123e 8cf6 70bd 7d2c e83d
00000350: 67d1 a2bd b480 24be e3d7 32be 5f0a 8f3d
00000360: 8e00 4cbe 062f 53bc 4548 363e 27ec adbc
00000370: 2a62 b03e 5921 493e 31d5 f4bd 25f8 0dbd
00000380: 6ee5 72be 406e 823c 3583 543e 28f8 873c
00000390: 1647 4ebe 4c4c 99be 1173 38bd 90d3 113f
000003a0: 89e2 3dbe ee22 acbd 0a99 7b3c 472a abbb
000003b0: f5d8 2d3c b214 88bd faae d53d dfde 423d
000003c0: 03c8 b8bd 8fa4 f2bd 1ac6 6abe ee4f 20be
000003d0: 5bee 0b3e b126 e33c b98a b53d 0c6b ed3c
000003e0: 7e29 a03e 3520 cfbe 05f3 43bd 745f adbe
000003f0: 4b9b 6f3d d729 a2bd 6dd1 2cbe dbd4 16be
-0.007963247 0.11929718 -0.1502997 0.02995147 -0.01845554 0.081191316 -0.10170061 0.16962145
-0.06595578 0.0065802084 0.035094384 -0.0050674435 -0.040940844 -0.086418554 -0.026829433 0.017134674
0.19991326 0.064530484 -0.026985062 -0.012451552 -0.08181692 0.005194617 0.089459375 -0.053870983
0.041689683 0.018619545 -0.017788349 0.116453476 0.15591083 -0.27346182 -0.03727337 0.037954256
0.026486745 0.031793103 -0.09016401 0.07367607 0.0784698 -0.09340083 -0.0025273764 -0.11090528
-0.005535665 0.014523159 0.14424175 0.17655334 0.13760135 -0.11452771 0.105060056 0.011944632
0.099613465 -0.10261297 -0.118146606 0.2856794 0.1113788 0.29132622 -0.028938467 -0.3170884
-0.25599545 0.1603601 0.072215684 -0.091071956 -0.04386764 0.10006559 0.057413116 -0.096122086
0.06523009 -0.088483945 0.06288469 -0.15092051 -0.08354596 -0.10660371 0.27486527 0.09362488
0.07362877 -0.012534809 -0.21612592 -0.024389355 -0.0089782765 0.0153386695 0.08716061 0.0979578
-0.17759082 -0.02573491 0.0053911307 -0.009614355 0.12505856 -0.120097786 0.07617601 -0.17683394
-0.030374177 -0.048116438 0.11674884 -0.07930192 -0.028402183 0.084380336 -0.023832554 -0.017677955
-0.061919518 0.06820974 0.038286306 0.011623924 -0.136171 0.12574033 -0.061737105 0.15897024
0.092449754 -0.1472246 -0.07412476 0.02727526 0.0013267717 0.047321346 0.19909172 0.18914737
-0.0958059 -0.17545712 -0.012934421 -0.08316327 0.013662204 0.16919707 -0.33159956 -0.0007396302
-0.030174974 -0.049246527 0.04189512 -0.17533258 -0.03578465 -0.03723614 0.0072484505 -0.06387229
0.0060469285 -0.0915322 0.042530674 0.1599673 -0.31549633 0.3552593 -0.066460505 -0.29814538
-0.072523594 -0.08686022 0.05005307 -0.019085526 0.10571336 0.13614365 0.06486633 -0.06413457
-0.015086539 0.055179626 -0.05158687 0.07053503 0.07959088 -0.06927793 0.00594194 -0.09329017
-0.009574465 -0.0869913 0.10457618 0.025390932 0.00050972815 0.03447196 -0.063738585 -0.19656456
0.07941546 0.1392094 0.20636126 -0.36554298 -0.0688241 0.07165761 -0.23612094 0.001994297
-0.017541695 -0.199159 -0.08625089 0.03520871 0.06396204 -0.1319974 0.02951073 -0.14812155
-0.047125645 -0.2114517 -0.17368573 -0.10575148 -0.14450915 0.2872714 0.118945636 0.1934581
0.4905614 0.07611015 -0.24613938 -0.5260982 0.25164744 0.011982696 -0.08638869 0.07474696
0.0330706 -0.15662025 -0.06798577 0.13649856 -0.08882419 0.087594084 0.19301002 -0.25355694
-0.13240947 0.033399247 -0.0548803 -0.19379781 -0.09000608 -0.30580944 -0.0744061 -0.19927828
-0.12869433 0.14269796 -0.058828875 0.113366105 -0.079500966 -0.16064721 -0.17465167 0.069844
-0.19922087 -0.012889629 0.17801006 -0.02123077 0.34449893 0.19641627 -0.119547255 -0.034660477
-0.23720333 0.015921712 0.20753177 0.016597822 -0.20144305 -0.29941022 -0.04503161 0.56963444
-0.18543448 -0.084051 0.015356312 -0.0052235457 0.010610809 -0.06644572 0.10433765 0.047575828
-0.09022524 -0.11847793 -0.22927132 -0.15655491 0.13665144 0.02772841 0.0886435 0.028981708
0.31281656 -0.4045426 -0.047839183 -0.33861887 0.05849771 -0.079181366 -0.16876765 -0.14729635

model.0.bias f4 [128]
00000000: e709 8dbd 2618 c1bc 1ad1 e53c 81f7 ed3c
00000010: a136 8c3d 819c a53d 6670 6abd 61b4 4e3d
00000020: 62be 4bbd 1cef 8d3b 6c4c b63b 6947 553e
00000030: db0c c2bd 5ffb a43d bf34 6e3d b3ba 58bd
00000040: a8c1 503d f6fb dcbd 8d46 39bd 9f80 423e
00000050: 374d 433c 8f15 dbbb 5a51 ab3d 2c3d 6f3d
00000060: df25 d63d 3798 883c 74ed 673c 26ee 633d
00000070: 9e12 8f3d cba6 923d e396 923d a419 09bc
00000080: 279b 0bbc 1ead 54be 55c4 0dbc 1c21 3a3c
00000090: 2f87 a43d ed57 a23d 717b a93d 9f29 aabc
000000a0: e558 17bd 37ef d5bd e95f d73c 841c c23d
000000b0: 97f7 4c3e 601d 963b e496 873d c3b6 db3c
000000c0: dd8c 223d 6408 87bc ebae 72bc 9066 8b3c
000000d0: 79a3 b93d c228 81bd e3d6 c2bc 5aa5 cd3c
000000e0: 81e1 a43d b2c8 293d 06d3 b9ba d8f1 323d
000000f0: b7b7 a13b ffdf cd3c 37eb 88bd 456d 903d
00000100: 0f1a 983c 75c7 ee3c 2391 b63c a533 a83e
00000110: 8ca2 993d 0e3c 97ba c8c8 4fbd e3d0 a63d
00000120: a946 323b 8f4a 513e 4f67 da3c 25ed 10bd
00000130: 6619 993d ae7e c0bc 96c3 2c3e cfd5 18bd
00000140: cbc4 553d 2f5e 583d 45c9 14bd 4611 393c
00000150: 448e b73d 7a35 32bd 316b 03bb 241e 24bd
00000160: f5c6 c1bd 384c 91bd 71d6 803e eda4 a23d
00000170: e700 ac3d 6687 363e 482f 84bd b705 0a3e
00000180: 98a1 06bd 5ae4 6f3d 6917 ab3d c122 c2bd
00000190: a8d6 41bd 4219 4ebd c9e2 8cbd 638c 07be
000001a0: c191 49bd a740 d53d 2297 b5bd b375 cdbc
000001b0: 7ac9 b9bc dfc5 d83d ee77 ff3d e51d 8f3e
000001c0: 2b34 75bd 0cfd a33c e25d f73d b457 e5bc
000001d0: 45cc 943d d8fe d43d 763d 063e 34a3 ca3c
000001e0: e904 8e3d a850 c13a 53d1 fc3d 00cf 23bd
000001f0: 5abc 3b3e c59c f9bd f44c 023d c766 593c
-0.06886654 -0.023571085 0.028053809 0.029048683 0.06846357 0.080864914 -0.057236098 0.05046499
-0.04974211 0.0043314826 0.0055633094 0.20828022 -0.09475108 0.08055758 0.05815577 -0.052912425
0.050965935 -0.10790245 -0.045233298 0.18994378 0.011920265 -0.0066859196 0.08365126 0.058407947
0.10456442 0.016674144 0.014155734 0.055647038 0.06985973 0.071607195 0.071576856 -0.00836793
-0.008520878 -0.20769164 -0.008652766 0.011360433 0.08033597 0.07926927 0.08275498 -0.0207718
-0.03695001 -0.10446017 0.02629085 0.09478095 0.20016323 0.0045811385 0.06620577 0.026820546
0.03968512 -0.016483493 -0.0148122115 0.017016679 0.09064383 -0.06306602 -0.023784107 0.02510326
0.08050824 0.041451164 -0.001417727 0.04368767 0.0049352306 0.025131224 -0.06685489 0.070520915
0.018567113 0.029147843 0.022286003 0.32851902 0.075017065 -0.0011538283 -0.05072859 0.08145311
0.0027202761 0.20438598 0.02666059 -0.03538241 0.074755475 -0.023497906 0.16871485 -0.03731328
0.05218963 0.052824195 -0.036324758 0.011295622 0.08962682 -0.04350803 -0.0020052905 -0.040067807
-0.09461776 -0.07094616 0.25163606 0.07941613 0.083986096 0.17825088 -0.06454331 0.13478743
-0.03286895 0.058567382 0.083540745 -0.09479285 -0.047323853 -0.050317056 -0.06879193 -0.13237147
-0.049211267 0.10412722 -0.08866717 -0.025080537 -0.02267908 0.10584616 0.12474047 0.27952495
-0.059864204 0.020018123 0.120784536 -0.027995922 0.07265524 0.1040017 0.13109383 0.024736024
0.0693453 0.0014748769 0.12344613 -0.039992332 0.18333569 -0.121881045 0.03181167 0.013269133

model.3.weight f4 [64, 128]
00000000: f775 80bd 9ced afbd f084 7bbd 63bd adbc
00000010: 44e7 5a3c 009c 08ba d6f1 b0bc f8f4 b13c
00000020: 83dd 813d ed3e 65bd 608d 1bbd b9eb f7bd
00000030: f7ac 903d 1019 cf3c a66a dfbc e0b3 333d
00000040: ace9 643c fca8 6b3c 9c04 453d cd98 d53d
00000050: 26e8 b63d 83f2 55bd 1218 b2bd c4f9 4dbd
00000060: 2b31 8b3d 7baa 4a3c 5d29 a93d 1ef3 1ebb
00000070: 7fff debc aae1 babb 4e24 293d 14e3 c93b
00000080: 36c8 893d 5684 b73d 2f1f de3c 3c7b 943d
00000090: 9532 d53d 6250 72bd 6205 49bd 1da9 ffbd
000000a0: 8e66 edbb 5502 483d 782e af3d 9af0 413b
000000b0: 3375 c7be 5262 453d 70b8 43bd 9794 98bb
000000c0: 4af3 6a3e 98b4 73bc 678c 593d fa8b 163d
000000d0: 008a f03c 8aa5 403d 4364 693d a7cc b0bd
000000e0: c35c 8e3d 22c2 493d 1fef ed3d b29f 4dbd
000000f0: 3ac3 f23b 5bee 8c3d 9371 5b3d 91fd babb
00000100: 1427 913d ea0b 4abe 599d 833c 3429 76be
00000110: cc8a f0bc 49c7 b0bc a7e0 a53c 0ed9 633d
00000120: 758e 5bbc 5df5 47be 32b3 8fbd 467a 92bd
00000130: 69e5 9cbd a090 c43c 8f13 843c 7074 aa3c
00000140: ed05 3b3d f1da 0e3b 1712 a83d af1a 82bd
00000150: 2a2f dbbc c6d1 4cbc 394c 3c3c cb89 9dbd
00000160: bdfd a43d 2322 8e3d 6943 88be 46d3 30be
00000170: 6955 703c 15cb 7bbc fb08 b9bc d50a dcbd
00000180: 207b 343c 7570 b2ba 8c08 8fbd 4144 93bd
00000190: f988 7d3d 685f 643e 6d5a a73d aee1 5a3c
000001a0: 5e03 b73c 723a 993d 2506 dfbd b8ac 973d
000001b0: 81db 9c3d 3552 43ba d296 ed3d a338 3fbe
000001c0: d73c 13bd b64c 963d 4074 7c3d 94bf 80bd
000001d0: 4a69 173e 7321 543e 4c1f 57be b959 58bd
000001e0: 4cc3 b53c d08b 783d b446 44be 38f9 6ebc
000001f0: 3bd9 5cbd fca1 cabd c4be 933d 49c5 543d
00000200: fd61 ddbc 0c18 73bd 240c aabd 317e 1bbd
00000210: 0f62 673c 7522 a3bd 6f36 15bb 9f11 913d
00000220: 9593 993c bbff 03bb 6a96 2dbd 950b b0bc
00000230: 6f79 c2bd c156 b7bd 1124 443c cda8 7e3c
00000240: 481f 443c 0c0e 95bd 8518 5bb9 4c62 8abd
00000250: 5790 b2bd 639d 1cbd 2501 a9bd 684e 893c
00000260: c323 01bd 83d5 103d a736 033c 6a25 5fbd
00000270: 7eaf a23b 8923 d0bb b644 d3bd ced7 66bd
00000280: 93de b3bd a7f8 82bd 641b 73bb ee50 9f3d
00000290: 82e0 e43c ca92 71bd 33bd 4bbb 963c 923d
000002a0: 0775 d239 9b04 bebd 6e6e 4dbc 95cd 74bc
000002b0: 2ac0 55bd a357 a53d 575a 4f3d 04c3 a0bd
000002c0: 24b7 a33d dc01 a2bd 3522 91bd 7b94 b03c
000002d0: b52b c0bc 16f7 183d d01d 83bb 1892 0abd
000002e0: 51bc 5c3d 40e9 81bd 0038 80bc 0d5c 053c
000002f0: 07a6 383d ac4a 893d 6af0 983c 9703 7cbd
00000300: 71c5 2e3d 887d 803d 9a9f 65bd 3a47 723d
00000310: 2fbc 623a 12d7 bcbc f780 8c3b f9b1 ccbc
00000320: 8776 25bd a248 05b9 c538 89bc b7ec a8bd
00000330: e213 9dbd a316 d83c 5c0f 97bd e0ab 0d3b
00000340: 703b 463d fa3b 083d d83d 2d3d ff83 cb3c
00000350: 83ba 213d ed96 97bd ed92 7c3d c434 a6bd
00000360: d8bc 99bd d352 64bd 9ca1 863d 196f 4c3c
00000370: 427c 38ba ddd3 173d 5f7f c9bd 9b90 dabd
00000380: 455a c03b 5441 80bd 90cb e53c 7784 2ebd
00000390: 96c2 2a3d 6714 bfbd 67de a53c 3f37 ca3c
000003a0: 2ea5 8cbd dec5 3b3d ea34 fc3c 19cf 7bbd
000003b0: fc2b 93bd b268 203d 1712 29bc 0ee7 9dbb
000003c0: 6afd 953c 75db 0f3c da06 a0bd c670 813d
000003d0: 3a23 7a3c 0200 933b b0a0 71bd 6a84 753c
000003e0: 8fc8 03bd 25eb 273d be66 863d 54ac 443d
000003f0: eb0c cbbc f5b6 863d 6bc7 403d 30e0 edbc
-0.062725 -0.08590242 -0.061406076 -0.02120847 0.013360802 -0.0005211234 -0.021599691 0.021723256
0.06341078 -0.055968214 -0.037976623 -0.121055074 0.070642404 0.025280505 -0.027272534 0.043872714
0.013971727 0.014383551 0.0481001 0.10429535 0.089309976 -0.05223323 -0.08695997 -0.050287023
0.067964874 0.012369747 0.082598425 -0.0024253796 -0.02722144 -0.005703171 0.04129439 0.006161103
0.0672764 0.08960788 0.027114479 0.072500676 0.104100384 -0.05915869 -0.0490774 -0.12483428
-0.0072448915 0.04883035 0.08553785 0.0029592873 -0.38956603 0.04818947 -0.047783315 -0.004656385
0.2294437 -0.0148746 0.053112414 0.036754586 0.029362679 0.04703287 0.056980383 -0.08632784
0.06951287 0.049257405 0.11617874 -0.050201125 0.0074085267 0.068814 0.05357511 -0.005706497
0.07087532 -0.19731107 0.01606624 -0.24039155 -0.029363059 -0.021579402 0.020248724 0.05562692
-0.013400664 -0.19527192 -0.07016601 -0.07152228 -0.07660944 0.023994744 0.016122608 0.020807475
0.04565995 0.002179798 0.08206575 -0.06352746 -0.026755888 -0.012501186 0.011492782 -0.076922975
0.08056209 0.06940105 -0.2661393 -0.17268094 0.014668801 -0.015368243 -0.02258729 -0.107442535
0.011015683 -0.0013613837 -0.06984052 -0.07190753 0.061898205 0.2230202 0.08171544 0.01335947
0.022340473 0.07481851 -0.10889844 0.0740599 0.076590545 -0.00074509095 0.11601032 -0.18673949
-0.035946693 0.0733885 0.061634302 -0.06286541 0.14786258 0.20715885 -0.21008033 -0.05281994
0.022187851 0.06068021 -0.19167596 -0.014585786 -0.053918105 -0.09894177 0.0721412 0.05194596
-0.027024264 -0.059349105 -0.08303097 -0.037962142 0.0141225 -0.079655565 -0.002276804 0.07083439
0.01874713 -0.002014144 -0.042379774 -0.021489898 -0.09495818 -0.08952094 0.0119714895 0.015543175
0.011970349 -0.0727807 -0.00020894602 -0.0675703 -0.08718937 -0.038236033 -0.082521714 0.01676102
-0.031528246 0.03535987 0.008008636 -0.05447904 0.004964768 -0.0063518924 -0.1031584 -0.05635815
-0.08782687 -0.06395083 -0.0037095184 0.07779108 0.027939085 -0.05897788 -0.0031088113 0.07140462
0.00040141513 -0.09278222 -0.0125385355 -0.014941593 -0.052185215 0.08073356 0.050623264 -0.07849696
0.07993916 -0.07910511 -0.070866026 0.021555176 -0.023458341 0.037345015 -0.0040013567 -0.033830732
0.05389053 -0.06343317 -0.015651703 0.008139622 0.04508021 0.06703696 0.018669326 -0.06152686
0.042668764 0.06273943 -0.05606041 0.05914996 0.00086492574 -0.023051772 0.0042878347 -0.024987208
-0.04039624 -0.00012710926 -0.016750703 -0.08248275 -0.07669808 0.026377982 -0.073759764 0.0021617338
0.048396528 0.033260323 0.042295307 0.024843214 0.039484512 -0.07401834 0.061663557 -0.08115533
-0.07506722 -0.05574305 0.06573793 0.01247766 -0.0007037559 0.037067283 -0.09838747 -0.106721126
0.005870136 -0.0626246 0.028051168 -0.042606797 0.041689478 -0.09330063 0.020247651 0.024684547
-0.06867443 0.045842998 0.03078695 -0.0614768 -0.07186124 0.039162345 -0.010319254 -0.0048188036
0.018309314 0.00878035 -0.07813807 0.06320338 0.015267188 0.004486085 -0.058991134 0.014985183
-0.03217369 0.040995736 0.06562565 0.048015907 -0.024786433 0.06577865 0.04706518 -0.029037565

model.3.bias f4 [64]
00000000: e922 f93d fc59 83bd 885d 213e a55b 27ba
00000010: 9ba0 a3bd e096 523d 5f1b 0bbb dae5 aebd
00000020: 35b2 febc d848 1f3c 38e3 ddbc 6ec2 413e
00000030: 1e6a 033e 92bb 3f3e f5bd 3c3d 52a0 00bd
00000040: e424 bdbd b1ee a8bd 831d e73d 18ff 5b3d
00000050: 070d 823d d0ef 0abd 2e04 383e 3d27 933d
00000060: 4000 123e 3d5f 143e 1bfa 093d 0949 4c3e
00000070: 7183 b53d 9d25 9fbe cf83 54bc 695a 71bc
00000080: 6119 70bd e871 303e 7fa3 f13d cd32 85bd
00000090: b89f 0ebd 42b3 343d 4bbc f03c 3932 65bd
000000a0: b090 dc3c f1d5 823c df95 34bd ab37 15bf
000000b0: 2314 46bc db2b e8bd 3234 083d 7f33 863d
000000c0: 6a62 513d b99f fb3d 3175 9d3d d21d 253d
000000d0: 8d8c 053e 336d fbbd 5b64 093d 6788 d23b
000000e0: bf31 77be 6b85 bd3d a952 533d f58e 133e
000000f0: 2e48 a03d aaf3 bbbc 773a 8abd 4565 bc3d
0.12164862 -0.064136475 0.15758336 -0.00063842005 -0.079896174 0.051413417 -0.0021226031 -0.085399345
-0.031090835 0.009721957 -0.027085885 0.18921825 0.12833449 0.18723896 0.046079595 -0.031402893
-0.09235552 -0.08248652 0.11284926 0.053710073 0.06350141 -0.03392011 0.17970344 0.071852185
0.14257908 0.14489456 0.033685785 0.19949736 0.08862961 -0.31083384 -0.012970879 -0.014731028
-0.058617953 0.17230952 0.117987625 -0.0650383 -0.03482029 0.044116266 0.02938666 -0.0559561
0.026924461 0.015971156 -0.04408824 -0.5828807 -0.012089762 -0.1133649 0.033252902 0.06552791
0.051119246 0.12286324 0.07688368 0.040311642 0.13041897 -0.122766875 0.033542972 0.006424952
-0.2414007 0.09253963 0.051592503 0.14410003 0.07826267 -0.022943337 -0.067494325 0.09199003

model.6.weight f4 [1, 64]
00000000: 0f82 e93d 922d 38bd 63d7 8f3d 283c 30bc
00000010: a14d febc edac 7c3d 3f96 d83d ac81 b1bd
00000020: 2f2a a4bd f6e6 c33d f3be 2cbd ec06 943d
00000030: 7205 9f3d fc4d 793d 7daa 943d 8d7f 29bd
00000040: 2aba d3ba 34c4 08bd d57e 893d 3f2d 1b3b
00000050: e6cf 90bc 0304 74bd 72c9 db3d 2bc6 743d
00000060: f10b a43d 3e68 be3d af2c 613d 7fb8 d43d
00000070: ba43 723d 9f30 893d 0b43 5c3d adcc c7bd
00000080: 43da 48bd 7046 fd3d b43e 003e 102d 8dbd
00000090: 1fd8 a3bc ebc8 a43d 24e0 cbbd bd72 ea3c
000000a0: d30c cebd d4bb 24bd 6a5a 65bd 14b8 af3b
000000b0: c9a6 95bc c8c9 5cbd eb6a a13d 79f0 b9bc
000000c0: 4405 c2bd 667a 9e3d be89 c83d 9e82 0ebc
000000d0: 85bc 4b3d 62dc 453d 9853 a0bb 4611 f239
000000e0: 0212 88bd 4f84 a33d 1746 453d c182 b73d
000000f0: 3af8 8d3d ae30 05bd 6ab5 39bd 9206 5c3d
0.1140176 -0.044965334 0.07023504 -0.01075653 -0.031042876 0.061688352 0.10575532 -0.08667311
-0.080158584 0.09565537 -0.04217429 0.07227883 0.077647105 0.060865387 0.072590806 -0.041381408
-0.0016153504 -0.03339024 0.067136444 0.0023678092 -0.017677259 -0.05957414 0.10731782 0.0597593
0.0801009 0.09297226 0.054974254 0.10386752 0.05914662 0.06698727 0.053774875 -0.09755836
-0.049036276 0.123669505 0.1252392 -0.068933606 -0.020000516 0.080461346 -0.09954861 0.028619165
-0.1006104 -0.04021819 -0.05599443 0.00536252 -0.018268006 -0.05390337 0.07881721 -0.022697674
-0.094736606 0.077381894 0.09791897 -0.008698134 0.049740333 0.048305877 -0.0048927777 0.00046170707
-0.0664406 0.0798422 0.048162546 0.08960486 0.06932111 -0.032517128 -0.045339026 0.053717203

exp_avg f4 [128, 131]
00000000: 9d27 cbb6 fcfe 5135 91aa 5b36 4649 9e38
00000010: c516 3935 5cbb 8832 f74e 6e32 df21 1d32
00000020: da4a ce35 ecc8 7f36 9912 9c25 4b18 dfb3
00000030: 22fd 9e34 1960 f434 aee7 5636 3858 f1b5
00000040: fdb5 1ab7 0a27 bd35 421f ceb1 38bf cab4
00000050: b8d8 4634 f976 6d35 1368 d3b1 60dd 4535
00000060: 8495 ec34 85ae 3435 9ef8 17b5 4a71 9d34
00000070: e0fb 38b5 ac17 0335 2cf1 fdb2 56a1 1437
00000080: c781 22b5 758e 3039 15ab 6e36 911e cdb6
00000090: 444d e436 7bdc 9e34 0337 8339 cbb2 4637
000000a0: 665b 6337 8bb7 0138 37ed b4b7 e0bd b636
000000b0: f80f 9437 0dd0 f8b6 2404 8f37 7600 2538
000000c0: 15b4 7c38 9a6f 7e37 1c5d 60b7 f0c6 1c37
000000d0: f6ce 3fb7 e2bc 8c37 3a47 6838 7dde bb36
000000e0: 2152 db38 34f9 3eb7 9ce3 9436 c950 0a36
000000f0: 1846 5637 a144 1eb6 a78e 16b7 aefb 1838
00000100: b182 12b7 7c48 0eb7 daa0 7bb6 103d 9136
00000110: 258b 6636 0414 7937 8eca 6436 d9de a136
00000120: 60db 8535 8144 c436 790b 0d38 d597 0d34
00000130: 2ffc 3635 d576 4238 15c1 01b6 0091 8e36
00000140: db33 0b37 59c6 4a37 52ef 57b6 4df5 6eb6
00000150: eb91 e1b5 b4e1 b636 85fa 9f37 c15e 8f35
00000160: 36c3 8eb6 b4eb 2cb7 085d c4b3 548e a5b7
00000170: 5b70 2d36 b067 9d36 b17b 8236 9055 85b5
00000180: 534a 3134 8a7e 9836 b62a 6938 8836 f0b7
00000190: ba6a 9bb4 1d60 5bb6 a897 0237 1ef7 47b7
000001a0: 149e dcb6 aa29 50b6 0000 0000 43df 39b6
000001b0: 1424 1837 0f58 1535 3117 25b7 96be 8138
000001c0: bb90 dba4 397a 04b8 673e bb38 b2c5 4e38
000001d0: 0000 0000 d6f1 9238 e230 cf38 6a8c 1238
000001e0: 8668 4d38 5a1c 8238 942f c037 9c84 893c
000001f0: 15fd 493c 7615 1d3c ccef 233c 7c5f 883c
00000200: d065 5b3c 1118 4c3c ba6a 2d3e c541 e8b8
00000210: d225 a238 7cb1 75b9 2c76 323b 9e80 d238
00000220: 0000 0000 0000 0000 cf14 f7a3 0000 0000
00000230: 2f9a 27b5 4305 ffb8 0000 0000 0000 0000
00000240: 0000 0000 255f e192 fb9f 92b7 0000 0000
00000250: 0000 0000 0000 0000 ca16 7e38 840f b723
00000260: 0000 0000 a9ca 86b9 62b9 3fa3 027f 0237
00000270: cba1 dd31 f811 b337 ac66 73b7 11b9 8938
00000280: 0000 0000 3152 0ea3 9b90 01b9 662e 7439
00000290: c739 ba3b f6d4 30b9 2130 7439 bdbf 93b9
000002a0: ca16 7e38 853d 033c 095d 663a 3903 ff39
000002b0: b0b3 a83a 3b63 d739 3c13 c839 4f2f 6e3a
000002c0: bdb5 5038 c334 243a 3d6d ed38 7cbc fa39
000002d0: 797e 10b8 45cc ca38 6602 9936 3ca5 7139
000002e0: bbda 6f3a 85c9 033b 30b8 2f3b d129 9639
000002f0: 2f87 e9b9 609d 1b39 e950 1d39 437c 8f39
00000300: 4409 4b39 b9fc 3939 a394 fe39 747b a4b9
00000310: be98 dd38 4fd1 6eb9 d958 a0b8 bdcc 143a
00000320: 6981 9739 8503 adb8 273c 0934 f92b 6439
00000330: 0793 ff24 3018 1839 6740 3ab8 9ae8 5237
00000340: dfab fd24 1cca 1bb9 6894 b939 99da b539
00000350: 210d 8f39 b8de 093a d44d 9738 a92a afb9
00000360: 955a b5b8 5be6 6338 0ca5 ebb8 d169 0eb7
00000370: c93c 7539 e473 95b9 4d8d c338 5db3 ed39
00000380: e05a 4cb9 a69c 0c3a 45c5 4cb9 ee56 27b8
00000390: 4826 4339 f240 8a3a 5848 9bb8 8a22 4f38
000003a0: f74d bc39 2407 c039 5b4d 9737 b240 8db8
000003b0: 67c2 d338 0000 0000 49fe 0dba bbb5 1d39
000003c0: 0376 df39 026b c838 c02c cb3a 0321 7e3b
000003d0: 5b27 453a 4b9d bcb9 38a0 0fb9 0000 0000
000003e0: 0927 4f3b 844c 253b 7e25 0e3b c6ed 4e3a
000003f0: deaf 0d3a a626 0f3b 8952 803f 2b45 503f
-6.054483e-06 7.822962e-07 3.2732826e-06 7.547675e-05 6.8951005e-07 1.5917685e-08 1.3871378e-08 9.146304e-09
1.5369981e-06 3.8114913e-06 2.7074288e-16 -1.03886656e-07 2.9613972e-07 4.5518462e-07 3.202334e-06 -1.7981574e-06
-9.221488e-06 1.4092959e-06 -5.9989427e-09 -3.7764562e-07 1.8519029e-07 8.846251e-07 -6.15274e-09 7.371036e-07
4.4067212e-07 6.7309185e-07 -5.661367e-07 2.9325957e-07 -6.891187e-07 4.883575e-07 -2.9562749e-08 8.859051e-06
-6.0538554e-07 0.00016837737 3.5564346e-06 -6.1130345e-06 6.8039244e-06 2.9590214e-07 0.00025027254 1.1843348e-05
1.3551535e-05 3.0926934e-05 -2.1568134e-05 5.446127e-06 1.765041e-05 -7.4151963e-06 1.7048857e-05 3.9339495e-05
6.0249196e-05 1.5165564e-05 -1.3373119e-05 9.344643e-06 -1.1432674e-05 1.6777256e-05 5.5379445e-05 5.5989353e-06
0.000104580315 -1.1382905e-05 4.437241e-06 2.0610626e-06 1.2771714e-05 -2.3583782e-06 -8.973911e-06 3.647402e-05
-8.732707e-06 -8.480736e-06 -3.7495543e-06 4.3284454e-06 3.4353664e-06 1.4846217e-05 3.409255e-06 4.824117e-06
9.973119e-07 5.84923e-06 3.3627704e-05 1.3186884e-07 6.816726e-07 4.6363875e-05 -1.9334886e-06 4.24881e-06
8.297119e-06 1.208632e-05 -3.21768e-06 -3.5607547e-06 -1.6806274e-06 5.450298e-06 1.9070934e-05 1.0681907e-06
-4.2546553e-06 -1.0306878e-05 -9.1438835e-08 -1.973581e-05 2.5844408e-06 4.6910354e-06 3.8887015e-06 -9.934174e-07
1.6511449e-07 4.544684e-06 5.5591307e-05 -2.8635623e-05 -2.8948654e-07 -3.2689488e-06 7.783914e-06 -1.1918861e-05
-6.5749136e-06 -3.1018667e-06 0.0 -2.7697104e-06 9.068306e-06 5.563497e-07 -9.840166e-06 6.186699e-05
-9.522129e-17 -3.158508e-05 8.928478e-05 4.9298345e-05 0.0 7.006868e-05 9.879634e-05 3.4939883e-05
4.8973154e-05 6.204164e-05 2.2910339e-05 0.016786866 0.012328406 0.009587636 0.0100059025 0.016647093
0.013390973 0.01245691 0.16935244 -0.000110748726 7.7318065e-05 -0.00023431139 0.002723108 0.00010037537
0.0 0.0 -2.6788606e-17 0.0 -6.2436715e-07 -0.000121603276 0.0 0.0
0.0 -1.4222951e-27 -1.7479053e-05 0.0 0.0 0.0 6.0579543e-05 1.9847471e-17
0.0 -0.00025709465 -1.0393387e-17 7.778175e-06 6.4503403e-09 2.134683e-05 -1.4507834e-05 6.5671404e-05
0.0 -7.71524e-18 -0.00012356268 0.00023286938 0.005683157 -0.00016864002 0.00023287583 -0.0002818088
6.0579543e-05 0.008010273 0.0008787667 0.0004863979 0.0012870934 0.00041081928 0.00038161303 0.0009086029
4.976032e-05 0.00062639656 0.00011321388 0.00047824148 -3.4450062e-05 9.670159e-05 4.5600345e-06 0.00023045106
0.000914972 0.0020109129 0.0026812665 0.00028641385 -0.00044541943 0.00014840579 0.00015002828 0.00027367668
0.0001936304 0.00017737121 0.00048557398 -0.00031372497 0.00010566552 -0.00022775422 -7.645944e-05 0.00056762603
0.00028897382 -8.2499384e-05 1.2781003e-07 0.00021760156 1.10837696e-16 0.0001450486 -4.4405835e-05 1.2571132e-05
1.1001242e-16 -0.00014857244 0.0003539652 0.00034685878 0.00027284867 0.0005259323 7.214738e-05 -0.00033410385
-8.647625e-05 5.4335553e-05 -0.000112364156 -8.488497e-06 0.00023387665 -0.0002850584 9.324644e-05 0.000453378
-0.0001948881 0.00053639186 -0.00019528445 -3.9896862e-05 0.0001861091 0.001054792 -7.404451e-05 4.9384813e-05
0.00035916243 0.00036626414 1.8036624e-05 -6.7354544e-05 0.00010097474 0.0 -0.00054166146 0.00015040387
0.000426218 9.556675e-05 0.0015501007 0.0038777 0.0007520818 -0.00035975347 -0.00013697229 0.0
0.003160896 0.0025222609 0.0021689828 0.00078937074 0.00054049294 0.0021843105 1.0025188 0.8135554

exp_avg_sq f4 [128, 131]
00000000: 37dc 6232 310f de33 1d7a 0333 7888 3235
00000010: ebf2 d530 64e7 a32f ef5d fd31 9e81 4f31
00000020: b5b1 fd31 5d55 0332 4386 f731 06bf 4a31
00000030: 458f 6a31 8b3c 6031 a61d 9f31 27bb 0832
00000040: edf7 bb31 7ea9 4b31 0cc2 2e31 4684 b031
00000050: b513 1f31 bb66 7b2f 1fa0 9d31 c39e ff31
00000060: eb0c b231 3ea4 9b30 3e18 7d31 cb53 8431
00000070: 44a6 8531 5736 0e32 de66 8831 af7e 0f31
00000080: 5767 be31 9660 2e36 e47b 2533 528f fd32
00000090: cadc 7833 40ca 8932 b723 a836 2a28 7634
000000a0: c69a 4e34 d6c7 1034 9916 6833 36a9 0334
000000b0: 8051 4b34 f0e4 aa34 8dd2 1534 25f6 f833
000000c0: f171 2c34 2027 2f34 7ffc 0434 2ffa 9334
000000d0: 983d a334 15ff b034 1ca5 9a34 9a32 ec34
000000e0: 34e2 fc34 2a55 8234 4c68 7232 e782 ce32
000000f0: d040 2833 c1f7 7d33 12a9 5c33 71a9 8a33
00000100: e86a 7c33 0b84 8433 2df9 6633 3802 7a33
00000110: eca7 4933 08c1 0e33 6bc2 0133 e1f3 8b32
00000120: ff51 b232 dfe9 4a32 be95 1533 3185 0f33
00000130: 113f f832 054f fd32 4e8c d732 9e57 0e33
00000140: 7228 8b33 a53c fe32 4d6f 9333 f40c 3f33
00000150: d6eb 2d33 1d28 3f33 884f d732 d1a5 0b33
00000160: cde0 f732 bb4a c132 e8f8 a832 87b5 6933
00000170: df5f 2933 6927 0033 8f85 3d33 2966 4d33
00000180: d1ab 5f33 a2b9 0b33 fa09 0d33 c25a ad32
00000190: 0b0e f232 7619 7332 a7ba 8633 fa0d 4d32
000001a0: 5a6b ab31 e0fc 8032 0000 0000 fb3f 3633
000001b0: 4fc0 e632 2136 c732 d9f1 d932 68fb 1b34
000001c0: 59a1 4333 ba48 1735 0ed7 9235 a8d7 bb34
000001d0: 0000 0000 0ee7 d835 6839 af35 84eb 2635
000001e0: b086 1635 ae25 f534 aecb d534 6d93 3f3d
000001f0: 48c6 343d 1b3e 3b3d 169f 493d b321 3c3d
00000200: 8584 423d 5b64 3d3d 0d02 5f40 92a4 a433
00000210: 5dce 4c36 58b5 1734 5ac1 9337 de33 b034
00000220: 0000 0000 0000 0000 9b04 0a32 0000 0000
00000230: ea19 0033 b9d6 1534 0000 0000 0000 0000
00000240: 0000 0000 c5ee 7031 c6be 8a34 0000 0000
00000250: 0000 0000 0000 0000 393e c034 0a78 0933
00000260: 0000 0000 8c55 8834 fb71 de31 d8e4 ac33
00000270: f66d 0e2d e95c a934 cfc2 9d34 d07d 2934
00000280: 0000 0000 acd9 ad32 f74b 3b33 9db5 b334
00000290: c10d 8c38 8c51 9534 64c2 c234 9410 0036
000002a0: 446d d134 291e f938 797d c436 4a6e 0837
000002b0: 56e6 b736 35f8 9436 6b61 af36 16ea 5736
000002c0: 300c 4036 c60c 2636 ede0 0636 e076 9b36
000002d0: 472a 7b36 a9e6 9836 9a68 3536 566f 8e36
000002e0: cfb8 cf36 d92a 9d37 8b60 a437 779b da36
000002f0: 65e6 7f35 aed1 1036 3188 0f35 41ab 1635
00000300: d31a 9235 759b 3b35 bdd9 6835 2f10 3335
00000310: 7639 7135 def1 5335 4d48 9234 08c1 6435
00000320: d378 6f35 7128 3235 9825 4534 6220 0235
00000330: e4b4 1134 7524 8335 dff7 6635 6c33 b534
00000340: 9efd 9533 ef01 b735 7626 9135 afbe af35
00000350: c7a7 0836 4d95 4035 87ff 2a35 16c8 2835
00000360: 5371 fe34 0e03 ad35 7fbe 8f35 ad39 2135
00000370: a3b0 9835 9db1 5a35 9036 9135 3fc8 5836
00000380: be39 d235 7239 bd35 2f4e fc35 bdc5 c235
00000390: abd2 9235 db48 c735 5697 4635 8922 a535
000003a0: e0e5 8935 deb6 4235 f449 b635 be4b 0a35
000003b0: f34e bc35 0000 0000 474e d135 92cd b735
000003c0: 9558 be35 aa4a 3c35 aa6a 2b37 2761 ee37
000003d0: 8a8c 3c37 a8d4 8e36 91d5 1935 0000 0000
000003e0: 1618 0a38 bb06 f837 a747 8737 d05f ef36
000003f0: d8dc 5c37 7d93 8e37 1a60 0040 f440 0340
1.3205002e-08 1.0340444e-07 3.0611876e-08 6.6508755e-07 1.5566831e-09 2.981394e-10 7.373948e-09 3.0196143e-09
7.383472e-09 7.644613e-09 7.20391e-09 2.9503453e-09 3.413292e-09 3.2630705e-09 4.6308797e-09 7.958795e-09
5.470602e-09 2.9636733e-09 2.5430635e-09 5.137312e-09 2.3148747e-09 2.2864814e-10 4.587505e-09 7.439526e-09
5.1819504e-09 1.1324415e-09 3.6830126e-09 3.8512318e-09 3.8897117e-09 8.277843e-09 3.9698156e-09 2.088125e-09
5.541476e-09 2.598424e-06 3.8529734e-08 2.9518251e-08 5.7942806e-08 1.6040872e-08 5.010948e-06 2.2925147e-07
1.9241551e-07 1.3483745e-07 5.403726e-08 1.2261884e-07 1.8935498e-07 3.1831541e-07 1.3953304e-07 1.1593173e-07
1.60602e-07 1.6312379e-07 1.2385316e-07 2.7562916e-07 3.040593e-07 3.296815e-07 2.8804868e-07 4.3995243e-07
4.7103242e-07 2.4276352e-07 1.4109968e-08 2.4041084e-08 3.9174495e-08 5.9131484e-08 5.137651e-08 6.456947e-08
5.8770553e-08 6.1707475e-08 5.3777672e-08 5.820968e-08 4.6951683e-08 3.3237512e-08 3.0211975e-08 1.6292633e-08
2.0759215e-08 1.1811124e-08 3.4827956e-08 3.341592e-08 2.8899679e-08 2.948901e-08 2.5093097e-08 3.314164e-08
6.480049e-08 2.959707e-08 6.8654664e-08 4.4482434e-08 4.0494193e-08 4.4507136e-08 2.506546e-08 3.251427e-08
2.8856812e-08 2.250214e-08 1.9670964e-08 5.4414638e-08 3.9435573e-08 2.9838166e-08 4.4126462e-08 4.7823196e-08
5.20775e-08 3.253229e-08 3.2838194e-08 2.0181123e-08 2.8178894e-08 1.4150251e-08 6.273813e-08 1.1935748e-08
4.9889595e-09 1.5016155e-08 0.0 4.2433367e-08 2.6862976e-08 2.3191264e-08 2.5372104e-08 1.4526961e-07
4.554872e-08 5.6357715e-07 1.0940437e-06 3.4988375e-07 0.0 1.61605e-06 1.3055223e-06 6.218254e-07
5.607535e-07 4.5662222e-07 3.9822538e-07 0.046771456 0.04413441 0.045713525 0.04922398 0.045930576
0.04748966 0.046238285 3.4845002 7.66678e-08 3.0518488e-06 1.4128943e-07 1.7613802e-05 3.2820293e-07
0.0 0.0 8.033704e-09 0.0 2.982589e-08 1.3954822e-07 0.0 0.0
0.0 3.5060321e-09 2.584331e-07 0.0 0.0 0.0 3.580806e-07 3.2006973e-08
0.0 2.5394218e-07 6.4740084e-09 8.0510006e-08 8.096182e-12 3.1546304e-07 2.938527e-07 1.5785122e-07
0.0 2.0238836e-08 4.360842e-08 3.347349e-07 6.678282e-05 2.7812746e-07 3.6276754e-07 1.9083136e-06
3.9008785e-07 0.00011878863 5.855862e-06 8.13191e-06 5.4806396e-06 4.439639e-06 5.2267474e-06 3.2173753e-06
2.8617324e-06 2.4743363e-06 2.009848e-06 4.633199e-06 3.7426523e-06 4.5568054e-06 2.7031988e-06 4.244891e-06
6.1905953e-06 1.8735811e-05 1.959528e-05 6.5150048e-06 9.533017e-07 2.1579722e-06 5.3469836e-07 5.612856e-07
1.0885655e-06 6.988915e-07 8.6743586e-07 6.6706247e-07 8.9863113e-07 7.895559e-07 2.7247225e-07 8.5217516e-07
8.921026e-07 6.636902e-07 1.8360731e-07 4.8475897e-07 1.3569985e-07 9.770871e-07 8.6042377e-07 3.3751292e-07
6.984486e-08 1.3635125e-06 1.0814535e-06 1.3094012e-06 2.0363238e-06 7.1742835e-07 6.3701776e-07 6.287604e-07
4.739364e-07 1.2890393e-06 1.0709772e-06 6.0061103e-07 1.137629e-06 8.146979e-07 1.0819222e-06 3.2303067e-06
1.5663024e-06 1.4098316e-06 1.8798218e-06 1.4511676e-06 1.093916e-06 1.4847859e-06 7.398097e-07 1.2303509e-06
1.0274198e-06 7.253674e-07 1.358158e-06 5.1519226e-07 1.4030069e-06 0.0 1.5594495e-06 1.3694391e-06
1.4181884e-06 7.014411e-07 1.0217229e-05 2.8417051e-05 1.1238395e-05 4.256686e-06 5.730772e-07 0.0
3.2924196e-05 2.9567038e-05 1.612662e-05 7.133909e-06 1.3164441e-05 1.6996399e-05 2.0058656 2.0508394

exp_avg f4 [128]
00000000: 5c11 3139 c539 ba3b 501d 6db9 4e9f bbb9
00000010: a8fb 0ab9 647f 1002 b8fb 0238 74bb c83a
00000020: 60cc 37b8 b8e5 8939 855a fcba cde8 3a38
00000030: f020 be39 8556 d8ba e3e0 1a02 d2ee b7b9
00000040: 4daf 30bb 407d 4439 449a 00b9 16dc 60bb
00000050: d487 27ba 2ff8 1802 5a4b 29ba eaca 1a02
00000060: 1508 9f39 e0a7 afba 5e82 85ba a661 133b
00000070: 80c9 5db8 4150 ca3a 61c9 5b3a 203b 17b7
00000080: b6cc 18b9 7800 8d3a 30e3 ee38 4a58 1602
00000090: 40b4 12ba 9cd0 c3ba 5a64 2fba 2c4f 3a3b
000000a0: da5e 9eb9 4d89 113a 2080 38b9 85a6 2aba
000000b0: c717 4f3b 0000 0000 b55e 93b9 29fb feba
000000c0: d9da 023a 0000 0000 794f 99ba 0d63 08b9
000000d0: a7c5 05ba 1c77 33ba 3957 c5ba 3072 223a
000000e0: c057 b037 0000 0000 8d2b 4e3a d6d5 1dba
000000f0: 263a a6ba 38a0 1439 8478 3e39 b05e eeb8
00000100: 3840 a4ba a2f2 d4ba 5cd9 11ba a08c 82ba
00000110: ccd6 11b9 58ba 2b38 e203 a739 4871 c439
00000120: 4839 37ba a886 2fbb 61b4 0038 e6ce 5bba
00000130: b099 833a 749f e102 75a5 35ba 0000 0000
00000140: e07c acba 1097 7e39 006b 93b8 1037 d9b9
00000150: 7bbb 6cba 1d2a 9639 56bd e5b9 431f b3b9
00000160: c2e8 07ba 7bfa 6db9 88d2 7cba 6238 cbba
00000170: 4042 e938 97e1 8eba 0b54 ccb7 2efe 81b7
00000180: 69e0 deb9 c821 213a ed0e 6d3a c82a 893b
00000190: bf39 973a 92ae 9eb8 b110 21ba 8fe2 bdb9
000001a0: 0e46 78b9 acb1 96ba 34c1 673b 96b3 7fb9
000001b0: 321b 063a 5d1a a9ba 7037 a439 8dbd b2ba
000001c0: 5673 e9b9 6a7e c7b9 ad57 a5ba 24a5 563a
000001d0: e24f b33a 2c75 abba 5260 9139 2779 a7b9
000001e0: 1d79 cdba 0008 80ba 43b3 86b8 0cce 383a
000001f0: 7ad6 9eba 715d 953a a8a5 7439 442b ca39
0.00016886502 0.005683156 -0.00022613001 -0.0003578611 -0.00013254455 1.0616008e-37 3.1228847e-05 0.0015314654
-4.382094e-05 0.0002630183 -0.0019253051 4.456267e-05 0.00036264164 -0.0016505277 1.1378672e-37 -0.00035082415
-0.0026959956 0.00018738676 -0.000122645 -0.003431087 -0.00063907844 1.1238422e-37 -0.00064580666 1.1372367e-37
0.00030332865 -0.0013401471 -0.0010185947 0.0022488623 -5.2878167e-05 0.0015435294 0.0008384195 -9.0140675e-06
-0.0001457211 0.0010757586 0.00011391041 1.1045597e-37 -0.00055963174 -0.001493949 -0.0006690674 0.0028428538
-0.00030206778 0.00055517704 -0.00017595338 -0.00065097987 0.0031599866 0.0 -0.00028108587 -0.0019453514
0.0004991717 0.0 -0.0011696658 -0.0001300687 -0.0005103 -0.0006846057 -0.0015055902 0.0006196825
2.1021697e-05 0.0 0.0007864766 -0.0006020939 -0.0012682125 0.00014174066 0.00018164708 -0.00011366361
-0.0012531346 -0.0016246627 -0.00055637 -0.0009960122 -0.00013908296 4.0943123e-05 0.00031855615 0.00037468434
-0.00069894316 -0.0026783142 3.068557e-05 -0.0008385017 0.0010040309 3.31523e-37 -0.0006929257 0.0
-0.0013159774 0.00024279603 -7.0294365e-05 -0.0004143049 -0.00090306223 0.00028641606 -0.0004381935 -0.00034164832
-0.0005184525 -0.00022695393 -0.0009644409 -0.0015504474 0.00011122646 -0.0010900971 -2.435783e-05 -1.549636e-05
-0.00042510338 0.00061466964 0.00090430566 0.004186008 0.0011537595 -7.566543e-05 -0.000614415 -0.00036217688
-0.0002367722 -0.0011497042 0.003536296 -0.00024385596 0.0005115747 -0.0012901534 0.00031321822 -0.0013636813
-0.00044527155 -0.00038050424 -0.001261463 0.000818806 0.0013680423 -0.0013081185 0.0002772832 -0.00031942988
-0.0015676353 -0.0009768009 -6.423008e-05 0.00070497463 -0.0012118362 0.0011395646 0.00023331365 0.00038560678

exp_avg_sq f4 [128]
00000000: 7338 2e36 c10d 8c38 da06 8637 06d1 8a37
00000010: 670b 8c37 0e82 c82c 75b4 8534 c886 ae37
00000020: 4418 3c37 e859 0138 5d58 9138 3637 c536
00000030: 5b81 8636 af9b 3938 026c d52f 0e00 da36
00000040: b710 0138 5ee0 d936 7f16 f236 461e 9f38
00000050: 7eb3 0c37 6029 112e 0284 ff36 afd4 952e
00000060: da01 5438 e578 1238 039c 9138 9f16 c238
00000070: 0ecc c037 f438 8b38 780a 8037 f050 c234
00000080: ffd6 4f35 447d 2437 935f 1737 4d5e 442f
00000090: 27a7 7d37 e172 ea37 6ff2 b837 18a2 a638
000000a0: 3c55 5c36 54f6 d836 6e44 8637 b26c d837
000000b0: 374f 4339 0000 0000 c8c4 0438 349a f437
000000c0: 0f7f ee37 0000 0000 2f79 2237 3f29 0637
000000d0: 2bd0 5638 94aa 8438 9e20 2639 19de 0037
000000e0: 0b63 2638 0000 0000 f2e6 0038 4595 f336
000000f0: 1589 ab38 f999 e436 87ff af36 5281 0638
00000100: 93e0 a937 d554 8737 9906 8138 b609 0738
00000110: fa24 3f37 52ca 8735 2273 8037 253b bf37
00000120: 9d3c 4936 548d b737 684e 8635 0c2a e837
00000130: 51bb 7637 56a9 ea30 2220 0338 0000 0000
00000140: e126 1539 15ce 4939 a1cc 6136 bc5d 5e37
00000150: 994d 8636 4eb4 f635 3900 8436 85d3 8336
00000160: 3901 8437 3a2a 0637 5b62 c337 499d 0037
00000170: a1d3 c737 d4ac 3036 3a42 7435 7101 2232
00000180: 640c a837 a43d 2a38 4e09 d236 42ad 0638
00000190: 1340 eb38 3fe9 4a35 4bcf 0a37 8cc9 6236
000001a0: 747d 0f37 eff7 ca37 c305 8f37 fd9a 5937
000001b0: abbb 2138 f598 3c38 edd7 6936 d95e 0637
000001c0: 11ef 1438 0915 1037 51b8 0038 d0f5 d436
000001d0: be27 0438 57d0 1739 baba b836 c860 2437
000001e0: c010 f237 f216 c136 283d ff36 d095 a936
000001f0: d54e ca36 48ee 8437 10cd 6e35 87c0 6938
2.5960878e-06 6.678282e-05 1.5977235e-05 1.6548216e-05 1.669461e-05 5.698781e-12 2.490448e-07 2.0805179e-05
1.1211323e-05 3.083973e-05 6.930598e-05 5.877485e-06 4.00857e-06 4.425243e-05 3.8821218e-10 6.4969126e-06
3.0771564e-05 6.4932237e-06 7.214781e-06 7.58735e-05 8.386442e-06 3.300593e-11 7.61496e-06 6.813516e-11
5.0546463e-05 3.4921704e-05 6.943198e-05 9.2548544e-05 2.2983204e-05 6.638645e-05 1.5263664e-05 3.6194206e-07
7.742637e-07 9.804327e-06 9.022554e-06 1.7859599e-10 1.5118893e-05 2.7948468e-05 2.2047401e-05 7.945689e-05
3.2832168e-06 6.465978e-06 1.600591e-05 2.5799822e-05 0.00018626159 0.0 3.165452e-05 2.9158873e-05
2.8430977e-05 0.0 9.684168e-06 7.996626e-06 5.1215447e-05 6.326023e-05 0.00015843145 7.681106e-06
3.9669725e-05 0.0 3.0732663e-05 7.2593416e-06 8.179449e-05 6.8128543e-06 5.2451537e-06 3.206853e-05
2.0250945e-05 1.6132757e-05 6.152428e-05 3.2195552e-05 1.1393096e-05 1.0117167e-06 1.5312402e-05 2.2796516e-05
2.9986616e-06 2.1881111e-05 1.0006597e-06 2.7676135e-05 1.4706356e-05 1.7073869e-09 3.126276e-05 0.0
0.00014224231 0.00019245625 3.3646722e-06 1.3254055e-05 4.0025448e-06 1.8380904e-06 3.9339325e-06 3.9287283e-06
1.5736196e-05 7.996854e-06 2.3291612e-05 7.666015e-06 2.3821196e-05 2.6326643e-06 9.0993456e-07 9.429969e-09
2.003293e-05 4.0588566e-05 6.259571e-06 3.210945e-05 0.00011217608 7.559028e-07 8.273705e-06 3.379394e-06
8.5526735e-06 2.419573e-05 1.7049611e-05 1.2970294e-05 3.856017e-05 4.4965145e-05 3.484539e-06 8.009106e-06
3.5508598e-05 8.5879665e-06 3.0689236e-05 6.3467087e-06 3.1508265e-05 0.00014478095 5.505365e-06 9.797695e-06
2.8856448e-05 5.7545194e-06 7.6067117e-06 5.054033e-06 6.0292464e-06 1.5846585e-05 8.8960314e-07 5.5730834e-05

exp_avg f4 [64, 128]
00000000: 6326 d13b a7ae a53a 95a5 a53d 8e13 593d
00000010: 4e8c 9e3d 0000 0000 f587 2339 9729 94bb
00000020: d577 e53d 7826 483e 5834 cf3b 9420 ac3b
00000030: ebe7 c03d 8030 4bbc 52d5 1f82 abce 11bc
00000040: 4ed7 f8bb d4c7 643d 0a83 c23d 5e08 243d
00000050: 290a d23d 36ad 1f82 870e 1c3b 27f2 1982
00000060: 0830 82bc ec4d 6b3d e3bc 203d d1b5 8d3d
00000070: 92a3 193e a480 723d da91 263e cab0 353b
00000080: 3d3b e1bb 1af7 93ba ac8a 1a3e 5b4d 1582
00000090: b280 8e3d 308e c23c 00f1 933c 763a 8ebb
000000a0: 8851 b23b c567 9d3d 6876 8e3d 5ebb bb3c
000000b0: 7801 613c 0000 0000 b04c c53d f83b 503c
000000c0: c742 0a3b 0000 0000 000e 6dba 09e4 6fbb
000000d0: ea20 d23c d5bc 143d ea55 5e3c c5ca 14bc
000000e0: 5637 b53c 0000 0000 3c00 cbbb e7e1 b73d
000000f0: eaa9 863d 6011 903d 2ae4 ef3d f67b 8d3d
00000100: 0098 e6ba 6213 aa3c 5f40 8a3d 4633 6a3c
00000110: 74f5 8fba b475 073a 3e3c 8b3d 04cf 44bc
00000120: 9311 3b3c e833 ae3c cdce f2ba ec6c b33c
00000130: e0b1 0cbd b0b5 b304 44a7 943d 0000 0000
00000140: 1638 713d 2680 5c3c d0f4 00bc cc71 d23d
00000150: 50cb 8cbb 7778 7bbb fae4 a63d 3cf7 ad3c
00000160: f03c e73c 625f 4d3d 1944 803b e928 1e3c
00000170: 5284 543d 2c74 3f3c 10cb 71bb e6d3 261a
00000180: 1624 ab3d 8cab 053d 800e a03a 1be0 24bd
00000190: f669 433d 1ddf b1b8 24c0 813d abfb 613d
000001a0: c2c1 143d 3c2a 833c cf4f 603c a12b 92bd
000001b0: b941 a43d a6d8 e03c 166f 6c3c db02 163c
000001c0: 0d2e 233d b010 d93b 60b2 a9ba a667 91bc
000001d0: 04e9 a0bb c505 f7bb b2ad feba 7657 1c3d
000001e0: e0ff 3a3d 3c83 93bd 6a49 f43a b5df 9d3c
000001f0: e3e8 383c 18eb 9fbc dd9f 813c e917 a63d
00000200: 8d39 4f38 8032 f327 9722 2d36 f646 2336
00000210: a072 6a39 9f60 1b82 6557 d226 0865 5038
00000220: d2ae bc39 4953 6839 480e 6038 f226 96b7
00000230: 9783 8832 5be2 9938 fd1f 1c02 a44c d626
00000240: e27c aa38 c2e9 6d39 3523 4236 ff2d 9435
00000250: 331c 8f27 5442 1102 deb1 b2b7 0000 0000
00000260: 6f92 5d8c b4ba 5739 b695 9438 a29d eb1f
00000270: e8f4 0e39 482e ac38 2426 b69a 26cb 940e
00000280: add4 8e2d e9b4 1713 72b5 e839 b53d 1502
00000290: cebe 7b38 7e2c 9e26 56c5 1338 3577 1ab7
000002a0: ddf1 1739 9d13 4a36 f111 4236 d891 9535
000002b0: f373 ccb3 0000 0000 ea77 2d39 1a4b d437
000002c0: 1ef6 1e82 0000 0000 8212 9939 8d00 1702
000002d0: bd6f 7b38 0327 b238 4ba5 2536 1be2 b538
000002e0: 9ae2 2727 0000 0000 049d cd8c b487 a539
000002f0: 36a3 af38 7997 a039 f635 093a ca81 7b35
00000300: 59d8 8e39 b2d6 0428 ba36 8c20 34f4 0ab8
00000310: f77e a238 1adc 7438 f69f 8939 79ca c61e
00000320: 3887 a137 cfc6 f2b7 47f5 2fb7 2f9f 2739
00000330: 2caa 0f39 51f8 1002 acec fd35 0000 0000
00000340: 53cf 1f34 aa68 e834 9538 1382 32b4 8c36
00000350: 1ed7 da38 c026 7cb0 dcb8 8039 b2e6 cdb6
00000360: b83f 5c39 31be 9b9a 9802 d5b7 25a2 3c27
00000370: d26b d338 5192 a4b7 6977 3d34 bf4b af0e
00000380: 4a46 4f39 c879 7b20 1459 f938 13ef 5eb1
00000390: c026 2c35 7e25 a80d 7092 7839 2221 a439
000003a0: d04e 1134 b347 0f37 9c2e 09b2 6a16 4d28
000003b0: e347 1e27 913b f735 06ef 4c0c 325d deb7
000003c0: 68df 8f39 4451 8f39 0c24 4d39 1446 4ab2
000003d0: 7cad 2e0e f1de 8234 7ed2 240e 98c5 1f36
000003e0: fe6a 1e39 d439 1f36 8c6b ba0e 9058 a899
000003f0: 731a 7a33 b0f1 ae27 f3a9 070f 8b90 a438
0.00638275 0.0012640551 0.08088223 0.052997164 0.07741605 0.0 0.0001559554 -0.0045215595
0.11204497 0.19545925 0.0063233785 0.005252907 0.09419235 -0.0124017 -1.1742695e-37 -0.008899371
-0.0075940257 0.055854633 0.0949765 0.040047042 0.10255844 -1.1731184e-37 0.002381237 -1.1310159e-37
-0.015892044 0.05744736 0.039242636 0.06919444 0.15003803 0.059204713 0.16266575 0.0027723783
-0.006873517 -0.0011288852 0.15091962 -1.0968991e-37 0.069581404 0.02374944 0.018059254 -0.004340465
0.005441848 0.07685808 0.06956178 0.022916492 0.01373326 0.0 0.096337676 0.01270961
0.0021096931 0.0 -0.00090429187 -0.0036604425 0.02565046 0.036312897 0.013570288 -0.009081547
0.022121113 0.0 -0.0061950963 0.08978634 0.06575377 0.07034564 0.11713441 0.06908409
-0.0017592907 0.020761196 0.06750559 0.014294451 -0.0010983185 0.00051673804 0.067986 -0.012012247
0.011417764 0.021264985 -0.0018524766 0.021902524 -0.034349322 4.224955e-36 0.07258466 0.0
0.05889138 0.013458287 -0.007870868 0.10275611 -0.0042966977 -0.0038371363 0.081491426 0.021236055
0.0282273 0.050139792 0.003914368 0.009653308 0.051884003 0.011685412 -0.0036894716 3.4499166e-23
0.08356492 0.032634303 0.0012211353 -0.040252786 0.047708474 -8.481576e-05 0.06335476 0.05517165
0.036317594 0.01601135 0.013690903 -0.07137228 0.08020348 0.027447056 0.014430782 0.009155954
0.03983884 0.0066243038 -0.0012946837 -0.017749619 -0.00491059 -0.0075385296 -0.0019430427 0.038169347
0.045654178 -0.07202765 0.0018637602 0.01927171 0.011285993 -0.019521281 0.015823299 0.08110029
4.9406244e-05 6.75008e-15 2.5799143e-06 2.4330197e-06 0.0002235868 -1.141533e-37 1.4595366e-15 4.9685157e-05
0.00035988406 0.0002215627 5.3419062e-05 -1.7899529e-05 1.5892324e-08 7.3377705e-05 1.147025e-37 1.4870006e-15
8.129493e-05 0.00022689163 2.8928746e-06 1.1040246e-06 3.9721047e-15 1.0671953e-37 -2.130208e-05 0.0
-1.7069286e-31 0.0002057355 7.085076e-05 9.978715e-20 0.0001363341 8.21022e-05 -7.5335055e-23 3.668044e-30
1.6237978e-11 1.9148075e-27 0.00044385676 1.09645e-37 6.0020764e-05 1.0975512e-15 3.5231315e-05 -9.20687e-06
0.00014490583 3.0111762e-06 2.8918696e-06 1.1143811e-06 -9.520581e-08 0.0 0.00016543237 2.5307341e-05
-1.1678639e-37 0.0 0.00029196223 1.1093886e-37 5.9947128e-05 8.494968e-05 2.468313e-06 8.672868e-05
2.3298747e-15 0.0 -3.1679751e-31 0.0003157236 8.375051e-05 0.00030630434 0.0005234176 9.3693654e-07
0.00027245542 7.374027e-15 2.3753138e-19 -3.3129196e-05 7.748411e-05 5.837912e-05 0.00026249856 2.1047806e-20
1.9255662e-05 -2.8941226e-05 -1.0487921e-05 0.00015985662 0.00013700937 1.0650712e-37 1.891885e-06 0.0
1.4883453e-07 4.328952e-07 -1.0816093e-37 4.1933026e-06 0.00010435119 -9.1732133e-10 0.00024551793 -6.1363326e-06
0.00021004572 -6.441377e-23 -2.5392786e-05 2.617814e-15 0.00010081347 -1.9618457e-05 1.7645438e-07 4.321377e-30
0.00019767243 2.1300821e-19 0.00011889837 -3.244115e-09 6.413138e-07 1.0362825e-30 0.00023705675 0.00031305203
1.3532849e-07 8.540158e-06 -7.985047e-09 1.1384646e-14 2.1965875e-15 1.842027e-06 1.5787517e-31 -2.650786e-05
0.00027441536 0.00027335633 0.00019563752 -1.1773881e-08 2.1530686e-30 2.4376598e-07 2.0315909e-30 2.380786e-06
0.00015107912 2.3726507e-06 4.5956104e-30 -1.7406563e-23 5.8231716e-08 4.855674e-15 6.688745e-30 7.8470526e-05
