lightning_model_releases/lightning_quantile_test/model_params/0.6_81054_1334_lightning_quantile.ckpt (torch, 311310 bytes, 15 tensors)

model.0.weight f4 [128, 131]
0	0x3d7db04e	0.061935715
1	0x3c8025fb	0.01564311
2	0xbd70a020	-0.058746457
3	0xbd8944ef	-0.06702601
4	0xbd25a13c	-0.04043697
5	0x3e077651	0.13228728
6	0xbd7dd15c	-0.06196724
7	0x3de3f10e	0.11129962
8	0x3bc52f34	0.00601759
9	0xbd303b24	-0.04302515
10	0x3d8d2d11	0.06893361
11	0xbc8dd844	-0.017315038
12	0xbd091120	-0.033463597
13	0xbd7960ef	-0.06088346
14	0x3d464d11	0.04841334
15	0x3cf335ee	0.029688802
16	0x3e0471ad	0.12933989
17	0xbcb5329b	-0.022118857
18	0xbd982c0a	-0.07430275
19	0xbc1f4ad4	-0.00972243
20	0xbda73d91	-0.0816604
21	0xbd4c0951	-0.049813572
22	0x3d6fc366	0.058535956
23	0xbd1fd136	-0.03901788
24	0xbbb47a23	-0.005507724
25	0xbd0fc56e	-0.035100393
26	0xbd646d3f	-0.055768248
27	0xbe167dad	-0.14696379
28	0x3d123476	0.035694562
29	0xbda4b87a	-0.080429986
30	0xbc88c874	-0.016697146
31	0xbdc22546	-0.094797656
32	0x3d6d504b	0.0579379
33	0xbd190a1d	-0.03736316
34	0xbdbfd7a7	-0.09367304
35	0xbb862648	-0.004093919
36	0xbb5a81c2	-0.0033341502
37	0x3d16ed20	0.036847234
38	0xbd318578	-0.043340176
39	0x3d004dcc	0.031324193
40	0x3afe47ee	0.0019400099
41	0xbceeeee8	-0.029166654
42	0xbd38ad3c	-0.045087084
43	0x3cf7369c	0.030177407
44	0x3d175b95	0.036952574
45	0xbd1647a8	-0.03668943
46	0x3d6e8624	0.058233395
47	0xbc29d5f8	-0.0103659555
48	0xbcbd77d4	-0.023128428
49	0xbdee88d5	-0.116471924
50	0xbe015ad3	-0.12632303
51	0x3e511175	0.20416816
52	0x3d1e53ac	0.038654014
53	0x3e15ea68	0.146402
54	0x3ccb067d	0.024783367
55	0x3c2e811f	0.010650902
56	0xbe563495	-0.20918496
57	0xbe464eec	-0.19366044
58	0x3e1aff33	0.15136413
59	0xbd557f2b	-0.05212323
60	0xbc77ddc8	-0.01512856
61	0xbc41c85a	-0.011827553
62	0xbb9bdcba	-0.0047565373
63	0xbd0eafa1	-0.03483546
64	0x3c1feec3	0.009761515
65	0xbd462681	-0.048376564
66	0x3daf0825	0.08546475
67	0xbd0e77fc	-0.034782395
68	0xbda80f33	-0.08206024
69	0x3c44f0a0	0.01202026
70	0x3e2821e2	0.16419175
71	0x3d63c142	0.055604227
72	0x3d51cfd7	0.051223602
73	0xbe0b7943	-0.13620476
74	0xbda6a07b	-0.08136078
75	0xbd1e8056	-0.03869661
76	0xbd3ca3d4	-0.046054676
77	0x3c1360df	0.008995264
78	0xbb7324c8	-0.003710078
79	0x3d6f3f74	0.058410123
80	0xbdb22eaa	-0.08700307
81	0xbdc475e0	-0.09592795
82	0xbdd794b4	-0.1052641
83	0xbdd772f0	-0.105199695
84	0x3de9c6ac	0.11414847
85	0x3bb1a49a	0.0054212334
86	0x3d2f306f	0.0427708
87	0xbe25d46c	-0.16194314
88	0xbcfa9667	-0.030589296
89	0x3d911cfb	0.07085606
90	0xbd90edf4	-0.07076636
91	0x3d2f7939	0.042840216
92	0x3d2ebf41	0.042662863
93	0xbc8ecb13	-0.017430818
94	0xbcee5b3f	-0.029096244
95	0xbd1db231	-0.038500015
96	0x3d8face9	0.07015402
97	0xbd404e37	-0.04694959
98	0xbd0ffb7d	-0.035151947
99	0xbda773f6	-0.08176415
100	0xbd895b7d	-0.06706903
101	0xbc9dc647	-0.019259585
102	0xbd04e16c	-0.03244154
103	0xbe1e2b54	-0.15446216
104	0xbdb7b90a	-0.0897084
105	0xbd2b6bc5	-0.041850824
106	0xbd97ceb9	-0.07412476
107	0xbe3086ae	-0.17238876
108	0xbe034681	-0.12819864
109	0xbc69ff57	-0.014282069
110	0x3df0929c	0.117467135
111	0x3c872f60	0.016502082
112	0xbd1e54c3	-0.038655054
113	0xbe16a308	-0.14710629
114	0xbdf94a4c	-0.12172374
115	0x3daee118	0.08539027
116	0x3c5fd770	0.013662204
117	0x3d919568	0.07108575
118	0xbe8c0e00	-0.2735443
119	0xbd66564b	-0.05623464
120	0xbbbd45d0	-0.0057761446
121	0xbdf0c523	-0.11756351
122	0xbd7baa84	-0.061441913
123	0xbdf5c0db	-0.11999675
124	0xbdbb083b	-0.09132429
125	0xbd874615	-0.06605164
126	0xbd5e9a96	-0.054346643
127	0xbdd7c7bc	-0.10536143
128	0x3c99a94e	0.018757489
129	0xbdb601d0	-0.088870645
130	0x3d265d9f	0.040616628
131	0xbdfa4d5f	-0.122217886
132	0xbd9e4778	-0.07728475
133	0x3eb5bd65	0.3549606
134	0x3f0ad21b	0.54226846
135	0xbe7b575d	-0.24545045
136	0xbecfa458	-0.40555072
137	0xbd8935a5	-0.06699685
138	0xbe80e49e	-0.2517442
139	0xbdde0a7c	-0.108418435
140	0xbd236454	-0.039890602
141	0xbe85d125	-0.26136127
142	0xbd29e9dc	-0.04148279
143	0x3e9becc4	0.30454075
144	0x3e8eab23	0.27864942
145	0xbd6d5748	-0.057944566
146	0xbd6a97e9	-0.05727378
147	0x3e54e7fb	0.20791619
148	0xbb488e5f	-0.0030602438
149	0x3e99b461	0.3002043
150	0x3db47ec1	0.08813239
151	0xbe8e63ea	-0.27810603
152	0x3d198e21	0.03748906
153	0x3dbf6884	0.09346107
154	0x3e1d46b5	0.15359004
155	0xbe50420c	-0.20337695
156	0xbeac5d61	-0.33664992
157	0x3de0da4e	0.10979138
158	0x3e328b19	0.17435874
159	0x3d3e7db3	0.046506595
160	0x3e9a1f28	0.30101895
161	0x3eae7368	0.34072423
162	0xbd61fe13	-0.055173945
163	0xbde44469	-0.11145861
164	0x3e0e5a94	0.1390174
165	0x3d9b2d5d	0.07577012
166	0x3dd711f6	0.10501473
167	0x3c2103a3	0.009827527
168	0x3dea27e1	0.114333875
169	0x3d452cc0	0.04813838
170	0xbe0fb8ef	-0.1403539
171	0xbdbb4c54	-0.09145418
172	0xbd424154	-0.047425583
173	0x3d89e4cd	0.067330934
174	0x3e2d22c5	0.16907795
175	0xbd4bb254	-0.049730614
176	0xbde70306	-0.112798735
177	0x3dbcdf0e	0.09222232
178	0x3e1d539f	0.1536393
179	0xbd413093	-0.047165465
180	0x3e71ff7c	0.23632616
181	0xbd86e0d2	-0.0658585
182	0xbf22c86b	-0.63587064
183	0xbe5b224c	-0.21399802
184	0xbe5bd741	-0.21468832
185	0xbe59b0e1	-0.2125888
186	0xbc65ba2b	-0.014021437
187	0x3f448b17	0.76774734
188	0x3eb49b71	0.35274842
189	0xbe746240	-0.23865604
190	0xbd7e801e	-0.0621339
191	0x3eb6fede	0.35741323
192	0xbed3760c	-0.41301
193	0x3e3f6d6d	0.18694086
194	0x3e07d39e	0.1326432
195	0xbd8ff725	-0.07029561
196	0xbe3e18ae	-0.18564102
197	0xbdc5d5c9	-0.09659917
198	0x3e10adc8	0.14128792
199	0xbdfa0a16	-0.12208955
200	0x3d210fab	0.039321583
201	0x3ba98e29	0.0051744175
202	0x3e6ab971	0.22922303
203	0x3e004a60	0.12528372
204	0xbd9ba033	-0.07598915
205	0x3e69b668	0.22823489
206	0xbeaad717	-0.33367226
207	0xbd6ebd04	-0.058285728
208	0x3dc19d14	0.094537884
209	0xbe7c3edd	-0.24633355
210	0x3dd30627	0.10303908
211	0x3db8c3ff	0.09021758
212	0x3dd81492	0.105507985
213	0x3eae2246	0.34010524
214	0x3e145e03	0.14488988
215	0x3e4b9c12	0.19883755
216	0x3a5e4286	0.00084785407
217	0xbe96d5e7	-0.2946007
218	0x3e22f65f	0.15914296
219	0xbd398633	-0.045293998
220	0xbead68bd	-0.3386897
221	0x3be7bb44	0.0070718843
222	0xbe80eb80	-0.25179672
223	0x3cc1876b	0.023624143
224	0xbb321ac7	-0.0027176605
225	0xbe3cada9	-0.18425621
226	0x3c27321f	0.010204821
227	0x3d534d54	0.051587418
228	0xbdc27549	-0.094950266
229	0xbe26f000	-0.1630249
230	0x3e1d1e35	0.15343554
231	0xbe9cb6ad	-0.3060812
232	0x3e1a3244	0.15058237
233	0x3eba13a1	0.363431
234	0x3e368994	0.1782592
235	0x3e92d5b5	0.2867867
236	0xbebba97c	-0.36652744
237	0xbd8814b2	-0.06644572
238	0x3e036321	0.12830783
239	0xbd59553f	-0.053059813
240	0x3d999ac3	0.075002216
241	0xbddafa8d	-0.1069232
242	0x3dbd1dcb	0.09234198
243	0xbb62908c	-0.003457102
244	0xbc9cd8e6	-0.019146394
245	0xbe23824d	-0.15967675
246	0xbd2f71ee	-0.04283326
247	0x3ced6b0c	0.028981708
248	0xbf1f61cf	-0.6225862
249	0x3f35108f	0.7072839
250	0x3d6b1b86	0.057399295
251	0xbbce72d3	-0.006300309
252	0x3da70f74	0.08157244
253	0xbdb61fcd	-0.08892784
254	0x3d7e2e77	0.06205603
255	0xbd918a5c	-0.07106468

model.0.bias f4 [128]
0	0xbe0b86d8	-0.13625658
1	0x3e3878a0	0.18014765
2	0x3dfcdb46	0.123465106
3	0x3dedc08e	0.116089925
4	0x3e11724a	0.14203754
5	0x3df4da5b	0.119557105
6	0xbd6b3d6c	-0.057431623
7	0x3a8cdb56	0.001074652
8	0x3cc977ec	0.024593316
9	0x3db69471	0.08915032
10	0x3cb3b743	0.021937972
11	0x3ca6f5da	0.020380903
12	0x3c339fb8	0.010963373
13	0xbd8f2ce2	-0.069909826
14	0x3d7d566c	0.061849996
15	0xbd896e80	-0.06710529
16	0x3dd183bd	0.10230205
17	0xbc5796b2	-0.013158487
18	0x3cabb409	0.02095987
19	0x3e2dc08f	0.16967987
20	0x3de991d4	0.11404768
21	0xbb7d5aa4	-0.0038658762
22	0x3d2d2390	0.042270243
23	0x3d887713	0.066633366
24	0x3da86ccd	0.08223877
25	0x3dbe4761	0.09290958
26	0x3d21ac5a	0.039471008
27	0x3b454200	0.0030099154
28	0x3e23399b	0.15939943
29	0x3de69bb0	0.11260164
30	0x3e26a632	0.16274336
31	0x3e034574	0.12819463
32	0x3dd14066	0.10217361
33	0xbd78e64e	-0.06076651
34	0x3d3a8621	0.04553807
35	0x3c8a99f4	0.016919114
36	0x3da2e779	0.07954306
37	0x3df4e381	0.119574554
38	0x3e05a714	0.13052016
39	0xbd59f281	-0.053209785
40	0x3cd44680	0.025912523
41	0xbd287853	-0.041130375
42	0x3dad0913	0.084489964
43	0x3e160273	0.14649372
44	0x3da1d713	0.0790235
45	0x3b961d60	0.0045811385
46	0x3e0e675a	0.13906613
47	0x3c9d7197	0.019219203
48	0xbaf8e380	-0.0018988699
49	0xbc870864	-0.016483493
50	0x3d479234	0.048723415
51	0x3ddf4348	0.10901505
52	0x3e0a2785	0.13491638
53	0x3c3f7549	0.011685678
54	0xbdbcd894	-0.092209965
55	0xbda39ab4	-0.07988492
56	0x3dde2664	0.10847166
57	0x3d29c8b2	0.041451164
58	0x3d39419a	0.04522858
59	0x3e06f25b	0.13178389
60	0x3d26da32	0.04073543
61	0x3daaff74	0.08349505
62	0x3cdcddad	0.026961172
63	0x3d636783	0.05551864
64	0x3dd5fb62	0.10448338
65	0xbc70f7d0	-0.014707521
66	0x3ca2bfd9	0.01986687
67	0xbaa68ec0	-0.0012707338
68	0xbc4bb27b	-0.01243269
69	0x3ca602fa	0.020265091
70	0x3d314fdc	0.04328905
71	0x3d7200f2	0.059082933
72	0xbda20c55	-0.079125084
73	0x3ca605e0	0.020266473
74	0x3c977811	0.01848987
75	0x3d3be455	0.04587205
76	0xbd392ee3	-0.04521073
77	0xbcb1d2db	-0.021706989
78	0x3e370ba9	0.17875542
79	0xbd18d5cf	-0.03731328
80	0x3d7f5a5c	0.062342033
81	0xbb13ad2c	-0.0022533638
82	0xbdab3372	-0.08359422
83	0x3db2d317	0.087316684
84	0x3e2ae1d5	0.1668771
85	0x3e08d35a	0.13361874
86	0x3d303bca	0.04302577
87	0xbd961db7	-0.073298864
88	0xbc6120da	-0.013740743
89	0x3c6604d4	0.014039237
90	0xbcc4364c	-0.023951672
91	0x3d46621a	0.0484334
92	0x3e2d5fbe	0.16931054
93	0xbd76a590	-0.060216486
94	0xbd785702	-0.060629852
95	0x3d74da32	0.0597784
96	0x3d4f2f79	0.050582383
97	0x3d68bba3	0.05681957
98	0xba17323c	-0.00057676784
99	0xbd1abb4e	-0.037776284
100	0x3cfb518c	0.030678533
101	0x3d980e33	0.07424583
102	0xbbc5e884	-0.006039681
103	0x3b8ed7e1	0.004359231
104	0x3d1bdce2	0.038052447
105	0x3dbe1271	0.09280861
106	0xbc15b44d	-0.009137225
107	0xbd1f6595	-0.038915236
108	0x3b655592	0.003499363
109	0x3d8f7687	0.07005029
110	0x3e437640	0.19088078
111	0xbd3014a5	-0.04298844
112	0x3b6c8411	0.003608946
113	0x3d969c68	0.07354051
114	0x3e2bb594	0.16768485
115	0x3c644e70	0.013934717
116	0xbd4853db	-0.048908096
117	0x3e4f0438	0.20216453
118	0xbb3b7ead	-0.002860944
119	0x3db202f3	0.08691969
120	0x3e2c4325	0.16822489
121	0x3d5e3179	0.0542464
122	0xbc7c2778	-0.015390269
123	0x3de619f6	0.112354204
124	0xbcf6a310	-0.030107051
125	0x3d145818	0.036216825
126	0x3e268113	0.16260175
127	0x3d736b19	0.05942831

model.3.weight f4 [64, 128]
0	0xbd8cfdd0	-0.068843484
1	0x3dfa3d8c	0.122187704
2	0xbd8b80fd	-0.06811712
3	0xbcf5ff04	-0.030028827
4	0x3c070890	0.008241788
5	0x3ca236b3	0.019801473
6	0xbbf37468	-0.007429648
7	0x3da21433	0.07914009
8	0x3d749c0e	0.059719138
9	0xbd9bf04a	-0.07614191
10	0xbd578df4	-0.05262561
11	0xbd9d6b41	-0.07686473
12	0x3d8b54a0	0.0680325
13	0xbdcab9e5	-0.09898738
14	0xbd01943c	-0.031635508
15	0xbd316836	-0.043312274
16	0x3ce1787b	0.02752327
17	0x3c9aa382	0.018876795
18	0x3d4c4d56	0.04987844
19	0x3da030e7	0.078218274
20	0x3da19917	0.07890528
21	0xbcd9a97e	-0.026570078
22	0x3de3e120	0.111269236
23	0xbd662fd9	-0.056197975
24	0xbd02a0f5	-0.03189178
25	0x3c494833	0.01228528
26	0x3d872cec	0.06600365
27	0xbd2285bb	-0.039678317
28	0xbd2d5620	-0.042318463
29	0xbaeb2808	-0.0017941007
30	0x3d386ada	0.045023777
31	0x395307c6	0.00020125424
32	0x3d97cf51	0.07412589
33	0xbda2f04b	-0.079559885
34	0x3cd83fa0	0.026397526
35	0x3d8918d3	0.06694188
36	0x3db6a57e	0.08918284
37	0xbd39aa12	-0.045328207
38	0xbd654a42	-0.05597902
39	0x3befa032	0.007312798
40	0xbbf49ca5	-0.0074649625
41	0x3d1fc31b	0.039004426
42	0x3da6321e	0.08115028
43	0x3c78732f	0.015164181
44	0xbcd4c0e6	-0.025970887
45	0x3d456252	0.04818947
46	0xbd460105	-0.048340816
47	0x3b9b7b39	0.004744914
48	0x3c323158	0.010876022
49	0xbc73b498	-0.0148746
50	0x3d590dbf	0.052991625
51	0x3bba1060	0.0056782216
52	0x3d167829	0.036735687
53	0x3d124e16	0.035719
54	0x3b2321ca	0.0024891966
55	0xbd1d296c	-0.03836958
56	0x3d9eff34	0.0776352
57	0x3d49c222	0.049257405
58	0xbc5d1640	-0.013494074
59	0xbd481110	-0.048844397
60	0x3c6306ee	0.013856633
61	0x3d82014b	0.06347903
62	0x3d3e0171	0.046388093
63	0xbb92876a	-0.004471709
64	0x3d840767	0.064467244
65	0x3ae6513f	0.0017571821
66	0x3d1e9890	0.038719714
67	0xbd2a47c6	-0.041572355
68	0x3b025d1b	0.001989192
69	0xbc7a62ff	-0.015282392
70	0x3c81c169	0.015839295
71	0xbdac2a7b	-0.0840654
72	0x3a9b9bd6	0.0011872004
73	0xbd804c1d	-0.062645175
74	0xbd91b08b	-0.07113751
75	0xbdaa4101	-0.0831318
76	0xbd399748	-0.04531029
77	0x3c6c13f5	0.014409055
78	0x3d154898	0.036446184
79	0x3caa7470	0.020807475
80	0x3ca2d9c2	0.019879226
81	0xbd4c65ff	-0.04990196
82	0xbbe24205	-0.006904843
83	0xbd9d80ee	-0.07690607
84	0xbbfae236	-0.007656361
85	0x3ca6fe59	0.020384954
86	0x3c3477f4	0.011014927
87	0xbd8cad89	-0.06869037
88	0x3d872046	0.065979525
89	0x3d97f10d	0.07419024
90	0xbd222c0d	-0.03959279
91	0xbd9a2f6c	-0.07528576
92	0x3ca597fe	0.020214077
93	0x3cdfbd1a	0.02731185
94	0xbcca60d8	-0.024704382
95	0xbd26515d	-0.040604938
96	0x3c9abc6a	0.018888671
97	0xbc8b98dd	-0.017040664
98	0xbd2276e9	-0.039664183
99	0x3ce7a2b0	0.028275818
100	0x3d8c578d	0.068526365
101	0x3e290d57	0.16508995
102	0x3d97fd8b	0.07421406
103	0x3be93e20	0.0071180016
104	0x3c9b09b6	0.018925529
105	0x3d982115	0.07428185
106	0xbd5983dd	-0.05310427
107	0x3d7c8175	0.061646897
108	0x3dacb7e7	0.08433514
109	0xbcc02638	-0.023455724
110	0x3dc6da00	0.09709549
111	0xbcb8e4e3	-0.02257008
112	0xbd2c657b	-0.042088967
113	0x3d87ac7d	0.066246964
114	0x3d701055	0.058609325
115	0xbbd0aee0	-0.006368503
116	0xbdec1e4f	-0.115292184
117	0x3d8ff8a6	0.07029848
118	0x3d0e95c1	0.034810785
119	0xbd8f6b9b	-0.07002946
120	0x3ca75222	0.020424906
121	0x3d73fd17	0.059567537
122	0x3d18df7e	0.037322514
123	0xbcd310c2	-0.025764827
124	0xbd487bd3	-0.048946213
125	0x3cb46d4c	0.022024773
126	0x3d91486c	0.070938915
127	0x3d8f4b94	0.06996837
128	0xbcef80b6	-0.029236179
129	0xbca2576e	-0.01981708
130	0xbda922c2	-0.08258583
131	0xbd1a1032	-0.0376131
132	0x3ca63f15	0.020293752
133	0xbd9e7196	-0.077365085
134	0xbb8fe512	-0.004391321
135	0x3d904e2a	0.070461586
136	0x3c9d38a0	0.01919204
137	0x3c830405	0.015993128
138	0xbd14873b	-0.03626178
139	0xbcb81bd9	-0.022474216
140	0xbdbf9df2	-0.093562976
141	0xbd72e9cc	-0.059304997
142	0x3c2f231a	0.010689521
143	0x3c82e0e5	0.015976379
144	0x3cb4c611	0.022067102
145	0xbd8f62ea	-0.07001288
146	0x3b902220	0.0043985993
147	0xbda80e4d	-0.08205853
148	0xbdaac00b	-0.083374105
149	0xbd2a2508	-0.041539222
150	0xbda09508	-0.078409255
151	0x3c894e68	0.01676102
152	0x3c640bd8	0.013918839
153	0x3d1f6ad1	0.038920227
154	0x3c32f1af	0.01092188
155	0x3c8d2824	0.017231055
156	0x3c1a4402	0.009415628
157	0xbafdc5d7	-0.0019361329
158	0xbdd2a35a	-0.10285063
159	0xbd6b5cd5	-0.05746158
160	0xbdb39314	-0.08768287
161	0xbd51ea7b	-0.05124901
162	0xbabe2c19	-0.0014508992
163	0x3daab355	0.08334986
164	0xbcea121b	-0.028573086
165	0xbd869745	-0.06571821
166	0xbab9143a	-0.0014120408
167	0x3d7929a6	0.060830735
168	0xbb0a491e	-0.002110071
169	0xbdb4378e	-0.08799659
170	0xbbf1238c	-0.007358974
171	0xb86043d5	-5.3468935e-05
172	0x3c6d16e0	0.014470786
173	0x3da557a3	0.08073356
174	0x3d66ba8f	0.05633026
175	0xbda28e9d	-0.079373576
176	0x3d89a0a3	0.06720092
177	0xbda201dc	-0.07910511
178	0xbd8e50db	-0.06949016
179	0x3ca7a986	0.020466577
180	0xbc9f7b22	-0.019467894
181	0x3d571ec7	0.052519586
182	0x3d2cdc64	0.04220237
183	0xbd0a1b59	-0.033717487
184	0x3d6d221f	0.05789387
185	0xbd81e940	-0.06343317
186	0x3c86f114	0.016472377
187	0x3c1f8c10	0.009737983
188	0x3cd3a7d4	0.025836863
189	0x3d89b909	0.06724746
190	0x3cbe36e6	0.023219537
191	0xbd909f6c	-0.07061657
192	0x3d54929a	0.051897623
193	0x3d595b9c	0.05306588
194	0xbd25eae2	-0.040507205
195	0x3d81f3b1	0.063453086
196	0xb9a4d43e	-0.0003143865
197	0xbcbcf292	-0.023064885
198	0x3bc8c03c	0.0061264317
199	0x39818600	0.00024704635
200	0xbd28960d	-0.041158725
201	0xbb6f85a9	-0.0036548174
202	0xbc8adde9	-0.016951518
203	0xbda1e1f4	-0.07904425
204	0xbda3535b	-0.07974883
205	0x3ceded60	0.029043853
206	0xbd872025	-0.06597928
207	0x3b0dabe0	0.0021617338
208	0x3d16f76b	0.03685705
209	0x3d693061	0.056930903
210	0x3d0ab726	0.03386607
211	0x3ce7f771	0.028316231
212	0x3d14eb4b	0.036357205
213	0xbd9af313	-0.07565894
214	0x3d80161b	0.06254216
215	0xbda6af0b	-0.081388555
216	0xbd9ad588	-0.07560259
217	0xbd60071c	-0.05469428
218	0x3db0ebf1	0.08638752
219	0x3d4aa92a	0.049477734
220	0x3ba20adc	0.004945142
221	0x3d13b96a	0.036065497
222	0xbdcb122f	-0.099155776
223	0xbdaca741	-0.08430339
224	0x3c0d2100	0.008613825
225	0xbd2e0209	-0.04248241
226	0x3cdf0593	0.027224338
227	0xbd807942	-0.06273128
228	0x3d5fc545	0.05463149
229	0xbdf44cb7	-0.11928695
230	0x3cd34848	0.025791302
231	0x3cd8f43c	0.026483648
232	0xbd8a5380	-0.067542076
233	0x3d3b8ac6	0.04578664
234	0x3cfa2dce	0.03053942
235	0xbd6aa43d	-0.057285536
236	0xbd94ff3d	-0.07275245
237	0x3c9833e6	0.018579435
238	0xbd6cd978	-0.05782458
239	0xbbcac843	-0.006188424
240	0x3cb03360	0.021508873
241	0x3ca06bf2	0.019582722
242	0xbd8abf18	-0.067747295
243	0x3d884433	0.06653633
244	0x3d0e3be3	0.03472508
245	0x3ca27162	0.019829456
246	0xbd2839c1	-0.041070703
247	0x3c9e2458	0.01930444
248	0xbce4a168	-0.027908996
249	0x3d3027f1	0.04300684
250	0x3d39a33e	0.045321696
251	0x3d3a10bc	0.045426115
252	0xbcdc462c	-0.02688893
253	0x3b589829	0.003304968
254	0x3d3af167	0.045640375
255	0xbc8464ef	-0.01616141

model.3.bias f4 [64]
0	0x3e21e5ee	0.15810367
1	0xbd786816	-0.06064614
2	0x3e57fa10	0.21091485
3	0x3b89cc91	0.0042052944
4	0xbdd36c80	-0.10323429
5	0x3e56927b	0.20954315
6	0x3d3912ab	0.04518382
7	0xbd35c4d2	-0.044377156
8	0xb9ab949f	-0.00032726393
9	0x3d470a03	0.048593532
10	0xbce716b6	-0.028209072
11	0x3e7d96f5	0.24764617
12	0x3e40853c	0.18800825
13	0x3e8d28c9	0.2757018
14	0x3e3eaddb	0.18621008
15	0xbc3e1814	-0.01160242
16	0xbdbebb2d	-0.09313045
17	0xbd149556	-0.03627523
18	0x3e63de03	0.2225266
19	0x3d57481c	0.052559003
20	0x3d89f67e	0.06736468
21	0xbcf0b305	-0.029382238
22	0x3e6ffd9c	0.23436588
23	0x3e17cc71	0.14824082
24	0x3e5b8f44	0.2144137
25	0x3e59dd24	0.21275765
26	0x3e2bcbdd	0.16776986
27	0x3e8514e4	0.259925
28	0x3e2bc4b1	0.1677425
29	0xbd85e87a	-0.06538482
30	0x3df327be	0.118728146
31	0xbc592909	-0.013254412
32	0xbd4fc935	-0.050728995
33	0x3e5d9ecc	0.21642607
34	0x3e197cb4	0.14988977
35	0xbd7b7339	-0.06138918
36	0x3a090dcc	0.0005228191
37	0x3dc6e1d8	0.09711045
38	0x3d8fc29e	0.07019542
39	0x3e63dba8	0.22251761
40	0x3ccc74d5	0.024958054
41	0x3c8065c6	0.01567353
42	0xbca3a35c	-0.019975357
43	0x3e429e88	0.19005787
44	0xbbd47656	-0.0064838333
45	0xbdda0807	-0.10646062
46	0x3da0d43d	0.07852981
47	0xbc5780ef	-0.013153299
48	0x3d38db51	0.04513103
49	0x3e313b2a	0.17307726
50	0x3deceadc	0.11568233
51	0x3d26d120	0.04072678
52	0x3e6866dc	0.22695488
53	0x3e039313	0.12849073
54	0x3cd3d759	0.025859522
55	0x3bb27d67	0.005447078
56	0xbdaf8e0b	-0.085720144
57	0x3e292e35	0.16521533
58	0x3e28e79d	0.16494603
59	0x3e5e74d0	0.21724248
60	0x3e28d23e	0.16486451
61	0xbd02b80f	-0.031913813
62	0xbd63ebd1	-0.055644814
63	0x3e42031a	0.18946496

model.6.weight f4 [1, 64]
0	0x3db79edf	0.08965849
1	0xbd35b04b	-0.04435758
2	0x3d5ea750	0.05435878
3	0xbc085402	-0.00832081
4	0xbd39cf0a	-0.045363463
5	0x3d32bc27	0.043636467
6	0x3dab5db5	0.083674826
7	0xbdceea32	-0.10103263
8	0xbd1e0040	-0.038574457
9	0x3d9d26c2	0.07673408
10	0xbd38106a	-0.04493753
11	0x3d6a8276	0.057253323
12	0x3d8a74bf	0.06760549
13	0x3d3ce83b	0.04611991
14	0x3d402289	0.046907935
15	0xbda53e20	-0.0806849
16	0xbaa3638d	-0.0012465582
17	0xbc3708ec	-0.011171561
18	0x3d467102	0.048447616
19	0x3ab600e3	0.0013885762
20	0xbc904b4a	-0.017614026
21	0xbd786621	-0.060644273
22	0x3da557e3	0.08073404
23	0x3d2d7403	0.042346966
24	0x3d602e65	0.054731745
25	0x3d9c447b	0.07630249
26	0x3d31b0e0	0.04338157
27	0x3da89f56	0.08233516
28	0x3d4ce8e6	0.050026797
29	0xbcd9c6a4	-0.026583977
30	0x3d04d07a	0.03242538
31	0xbdc6090a	-0.09669693
32	0xbd482aaa	-0.048868813
33	0x3db8b3f7	0.090187006
34	0x3dd524c8	0.10407406
35	0xbd99fa7d	-0.0751848
36	0xbd1c0d28	-0.038098484
37	0x3d9a954c	0.07548007
38	0xbdd326fc	-0.1031017
39	0x3d39f04b	0.045395177
40	0xbdcc95c8	-0.09989506
41	0xbd258c7f	-0.04041719
42	0xbd66291d	-0.056191552
43	0x3d24903e	0.040176623
44	0xbca6d438	-0.020364866
45	0xbd5eaa22	-0.05436147
46	0x3d790689	0.060797248
47	0xbd1b0586	-0.037847064
48	0xbddd989e	-0.10820125
49	0x3d9521a4	0.07281807
50	0x3d99401b	0.0748293
51	0xbc25e7a7	-0.010126031
52	0x3d22db11	0.0397597
53	0x3d2e0e70	0.042494237
54	0x3b02fd0d	0.0019987256
55	0x3ca310e7	0.01990552
56	0xbdbb5a2e	-0.0914806
57	0x3d7a54b9	0.061115954
58	0x3d33cdc3	0.0438974
59	0x3d8e27c0	0.069411755
60	0x3d510ba6	0.0510365
61	0xbd11cbcc	-0.035594746
62	0xbd3fbee5	-0.04681291
63	0x3d3ad557	0.045613613

exp_avg f4 [128, 131]
0	0xb51fa6de	-5.947494e-07
1	0x36d2c72e	6.2816753e-06
2	0x371e1526	9.422458e-06
3	0xb8b5c66a	-8.66771e-05
4	0x32b0b571	2.0571607e-08
5	0x94c8ca74	-2.0274693e-26
6	0xb0da862d	-1.5899723e-09
7	0x31410b33	2.8091562e-09
8	0xb4467b7a	-1.8485107e-07
9	0x3696bb10	4.4921253e-06
10	0xb3a01c95	-7.4557796e-08
11	0x33df00dd	1.0384404e-07
12	0x9640c2e3	-1.5571132e-25
13	0xb32cb7dc	-4.021409e-08
14	0xb5c8be87	-1.4956612e-06
15	0x3623e88c	2.4424253e-06
16	0xb71c2d2e	-9.308844e-06
17	0xb543d4b0	-7.295266e-07
18	0x33cdf0f9	9.589889e-08
19	0x33df00dd	1.0384404e-07
20	0x3622f927	2.4284907e-06
21	0x35509d7e	7.771522e-07
22	0x357f2634	9.5050495e-07
23	0xb380abce	-5.9917156e-08
24	0x33b6117e	8.478217e-08
25	0x362827c9	2.5057109e-06
26	0x36823712	3.880713e-06
27	0x32a2d37c	1.8955454e-08
28	0x3582597e	9.7118e-07
29	0xb567ee85	-8.64013e-07
30	0xb5175da0	-5.6388126e-07
31	0x373e6875	1.1349203e-05
32	0xb506de74	-5.02426e-07
33	0xb7afdf18	-2.0965512e-05
34	0x3744f258	1.1738935e-05
35	0xb703db17	-7.859219e-06
36	0x372c221e	1.0259942e-05
37	0x35dfeb19	1.6683217e-06
38	0xb811bea0	-3.4748227e-05
39	0x355ea507	8.294159e-07
40	0x376b6d5d	1.4032555e-05
41	0xb8d106a3	-9.967133e-05
42	0xb7609767	-1.33866915e-05
43	0x37c0caac	2.298256e-05
44	0x383eaa87	4.5458346e-05
45	0xb77d73a7	-1.51069025e-05
46	0xb845a00f	-4.7117526e-05
47	0x3783339f	1.5640455e-05
48	0x37ea6aab	2.7944645e-05
49	0x378615d9	1.5984218e-05
50	0x3741c0c6	1.154858e-05
51	0x3781c29f	1.5468626e-05
52	0x3697509b	4.5095344e-06
53	0xb821d6f1	-3.858557e-05
54	0xb81a2834	-3.6753903e-05
55	0x3869c85b	5.5738125e-05
56	0xb8917f39	-6.937836e-05
57	0x3849e9ce	4.8139882e-05
58	0xb6b8926f	-5.5006744e-06
59	0x363aa934	2.781465e-06
60	0x368509bf	3.9648435e-06
61	0x36fdaa2c	7.559798e-06
62	0x3709d104	8.214502e-06
63	0x3778a8b8	1.4821235e-05
64	0xb75af879	-1.3051665e-05
65	0x376bc1ad	1.4052185e-05
66	0xb72129c3	-9.606071e-06
67	0x36bfa7bd	5.711771e-06
68	0xb51292a5	-5.4602634e-07
69	0x37de9dc6	2.6537931e-05
70	0xb85aef54	-5.2198142e-05
71	0xb6028e93	-1.9454499e-06
72	0x36ebc5c7	7.02657e-06
73	0xb64f855e	-3.0923034e-06
74	0x376f8cd3	1.4278298e-05
75	0x34932b9d	2.7412617e-07
76	0x3452636a	1.959394e-07
77	0x37f0803b	2.8669941e-05
78	0x31dd23c7	6.436014e-09
79	0xb2538fd0	-1.2314516e-08
80	0xb72664b1	-9.917815e-06
81	0x333ec0ad	4.441306e-08
82	0xb30b300e	-3.2407165e-08
83	0x931c3a9c	-1.9718865e-27
84	0x909cabe7	-6.179601e-29
85	0x37a3ae01	1.9512141e-05
86	0xb68ee4fa	-4.258586e-06
87	0xb2ac917d	-2.0089596e-08
88	0x374f7849	1.23661675e-05
89	0x36c6fd8c	5.9303766e-06
90	0xb6da9eb9	-6.515384e-06
91	0xb7aeaea9	-2.0823749e-05
92	0xb6bdc10d	-5.655113e-06
93	0x36ac384d	5.1325537e-06
94	0xb6816cc8	-3.8571634e-06
95	0x37ea72fb	2.7948516e-05
96	0xb59cc16f	-1.1679202e-06
97	0x359070dd	1.0761684e-06
98	0xb8d3fb57	-0.0001010808
99	0xb7a4f92b	-1.9666351e-05
100	0x373f9394	1.1418848e-05
101	0xb6ff55a3	-7.6095616e-06
102	0x365b0681	3.2637329e-06
103	0x3727ffaf	1.0013507e-05
104	0xb7ac9e8e	-2.057783e-05
105	0x373d6f25	1.1291156e-05
106	0x00000000	0.0
107	0x36851d26	3.967102e-06
108	0x3758a055	1.29119335e-05
109	0xb52bd7cf	-6.4016507e-07
110	0x37053fc6	7.942266e-06
111	0x00000000	0.0
112	0x8650e957	-3.9291883e-35
113	0xb732fd3f	-1.066859e-05
114	0xb861f024	-5.386783e-05
115	0x38372f61	4.3674725e-05
116	0x00000000	0.0
117	0xb86833c0	-5.5361306e-05
118	0x3810b3ba	3.449966e-05
119	0x3891453a	6.927033e-05
120	0xb843632a	-4.6583977e-05
121	0x3868b074	5.5477445e-05
122	0xb8cfabe4	-9.902546e-05
123	0x3a6ab7a0	0.0008953754
124	0x3a64bcd0	0.0008725645
125	0x3a1d11e0	0.0005991738
126	0xbb86ab01	-0.0041097407
127	0xb8e24a00	-0.00010790303
128	0xbb905694	-0.004404852
129	0xbb0e8970	-0.00217494
130	0xbcc1aca0	-0.023641884
131	0x386507ea	5.4605225e-05
132	0x39abccd4	0.0003276827
133	0x3826e3d8	3.978968e-05
134	0xbaa0384c	-0.0012223809
135	0x37a53359	1.9693443e-05
136	0x38bbe372	8.95922e-05
137	0xb8b832ac	-8.783242e-05
138	0xb6fb5e92	-7.4913924e-06
139	0x38e35eef	0.00010841886
140	0xb8060d55	-3.1960506e-05
141	0x392a9204	0.00016266858
142	0x38322c91	4.2480013e-05
143	0xb8d73981	-0.0001026271
144	0xb907fcba	-0.00012968751
145	0xb73a9f93	-1.1123618e-05
146	0x38036bb8	3.1333155e-05
147	0xb5acbd15	-1.2870029e-06
148	0x388d9fdb	6.753179e-05
149	0xb8901f6c	-6.872308e-05
150	0xb8315b30	-4.2285013e-05
151	0x375cc396	1.315856e-05
152	0xb5b5dc0f	-1.3549596e-06
153	0xb90659c1	-0.00012812672
154	0x383a2b1f	4.4386015e-05
155	0x3a04b6d1	0.0005062642
156	0x381e98fa	3.7812606e-05
157	0xb5c75460	-1.4851212e-06
158	0x36c68136	5.915902e-06
159	0xb8c06412	-9.173913e-05
160	0xb89e3ecb	-7.545723e-05
161	0xb89d7b1e	-7.509276e-05
162	0x38f0e3dc	0.00011486534
163	0xb7bf3c1f	-2.279697e-05
164	0x3acf68b8	0.0015824055
165	0x389726d8	7.207476e-05
166	0xb91876d0	-0.0001454011
167	0x3a1ca5ef	0.0005975654
168	0xb8db53f1	-0.00010458369
169	0x3b2ed277	0.002667574
170	0xb91f3e80	-0.00015186705
171	0x3a6d715a	0.0009057723
172	0x3902b36a	0.00012464603
173	0x39ef3398	0.00045624073
174	0xba405a4e	-0.0007337675
175	0x3a1308a8	0.0005608895
176	0x39f6ebe0	0.00047096517
177	0xb94ef326	-0.00019736271
178	0x39a3b03d	0.0003122109
179	0x396a0857	0.00022319086
180	0xb9aa742d	-0.00032511484
181	0xb73c2769	-1.1214849e-05
182	0xb9dc151a	-0.00041977392
183	0x37dec9e3	2.6558473e-05
184	0x399d317b	0.0002998224
185	0x39eb4735	0.00044875746
186	0xb9606561	-0.00021400071
187	0x38904b50	6.880483e-05
188	0x3abab39a	0.0014244199
189	0x37b35e04	2.1382242e-05
190	0x38d861b4	0.00010317881
191	0x373d2c5b	1.1275605e-05
192	0x396dca08	0.00022677344
193	0xb82f12ed	-4.1740877e-05
194	0xb99f6dbb	-0.000304086
195	0x3a088c76	0.00052089186
196	0x39a440e3	0.00031328862
197	0xb827c9b6	-4.000376e-05
198	0xb8cbd70b	-9.719849e-05
199	0xb91d3827	-0.00014993605
200	0xb94e2bd6	-0.00019662021
201	0xb9251b6e	-0.00015745845
202	0x38a594bb	7.895516e-05
203	0x39717987	0.00023028823
204	0x389d1a6d	7.4912656e-05
205	0xb8db9bb8	-0.00010471739
206	0x3913fc86	0.00014113085
207	0x389c5813	7.455065e-05
208	0xb909ef4a	-0.0001315448
209	0x3979cc6d	0.00023822645
210	0x385e929d	5.306547e-05
211	0xb8b3e114	-8.577309e-05
212	0x38a418d5	7.824755e-05
213	0xb98063aa	-0.00024488318
214	0x38981763	7.252281e-05
215	0xb907e8bd	-0.00012961305
216	0xb934e732	-0.00017252265
217	0x38f8dc01	0.000118665404
218	0xb95529e0	-0.00020328863
219	0xb8d89b11	-0.00010328566
220	0x399a054d	0.00029377118
221	0x38d0da1d	9.95884e-05
222	0x3893e919	7.052924e-05
223	0x39da92b7	0.0004168951
224	0xb8b4dd6c	-8.624312e-05
225	0x38977596	7.222143e-05
226	0x39c7e685	0.00038127988
227	0x39286ec7	0.00016062996
228	0x3972de3c	0.00023161707
229	0xb9167a50	-0.0001435068
230	0xb98d403a	-0.00026941468
231	0x39870841	0.00025755356
232	0x395a4eec	0.00020819501
233	0xb896b606	-7.186462e-05
234	0xb81759a2	-3.6084683e-05
235	0x3693ee3c	4.4086755e-06
236	0x39674c36	0.00022058267
237	0x00000000	0.0
238	0xba7bdc67	-0.00096077326
239	0x3971dca7	0.0002306575
240	0x38e4b103	0.00010904858
241	0x39837fa6	0.00025081373
242	0xba05c6c2	-0.00051031646
243	0x3aefdb12	0.0018299541
244	0x39a04f4d	0.00030576662
245	0x371a15c5	9.184184e-06
246	0x26128cd1	5.0844767e-16
247	0x00000000	0.0
248	0x39ba5034	0.0003553644
249	0x3aa7aba3	0.0012792241
250	0xb9aa428a	-0.00032474502
251	0x3a199146	0.0005858134
252	0xb8ed44f2	-0.00011313883
253	0x3ac2dc01	0.0014866592
254	0x3e9632bf	0.2933559
255	0x3e5a0ed7	0.21294723

exp_avg_sq f4 [128, 131]
0	0x309ee2bc	1.1560455e-09
1	0x32863643	1.5624328e-08
2	0x3195fdf3	4.3653414e-09
3	0x3409d07b	1.2834964e-07
4	0x3006639d	4.8890475e-10
5	0x2fc1cc7e	3.5251796e-10
6	0x300c550d	5.105257e-10
7	0x301476c3	5.4010857e-10
8	0x3053daca	7.707227e-10
9	0x2fcf6d22	3.7730624e-10
10	0x3055607a	7.762605e-10
11	0x30020a13	4.730804e-10
12	0x2fbc3a64	3.423849e-10
13	0x301b18a2	5.6423677e-10
14	0x308fd434	1.0464931e-09
15	0x3076bddf	8.97641e-10
16	0x30042aa0	4.8081894e-10
17	0x3022bfb6	5.9207694e-10
18	0x2feb6ebc	4.2824932e-10
19	0x2fd46a3b	3.8638057e-10
20	0x2ff89433	4.521624e-10
21	0x30927ac9	1.0657796e-09
22	0x3029bdee	6.175175e-10
23	0x3091aa75	1.0598585e-09
24	0x30128b48	5.331242e-10
25	0x2ff61a11	4.476566e-10
26	0x3051fbae	7.6391415e-10
27	0x3030a8fd	6.4268574e-10
28	0x30711380	8.7703e-10
29	0x302fff18	6.402714e-10
30	0x30880e3b	9.899347e-10
31	0x3081d8bd	9.447586e-10
32	0x30361c99	6.6251854e-10
33	0x34deb112	4.1479558e-07
34	0x31b96262	5.3953935e-09
35	0x31dff63b	6.5181474e-09
36	0x31fba687	7.3239934e-09
37	0x30d55935	1.5523144e-09
38	0x3591f004	1.0873196e-06
39	0x33089aa6	3.180562e-08
40	0x32df115b	2.596851e-08
41	0x32d3bb58	2.4648827e-08
42	0x32f75bdf	2.8796363e-08
43	0x32da1857	2.5389609e-08
44	0x330a9fdd	3.2276024e-08
45	0x3304655e	3.0825838e-08
46	0x32b0068b	2.0492072e-08
47	0x32b180f8	2.066416e-08
48	0x32b786aa	2.1365242e-08
49	0x32bcf603	2.1997954e-08
50	0x32daca4a	2.547053e-08
51	0x3340755b	4.4810218e-08
52	0x333c6abf	4.3869246e-08
53	0x3364dd50	5.328667e-08
54	0x3341758e	4.504323e-08
55	0x334f072e	4.8202473e-08
56	0x33bd2b89	8.808917e-08
57	0x3364454c	5.3148412e-08
58	0x31a5600d	4.8130517e-09
59	0x31f62744	7.1640063e-09
60	0x31af81ec	5.1079407e-09
61	0x31cb8ce0	5.924093e-09
62	0x32053226	7.753021e-09
63	0x320138f4	7.521738e-09
64	0x31df29a6	6.494889e-09
65	0x32048d17	7.715491e-09
66	0x31db54b3	6.383368e-09
67	0x31c056eb	5.597817e-09
68	0x319f6774	4.6392703e-09
69	0x31bf5c12	5.569299e-09
70	0x31a9d765	4.943035e-09
71	0x31bef3a7	5.557428e-09
72	0x31ab5e77	4.9874944e-09
73	0x31bca75e	5.4905476e-09
74	0x3193be51	4.2998995e-09
75	0x3182d3bd	3.80757e-09
76	0x319e4834	4.6066138e-09
77	0x318d538e	4.113139e-09
78	0x3180d5ad	3.7495824e-09
79	0x318ba996	4.064712e-09
80	0x31ed4cab	6.906324e-09
81	0x31871d86	3.9323735e-09
82	0x324fef44	1.21033885e-08
83	0x319bb224	4.531346e-09
84	0x311ec920	2.3106352e-09
85	0x31753709	3.5683476e-09
86	0x319e1afb	4.6014725e-09
87	0x31d7de99	6.28263e-09
88	0x31c914ee	5.8522494e-09
89	0x31c59085	5.7498846e-09
90	0x31ea2996	6.815024e-09
91	0x31e11996	6.5512706e-09
92	0x31c81782	5.8234386e-09
93	0x31c12529	5.621264e-09
94	0x31a97050	4.931316e-09
95	0x31ab827d	4.99159e-09
96	0x31bc149e	5.473864e-09
97	0x3212d99e	8.547799e-09
98	0x31d97a9d	6.3294707e-09
99	0x3163b482	3.3135454e-09
100	0x319528bf	4.341103e-09
101	0x31c8d837	5.845347e-09
102	0x321c29fb	9.08994e-09
103	0x31fe4f49	7.4013866e-09
104	0x31b918a6	5.387011e-09
105	0x31a59f93	4.8202735e-09
106	0x00000000	0.0
107	0x32007d19	7.4790245e-09
108	0x31ff036a	7.421865e-09
109	0x31af66d0	5.1048588e-09
110	0x31cb7b56	5.9220993e-09
111	0x00000000	0.0
112	0x32e7400f	2.692107e-08
113	0x33d67341	9.986116e-08
114	0x342aaf41	1.5896241e-07
115	0x334a2c64	4.7072163e-08
116	0x00000000	0.0
117	0x348ab0bc	2.5833094e-07
118	0x347e1bef	2.3665756e-07
119	0x33cd1003	9.548969e-08
120	0x339ea584	7.3875555e-08
121	0x33a4de27	7.6772544e-08
122	0x33b48259	8.405613e-08
123	0x3b803428	0.0039124675
124	0x3b7e693d	0.003882005
125	0x3b824149	0.0039750678
126	0x3b86d774	0.0041150395
127	0x3b8923f5	0.0041851946
128	0x3b8a7d8a	0.004226391
129	0x3b856e76	0.004072006
130	0x3f09b6a6	0.53794324
131	0x332918d7	3.937097e-08
132	0x35c86b00	1.4932302e-06
133	0x34eefe67	4.4516057e-07
134	0x3728dfd1	1.0065692e-05
135	0x33432d02	4.544291e-08
136	0x33087025	3.1766962e-08
137	0x33865d15	6.256793e-08
138	0x32d46825	2.4727408e-08
139	0x33867b61	6.262304e-08
140	0x339812be	7.081461e-08
141	0x33854d43	6.207349e-08
142	0x337874a6	5.784809e-08
143	0x3428bfaf	1.5715953e-07
144	0x338d66e7	6.584542e-08
145	0x337f3c65	5.9426743e-08
146	0x336939c9	5.4302095e-08
147	0x32dbaaf5	2.5572698e-08
148	0x33561f42	4.9854187e-08
149	0x340f6ad7	1.3356781e-07
150	0x336213cf	5.263774e-08
151	0x331fc7d2	3.7201808e-08
152	0x3291de70	1.6981375e-08
153	0x33467744	4.620894e-08
154	0x33d65761	9.981046e-08
155	0x338f1a68	6.66376e-08
156	0x33a30c6a	7.592537e-08
157	0x33e283f7	1.05479494e-07
158	0x33adc7f3	8.092311e-08
159	0x3390e1f2	6.746622e-08
160	0x33ad53b6	8.071167e-08
161	0x338ef933	6.657719e-08
162	0x33cb8e38	9.4787936e-08
163	0x3350db92	4.8628472e-08
164	0x3805b656	3.1879485e-05
165	0x350fe069	5.359821e-07
166	0x3513b611	5.502671e-07
167	0x35470e31	7.415393e-07
168	0x342f678f	1.633582e-07
169	0x389e3e9b	7.545688e-05
170	0x358791dd	1.0100736e-06
171	0x35d35212	1.5744611e-06
172	0x35e84811	1.7306321e-06
173	0x35f6559b	1.8353343e-06
174	0x3618e1fc	2.2781305e-06
175	0x361ee3f3	2.3676519e-06
176	0x360ba36d	2.080774e-06
177	0x3604e837	1.98047e-06
178	0x360f4e24	2.1354144e-06
179	0x361ef8c7	2.3688642e-06
180	0x3624a107	2.4531635e-06
181	0x35f1b51a	1.8008607e-06
182	0x365aed77	3.2622754e-06
183	0x363461c3	2.6878995e-06
184	0x36505f04	3.1049722e-06
185	0x364e61de	3.0753358e-06
186	0x3686f212	4.021692e-06
187	0x36c8c28a	5.983112e-06
188	0x36866f6d	4.006483e-06
189	0x349a87db	2.8783583e-07
190	0x350d1467	5.255628e-07
191	0x350d0123	5.252825e-07
192	0x351543a7	5.560527e-07
193	0x3503abd1	4.905133e-07
194	0x35168826	5.6077477e-07
195	0x350d1913	5.256308e-07
196	0x34e5bb5b	4.2790893e-07
197	0x34be29b5	3.5420604e-07
198	0x34e48504	4.256509e-07
199	0x35019af5	4.8281737e-07
200	0x34a9b531	3.1610537e-07
201	0x34d77998	4.0135342e-07
202	0x35083805	5.074547e-07
203	0x34fac02d	4.6705955e-07
204	0x350102b3	4.806017e-07
205	0x350317c5	4.883589e-07
206	0x34d35e16	3.937027e-07
207	0x35072cd3	5.0356647e-07
208	0x350c4035	5.22475e-07
209	0x3525e307	6.179766e-07
210	0x3519e480	5.732945e-07
211	0x3489f883	2.5699055e-07
212	0x3512a0b0	5.462307e-07
213	0x352c6f4c	6.423695e-07
214	0x34fd3d17	4.716937e-07
215	0x3519329f	5.7070605e-07
216	0x350534b0	4.962303e-07
217	0x34f320fb	4.5286274e-07
218	0x34e8f48a	4.3391293e-07
219	0x353bd856	6.997774e-07
220	0x34be8c5f	3.549239e-07
221	0x34ab8fbc	3.1955813e-07
222	0x345493b5	1.9797774e-07
223	0x34ed6816	4.4220423e-07
224	0x34d5a564	3.979468e-07
225	0x34ba5fae	3.4714816e-07
226	0x34ccb154	3.8126984e-07
227	0x34d2348f	3.915379e-07
228	0x34a9fdf1	3.166347e-07
229	0x34fbebb3	4.6923887e-07
230	0x34ce010d	3.8371255e-07
231	0x34c46bf3	3.6586388e-07
232	0x34c51f60	3.6716938e-07
233	0x34ad59f5	3.2289213e-07
234	0x34c723da	3.7092724e-07
235	0x351b78aa	5.791759e-07
236	0x34d90bff	4.0428128e-07
237	0x00000000	0.0
238	0x352484f7	6.128825e-07
239	0x35238570	6.091641e-07
240	0x353b6dfb	6.982297e-07
241	0x350500d1	4.954755e-07
242	0x374656b2	1.1821905e-05
243	0x37407157	1.1470481e-05
244	0x3672d8c0	3.6186975e-06
245	0x350a40bb	5.15032e-07
246	0x31219fde	2.3519457e-09
247	0x00000000	0.0
248	0x3780a27e	1.5334455e-05
249	0x378a6bb0	1.6501028e-05
250	0x36bf2f2e	5.697736e-06
251	0x36e631e9	6.8603445e-06
252	0x36f3ca2b	7.2655e-06
253	0x36bf2f08	5.6977187e-06
254	0x3ed868e1	0.42267516
255	0x3ecbd8a0	0.3981371

exp_avg f4 [128]
0	0xb7af0018	-2.086167e-05
1	0x3ad63fb3	0.0016345888
2	0x3a02455f	0.00049694435
3	0x3a0456b6	0.00050483213
4	0x3b551ec8	0.0032519568
5	0xb9e567df	-0.00043755674
6	0xb8806bdc	-6.123606e-05
7	0xb55d3ecd	-8.24203e-07
8	0x3a8357d3	0.001002068
9	0x3abc5e5c	0.0014371383
10	0x3b5fcec8	0.003415035
11	0x399c59e6	0.00029821618
12	0x3a1220b5	0.0005574332
13	0x38041be0	3.1497213e-05
14	0x0214ade3	1.0923226e-37
15	0x021389aa	1.0839362e-37
16	0x3a9af8ad	0.0011823379
17	0x3a6d4f72	0.0009052671
18	0x3aabf96a	0.0013120596
19	0x3ac26ed0	0.001483405
20	0x39c33a1c	0.00037236593
21	0x021bad2d	1.14373e-37
22	0x39eaf064	0.00044811063
23	0x00000000	0.0
24	0x00000000	0.0
25	0x3ac0b321	0.0014701822
26	0x3ab8794d	0.0014074236
27	0x00000000	0.0
28	0x3b04960a	0.0020231032
29	0x3b0361ed	0.0020047382
30	0x3a66e6e3	0.00088082085
31	0x39b5aef8	0.00034653372
32	0x399aee84	0.00029550877
33	0x00000000	0.0
34	0x39abff35	0.00032805806
35	0x00000000	0.0
36	0x3b3ad889	0.0028510413
37	0x3b97dd86	0.004634562
38	0x3a6b3ba9	0.00089734286
39	0x021d265d	1.1545548e-37
40	0x3a02cb5a	0.0004989408
41	0x38fba592	0.000119994525
42	0x3a282c7e	0.0006415321
43	0x391d5ed2	0.0001500801
44	0x00000000	0.0
45	0x00000000	0.0
46	0x3aa4e263	0.0012579676
47	0x3ac0f646	0.0014721833
48	0x00000000	0.0
49	0x00000000	0.0
50	0x3a86b4e6	0.0010277301
51	0x3a113c30	0.00055402797
52	0x3b279ba2	0.0025574942
53	0x3b19f0e0	0.002348952
54	0x021e2982	1.1619919e-37
55	0x37d707f4	2.56337e-05
56	0x3b373b37	0.0027958879
57	0x00000000	0.0
58	0x00000000	0.0
59	0x3a240924	0.00062574656
60	0x3b28483a	0.0025677816
61	0x3a1f1d8f	0.0006069773
62	0x39273af0	0.00015948317
63	0x3af033e0	0.0018326007
64	0x3b0983ab	0.0020983021
65	0x0218c834	1.1224652e-37
66	0x3aecf406	0.0018078096
67	0x00000000	0.0
68	0x36985a43	4.540461e-06
69	0xb76df1b5	-1.4182578e-05
70	0x39b95d62	0.00035355525
71	0x00000000	0.0
72	0xb905c3d7	-0.00012756824
73	0x3a82f7be	0.0009992046
74	0x394d5390	0.00019581453
75	0x3aa6325d	0.0012679804
76	0xba3b4036	-0.0007143052
77	0x021e90a4	1.1649517e-37
78	0x3a226c5a	0.0006195955
79	0x00000000	0.0
80	0xbb368f65	-0.0027856466
81	0x0219296d	1.1252553e-37
82	0x059eacf4	1.4921782e-35
83	0x3a153490	0.00056917313
84	0x3a30ba82	0.0006741659
85	0x3aec1507	0.0018011638
86	0x3a3794c1	0.0007003062
87	0x37b5286d	2.1595706e-05
88	0x3a2b9a53	0.00065461284
89	0x3a867820	0.0010259189
90	0x00000000	0.0
91	0x00000000	0.0
92	0x3a8a1ec0	0.0010537729
93	0xb93e0642	-0.00018122143
94	0xb7f5caf0	-2.9300776e-05
95	0x00000000	0.0
96	0x3a69277a	0.0008894127
97	0x3ab40a64	0.0013736007
98	0x385faf28	5.333047e-05
99	0x00000000	0.0
100	0x3b952622	0.004551665
101	0xb90ce820	-0.00013437914
102	0x3a08d9b1	0.0005220427
103	0x3a8a4257	0.0010548335
104	0x39504202	0.00019861016
105	0x39801e20	0.00024436507
106	0x3717f885	9.058164e-06
107	0x39d0ae0b	0.00039802524
108	0x3aca0683	0.0015413318
109	0x3abda50e	0.0014468746
110	0x3b16514c	0.002293664
111	0x130a6bbb	1.7471164e-27
112	0x3aa90a78	0.0012896797
113	0x399d3d1c	0.00029990904
114	0xba69f2db	-0.0008924433
115	0x00000000	0.0
116	0x1a57f6ce	4.4660325e-23
117	0x3af0dc5d	0.001837622
118	0x02191d3f	1.1249058e-37
119	0x3a19b3b4	0.00058632647
120	0x3a89e9e3	0.0010521974
121	0x3a5686dc	0.0008183548
122	0x00000000	0.0
123	0x3a19bae1	0.0005864334
124	0xbb68c718	-0.003551906
125	0x3a9d0f0e	0.0011982636
126	0x3ab6c6a7	0.0013944701
127	0x3b6453c4	0.0034839967

exp_avg_sq f4 [128]
0	0x34df8f34	4.164118e-07
1	0x38061fe3	3.1977786e-05
2	0x36d4f605	6.346733e-06
3	0x37492ea4	1.1991393e-05
4	0x3808912f	3.256014e-05
5	0x359d512a	1.1721033e-06
6	0x340f6dc1	1.3357841e-07
7	0x348e565f	2.6512404e-07
8	0x3743f74b	1.1680483e-05
9	0x379e03be	1.883681e-05
10	0x38be7a8a	9.082731e-05
11	0x362a801b	2.5406541e-06
12	0x369b15b0	4.6218847e-06
13	0x360fd6ad	2.1433618e-06
14	0x2f6966ba	2.1227722e-10
15	0x3176c444	3.5909276e-09
16	0x389e3ed1	7.5457276e-05
17	0x371e33f0	9.4296265e-06
18	0x36c16b0e	5.764311e-06
19	0x3895fdfc	7.152182e-05
20	0x36f121ab	7.186279e-06
21	0x326478df	1.329883e-08
22	0x3931dedc	0.00016963057
23	0x00000000	0.0
24	0x00000000	0.0
25	0x37faec17	2.991226e-05
26	0x38aa0037	8.106272e-05
27	0x00000000	0.0
28	0x375347c8	1.2593293e-05
29	0x3886ab85	6.421566e-05
30	0x376214ad	1.3475464e-05
31	0x36a098c1	4.7861545e-06
32	0x36ef570d	7.132889e-06
33	0x00000000	0.0
34	0x36883460	4.059213e-06
35	0x00000000	0.0
36	0x387684b4	5.877456e-05
37	0x38ae6144	8.315084e-05
38	0x37f5ff15	2.9325058e-05
39	0x2e957738	6.796913e-11
40	0x365c6d39	3.284613e-06
41	0x36844bde	3.9427387e-06
42	0x37b45716	2.1498225e-05
43	0x3883b96f	6.2811065e-05
44	0x00000000	0.0
45	0x00000000	0.0
46	0x381e1170	3.7686375e-05
47	0x3840ad87	4.5937977e-05
48	0x00000000	0.0
49	0x00000000	0.0
50	0x3722021d	9.6564445e-06
51	0x366b3035	3.504579e-06
52	0x38b51981	8.635503e-05
53	0x38385a33	4.3953023e-05
54	0x308ddf44	1.0322556e-09
55	0x35da53a9	1.6266614e-06
56	0x38b0b5fe	8.426233e-05
57	0x00000000	0.0
58	0x00000000	0.0
59	0x37123edf	8.716916e-06
60	0x38a47bac	7.843165e-05
61	0x36b1b787	5.2963765e-06
62	0x3669c614	3.4835002e-06
63	0x3833f320	4.2903353e-05
64	0x37d7f020	2.5741814e-05
65	0x2f163def	1.3664424e-10
66	0x390a8cda	0.00013213177
67	0x00000000	0.0
68	0x35886abf	1.0163857e-06
69	0x34a015f3	2.9818293e-07
70	0x376064eb	1.3374937e-05
71	0x00000000	0.0
72	0x34c154a9	3.601065e-07
73	0x36c74074	5.9381655e-06
74	0x35a97c88	1.2627725e-06
75	0x37586878	1.2898927e-05
76	0x36ab6706	5.1081906e-06
77	0x2d1c8cd8	8.898847e-12
78	0x38863a7c	6.4005115e-05
79	0x00000000	0.0
80	0x39222d20	0.00015466334
81	0x2f0d630a	1.2859061e-10
82	0x30eb3c21	1.711559e-09
83	0x36fbc0b4	7.5028165e-06
84	0x3792f50b	1.7518663e-05
85	0x381b0dfb	3.69679e-05
86	0x367b3fda	3.743908e-06
87	0x3596a940	1.1225129e-06
88	0x36f9d34c	7.4453765e-06
89	0x3761ad70	1.3451427e-05
90	0x00000000	0.0
91	0x00000000	0.0
92	0x37cfe9d7	2.4785213e-05
93	0x3524723f	6.126101e-07
94	0x3685767f	3.9775036e-06
95	0x00000000	0.0
96	0x37a2b672	1.9396863e-05
97	0x380876b4	3.2535478e-05
98	0x35b81dc8	1.3717736e-06
99	0x00000000	0.0
100	0x3937d1f1	0.00017530449
101	0x395dcb35	0.00021151903
102	0x369a1bcd	4.592794e-06
103	0x36870d55	4.0248656e-06
104	0x369d88f2	4.694907e-06
105	0x37f5eeb4	2.931743e-05
106	0x351f1b4d	5.9271844e-07
107	0x35979b1c	1.129552e-06
108	0x3858e9d9	5.17162e-05
109	0x38395b9c	4.4192755e-05
110	0x38a862bf	8.029257e-05
111	0x342dca1d	1.6185409e-07
112	0x37e38a09	2.7124786e-05
113	0x3799f271	1.8351917e-05
114	0x3856ef35	5.1244355e-05
115	0x00000000	0.0
116	0x342b870c	1.5974746e-07
117	0x385acf3f	5.2168263e-05
118	0x2de449b6	2.5953333e-11
119	0x36f621e8	7.3353185e-06
120	0x37aeace6	2.0822928e-05
121	0x36b64f77	5.4332736e-06
122	0x00000000	0.0
123	0x370bf3c5	8.341803e-06
124	0x381cce8f	3.738567e-05
125	0x3845aaa4	4.712738e-05
126	0x37dda0a4	2.6420057e-05
127	0x38936530	7.028354e-05

exp_avg f4 [64, 128]
0	0xbcb7fc74	-0.022459246
1	0x3c865f46	0.016402852
2	0xb6985000	-4.5392662e-06
3	0x3bf6c3d8	0.0075306706
4	0x3d98f55a	0.07468672
5	0xbaecb956	-0.0018060606
6	0x3a14b314	0.00056724367
7	0xb85939d4	-5.179069e-05
8	0x3dceac02	0.10091402
9	0x3d49dc00	0.049282074
10	0x3ce2238a	0.027604837
11	0xbb32cf49	-0.0027284196
12	0x3dcef500	0.10105324
13	0x3a3bb3ee	0.00071602955
14	0x821a0cfd	-1.1317861e-37
15	0x8210d939	-1.0641789e-37
16	0x3d01e49a	0.031712152
17	0x3d915a2d	0.07097278
18	0x3e190597	0.14943539
19	0x3d6a4e3f	0.057203528
20	0x3d414091	0.047180716
21	0x02128a1f	1.0766025e-37
22	0x3c4890e1	0.012241573
23	0x00000000	0.0
24	0x00000000	0.0
25	0x3cfbf722	0.03075749
26	0x3cff2843	0.031147128
27	0x00000000	0.0
28	0x3da3ff92	0.080077305
29	0x3cd0afa7	0.025474383
30	0x3e0bc554	0.13649493
31	0x3d2be308	0.04196456
32	0x3cde694a	0.027149815
33	0x00000000	0.0
34	0x3ba27588	0.0049578585
35	0x00000000	0.0
36	0x3d6f1da3	0.058377873
37	0x3d53c042	0.051697023
38	0x3d3a8123	0.04553331
39	0x8217f4cd	-1.1163982e-37
40	0x3dae212d	0.085024215
41	0x3ca3c683	0.019992119
42	0x3d20f094	0.039291933
43	0x3cfd15ab	0.030894121
44	0x00000000	0.0
45	0x00000000	0.0
46	0x3cf19309	0.029489057
47	0x3d0cd002	0.03437806
48	0x00000000	0.0
49	0x00000000	0.0
50	0x3d1cd5e6	0.038289927
51	0xbb2517dc	-0.0025191223
52	0x3d23a565	0.039952654
53	0x3d17ba24	0.037042752
54	0x8216f660	-1.1090966e-37
55	0xbc2a40ea	-0.010391453
56	0x3d8ff4b0	0.07029092
57	0x00000000	0.0
58	0x00000000	0.0
59	0x3c49cc4f	0.012316777
60	0x3d20dea2	0.03927482
61	0x3d86bbb5	0.06578771
62	0x3c12ab1a	0.008951927
63	0x3dd5d83e	0.104416355
64	0x3d55b83b	0.05217765
65	0x82189452	-1.1209762e-37
66	0x3cc24036	0.023712259
67	0x00000000	0.0
68	0xb72b8d6d	-1.02253225e-05
69	0x38c28940	9.276206e-05
70	0x3da94ccb	0.082666
71	0x00000000	0.0
72	0x390ce6e5	0.00013437455
73	0x3d1780a8	0.03698793
74	0xbbc42119	-0.005985391
75	0x3d1b901d	0.037979234
76	0xbb46791c	-0.003028459
77	0x021e40cf	1.1626606e-37
78	0x3d2d3799	0.04228935
79	0x00000000	0.0
80	0x3c488239	0.012238079
81	0x82136a70	-1.08304e-37
82	0x04c1f5f1	4.5599943e-36
83	0x3cc65966	0.02421255
84	0x3cbcb520	0.023035586
85	0x3d55e2d0	0.05221826
86	0x3d8c660a	0.068554
87	0xbc259ce8	-0.01010821
88	0x3d1e547a	0.038654782
89	0x3d392b61	0.045207385
90	0x00000000	0.0
91	0x00000000	0.0
92	0x3cf858b6	0.030315738
93	0xbb5be16e	-0.0033551115
94	0x3c4d97ed	0.012548429
95	0x00000000	0.0
96	0x3d3be770	0.045875013
97	0x3cfb5c74	0.030683734
98	0xbc595163	-0.013264033
99	0x00000000	0.0
100	0x3cab1886	0.020885717
101	0x3c9e043c	0.019289128
102	0x3e143f8c	0.14477366
103	0x3dca7ab2	0.098866835
104	0x39cdf940	0.00039286353
105	0x3d141813	0.03615577
106	0xb9b53ccb	-0.00034568305
107	0x3c0e19b2	0.008673118
108	0x3d387b17	0.045039263
109	0x3cadeb62	0.021230403
110	0x3d1e90c0	0.038712263
111	0x13f09c3a	6.073857e-27
112	0x3dbcc35b	0.092169486
113	0x3b86a91d	0.0041095153
114	0x3caab806	0.020839702
115	0x00000000	0.0
116	0x99a454c2	-1.6991436e-23
117	0x3cbffd39	0.023436176
118	0x821fd6e1	-1.1743142e-37
119	0x3c8771aa	0.016533691
120	0x3c375213	0.011189002
121	0x3d8cf879	0.0688333
122	0x00000000	0.0
123	0x3cf51e99	0.029921817
124	0x3c24d521	0.0100605795
125	0x3c9c10af	0.019050924
126	0x3d4f7daa	0.050656952
127	0x3d3f4662	0.04669798
128	0x3864219a	5.439073e-05
129	0x15de9841	8.99053e-26
130	0x349fba8d	2.9751791e-07
131	0x392a3b33	0.00016234517
132	0x391eb5e9	0.00015135821
133	0x8d41dcb7	-5.9738393e-31
134	0x821a619f	-1.1342149e-37
135	0xaf4b7810	-1.8505397e-10
136	0x39d15b1d	0.0003993147
137	0x39077176	0.00012916871
138	0x3794852a	1.7704984e-05
139	0x377ede83	1.5191387e-05
140	0x398b2ab5	0.00026543965
141	0x021e59d8	1.1633791e-37
142	0x0219207b	1.1249986e-37
143	0x02127a03	1.0761402e-37
144	0x3716ab7b	8.980623e-06
145	0x399d937d	0.0003005526
146	0x397d39f4	0.0002414955
147	0x373eacd6	1.1365124e-05
148	0x34f8ef6d	4.6367805e-07
149	0x02199a14	1.1284883e-37
150	0x3513fc26	5.512869e-07
151	0x00000000	0.0
152	0x00000000	0.0
153	0x38c59a6a	9.422454e-05
154	0x383bcf8f	4.477758e-05
155	0x00000000	0.0
156	0x399e6047	0.0003020784
157	0x380dda9b	3.3820612e-05
158	0x17f5b293	1.5877832e-24
159	0x39402c40	0.00018327031
160	0x39589656	0.0002065537
161	0x00000000	0.0
162	0x39ec4d09	0.00045070823
163	0x00000000	0.0
164	0x3912fba1	0.00014017384
165	0x38200d10	3.8159138e-05
166	0x396c7361	0.00022549696
167	0x00000000	0.0
168	0x3a2babb2	0.0006548717
169	0xab5fb4f2	-7.9476627e-13
170	0x38b39494	8.56306e-05
171	0x3750245d	1.2406233e-05
172	0x00000000	0.0
173	0x00000000	0.0
174	0x3824c3c9	3.9282986e-05
175	0x3887774c	6.4595224e-05
176	0x00000000	0.0
177	0x00000000	0.0
178	0x39719faf	0.00023043038
179	0x38ad900f	8.276116e-05
180	0x3739a92e	1.10662495e-05
181	0x3908332a	0.00012989031
182	0x021263ce	1.0755028e-37
183	0x38dfe5a0	0.000106762396
184	0x37c2282e	2.3145312e-05
185	0x00000000	0.0
186	0x00000000	0.0
187	0x39b8e8ed	0.00035268758
188	0x381eda89	3.7873662e-05
189	0x39ec5b92	0.00045081653
190	0x3a2a6e8f	0.000650146
191	0x376b5d52	1.4028819e-05
192	0x3968e389	0.00022210008
193	0x0211fd47	1.0725605e-37
194	0xa9a47de2	-7.3049e-14
195	0x00000000	0.0
196	0xadd27032	-2.392406e-11
197	0x15f9e3e5	1.00929853e-25
198	0x39f124ac	0.00045994425
199	0x00000000	0.0
200	0xadff178f	-2.9000606e-11
201	0x3965ea9b	0.00021926539
202	0x39887fa4	0.0002603504
203	0x394dcc6b	0.00019626475
204	0xa870bda3	-1.3363797e-14
205	0x00000000	0.0
206	0x351111d0	5.404263e-07
207	0x00000000	0.0
208	0x34cc3da1	3.8042802e-07
209	0x0214ac79	1.092282e-37
210	0x021e777c	1.1642297e-37
211	0x394578d8	0.00018832402
212	0x39b72313	0.00034930612
213	0x38c07af2	9.178174e-05
214	0x3a19c340	0.00058655813
215	0x38eb9aab	0.000112344824
216	0x3a1f65b1	0.0006080522
217	0x3602d4cf	1.949538e-06
218	0x00000000	0.0
219	0x00000000	0.0
220	0x396572dc	0.0002188193
221	0x37aa3696	2.0290998e-05
222	0x3833c78a	4.286276e-05
223	0x00000000	0.0
224	0x39aea1aa	0.00033308315
225	0x348c7baf	2.6167024e-07
226	0x383c57e4	4.4904547e-05
227	0x00000000	0.0
228	0x3504b272	4.9433504e-07
229	0x3831d145	4.2394986e-05
230	0x3a071e53	0.000515436
231	0x3a172c6e	0.00057668134
232	0x362a45bf	2.5372572e-06
233	0x3499fda9	2.8683033e-07
234	0xae3cd110	-4.2931936e-11
235	0x335f3103	5.196581e-08
236	0x379f5751	1.8994937e-05
237	0x3486e2c2	2.5124433e-07
238	0x3813700c	3.5151883e-05
239	0x0216df04	1.1084262e-37
240	0x39d664d7	0.00040892392
241	0x391dbb61	0.00015042491
242	0x3907e5ec	0.00012960256
243	0x00000000	0.0
244	0x8e5a1dfa	-2.6885008e-30
245	0x356649a3	8.578883e-07
246	0x00000000	0.0
247	0x39298384	0.0001616609
248	0x39088ce0	0.00013022451
249	0x395e93f0	0.00021226681
250	0x00000000	0.0
251	0x3a07094b	0.0005151226
252	0x18e1d6e5	5.8378125e-24
253	0x393ec585	0.00018193394
254	0x38ed02b7	0.00011301546
255	0x38b2ae9b	8.520224e-05
