lightning_model_releases/lightning_quantile_test/model_params/0.7_80558_1331_lightning_quantile.ckpt (torch, 311310 bytes, 15 tensors)

model.0.weight f4 [128, 131]
000000 54 82 1c bd 74 78 f3 3d 59 ab 38 be e4 a6 d8 3c
       -0.038210228 0.11888209 -0.18034114 0.026446767
000010 44 4a 49 bc 81 f8 e8 3d 49 6d ef bd 08 6c 35 3e
       -0.012285773 0.11375523 -0.11690766 0.17716992
000020 dc 89 a0 bd dc 7b 4f 3d 87 4e 7b bc 3c b4 71 3c
       -0.078387946 0.05065523 -0.015338547 0.014752444
000030 16 b8 c9 bc 50 8d a2 bd 6b 8f e1 3b bd 5f e7 3c
       -0.024623912 -0.079371095 0.006883552 0.028243894
000040 12 65 6d 3e 15 de c2 3d d5 9e 2c bb 87 7d db 3a
       0.23183087 0.09515015 -0.0026339788 0.0016745784
000050 81 05 1e bd 22 ae 0e 3d 52 3e 12 3e 1f 8f 05 bd
       -0.038579468 0.034834035 0.14281586 -0.032607194
000060 8f 8b b1 3d 1d 06 80 3d 80 69 f8 3c ef 86 0c 3e
       0.08669197 0.06251166 0.030323744 0.13723348
000070 51 b2 42 3e e8 40 92 be f6 f5 39 bc 6a ee 71 3d
       0.19013335 -0.28565145 -0.011350146 0.05906526
000080 09 ec e5 bc 31 80 52 3d 92 ae 07 be c2 9e 54 3d
       -0.028066652 0.051391784 -0.13250187 0.051909216
000090 50 80 d0 3d 86 b2 c5 bd 50 7f 6a 3c a0 f4 b4 bd
       0.10180724 -0.09653191 0.01431258 -0.08835721
0000a0 05 69 85 bd b5 b9 fb ba 23 ec 16 3e ca 34 53 3e
       -0.065141715 -0.0019205125 0.14738517 0.20625606
0000b0 03 a4 40 3e 00 d1 fb bd a7 25 ef 3d 81 62 e7 3b
       0.18812566 -0.12295723 0.116771035 0.007061303
0000c0 c5 a4 12 3e 42 ce a9 bd 24 ec c3 bd 12 a5 9c 3e
       0.14320667 -0.08291294 -0.095665246 0.3059469
0000d0 4b a1 17 3e 53 b0 9a 3e 61 3c b3 bb 92 2e 98 be
       0.14807622 0.3021265 -0.005469844 -0.2972303
0000e0 b8 33 6f be a5 c3 6d 3e 88 c2 54 3d 11 b5 cc bc
       -0.23359573 0.23219164 0.051943332 -0.024988683
0000f0 a2 e6 f0 bc 4c 46 a1 3d da 17 e1 3d 0c 87 02 be
       -0.02940685 0.07874736 0.109908774 -0.12746829
000100 5f a3 a4 3d 0a af 75 bd 5c 19 59 3d e5 f3 1b be
       0.08038973 -0.059981383 0.0530027 -0.15229757
000110 1e fd ea bd ca 3a f7 bd 7a 99 aa 3e 14 87 01 3e
       -0.114740595 -0.1207176 0.33320218 0.12649184
000120 51 3f bf 3d 6f 11 4c 3d cc 62 6d be d2 70 65 bd
       0.093382485 0.049821313 -0.2318222 -0.056015797
000130 f2 99 c6 3c 9b 76 86 bb 1d eb 33 3e 3d b4 88 3d
       0.024243329 -0.0041034943 0.17570157 0.06675003
000140 e6 60 13 be d1 c8 e6 3c 38 50 57 3d dd 64 a6 bc
       -0.14392433 0.028171929 0.052566737 -0.020311767
000150 fc 3c 1a 3e 8d 44 16 be 5e c5 07 3e 8d b5 13 be
       0.15062326 -0.14674588 0.13258883 -0.14424725
000160 f7 46 a4 bc 44 9f 21 bd f3 db ea 3d 4e 08 a3 bd
       -0.02005337 -0.03945853 0.11467733 -0.07960568
000170 af b1 da bc 18 6d ab 3c f4 86 04 bd 78 c6 9e bc
       -0.026696054 0.020926043 -0.032355264 -0.019381747
000180 a7 2d a2 bd 0e 64 81 3d b0 ce 96 3b 4c 6f 85 3d
       -0.07918864 0.06317912 0.004602276 0.06515369
000190 90 33 26 be 43 aa 01 3e 75 02 44 bd be be 58 3e
       -0.16230607 0.12662606 -0.047853906 0.21166512
0001a0 0a 58 10 3e 08 4f 22 be b9 ce 97 bd 4e c4 2c 3d
       0.14096084 -0.1585046 -0.07412476 0.0421794
0001b0 fb 3b 9b 3b 0a 69 b4 3d 46 01 83 3e c5 19 8e 3e
       0.004737375 0.08809097 0.2558691 0.27754036
0001c0 45 7d ea bd b5 a3 3e be c2 83 9c bc 92 6d 80 bd
       -0.114496745 -0.18617137 -0.019105796 -0.06270899
0001d0 70 d7 5f 3c e3 bb 4d 3e 1b 8d 9b be 0b 58 26 3d
       0.013662204 0.20091204 -0.30381092 0.040611308
0001e0 63 5f 01 bd b6 3b d8 bb 10 5a ea bb dc 68 2f be
       -0.03158511 -0.006598915 -0.0071518496 -0.17129844
0001f0 ae a6 e8 bc bf 88 21 bd 52 73 0d bc 6b 53 94 bd
       -0.028399792 -0.03943705 -0.008633452 -0.07242473
000200 05 4c 2c 3c ab 27 b5 bd 26 eb 3a 3d e0 02 df 3c
       0.010516171 -0.08845457 0.04563441 0.02722305
000210 f6 6e 4d 3d 54 4f 7c 3e 2a 06 c4 bd 3a 2e 09 bd
       0.05015465 0.24639636 -0.09571488 -0.03349135
000220 40 87 94 bd c5 e3 b1 bd c4 c7 cc 3c 40 59 9c bc
       -0.072523594 -0.08686022 0.0249976 -0.019085526
000230 a6 53 0b 3d 2d ad 21 3e a3 d8 84 3d fc 58 83 bd
       0.03401532 0.15788718 0.06486633 -0.06413457
000240 88 2d 77 bc fc 7e 95 3c 26 c0 38 3d ab 74 90 3d
       -0.015086539 0.018249027 0.045105122 0.07053503
000250 8b 00 a3 3d 96 e1 8d bd c0 20 b4 3c c7 ed 19 bd
       0.07959088 -0.06927793 0.021988273 -0.037580278
000260 38 de 1c bc 9f 2c f6 3c ef fb a2 3d 5e 4e 2f bd
       -0.009574465 0.030050574 0.07958209 -0.042799346
000270 7e 43 3f 3d f0 89 fb 3c df ee 2c bc 89 56 8c bd
       0.046695225 0.030705422 -0.010554998 -0.06852443
000280 93 a4 a2 3d f6 e9 3d 3e aa bc bb 3d c6 93 3d be
       0.07941546 0.1854628 0.09166844 -0.18513402
000290 14 9d 12 3d 28 e2 78 3d eb fc 03 bd 56 e4 91 3e
       0.035794333 0.060762554 -0.032223623 0.2849452
0002a0 b0 92 9f 3c 71 ce 91 bd 3c bc bf bd d2 6d 2b be
       0.019479126 -0.07119454 -0.09362075 -0.16741112
0002b0 07 e7 9a 3c a2 b8 9e bc 0a 7e 48 3e ee 42 4b bd
       0.01890899 -0.01937515 0.1957933 -0.049624376
0002c0 9a 43 f0 3c 6c 41 ff 3c 77 ff 00 3e 19 d7 01 bd
       0.02932911 0.031159125 0.12597452 -0.031699274
0002d0 cd 29 84 ba 8a b7 93 3e 40 ca 9b 3e 28 b7 38 3e
       -0.0010083258 0.28850967 0.30427742 0.18038619
0002e0 2e 26 f7 3e 66 3d 04 3e 38 45 c0 bc c0 04 b6 be
       0.48271316 0.12914047 -0.023470506 -0.355505
0002f0 fb 53 20 3e dc 20 0c 3e 63 e7 c1 bd cb ea 3e 3d
       0.15657036 0.1368441 -0.09467962 0.046610635
000300 9e c0 64 3d bb c6 99 3d 60 b6 0d bc f2 8e 55 3d
       0.055847757 0.07508608 -0.008649439 0.052138276
000310 c0 1b a7 3a de 3b 63 3d 54 12 ac 3c f0 92 c8 3c
       0.0012749359 0.055477016 0.021004833 0.024484128
000320 4e cd 4e be 36 11 04 bd a3 af 96 3d e4 68 0b 3d
       -0.20195505 -0.032242976 0.07357719 0.03403558
000330 70 65 8e bb b8 6c 97 bd f5 ff a3 3c 9f 48 a0 bd
       -0.0043455884 -0.07393783 0.02001951 -0.078263514
000340 c6 4d e9 bc 90 06 0b 3e 4d a1 d3 3c 23 63 af 3d
       -0.028479468 0.13576722 0.02583375 0.08563831
000350 74 a1 c5 bd 87 35 57 bd e2 22 f6 3b a1 17 ad 3d
       -0.09649935 -0.052541282 0.0075114826 0.084517725
000360 b3 eb 0d bc f4 5a b9 bc 8e da c4 3d 47 4e 08 bd
       -0.008662152 -0.022626378 0.096119985 -0.033277776
000370 a4 e6 9d 3e de a3 24 3d 71 f5 35 be aa 7d 63 be
       0.30840027 0.04019534 -0.1776941 -0.22215906
000380 3a ec 79 be 40 9a c9 3d 36 79 fa 3d 59 b1 4f 3d
       -0.2440652 0.09843874 0.122301504 0.05070624
000390 2e 6f b8 bd 28 ba db be 7f a7 11 bd ed d3 17 3f
       -0.09005581 -0.42915463 -0.035560127 0.5930775
0003a0 44 21 18 be 99 f9 3c bd 72 f1 a9 bd 88 58 f4 bc
       -0.1485644 -0.046136472 -0.08298005 -0.029827371
0003b0 d7 b4 a0 3e b2 14 88 bd cd 1d 4b 3e d4 70 eb 3d
       0.3138797 -0.06644572 0.19835587 0.1149613
0003c0 42 89 23 bc b4 7c a8 bc 64 5a 90 bd 8e 5c b5 b8
       -0.009981455 -0.020567276 -0.07048491 -8.647992e-05
0003d0 40 8c 8d 3d 7c e1 7b bd 5b d6 69 bd 0c 6b ed 3c
       0.06911516 -0.061494336 -0.05708919 0.028981708
0003e0 43 32 9e 3e 12 34 48 be cf e9 d2 3d ef b5 19 3d
       0.30897722 -0.19551113 0.10298502 0.03752702
0003f0 e6 98 6a 3e 8d cb 42 be cc cf c5 bd 81 97 02 be
       0.22909889 -0.19022961 -0.09658775 -0.12753107

model.0.bias f4 [128]
000000 7d b7 48 bd 33 fc a5 3d 97 c4 df 3c 2a 40 a7 3c
       -0.049003113 0.08104744 0.027315421 0.020416338
000010 3f b1 9c 3d ca 9c a5 3d 51 47 d3 bd 86 8e 1d 3e
       0.076509945 0.08086546 -0.10316337 0.153864
000020 78 f4 62 bd 7f af ee 3b 5c e1 6b 3c 12 0f 34 3e
       -0.055408925 0.0072841044 0.014396992 0.17583874
000030 f9 51 08 be 9f 0e 14 be a9 e6 6b 3d b5 b3 ad bd
       -0.1331252 -0.14458703 0.05759302 -0.08481542
000040 c0 db 41 3d 4b 9b df bd 58 b7 80 bd 0a 84 36 3e
       0.04732871 -0.10918292 -0.0628497 0.17823806
000050 19 36 92 ba 2e 22 af bb 7e 9b f5 bb d0 88 6f 3d
       -0.0011155038 -0.0053446507 -0.0074953428 0.058480084
000060 85 bd 00 3e 68 37 d5 3c 1d c1 36 3d 1f ae 2c 3d
       0.12572296 0.026027396 0.04461776 0.042158242
000070 50 fb 83 3d 5e 0e a4 3d 25 41 8f 3d 2d 6c 8d 3a
       0.064444184 0.08010553 0.06994847 0.0010789685
000080 9a aa d6 39 56 4a 16 be 60 a0 25 bc fa 20 3a 3c
       0.0004094437 -0.14676794 -0.010109037 0.011360401
000090 75 23 a2 3d ff c6 71 3d e4 bc ac 3d 9f fe 24 3e
       0.07916919 0.059027668 0.084344655 0.16112755
0000a0 18 2f 82 bd 65 85 d2 bd df 86 ae 3c 67 87 d6 3d
       -0.06356639 -0.10279349 0.021304546 0.10475045
0000b0 08 5c d3 3c 60 1d 96 3b 5c 6b 9d 3d c5 64 d4 3c
       0.02580072 0.0045811385 0.07686493 0.025926957
0000c0 07 fb 98 3c 64 08 87 bc ad ff 00 bd a6 18 9f 3c
       0.018674387 -0.016483493 -0.03149383 0.019420933
0000d0 1e 35 d1 3d 0f 90 8d bd 0d c9 11 bd 4b e8 89 bb
       0.102152094 -0.069122426 -0.035592128 -0.0042085997
0000e0 a0 28 aa 3d b2 c8 29 3d be 11 f1 3d 19 0f 41 3d
       0.0830853 0.041451164 0.11770962 0.04713354
0000f0 f0 66 98 3c 50 4b 13 bc f7 93 1c bd 1d 22 8a 3d
       0.018603772 -0.008990124 -0.038227048 0.06744788
000100 6f 38 01 3d 7c c0 56 bc 7f 1b 4e 3d bf d9 94 3e
       0.03154796 -0.013107415 0.05031919 0.29072377
000110 a8 32 63 3d 18 96 9a 3a 6f 0b 3e bd c2 9e fb 3d
       0.05546823 0.0011793999 -0.046397623 0.1228614
000120 49 d7 b1 bc 55 8b 04 bd 19 a8 d3 3c 11 71 f7 bc
       -0.021709101 -0.03235944 0.025836991 -0.030205281
000130 32 55 48 3d 49 e4 87 bc c0 b6 31 3e cf d5 18 bd
       0.048909374 -0.016588347 0.1735487 -0.03731328
000140 f1 62 5c 3d d2 8f 95 3d 39 95 47 bd aa 17 e3 3b
       0.053805295 0.07302822 -0.048726294 0.006930311
000150 57 c2 8a 3d 5f 37 61 bc 7e 18 b6 3b fb f1 18 bd
       0.06775349 -0.013746112 0.005557119 -0.037340146
000160 3a 56 c3 bd 17 e7 4d bd 9c ab 55 3e c9 52 ae 3d
       -0.09537931 -0.050269213 0.20866245 0.08511884
000170 ad 12 ac 3d de a4 86 3d c1 fc 12 be ac 3e f3 3d
       0.084019996 0.06574415 -0.1435423 0.11877188
000180 b0 55 07 bd ab 9c 5a 3d 95 3c 7b 3d 57 81 9c bd
       -0.033040702 0.053372066 0.061337072 -0.07641857
000190 b4 c6 26 bd ed 57 3d bd 58 2a b0 bd 49 bc b8 bd
       -0.04071684 -0.04622643 -0.086018264 -0.090202875
0001a0 34 42 8e bd 8b 8f cc 3d 2b 3c 8f bd d2 db 2f bd
       -0.06946221 0.09988316 -0.06993898 -0.042934246
0001b0 91 8c 9a bc 5c 5f 60 3d df 6d 11 3e 72 17 7e 3e
       -0.018865855 0.05477844 0.14202069 0.24813631
0001c0 62 5c 72 bd 39 2f a0 bc 18 78 f5 3d 43 ae 34 3c
       -0.059170134 -0.019553768 0.11985797 0.011027875
0001d0 b4 ac 82 3d 0e 46 cc 3d cd 91 dd 3d 18 1d 65 3a
       0.06380597 0.09974299 0.10818825 0.0008739992
0001e0 6f 0b 9c 3d b7 b9 d7 3c b5 da 20 3e 02 b2 bf bc
       0.07619368 0.026333673 0.1570843 -0.02340031
0001f0 20 f3 42 3d bd 46 54 bd 94 0e a1 3d 00 d9 7f 3c
       0.047595143 -0.051825274 0.07864109 0.015615702

model.3.weight f4 [64, 128]
000000 23 56 83 bd e2 5a f3 bd f6 05 67 bd 5e af ca bc
       -0.06412914 -0.11882569 -0.05640217 -0.024741825
000010 17 ec 54 3c 00 9c 08 ba 14 58 b5 bc f4 13 42 bc
       0.012995741 -0.0005211234 -0.022136725 -0.0118455775
000020 e9 38 7a 3d 65 e8 59 bd 0d 37 10 bd d9 c3 df bd
       0.06108943 -0.053200144 -0.03520875 -0.10926027
000030 48 a3 98 3d ad b6 8e 3d 7b ab e0 bc 19 0e 6d 3d
       0.074530184 0.069684364 -0.027425518 0.057874773
000040 e7 17 af 3c a1 ba a2 3c 01 39 42 3d a2 5d ce 3d
       0.021373702 0.019864382 0.047417644 0.10076453
000050 fb 70 b3 3d 87 68 55 bd 2e a5 80 bd bb f9 4d bd
       0.08761784 -0.05210164 -0.062815055 -0.05028699
000060 4d 6f 12 bd c3 68 80 3c 04 63 9c 3d 22 c2 08 3d
       -0.035750676 0.015674954 0.07636073 0.033388264
000070 ef 8d 60 bc 96 c9 78 3b 95 3a 38 3d 24 0d 53 3c
       -0.013705715 0.0037961951 0.044977743 0.012881551
000080 dd 8e 91 3d f1 6c ca 3d 7e a2 e2 3c 3d 7b 94 3d
       0.07107327 0.0988406 0.027665373 0.07250068
000090 0e ea e9 3d b8 2d 87 bd 19 61 45 bd 45 0c 8d be
       0.114215955 -0.06600517 -0.048188303 -0.27548423
0000a0 9b 66 d8 bb 48 67 43 3d 18 e9 ac 3d 1b 03 95 3b
       -0.0066040284 0.04770592 0.084428966 0.0045474893
0000b0 e2 24 42 be 52 62 45 3d 39 62 3e bd ee 59 e6 3b
       -0.18959382 0.04818947 -0.04648039 0.0070297634
0000c0 f5 84 69 3e 98 b4 73 bc f2 f4 77 3d b0 de 5d 3d
       0.22804625 -0.0148746 0.060536332 0.05416745
0000d0 f2 21 0e 3d bf 9d 50 3d f3 fa 69 3d 26 69 ad bd
       0.03470034 0.05093169 0.05712409 -0.08467321
0000e0 7d 23 84 3d 22 c2 49 3d b4 3f c0 3c a6 cb 4c bd
       0.06452081 0.049257405 0.023467876 -0.0499989
0000f0 f4 f5 4e 3c ad 7b 90 3d e6 18 5d 3d 1a bc 08 bc
       0.012631882 0.07054839 0.053978823 -0.008345628
000100 74 a1 a7 3d 37 cc 0a be 5a 2f 1d 3d d0 15 97 be
       0.081850916 -0.13554464 0.038375236 -0.2950883
000110 c0 a6 d0 bc df 6d 98 bc 10 1a aa 3c 2a 58 34 3d
       -0.025470138 -0.018607078 0.02076438 0.044029392
000120 6c 94 f6 bb 2e bf e0 bd b0 7c 8c bd 82 3e 94 bd
       -0.0075250175 -0.10973965 -0.0685972 -0.07238485
000130 5b de 9e bd 52 7b 1e 3d 1a 58 d0 3c 70 74 aa 3c
       -0.07757255 0.038691826 0.025432635 0.020807475
000140 4e fa 13 3d 5c a9 45 3c 8c 07 9e 3d 6b af 8b bd
       0.03612738 0.012064304 0.07716283 -0.06820568
000150 52 3d 9f bc 8a 10 57 3c c4 d5 45 3c 97 f4 98 bd
       -0.01943842 0.013126502 0.0120748915 -0.07468527
000160 ad 0f a4 3d 17 a3 87 3d 3f 96 87 be 2e 12 43 be
       0.080108024 0.06622904 -0.26481816 -0.19049904
000170 1e 3d 9f 3c a4 8d 98 3b 7b 1f 6e 3c e6 fd e1 bd
       0.019438323 0.0046555568 0.014533873 -0.110347554
000180 5b c4 ba 3c 20 43 8d bc 07 ca 67 bd 48 33 63 bd
       0.022798708 -0.017243922 -0.056589153 -0.055468827
000190 dd be 90 3d 06 92 6e 3e 62 8b a5 3d e7 dc 96 3c
       0.07067654 0.23297891 0.08083226 0.018415881
0001a0 8b 13 9f 3c 05 35 99 3d e4 37 ad bd 97 3b 98 3d
       0.019418499 0.07480816 -0.08457926 0.07433241
0001b0 12 2f 9c 3d bf 56 9a bc 69 93 b0 3d 6c cc 3e be
       0.076261654 -0.018840192 0.08621866 -0.18632668
0001c0 c9 94 0f bd 22 05 96 3d b6 be 7e 3d 3c a6 cc bc
       -0.035054002 0.07325198 0.062193595 -0.02498161
0001d0 d6 78 16 3e cb 20 71 3e 0f 58 62 be 62 01 4e bd
       0.14694533 0.23547666 -0.22103904 -0.050294288
0001e0 a1 ff f7 3c c4 32 96 3d ee 1f 92 be 1d b5 63 bc
       0.03027326 0.073339015 -0.28539985 -0.013898161
0001f0 8c be cc bc 43 02 23 be 50 f8 98 3d 0d c2 58 3d
       -0.024993204 -0.15918832 0.07469237 0.052919436
000200 4a 56 df bc 9e 01 26 bd fb af ad bd 62 2b 20 bd
       -0.027262826 -0.040528886 -0.08480831 -0.039103873
000210 aa 2a 73 3c 7f 22 a3 bd 35 6f 0b bc 89 33 90 3d
       0.014841715 -0.07965564 -0.008510401 0.070410796
000220 96 61 a1 3c 00 59 ab 39 da 8c 3c bd 37 bd b3 bc
       0.019699853 0.00032681972 -0.046032764 -0.02194081
000230 43 ea bf bd ad 9a 88 bd 46 bc 47 3c 0d 0f ab 3c
       -0.09370854 -0.06670127 0.012190884 0.0208812
000240 ea 3d a5 3c b5 f2 94 bd 18 93 ea 3a 72 5c 90 bd
       0.020171124 -0.07272855 0.001789662 -0.070488825
000250 ac f8 af bd fc 69 1e bd 63 f9 9a bd 68 4e 89 3c
       -0.08592352 -0.038675293 -0.07567098 0.01676102
000260 3c 81 94 b9 fa 58 14 3d 76 f4 3f bc a9 89 3c bd
       -0.00028325047 0.036217667 -0.011715999 -0.04602972
000270 2a 51 81 3b c5 78 e3 bb 08 16 d5 bd 4f 22 67 bd
       0.003946443 -0.006941887 -0.10404593 -0.056429204
000280 80 b2 b4 bd 10 4d 7f bd f8 b7 88 bb ee 50 9f 3d
       -0.08823109 -0.062329352 -0.0041723214 0.07779108
000290 4c 60 bd 3c 2d 06 84 bd 91 ef 58 bb 0d ca 1b bd
       0.023117207 -0.064464904 -0.0033101777 -0.038034488
0002a0 b7 83 02 3a 5b 04 bb bd b2 7c 33 bc b2 89 3a bb
       0.00049787335 -0.0913169 -0.010955023 -0.002846342
0002b0 8a 11 4b 3c a3 57 a5 3d 24 68 5c 3d 5c ad a8 bd
       0.012394318 0.08073356 0.053810254 -0.08236191
0002c0 b7 19 96 3d dc 01 a2 bd 49 17 8c bd a6 27 aa 3c
       0.073291235 -0.07910511 -0.06840379 0.020770859
0002d0 95 dc bb bc 77 a2 27 3d b7 14 89 bc 75 0c 06 bd
       -0.02293233 0.040926423 -0.01673351 -0.032726724
0002e0 7a 09 5e 3d 40 e9 81 bd 1d 9a 70 bc 7d 9e 06 3c
       0.054208256 -0.06343317 -0.014685181 0.0082164975
0002f0 44 06 3c 3d e8 58 8b 3d 23 6f a9 3c d0 9f 81 bd
       0.045904413 0.06804067 0.020682877 -0.0632931
000300 9e eb 37 3d 53 50 61 3d e0 c7 42 bd 92 1f f5 3b
       0.044902436 0.055008244 -0.047553897 0.00748057
000310 94 a9 11 3a 23 c3 be bc 13 bf 8e 3b 12 4a 39 bd
       0.000555658 -0.023286408 0.004356274 -0.045236655
000320 aa 40 27 bd bc 41 29 bb a8 6a 8b bc 91 ca a9 bd
       -0.040833153 -0.0025826534 -0.017018631 -0.082905896
000330 6e b5 9d bd 74 3c bb 3c 5b 27 aa bd e0 ab 0d 3b
       -0.077006206 0.022855975 -0.08308288 0.0021617338
000340 18 e7 43 3d 67 a1 11 3d e8 19 2c 3d 1e 51 cb 3c
       0.04782781 0.035554316 0.042016894 0.024818953
000350 8d 25 26 3d 45 54 9c bd 40 4f 79 3d 1d ed a6 bd
       0.040563155 -0.07633261 0.060866594 -0.081506945
000360 b1 6d 9a bd cb 21 69 bd 38 c4 42 3d 62 1e 25 3d
       -0.07540453 -0.056916993 0.04755041 0.04031218
000370 2a ef 7a ba 3f c5 16 3d 07 d1 c9 bd 41 a7 ac bd
       -0.00095723814 0.036809202 -0.09854322 -0.08430339
000380 ba b3 cd 3b 86 b6 1d bd 9f ca e2 3c bd 3b 30 bd
       0.0062775286 -0.038504146 0.027684508 -0.04302572
000390 75 bb 1e 3d 94 a9 bd bd 61 1b b8 3c 4d e0 cb 3c
       0.03875299 -0.0926086 0.022473993 0.024887228
0003a0 39 53 8a bd 85 a7 3e 3d 05 02 00 3d 6b 33 7f bd
       -0.06754155 0.046546478 0.031251926 -0.062304895
0003b0 47 0d 90 bd 69 0b 38 3d bd 29 27 bd db ab dc bb
       -0.070337825 0.044932757 -0.04081129 -0.006734354
0003c0 fa 18 a5 3c 1d 12 4c 3c 97 29 9c bd 87 54 81 3d
       0.020153511 0.01245549 -0.0762512 0.063149504
0003d0 62 00 d5 bb 85 f4 a5 bc 34 81 1c bd 88 1c 7a 3c
       -0.00650029 -0.020258198 -0.038209155 0.015265591
0003e0 60 f6 f9 bc 44 1c 27 3d 38 8d a2 3d a3 5c 44 3d
       -0.030512989 0.04079844 0.079370916 0.047939908
0003f0 a6 3b ce bc 39 00 a5 3d 2e d7 48 3d 6c 9f c5 bc
       -0.025174927 0.08056683 0.049033336 -0.02412387

model.3.bias f4 [64]
000000 b1 6f db 3d 7a 4e 88 bd 88 29 15 3e 49 a6 9f bc
       0.10714663 -0.06655593 0.14566624 -0.01948847
000010 9e cf 0f be 0a e4 9a 3d 67 e1 72 bc ac 12 0e be
       -0.14044043 0.07563026 -0.014824248 -0.1387431
000020 44 60 a6 b9 41 8e 36 bc 71 4f ed bc dc 94 2a 3e
       -0.0003173371 -0.011142314 -0.028968545 0.16658348
000030 6b c4 fa 3d f1 9c 30 3e bb 9c 3c 3d e4 7a 7f bd
       0.12244495 0.17247368 0.046047907 -0.062373057
000040 5f 50 bd bd fb 88 02 be 8f f9 d0 3d 1c 5a 65 3d
       -0.09243845 -0.12747566 0.102038495 0.055994138
000050 d4 a9 85 3d 3b 0f fd bc 46 35 2f 3e 79 ce 3d 3d
       0.06526533 -0.030891052 0.17110166 0.046339486
000060 51 f5 09 3e 0f 8e 03 3e a2 41 86 3c ab 1f 44 3e
       0.13472487 0.1284716 0.016388718 0.19152705
000070 01 27 a3 3d cf 00 91 bd 3c 0e eb bb 5b 9b 85 bc
       0.07966424 -0.07080232 -0.0071733277 -0.01630943
000080 70 7e 60 bd 66 8a 21 3e b6 0d e2 3d 4c 53 9a bd
       -0.05480808 0.15775451 0.110377714 -0.07535419
000090 96 2d 76 bd 95 c7 09 3d 2a 4e 8f 3c a3 9a b9 bd
       -0.060102068 0.033637602 0.017493326 -0.09062698
0000a0 cc 15 9a 3c 99 40 67 3c d7 bb 17 bd 31 de 92 be
       0.018809222 0.014114522 -0.037044372 -0.28685144
0000b0 9c 10 9b bc 85 ee df bd 74 32 98 3c c4 ed 52 3d
       -0.018928818 -0.10934166 0.018578745 0.051496282
0000c0 47 fd 49 3d a1 2c cc 3d 21 56 7e 3d f0 03 8f 3d
       0.04931381 0.0996945 0.062093858 0.06983173
0000d0 dc 14 e7 3d ed c5 88 bb e3 88 51 3c b6 56 9d 3b
       0.112832755 -0.004173985 0.012788984 0.0048015965
0000e0 3e 40 d6 bd 7c 86 b6 3d 94 7c 3c 3d 89 df 21 3e
       -0.10461472 0.089123696 0.046017244 0.15807928
0000f0 ea 69 bd 3d 8a f2 06 bd b4 8b 73 bd 71 ee 11 bd
       0.09248717 -0.032946147 -0.059459403 -0.035627786

model.6.weight f4 [1, 64]
000000 e1 c4 e6 3d 39 0f 37 bd 5f cb 8d 3d 78 2c 91 bb
       0.112680204 -0.04469225 0.069235556 -0.00443035
000010 1c 98 28 bd 95 72 7c 3d 5d 1c d1 3d 34 68 3b bd
       -0.041160688 0.06163271 0.10210488 -0.045753673
000020 94 e1 1b bd 80 f8 be 3d fe c4 3b bd e8 63 89 3d
       -0.038056925 0.09324741 -0.045842163 0.06708509
000030 17 7b a1 3d 60 cc 68 3d bd f7 8e 3d 34 b7 62 bd
       0.07884806 0.056835532 0.06980846 -0.055350497
000040 5d 6c eb ba c7 96 43 bd cf 8c 84 3d 4e 3a d2 3b
       -0.0017961372 -0.047751214 0.064721696 0.006415642
000050 44 d8 8e bc 0b 45 75 bd f9 0f e7 3d a8 e6 5a 3d
       -0.017437108 -0.059880298 0.112823434 0.053442627
000060 ec c5 a0 3d 4e 9d b3 3d 14 a1 6a 3d 3a 44 cf 3d
       0.078502506 0.08770238 0.057282522 0.10120435
000070 f2 86 6c 3d 99 2e 84 bc 98 05 58 3d d1 6a c7 bd
       0.05774588 -0.0161355 0.05273971 -0.097371705
000080 1e 13 4a bd d2 67 f6 3d 3b 41 01 3e 3b f6 45 bd
       -0.049334638 0.12031521 0.1262254 -0.048330527
000090 a7 86 0b bd 90 83 a3 3d 4d aa ca bd 8f c6 2e 3d
       -0.03406396 0.07984078 -0.098957635 0.04266983
0000a0 10 90 cd bd 9f 9e 23 bd c3 6e 53 bd 17 63 34 3d
       -0.10037243 -0.039946195 -0.051619302 0.044039812
0000b0 1d 8c 91 bc c1 ae 5f bd db cc 99 3d c9 0d d2 bc
       -0.017767007 -0.054610018 0.07509776 -0.025641339
0000c0 d5 62 dd bd 7e dd 9d 3d 16 90 d6 3d f5 43 f3 bb
       -0.10809866 0.07708262 0.10476701 -0.0074238726
0000d0 f9 07 58 3d 26 70 56 3d 3d dd df bb d4 1a 8e bb
       0.05274198 0.052353047 -0.0068317936 -0.0043366943
0000e0 1a d1 b8 bd 2b de a5 3d 43 ad 49 3d 82 78 b8 3d
       -0.09024258 0.08099016 0.0492375 0.0900736
0000f0 93 f5 80 3d 43 08 15 bd 13 bd 36 bd 37 b5 55 3d
       0.062968396 -0.036384832 -0.04461391 0.052174773

exp_avg f4 [128, 131]
000000 b2 03 07 b7 d6 9c 3b 37 84 0c 30 36 54 c1 ce 38
       -8.047487e-06 1.1182585e-05 2.6233329e-06 9.8588556e-05
000010 42 e6 b3 35 fc e8 14 34 df b6 8c 32 14 98 a5 31
       1.3403553e-06 1.3868333e-07 1.6381305e-08 4.8194213e-09
000020 fd db 6d 35 41 d4 62 36 d7 9a 69 30 7b 03 85 34
       8.8609505e-07 3.3800172e-06 8.4984947e-10 2.4775713e-07
000030 82 8d f0 34 96 1e fd b4 10 65 4a 34 b6 5d 8c 35
       4.4806444e-07 -4.7147176e-07 1.8849482e-07 1.0458086e-06
000040 54 31 9f b6 a4 e7 08 36 52 fd 08 33 a3 f5 39 b4
       -4.744312e-06 2.0400412e-06 3.189536e-08 -1.731883e-07
000050 bd 71 53 b3 42 fc 4e 35 7a 53 b7 b1 87 34 ef 35
       -4.923071e-08 7.7108064e-07 -5.335491e-09 1.7822175e-06
000060 d4 10 9d 35 4a dc 87 36 f7 46 0e 35 63 fa 41 33
       1.1702309e-06 4.0489585e-06 5.300239e-07 4.516404e-08
000070 7f 02 85 34 1c d8 1f 36 98 1f a1 34 2d 2b 03 37
       2.4774997e-07 2.3818639e-06 3.0011574e-07 7.818261e-06
000080 0d 8e 03 b5 64 b0 43 39 21 26 a1 35 4b 4c 09 36
       -4.9008014e-07 0.0001866236 1.2006532e-06 2.0459e-06
000090 f3 02 1f 37 f9 ea 10 36 d2 28 8d 39 8e 3e 82 b6
       9.477825e-06 2.1594444e-06 0.0002692403 -3.8815842e-06
0000a0 49 ee 42 37 70 4a 61 37 ea a3 76 b7 a1 5d 7e 36
       1.1618781e-05 1.3428376e-05 -1.4700907e-05 3.7903449e-06
0000b0 2c ae 29 37 54 f7 c4 36 03 80 2a 38 23 03 d4 37
       1.01137375e-05 5.870048e-06 4.065038e-05 2.527383e-05
0000c0 17 dd b3 38 11 ff 01 37 1f dc 07 36 db 93 e0 b6
       8.576566e-05 7.748386e-06 2.0244695e-06 -6.692933e-06
0000d0 22 77 11 b6 ec 00 d0 37 57 54 98 38 b0 22 1a 37
       -2.1676028e-06 2.4795962e-05 7.263634e-05 9.187192e-06
0000e0 8f 71 d0 38 2a 90 1e b7 74 81 f2 b6 cb 6b 42 36
       9.939365e-05 -9.4511e-06 -7.2272323e-06 2.8970996e-06
0000f0 c2 d4 74 37 35 1a cc b6 25 7b 40 34 50 a0 87 36
       1.459307e-05 -6.0827247e-06 1.7926193e-07 4.0419764e-06
000100 1a 92 b4 36 78 b3 31 b6 ca 14 2a b5 ba 02 b9 b6
       5.3814265e-06 -2.647952e-06 -6.3360187e-07 -5.513747e-06
000110 c6 d4 73 36 5d 0d db b4 f9 31 af 37 c2 33 21 37
       3.6333672e-06 -4.0801652e-07 2.0884896e-05 9.608399e-06
000120 8a b3 11 36 62 f8 b8 36 ae 80 a5 37 23 17 9e b5
       2.171119e-06 5.512543e-06 1.9729454e-05 -1.1778651e-06
000130 09 a0 4a 36 67 ef 74 38 3a 7e 2c 37 9e a2 b9 36
       3.0193498e-06 5.8397094e-05 1.0281388e-05 5.532361e-06
000140 d5 96 87 b4 16 c8 3c 37 37 13 4f b6 31 ad 80 36
       -2.5255454e-07 1.1252259e-05 -3.0856588e-06 3.8348594e-06
000150 0e 81 13 b6 94 99 ea b5 e4 00 cc 36 8c a3 82 36
       -2.1979827e-06 -1.7479056e-06 6.0797774e-06 3.8933413e-06
000160 d2 23 da 35 63 8c 43 b5 3d 24 21 34 a0 2e 3f b7
       1.6252691e-06 -7.284745e-07 1.5007477e-07 -1.1395343e-05
000170 c1 49 90 36 fd eb 2b 35 dd 9f 05 36 62 36 90 36
       4.3001205e-06 6.404587e-07 1.9911597e-06 4.2978654e-06
000180 3c 7e 51 b7 bd ec 2a 36 e0 ac 5f 38 51 2c e9 b7
       -1.2486762e-05 2.5469774e-06 5.3328346e-05 -2.77964e-05
000190 7b 0a 5b b6 0b a6 84 b6 74 cd 1a 37 92 7b 52 36
       -3.2639643e-06 -3.9532365e-06 9.226951e-06 3.1364366e-06
0001a0 7e be c1 35 3e ae e4 b6 00 00 00 00 89 60 61 b6
       1.4435061e-06 -6.815214e-06 0.0 -3.3583804e-06
0001b0 08 56 f8 35 f3 8d 27 36 87 73 30 37 fc 83 db 38
       1.8502478e-06 2.4967565e-06 1.0517316e-05 0.00010467318
0001c0 29 a0 4a 17 f5 e3 20 b8 9c 85 ca 38 7f 2f d0 37
       6.547187e-25 -3.8359274e-05 9.656997e-05 2.481765e-05
0001d0 00 00 00 00 9b bf b9 38 e0 e3 cf 38 48 26 28 37
       0.0 8.857177e-05 9.912974e-05 1.0022493e-05
0001e0 3f 90 96 38 da 5b c8 38 c8 94 2d 37 e0 56 4b 3c
       7.179425e-05 9.553852e-05 1.0346244e-05 0.012410849
0001f0 9a b1 2b 3c e1 f7 2d 3c 09 85 27 3c 51 8d 9d 3c
       0.010479355 0.010618181 0.010224589 0.019232424
000200 05 17 9d 3c 94 90 87 3c 04 40 0f 3e 00 00 00 00
       0.019176016 0.016548432 0.13989264 0.0
000210 6b be f8 b9 70 8f de b8 c9 6a ac ba 00 00 00 00
       -0.00047444119 -0.00010612502 -0.0013154383 0.0
000220 00 00 00 00 00 00 00 00 00 00 00 00 00 00 00 00
       0.0 0.0 0.0 0.0
000230 00 00 00 00 22 89 9a b9 00 00 00 00 00 00 00 00
       0.0 -0.0002947534 0.0 0.0
000240 00 00 00 00 00 00 00 00 00 00 00 00 00 00 00 00
       0.0 0.0 0.0 0.0
000250 00 00 00 00 00 00 00 00 00 00 00 00 00 00 00 00
       0.0 0.0 0.0 0.0
000260 00 00 00 00 b8 35 8d b9 00 00 00 00 1f e3 67 87
       0.0 -0.0002693364 0.0 -1.7445253e-34
000270 00 00 00 00 00 00 00 00 a7 b5 c5 13 f4 08 bc 07
       0.0 0.0 4.9908915e-27 2.8292358e-34
000280 00 00 00 00 1c 8b 31 b9 ca 86 84 38 bc 01 bc 38
       0.0 -0.00016931858 6.319357e-05 8.9648616e-05
000290 90 95 48 39 ca 86 84 38 7e 14 a7 b8 6c df 13 ba
       0.00019129203 6.319357e-05 -7.9669975e-05 -0.00056408974
0002a0 00 00 00 00 b8 35 e9 39 b3 c1 0b b6 2f 23 27 ba
       0.0 0.00044481247 -2.0825362e-06 -0.0006375787
0002b0 7b 1a 80 3a 3b df 18 3a 56 91 9f ba 7d 5d 2a 39
       0.0009773517 0.0005831604 -0.0012174051 0.0001624729
0002c0 0e c8 53 39 00 00 00 00 4c 20 33 b8 f5 74 94 39
       0.00020197054 0.0 -4.2707004e-05 0.000283159
0002d0 66 0b 3c 07 6d 78 f5 b8 34 96 ff ba 1a 99 96 b8
       1.4146898e-34 -0.000117049414 -0.001949972 -7.181075e-05
0002e0 a1 b1 f2 b9 d7 ef 96 39 e5 49 f0 3a 14 0b 0d 3a
       -0.0004629018 0.00028788924 0.0018332569 0.0005380374
0002f0 a4 de 8c 37 91 91 ef b9 a2 a3 5d 39 d0 0c 11 a5
       1.6792976e-05 -0.00045694088 0.0002113716 -1.2581086e-16
000300 00 00 00 00 00 00 00 00 00 00 00 00 b0 c6 58 a4
       0.0 0.0 0.0 -4.700583e-17
000310 00 00 00 00 0e c8 53 39 00 00 00 00 00 00 00 00
       0.0 0.00020197054 0.0 0.0
000320 a1 f7 08 3a 00 00 00 00 00 00 00 00 00 00 00 00
       0.0005224888 0.0 0.0 0.0
000330 00 00 00 00 8e 71 89 07 4c 20 33 b8 00 00 00 00
       0.0 2.068021e-34 -4.2707004e-05 0.0
000340 00 00 00 00 8b 39 08 b7 a7 b5 c5 13 72 de 1c b9
       0.0 -8.1196295e-06 4.9908915e-27 -0.00014960187
000350 c0 b6 98 39 00 00 00 00 ff 4e 2a 87 00 00 00 00
       0.0002912786 0.0 -1.2812593e-34 0.0
000360 38 2d b3 07 00 00 00 00 24 49 06 b6 00 00 00 00
       2.6959504e-34 0.0 -2.001013e-06 0.0
000370 da 15 fa b8 db ae 29 17 0c e8 ab 38 a3 18 86 b9
       -0.00011924999 5.4827544e-25 8.1971375e-05 -0.00025576827
000380 be 1a 0e b9 cb 9c 99 b8 7a 0a 31 b9 c9 c4 39 b7
       -0.00013552138 -7.3248135e-05 -0.00016883938 -1.1072677e-05
000390 78 3d a1 39 ee 3b 84 3a 9f ba 5a 38 70 4c c7 b9
       0.0003075411 0.0010088661 5.2149055e-05 -0.00038013188
0003a0 5e 30 33 3a 66 a2 0e 3a 39 58 36 39 b6 19 42 39
       0.00068355154 0.00054410694 0.00017389738 0.0001851086
0003b0 3d db f0 b9 00 00 00 00 fe 20 fb ba b6 f3 21 39
       -0.00045939712 0.0 -0.0019159613 0.00015444946
0003c0 a7 2d 0d 17 94 18 4d b8 00 e5 83 b7 ab 69 20 3a
       4.561718e-25 -4.88987e-05 -1.5723053e-05 0.00061192614
0003d0 3b 4a d4 b9 00 00 00 00 00 00 00 00 00 00 00 00
       -0.00040491097 0.0 0.0 0.0
0003e0 1c f8 0f bb 74 81 1c 3b 85 8b 8a ba fc ff 26 39
       -0.0021967953 0.002388087 -0.0010570145 0.00015926355
0003f0 b2 2d 2e 39 02 f1 71 3a 3c af b6 3d f0 be 9a 3c
       0.00016610956 0.00092293334 0.08920142 0.018889874

exp_avg_sq f4 [128, 131]
000000 3d f6 9f 32 56 d5 b4 33 d0 99 27 33 d8 3a 1c 35
       1.8622012e-08 8.420709e-08 3.902261e-08 5.820016e-07
000010 c5 18 0a 30 cd 95 8c 2f d1 c7 07 32 19 ee f4 30
       5.0239307e-10 2.5572292e-10 7.903467e-09 1.7821008e-09
000020 22 23 1a 32 89 c3 91 31 fe 65 0e 32 87 cd 46 31
       8.971968e-09 4.242285e-09 8.288678e-09 2.892962e-09
000030 c0 05 90 31 cb c4 94 31 01 c8 88 31 54 f1 ae 31
       4.1916053e-09 4.3297397e-09 3.9808588e-09 5.0915023e-09
000040 6d 06 7f 31 08 2a f9 30 82 04 e3 30 15 e3 91 31
       3.7111036e-09 1.812908e-09 1.6517705e-09 4.2458717e-09
000050 f7 40 c4 30 ac 0d 2e 2f cc 67 39 31 70 7c 01 32
       1.4279341e-09 1.5830065e-10 2.6980045e-09 7.537082e-09
000060 70 ed 42 31 a8 7a 5e 30 04 07 1e 31 92 fc 18 31
       2.8365683e-09 8.0937435e-10 2.2996014e-09 2.226248e-09
000070 89 1f 0d 31 e1 03 50 32 dc 92 aa 31 eb 84 c2 30
       2.0536126e-09 1.2108075e-08 4.964347e-09 1.4153135e-09
000080 c4 c8 ee 31 1a 3f 1a 36 02 c9 32 33 b3 3e 06 33
       6.949536e-09 2.2984518e-06 4.162667e-08 3.125633e-08
000090 07 5d 3a 33 0d c0 94 32 e4 43 95 36 9a 17 6d 34
       4.3391108e-08 1.7316802e-08 4.4484495e-06 2.2080931e-07
0000a0 68 da 30 34 6b f0 0b 34 d8 92 49 33 4b a5 e1 33
       1.6470733e-07 1.3032847e-07 4.6932513e-08 1.05074456e-07
0000b0 f0 91 28 34 2a 8f 99 34 a8 ed e6 33 43 14 cc 33
       1.5699311e-07 2.8602636e-07 1.0753439e-07 9.503176e-08
0000c0 41 a3 09 34 b5 c9 26 34 4d 52 fb 33 f9 28 66 34
       1.281851e-07 1.5533335e-07 1.1703069e-07 2.1435325e-07
0000d0 83 97 69 34 6a 6d 8b 34 33 98 81 34 0c 36 f2 34
       2.1754936e-07 2.5970377e-07 2.4138862e-07 4.5115337e-07
0000e0 3c ed f8 34 c6 7b 3e 34 95 5d 52 32 85 ff 8f 32
       4.636621e-07 1.7740157e-07 1.2244887e-08 1.6763588e-08
0000f0 9d 8e 16 33 9d 1b 57 33 2a 72 33 33 90 4e 83 33
       3.5054303e-08 5.0083703e-08 4.1780517e-08 6.114453e-08
000100 db 93 64 33 74 54 73 33 58 85 41 33 72 b4 71 33
       5.321986e-08 5.6654656e-08 4.505759e-08 5.62763e-08
000110 71 c2 34 33 b4 00 1d 33 a5 c7 8d 32 74 10 2e 32
       4.208636e-08 3.655505e-08 1.6505348e-08 1.0131874e-08
000120 eb ea 98 32 5b 66 fc 31 dd 22 0c 33 7d 3d f3 32
       1.7801957e-08 7.3458017e-09 3.2627998e-08 2.8316885e-08
000130 02 40 ae 32 a0 2e dd 32 a2 b3 9c 32 e0 d4 fb 32
       2.0285373e-08 2.5748989e-08 1.8242478e-08 2.931705e-08
000140 46 73 87 33 d3 6a c8 32 d8 f5 4c 33 5d 47 32 33
       6.3073955e-08 2.3331642e-08 4.7721045e-08 4.150876e-08
000150 02 0a 2f 33 88 e4 5a 33 73 c3 9d 32 2a be 1b 33
       4.0754465e-08 5.096493e-08 1.8366086e-08 3.6261703e-08
000160 c6 97 d7 32 db 50 c2 32 57 86 8c 32 cf 21 76 33
       2.5098313e-08 2.2621341e-08 1.6359236e-08 5.7307087e-08
000170 41 18 20 33 af 48 dd 32 03 cd 1e 33 a9 00 1b 33
       3.7274962e-08 2.5760839e-08 3.69737e-08 3.608935e-08
000180 6c a1 6a 33 92 a7 fd 32 08 a6 f1 32 e8 03 8b 32
       5.4629183e-08 2.9529279e-08 2.8131595e-08 1.6183506e-08
000190 ea e1 0d 33 57 43 5d 32 72 09 65 33 0b ce 1d 32
       3.303459e-08 1.2879204e-08 5.3326808e-08 9.1854515e-09
0001a0 36 bf 89 31 bf fa 8d 32 00 00 00 00 d4 53 1e 33
       4.008963e-09 1.6528586e-08 0.0 3.6863483e-08
0001b0 2b 1d de 32 6d 5a 67 32 19 d0 8e 32 6e 25 05 34
       2.5857466e-08 1.346653e-08 1.6625608e-08 1.2400207e-07
0001c0 f4 11 02 33 bd e8 dd 34 76 10 8e 35 2a 86 ac 34
       3.0284312e-08 4.1333797e-07 1.0584615e-06 3.2135114e-07
0001d0 00 00 00 00 0f fa ab 35 db 65 9e 35 dd 86 0f 35
       0.0 1.281327e-06 1.1801561e-06 5.3467903e-07
0001e0 11 0c 04 35 c4 28 c9 34 18 58 bc 34 08 a7 24 3d
       4.919139e-07 3.7468828e-07 3.5081825e-07 0.040198356
0001f0 d0 36 10 3d 3b 60 1a 3d 27 62 24 3d f6 34 1d 3d
       0.035208523 0.03768943 0.040132668 0.038380586
000200 ea 6d 34 3d 0f e8 28 3d a4 2d 4c 40 00 00 00 00
       0.044050135 0.041236933 3.1902857 0.0
000210 70 f6 56 35 36 39 e4 33 b8 a6 1c 37 00 00 00 00
       8.0079826e-07 1.0627484e-07 9.337142e-06 0.0
000220 00 00 00 00 00 00 00 00 00 00 00 00 00 00 00 00
       0.0 0.0 0.0 0.0
000230 00 00 00 00 b2 d2 90 34 00 00 00 00 00 00 00 00
       0.0 2.697539e-07 0.0 0.0
000240 00 00 00 00 00 00 00 00 00 00 00 00 00 00 00 00
       0.0 0.0 0.0 0.0
000250 00 00 00 00 00 00 00 00 00 00 00 00 00 00 00 00
       0.0 0.0 0.0 0.0
000260 00 00 00 00 c7 2b 90 34 00 00 00 00 3d ae 87 31
       0.0 2.6853942e-07 0.0 3.9488257e-09
000270 00 00 00 00 00 00 00 00 72 03 12 33 49 5f a7 32
       0.0 0.0 3.3996407e-08 1.948469e-08
000280 00 00 00 00 25 d4 9f 33 16 ca 08 33 b1 f5 6a 34
       0.0 7.442603e-08 3.1848764e-08 2.188233e-07
000290 8b 27 c8 37 b4 79 5c 33 e2 6f 9d 34 be 8b 12 35
       2.3860272e-05 5.133343e-08 2.9324934e-07 5.459259e-07
0002a0 00 00 00 00 54 ef 26 38 0d fb 4d 36 71 e4 e2 36
       0.0 3.9800376e-05 3.0693511e-06 6.761919e-06
0002b0 28 b2 9c 36 17 fe 5a 36 f2 e0 45 36 c9 50 bf 34
       4.6699024e-06 3.2632431e-06 2.9486223e-06 3.56353e-07
0002c0 dd 2f 87 34 00 00 00 00 bf a2 73 34 80 d4 c0 34
       2.5180535e-07 0.0 2.2690345e-07 3.59174e-07
0002d0 9b b8 87 31 c1 29 01 36 77 13 af 35 ac 51 ca 35
       3.9500043e-09 1.9246802e-06 1.3044181e-06 1.5073942e-06
0002e0 ea 07 b5 34 65 d5 0e 37 c0 b4 d0 36 26 4b ae 36
       3.3719635e-07 8.513544e-06 6.219925e-06 5.1943525e-06
0002f0 3f 3d 91 33 ab 16 f3 35 7d 49 9a 34 94 ba 63 33
       6.763229e-08 1.8111508e-06 2.8738205e-07 5.3022248e-08
000300 00 00 00 00 00 00 00 00 00 00 00 00 5c 9f db 32
       0.0 0.0 0.0 2.5567424e-08
000310 00 00 00 00 cf eb 72 34 00 00 00 00 00 00 00 00
       0.0 2.2623793e-07 0.0 0.0
000320 4c 25 ad 34 00 00 00 00 00 00 00 00 00 00 00 00
       3.2250898e-07 0.0 0.0 0.0
000330 00 00 00 00 29 06 88 32 f6 a1 62 34 00 00 00 00
       0.0 1.5835285e-08 2.1106811e-07 0.0
000340 00 00 00 00 5a 14 7c 34 99 0f 1b 33 83 ec 34 34
       0.0 2.3476733e-07 3.6102936e-08 1.6849849e-07
000350 98 a1 bd 33 00 00 00 00 03 a7 5e 31 00 00 00 00
       8.830392e-08 0.0 3.2400187e-09 0.0
000360 98 71 76 32 00 00 00 00 63 5b fe 34 00 00 00 00
       1.4344913e-08 0.0 4.737768e-07 0.0
000370 b3 a0 c0 34 f7 2a a5 32 9f cd 75 35 0b fa 94 36
       3.587971e-07 1.9228066e-08 9.156883e-07 4.4398525e-06
000380 49 e9 03 36 cd a0 4e 34 35 b8 aa 35 12 3e d9 35
       1.965631e-06 1.9243744e-07 1.2719598e-06 1.6185825e-06
000390 b1 a4 17 35 d9 0f b6 35 f7 fc 1e 35 56 b5 46 35
       5.649154e-07 1.3564669e-06 5.92277e-07 7.4024626e-07
0003a0 c7 5f 01 35 be 9e c0 34 ed 0f ee 35 73 0a aa 34
       4.819562e-07 3.5878287e-07 1.7737017e-06 3.167257e-07
0003b0 87 5f 51 35 00 00 00 00 6c e7 ed 35 63 95 51 35
       7.799758e-07 0.0 1.7725229e-06 7.8075954e-07
0003c0 44 dd a7 33 76 9a 20 33 3f 1d 82 37 38 97 eb 36
       7.8167915e-08 3.7393384e-08 1.5510826e-05 7.02115e-06
0003d0 63 9c 53 36 00 00 00 00 00 00 00 00 00 00 00 00
       3.153248e-06 0.0 0.0 0.0
0003e0 dd 2d 3e 37 ca 20 3d 37 50 7f d9 36 91 b4 04 35
       1.1335561e-05 1.1272912e-05 6.481925e-06 4.943659e-07
0003f0 6b 11 1d 36 90 c8 87 37 f0 13 7f 3f 15 9b 59 3f
       2.3404962e-06 1.6186648e-05 0.996398 0.8500226

exp_avg f4 [128]
000000 be d1 44 39 90 95 48 39 38 52 0b 39 d0 72 67 39
       0.00018770152 0.00019129203 0.00013286702 0.00022072648
000010 cc 13 ba 39 f4 b0 14 02 50 33 3e 3a 49 83 9e ba
       0.00035491434 1.0924106e-37 0.0007255571 -0.0012093569
000020 d6 30 cf b9 eb 70 22 3a 14 20 0b bb 79 3f 85 ba
       -0.00039518502 0.00061966357 -0.0021228837 -0.0010166011
000030 f8 0b 2b 39 32 20 3e 3a a5 0c 1b 02 c8 ed a7 b8
       0.0001631229 0.0007252722 1.139123e-37 -8.007471e-05
000040 1c c7 06 bb d9 f5 e3 39 68 c5 c5 38 90 82 8d 39
       -0.0020565456 0.00043479985 9.430462e-05 0.00026990892
000050 cd 28 d2 b9 65 c0 17 02 dd 3c a3 3a 62 30 1d 02
       -0.0004008472 1.1148942e-37 0.0012454052 1.1548424e-37
000060 2f 95 3f 36 56 a8 62 ba 14 fe a4 b9 c8 55 4a 3b
       2.8548054e-06 -0.00086463 -0.0003146982 0.0030873884
000070 a2 1e 1c 3a 45 cf c0 3a 88 ce 9a 39 d0 48 ee b7
       0.00059554924 0.0014710209 0.00029527047 -2.8405717e-05
000080 50 8e e5 b7 7c 83 c8 38 18 4d 11 39 aa dc 1d 02
       -2.7365197e-05 9.561234e-05 0.00013856997 1.1597866e-37
000090 9e 3c 1d ba 14 67 f1 38 d4 9c 49 b9 74 12 05 3a
       -0.00059981074 0.00011510975 -0.00019227277 0.0005076297
0000a0 ca b0 b6 b9 1d ed 1c 3a 70 84 54 38 22 26 96 39
       -0.00034845463 0.00059862604 5.066808e-05 0.0002863864
0000b0 30 f2 22 39 00 00 00 00 28 18 92 b9 b2 87 9a ba
       0.00015539746 0.0 -0.00027865288 -0.0011789708
0000c0 10 17 7d ba 00 00 00 00 9e d6 60 b9 44 84 96 ba
       -0.00096546207 0.0 -0.00021442256 -0.001148351
0000d0 44 8d c6 b9 0a 26 0f 3a 88 da 47 39 e1 2d 35 3a
       -0.00037870754 0.00054606854 0.00019059528 0.00069114385
0000e0 68 7e 18 3a 00 00 00 00 18 72 f0 39 80 25 5f b7
       0.0005817176 0.0 0.00045861374 -1.3300567e-05
0000f0 b0 6f d1 b9 f0 13 4a b9 fd 53 5a 39 00 30 2c 38
       -0.000399468 -0.00019271648 0.00020821388 4.10527e-05
000100 a9 0b 97 ba d8 29 b2 ba 64 a5 19 3a 7b b4 f4 ba
       -0.0011523861 -0.0013592793 0.0005861132 -0.001866951
000110 47 08 0e ba e3 89 42 b8 09 4c b9 b9 54 55 8d ba
       -0.00054181035 -4.638162e-05 -0.000353426 -0.0010782876
000120 d5 d1 fa b9 df 15 5d 3b 0c ad 8f 37 b8 55 fb b9
       -0.00047840053 0.003373496 1.712751e-05 -0.00047938316
000130 f2 65 7c 3a 04 55 8f 34 77 ee 4a ba 00 00 00 00
       0.0009628228 2.6697683e-07 -0.00077412225 0.0
000140 be a1 03 3a dc 1f a7 ba 9c 36 13 3a 10 75 ae b8
       0.0005021355 -0.0012750584 0.00056157424 -8.318771e-05
000150 9f 57 7b ba 30 d9 fd b7 d6 86 b0 b9 e1 99 d6 b9
       -0.00095879467 -3.0261086e-05 -0.00033669797 -0.0004093191
000160 ec 42 64 b9 2e e4 8b 39 4a 27 b1 b9 a4 c5 a5 39
       -0.00021768705 0.00026682153 -0.00033789343 0.00031618506
000170 b4 85 8a 3a 06 4c 1e ba 6d d0 d4 b9 b6 a2 b4 35
       0.0010568411 -0.000603855 -0.0004059108 1.34584e-06
000180 00 43 f5 36 10 2a 3b b9 3a 1b a7 3a e6 5c 2b 3b
       7.309369e-06 -0.00017849379 0.0012749203 0.00261479
000190 0a 59 1d 3b 4e 33 e9 b8 50 71 33 ba 30 d5 1f 39
       0.002400937 -0.00011119862 -0.0006845193 0.0001524284
0001a0 50 c4 02 b8 60 82 67 ba e5 b0 67 3b 30 94 7b 39
       -3.1177246e-05 -0.0008831378 0.003535324 0.0002399243
0001b0 b9 cc 6c 3a 1c 2d b2 39 08 a0 43 39 db 56 c4 ba
       0.00090331916 0.00033984415 0.00018656265 -0.0014979498
0001c0 00 e2 a5 ba e8 c9 08 b9 83 0f c8 ba 1e 34 de b9
       -0.0012655854 -0.00013045187 -0.0015263412 -0.0004238197
0001d0 b0 0b e4 b9 c4 d6 f1 ba dd cb 2a ba 1e 81 ce 39
       -0.00043496257 -0.0018450846 -0.00065153633 0.00039387582
0001e0 8e 14 ae ba 04 a1 09 ba 0b a0 08 ba 57 b4 78 3a
       -0.0013281272 -0.00052501285 -0.00052118365 0.0009487322
0001f0 d6 5e 1b 3a 2d be 86 3b 20 db 43 39 54 27 a8 3a
       0.00059269124 0.004112026 0.0001867828 0.0012829104

exp_avg_sq f4 [128]
000000 6b ce 19 36 8b 27 c8 37 42 5f 8d 37 c7 3f 3a 37
       2.2918928e-06 2.3860272e-05 1.6852868e-05 1.1101313e-05
000010 f5 02 6b 37 a7 aa 61 2c 7c 40 4c 35 69 20 85 37
       1.400778e-05 3.2069154e-12 7.608976e-07 1.5869928e-05
000020 da a3 27 37 e3 f8 c1 37 35 b0 92 38 82 cf e2 36
       9.992125e-06 2.312329e-05 6.9946436e-05 6.759482e-06
000030 0f 9c 2a 36 ae 2d 6b 37 cd 31 07 30 9a fe fe 34
       2.5422812e-06 1.4017727e-05 4.9183485e-10 4.7496434e-07
000040 99 30 d5 37 32 51 d4 36 fe 1c a0 36 01 ed 35 38
       2.5414209e-05 6.3275447e-06 4.7717467e-06 4.337449e-05
000050 66 94 d4 36 78 28 1f 2e 69 d4 c2 37 b7 8e c8 2e
       6.335368e-06 3.6188358e-11 2.3225513e-05 9.120298e-11
000060 ee 11 b2 32 a5 fd db 37 2f e0 6c 38 e3 bd 1c 39
       2.073008e-08 2.6224947e-05 5.6475572e-05 0.00014948058
000070 c5 ad 7f 37 11 0f 85 38 80 89 4b 37 b1 da c0 34
       1.5239643e-05 6.3447405e-05 1.2131757e-05 3.5921906e-07
000080 5d 17 13 36 f7 09 38 37 22 3e 25 37 c6 a3 85 2f
       2.1918306e-06 1.0969575e-05 9.849233e-06 2.4308927e-10
000090 7e 04 c7 37 be 7e a6 37 96 ad c7 37 3a 77 8d 38
       2.372474e-05 1.9847761e-05 2.380348e-05 6.7456116e-05
0000a0 62 20 39 36 cf 02 e9 36 33 e7 4a 37 03 24 c7 37
       2.7585997e-06 6.944268e-06 1.20939685e-05 2.3739418e-05
0000b0 19 08 df 37 00 00 00 00 70 e8 b1 37 0d 10 e7 37
       2.6587442e-05 0.0 2.1208281e-05 2.754482e-05
0000c0 e1 ee 3b 38 00 00 00 00 2d e0 07 37 c6 3f b9 37
       4.4806748e-05 0.0 8.098822e-06 2.2083415e-05
0000d0 64 4a 43 38 36 4c 57 38 18 12 ec 38 25 49 0a 37
       4.6560905e-05 5.133097e-05 0.00011256727 8.242471e-06
0000e0 b6 33 1b 38 00 00 00 00 59 9c cf 38 57 31 0e 37
       3.700304e-05 0.0 9.899651e-05 8.475347e-06
0000f0 23 28 ab 38 33 16 97 36 92 81 50 36 f9 64 03 38
       8.1613915e-05 4.502735e-06 3.1069835e-06 3.1326872e-05
000100 16 03 a2 37 7b c1 16 37 39 7b 90 38 e4 d5 b6 37
       1.9313342e-05 8.985745e-06 6.889407e-05 2.1795691e-05
000110 02 55 08 37 61 c8 a9 34 b7 c4 70 37 00 9a a8 38
       8.126024e-06 3.1624498e-07 1.4350916e-05 8.039549e-05
000120 a2 7a c6 35 71 fc 1f 37 20 79 9f 35 d2 f4 bf 37
       1.478784e-06 9.535915e-06 1.1881675e-06 2.2882978e-05
000130 ef 3e 60 37 ff ac d1 31 47 97 0e 38 00 00 00 00
       1.3366093e-05 6.102368e-09 3.3996326e-05 0.0
000140 d3 ff ed 38 8b 7a 26 39 ac d1 b9 35 1c 56 38 37
       0.000113486916 0.00015876644 1.3844597e-06 1.09873035e-05
000150 2d fe a3 36 b3 72 07 36 b5 70 46 36 e8 21 b2 36
       4.8873685e-06 2.0183331e-06 2.9569903e-06 5.3087606e-06
000160 58 08 44 37 16 01 69 36 b3 0e da 37 7d ec b4 36
       1.1684453e-05 3.4720338e-06 2.599447e-05 5.391949e-06
000170 29 13 ab 37 e8 64 cd 35 ec 5d 53 36 63 92 aa 32
       2.039371e-05 1.5303058e-06 3.149612e-06 1.9857174e-08
000180 b7 85 a6 37 a3 24 20 38 5a 57 89 36 98 79 8a 37
       1.9851008e-05 3.8181093e-05 4.0930872e-06 1.6507503e-05
000190 26 6c e5 38 b6 74 8e 35 49 88 c1 36 18 f1 a4 36
       0.00010939715 1.0613792e-06 5.767714e-06 4.915648e-06
0001a0 63 64 d4 36 e9 5c c5 37 c2 b2 39 37 29 a7 2e 37
       6.329779e-06 2.3527495e-05 1.106848e-05 1.0410128e-05
0001b0 56 06 fe 37 4f ea 2b 38 6b fb fa 37 b6 03 26 37
       3.028211e-05 4.0987794e-05 2.9919398e-05 9.895235e-06
0001c0 00 48 f7 37 5a 7b ce 36 ad 9c c5 37 c1 6a a1 36
       2.9478222e-05 6.1536384e-06 2.3557188e-05 4.8106017e-06
0001d0 a1 6b a0 38 2c 4a 08 39 af 65 8b 36 86 da 07 37
       7.649442e-05 0.00012997602 4.1543603e-06 8.097506e-06
0001e0 67 e2 cf 37 70 a1 9e 36 b8 98 07 37 c2 8c d6 36
       2.478175e-05 4.7275607e-06 8.082185e-06 6.3940834e-06
0001f0 97 63 d1 36 22 20 bf 37 57 c9 7c 36 5e 13 57 38
       6.240279e-06 2.2783937e-05 3.7668121e-06 5.127803e-05

exp_avg f4 [64, 128]
000000 f6 96 cf 3a dd f1 11 3c 58 a7 6f 3c c8 2c 46 bc
       0.0015837837 0.008907762 0.0146273 -0.012095638
000010 48 5f 91 3c 00 00 00 00 e4 f0 aa bc c3 8a 19 3c
       0.017745629 0.0 -0.020866819 0.009371462
000020 d0 43 8c 3c 1e bb db 3d 84 c4 0f bd 6c e6 aa 3b
       0.01712218 0.10729049 -0.03509952 0.0052154567
000030 46 6e 84 3d 89 c5 1a bc 4c fe 18 82 c8 78 90 ba
       0.064663455 -0.00944651 -1.1240176e-37 -0.0011022324
000040 68 ae ef bc 80 0a c9 ba b4 7d d7 3c 17 d9 87 3b
       -0.029257968 -0.0015338212 0.026305057 0.004145752
000050 74 f2 42 3d 30 62 1c 82 8c 28 03 bd 01 9a 12 82
       0.047594503 -1.1489248e-37 -0.03202109 -1.0770583e-37
000060 83 5a 96 bb 80 ac 2f bb fe 56 97 3c f8 b0 26 3d
       -0.0045884266 -0.00268057 0.018474098 0.040696114
000070 f6 3c bb 3d f4 a1 aa 3c c8 d4 e3 3d 7f c3 e7 39
       0.09142487 0.020829178 0.11124569 0.0004420541
000080 a0 12 10 ba 0e a8 d0 3a 48 b4 8e 3d 75 c4 1c 82
       -0.00054959394 0.0015919225 0.0696798 -1.151745e-37
000090 cf f1 0a 3d e2 7d 8a 3c dc 1c e1 3c 88 a6 1e 3c
       0.033922013 0.016905729 0.027479582 0.009683259
0000a0 41 06 91 bc 83 a0 31 3d 80 b8 3c 3c c4 80 92 bc
       -0.017703177 0.043365967 0.011518598 -0.017883666
0000b0 9d f0 5f 3c 00 00 00 00 32 42 76 3d 30 bc e6 bb
       0.0136682065 0.0 0.060121723 -0.0070414767
0000c0 03 aa e6 ba 00 00 00 00 54 d3 7e bd 06 09 de bc
       -0.0017598275 0.0 -0.062213257 -0.027103912
0000d0 36 4f af bc 3c 4f de 3b 46 b6 07 bc 70 84 ae bc
       -0.021400075 0.006784348 -0.0082832035 -0.021303385
0000e0 88 57 4f bc 00 00 00 00 b5 98 32 3d 0e 91 37 3d
       -0.012655146 0.0 0.043602664 0.04481607
0000f0 f8 be 72 3c 68 3b ce 3c 9e af 75 3d f2 39 db 3c
       0.014816038 0.025174811 0.059981935 0.026761029
000100 48 d5 74 bd 5c 6e 53 3c 08 da 84 3c 8c f5 eb 3b
       -0.059773713 0.01290473 0.016217247 0.0072009023
000110 7e a4 8d b8 d6 e0 51 bb 20 47 15 bb 3b cd 47 bc
       -6.754043e-05 -0.0032024882 -0.002277799 -0.012194927
000120 81 b8 8e 3b 08 ed 8e 39 88 f2 57 bb 4a d7 19 bd
       0.0043554907 0.00027260953 -0.0032950956 -0.03755883
000130 47 09 0e bd 4a b3 b4 36 20 bd 05 3d 00 00 00 00
       -0.034676816 5.38529e-06 0.032651067 0.0
000140 aa 8b fe 3c b6 00 e7 bc da 0b 85 bb e8 94 2a bc
       0.031072456 -0.028198581 -0.0040602507 -0.010411479
000150 e4 f7 52 bc 12 00 88 bb 1d bb 45 3d 46 37 20 3d
       -0.012876485 -0.004150399 0.04827415 0.039115213
000160 80 92 a9 b9 e1 3c 09 3d ac 6b cd 3b 44 a6 c0 3b
       -0.00032343343 0.033505324 0.006268939 0.0058791954
000170 48 28 19 3c 29 b5 7d 3b a1 b8 35 bc 70 7a f8 19
       0.009347983 0.0038712716 -0.011091382 2.5692051e-23
000180 34 44 12 3d 3c c7 38 3c 3c 95 14 3b b8 0f a3 bc
       0.035709575 0.01127797 0.0022671958 -0.019904956
000190 0a 57 1d 3d e0 92 91 b9 28 5a e6 bb 0d b7 34 3d
       0.038413085 -0.00027765986 -0.0070297904 0.044119883
0001a0 88 70 51 3c e4 52 94 bd b1 68 34 3c f8 8c dc bd
       0.012783177 -0.07242373 0.0110112885 -0.10769075
0001b0 fe 38 0a 3d 2e 07 62 3c 27 d4 c8 3d b5 7f 22 3c
       0.03374576 0.013795657 0.0980609 0.009918143
0001c0 08 22 b9 bc fc f7 2b bd 62 75 6c bd 4b 37 01 bd
       -0.022599235 -0.041984543 -0.057729132 -0.031546872
0001d0 ab c8 6b bc ed 33 c7 bc 0b 9c 21 3b 34 fb bb 3b
       -0.014391105 -0.024316752 0.002465966 0.005736733
0001e0 40 05 47 3b fd 0d c2 bd 8d 3c 13 3b da 34 01 3b
       0.003036812 -0.09475324 0.002246651 0.001971534
0001f0 d0 92 6e bb b8 d1 2b bd e0 47 7e 3a d3 f1 4b 3d
       -0.0036403425 -0.04194805 0.0009700041 0.04979117
000200 07 18 d5 33 28 60 5b 33 b9 36 15 39 77 ba 38 36
       9.922956e-08 5.1077365e-08 0.00014230133 2.7526673e-06
000210 73 18 03 3a 5b d4 1f 82 b2 37 0a 3a cc ff 09 34
       0.00050008966 -1.1742418e-37 0.00052725815 1.2852178e-07
000220 7b c1 ff 39 85 03 4d 39 1c c0 28 38 15 ad db 33
       0.00048781544 0.00019551635 4.0233237e-05 1.02294656e-07
000230 e6 f3 70 38 fa 48 55 9c 78 3a 17 02 0a 52 8f 38
       5.7447607e-05 -7.057011e-22 1.1110508e-37 6.834052e-05
000240 43 43 df 37 06 73 a1 39 a9 f0 37 38 83 02 ec 32
       2.6614993e-05 0.00030794012 4.3854732e-05 2.7475158e-08
000250 32 66 93 32 6c 20 1d 02 b5 2c d7 38 00 00 00 00
       1.7159525e-08 1.1543843e-37 0.00010260326 0.0
000260 2e 62 13 02 33 df 72 36 5e cc 27 3a d8 60 7e 34
       1.082803e-37 3.619073e-06 0.00064009975 2.3690825e-07
000270 4f 56 c4 39 80 df 0d 38 96 d6 b1 39 82 90 10 20
       0.00037448338 3.382517e-05 0.0003391995 1.2245088e-19
000280 37 2f 1c 39 ec 2e 02 98 ab cd e7 39 07 b4 1c 02
       0.00014894908 -1.6825796e-24 0.00044212988 1.1512735e-37
000290 8c 80 75 33 88 89 48 39 29 cc 0b 36 b2 65 a2 39
       5.716042e-08 0.0001912472 2.083145e-06 0.00030974817
0002a0 89 26 f6 35 04 79 d7 38 40 4d f7 39 e0 81 17 36
       1.8339643e-06 0.0001027454 0.00047169067 2.257635e-06
0002b0 f8 e0 a7 39 00 00 00 00 c1 07 10 39 ef c3 47 3a
       0.00032020337 0.0 0.00013735799 0.0007620444
0002c0 27 6e 3e 99 00 00 00 00 d4 4d a3 b0 0d f3 e1 18
       -9.845015e-24 0.0 -1.1881931e-09 5.8406555e-24
0002d0 92 cc 3e 39 89 e7 cc 35 52 4d 93 35 f6 02 d7 33
       0.0001819602 1.526657e-06 1.0974857e-06 1.0012256e-07
0002e0 3b 00 bc 38 00 00 00 00 7a 84 b3 35 da 14 60 39
       8.9645815e-05 0.0 1.3375095e-06 0.00021370072
0002f0 71 d9 36 36 aa 10 60 39 38 78 3d 39 61 16 1d 3a
       2.724668e-06 0.00021368513 0.0001806923 0.00059924094
000300 1e 89 c5 39 1d 94 cc 39 8e 46 36 39 35 bb 4f 34
       0.00037676928 0.00039020265 0.00017383156 1.9346483e-07
000310 d8 c4 ed 33 a0 ee 66 29 0d 85 25 39 e9 67 86 34
       1.1071978e-07 5.1277233e-14 0.00015785191 2.503505e-07
000320 75 66 b6 31 08 86 dd 39 e0 fc 43 a9 00 17 80 33
       5.308545e-09 0.00042252266 -4.3518032e-14 5.964648e-08
000330 d6 67 15 aa 1b de 1b 82 0c 60 5d 36 00 00 00 00
       -1.3269884e-13 -1.1451343e-37 3.2987473e-06 0.0
000340 38 cd 86 39 18 ae ba 38 d7 4e 1e 02 4c 5e 1e 3a
       0.00025711372 8.9015986e-05 1.1630633e-37 0.0006041273
000350 98 85 a5 38 b1 b5 bc ae 1e ff c1 39 b7 10 27 39
       7.892697e-05 -8.581525e-11 0.00037001906 0.00015932588
000360 c8 0d 08 36 59 6a b1 39 c5 7d 3d 34 52 3b af 39
       2.02736e-06 0.00033839306 1.7647751e-07 0.00033422798
000370 d6 b2 31 39 2a 3d bc 38 dd 52 00 99 00 00 00 00
       0.00016946657 8.975931e-05 -6.634179e-24 0.0
000380 e9 65 65 39 09 a9 88 37 ec a3 af 33 f8 0b 88 33
       0.00021877106 1.6291177e-05 8.17889e-08 6.3351706e-08
000390 9e e9 9c 35 94 a3 10 02 6f 96 eb 38 8d 5b 48 39
       1.1690897e-06 1.0626394e-37 0.00011233694 0.00019107592
0003a0 57 4c ec af 11 09 30 3a ad ba 17 33 f9 d0 92 39
       -4.2982393e-10 0.0006715218 3.5327208e-08 0.00028002987
0003b0 1b c5 0c b0 ad 3e 45 36 3b 26 f7 38 72 15 2b 34
       -5.1211807e-10 2.939177e-06 0.00011784999 1.5933418e-07
0003c0 dc ce 8e 39 55 4c 3a 36 87 b2 dc 39 0e 3a da 39
       0.00027238473 2.776059e-06 0.00042094683 0.00041623454
0003d0 bc 1d dd 1e 7d 8b ab 33 90 c9 0b 3a d9 fc c9 39
       2.3411583e-20 7.988181e-08 0.00053324644 0.00038526094
0003e0 e1 cf 40 39 7c 64 db 39 6a 83 df 39 3c e0 07 33
       0.00018387988 0.00041845802 0.00042631786 3.1636077e-08
0003f0 e9 ec 70 33 93 81 f7 39 5f 05 68 39 7c 1d 34 36
       5.6094823e-08 0.00047208052 0.00022127245 2.6839252e-06
