lightning_model_releases/lightning_quantile_test/model_params/0.7_81054_1335_lightning_quantile.ckpt (torch, 311310 bytes, 15 tensors)

model.0.weight f4 [128, 131]
0	0x3d581542	0.052754648
1	0x3d3c515e	0.045976035
2	0xbdc56322	-0.09638049
3	0x3cb1b018	0.021690413
4	0xbc419fff	-0.011817931
5	0x3dbfe9b3	0.093707465
6	0xbd23e5b0	-0.04001397
7	0x3d7f4c96	0.062328897
8	0x3dc351c0	0.09537077
9	0xbd083505	-0.03325369
10	0x3cd61a0a	0.026135463
11	0xbc931620	-0.017954886
12	0x3d66c153	0.056336712
13	0xbd144cbe	-0.036206
14	0x3cc6f714	0.024287738
15	0x3ca1cc18	0.01975064
16	0x3dac0b2b	0.084005676
17	0x3d1d0b68	0.038340956
18	0xbd809e40	-0.06280184
19	0x3c7dcd77	0.015490881
20	0xbd8c0dd1	-0.06838573
21	0xbd369188	-0.044572383
22	0xbcc10a57	-0.0235645
23	0x3d8a6880	0.06758213
24	0xbdb2b600	-0.0872612
25	0xbcc168f3	-0.023609614
26	0xbd5ca31d	-0.053866494
27	0xbd4b6ad4	-0.049662426
28	0x3d96dbfd	0.07366178
29	0xbe00e867	-0.12588654
30	0x3b821cb6	0.0039707078
31	0xbe1419b6	-0.14462933
32	0x3d8da5d1	0.069163926
33	0xbcb4bd49	-0.022062914
34	0xbd5e616d	-0.05429213
35	0x3cbd5d36	0.023115736
36	0xbb613c2e	-0.0034368145
37	0x3cfdfb21	0.031003537
38	0xbcda2410	-0.026628524
39	0xbd209f23	-0.039214265
40	0x3c4ffc1a	0.012694383
41	0xbd429c46	-0.047512315
42	0x3b3c37e3	0.0028719835
43	0x3d7e491b	0.062081438
44	0x3d029270	0.031877935
45	0xbd91ac2a	-0.07112916
46	0x3d1c56c3	0.03816868
47	0x3b1a49e9	0.002354259
48	0x3d650641	0.055914167
49	0xbd9e6a9b	-0.07735177
50	0xbe051c69	-0.12999119
51	0xbc8a86cf	-0.016909985
52	0xbd035ef5	-0.03207298
53	0x3e0b6a3e	0.13614747
54	0x3d1fa1e5	0.038972754
55	0x3cd7712f	0.026299087
56	0xbd629725	-0.055319924
57	0xbddf066a	-0.10889895
58	0x3d84d4df	0.064859144
59	0xbdb0b8eb	-0.0862902
60	0x3cfe946c	0.031076632
61	0xbd854470	-0.06507194
62	0x3c94a63e	0.018145677
63	0xbd8b8de6	-0.06814174
64	0x3cf705a5	0.030154059
65	0xbcfd2ded	-0.030905688
66	0x3d860a21	0.06544901
67	0xbdbd8e94	-0.0925571
68	0xbd8e781e	-0.06956504
69	0xbcf2c638	-0.029635534
70	0x3d83f30a	0.064428404
71	0x3d779dd7	0.060453262
72	0x3d37fc56	0.04491838
73	0xbda578c3	-0.08079674
74	0xbdd3c6a3	-0.10340621
75	0xbd3ce96b	-0.046121042
76	0xbd7214b9	-0.059101794
77	0x3aecd4eb	0.0018068826
78	0x3d7e87fb	0.0621414
79	0x3d871bbd	0.065970875
80	0xbdb94da4	-0.09048012
81	0xbd14eb42	-0.03635717
82	0xbcae06b9	-0.02124344
83	0xbc0e856d	-0.008698803
84	0x3cab2ee3	0.02089638
85	0xbd17f9a3	-0.037103307
86	0x3dbe6f4e	0.092985734
87	0xbd8ca6b6	-0.06867735
88	0xbd078a50	-0.03309089
89	0xbd27236c	-0.040805265
90	0xbcaa94b8	-0.020822868
91	0xbcaf42a3	-0.02139408
92	0x3da519e9	0.080615826
93	0x3cd22a26	0.025654864
94	0xbdae2dc1	-0.085048206
95	0xbd874805	-0.066055335
96	0x3da968d0	0.082719445
97	0xbd3e4260	-0.04645002
98	0xbd96bbe1	-0.07360054
99	0xbd8dcf85	-0.06924347
100	0xbd8c40d6	-0.06848304
101	0xbba4757f	-0.0050188894
102	0xbc8906bb	-0.016726842
103	0xbd8467c0	-0.06465101
104	0xbcf95951	-0.030438097
105	0xbd4ec8bd	-0.050484408
106	0xbd97ceb9	-0.07412476
107	0xbd47c0bb	-0.048767786
108	0xbe0a6278	-0.13514125
109	0xbc1ca6ef	-0.009561284
110	0x3d7db3de	0.061939113
111	0x3c61aba2	0.013773831
112	0xbcc008d0	-0.023441702
113	0xbdb4e523	-0.08832767
114	0xbda8e5ec	-0.08246979
115	0xbd472158	-0.048615783
116	0x3c5fd770	0.013662204
117	0xbd13e4df	-0.03610694
118	0xbe06a92d	-0.13150473
119	0xbd94221e	-0.0723307
120	0xbcee089b	-0.029056838
121	0xbd6c916b	-0.05775587
122	0xbd1925ab	-0.03738944
123	0xbdd971c7	-0.106174044
124	0xbdbb2166	-0.091372296
125	0xbd938fbb	-0.07205149
126	0xbd1adf1b	-0.037810426
127	0xbdb83d97	-0.08996122
128	0x3d044e19	0.032301042
129	0xbd788a70	-0.0606789
130	0x3d26b8fd	0.040703762
131	0x3cdf02e0	0.02722305
132	0xbe0bf4c8	-0.13667595
133	0x3e6afd7f	0.22948264
134	0x3ec48d2d	0.3838896
135	0xbd092e3a	-0.03349135
136	0xbd948740	-0.072523594
137	0xbd3174d1	-0.043324295
138	0x3cccc7c4	0.0249976
139	0x3cf39df7	0.02973841
140	0x3d591990	0.053002894
141	0xbd92d857	-0.0717017
142	0x3e2099cb	0.15683667
143	0xbe1a4c13	-0.15068083
144	0xbc772d88	-0.015086539
145	0xbe223a27	-0.15842496
146	0x3d98e6ed	0.074659206
147	0x3d9074ab	0.07053503
148	0x3e79db2e	0.24400017
149	0xbc8a9d33	-0.016920662
150	0xbe02fe9b	-0.12792437
151	0xbe6be6d3	-0.23037271
152	0xbc1cde38	-0.009574465
153	0xbd85ee46	-0.06539588
154	0x3e037cd5	0.12840588
155	0xbe852bf4	-0.26010096
156	0xbe6d9c34	-0.23204118
157	0x3e36f392	0.17866352
158	0xbc513a68	-0.012770273
159	0xbe59269e	-0.21206138
160	0x3de51304	0.111852676
161	0x3c9d48a8	0.019199684
162	0x3e40fc69	0.18846287
163	0xbd9dafdd	-0.07699559
164	0x3db97ef4	0.090574175
165	0x3e1a18e7	0.15048562
166	0xbdc6d13a	-0.097078755
167	0x3de244b7	0.110482626
168	0xbda6f5ff	-0.08152389
169	0x3c2fc4ec	0.010728102
170	0xbd3521ab	-0.04422156
171	0xbe159737	-0.14608465
172	0x3d68c5d7	0.0568293
173	0xbe6f1b81	-0.23350336
174	0x3d6c362c	0.05766885
175	0xbddaf0ce	-0.10690461
176	0xbdfedd3a	-0.12444539
177	0x3df6f39b	0.12058183
178	0x3cc70483	0.024294144
179	0xbbf5aec7	-0.0074976417
180	0x3d57ccac	0.052685425
181	0x3c6a3207	0.014294154
182	0xbefb83e7	-0.4912407
183	0xbea5181d	-0.3224496
184	0xbccb749b	-0.024835875
185	0xbea254b7	-0.31705257
186	0x3e1fd048	0.15606797
187	0x3eba0189	0.36329296
188	0x3e8a3dc4	0.27000248
189	0x3c192408	0.009346969
190	0xbdbdf6cc	-0.092755884
191	0xbe28433c	-0.16431898
192	0x3db93fe4	0.09045389
193	0x3d49cd52	0.049268074
194	0xbd8c0335	-0.06836549
195	0xbbfa410c	-0.0076371487
196	0x3e43f9a8	0.19138205
197	0xbeadcf91	-0.33947423
198	0x3e2c8bb7	0.16850172
199	0x3d4cf51a	0.050038435
200	0xbda284c0	-0.07935476
201	0xbdd9be41	-0.10631991
202	0xbb93c7ee	-0.0045099175
203	0x3e5b3399	0.21406402
204	0xbe6be400	-0.23036194
205	0x3e2990c1	0.16559125
206	0xbeee12ea	-0.46498805
207	0x3dfe555e	0.12418626
208	0x3cc99b63	0.024610227
209	0xbcf7417d	-0.030182594
210	0xbe331f56	-0.17492422
211	0x3d253a2e	0.040338688
212	0x3d22f14d	0.039780904
213	0x3d3c0564	0.04590358
214	0x3e06842b	0.13136356
215	0x3e1f4a7a	0.15555754
216	0xbe74b21c	-0.23896068
217	0xbdaddcb3	-0.08489361
218	0xbda85dd5	-0.08221022
219	0xbdc9a844	-0.09846547
220	0x3c28fa15	0.01031353
221	0xbc464c06	-0.012103086
222	0xbd22b948	-0.03972748
223	0xbd3c9489	-0.04604009
224	0xbde8436a	-0.11340983
225	0xbdad4a1e	-0.08461402
226	0x3d459364	0.048236266
227	0xbb84ed80	-0.0040566325
228	0xbd4766d1	-0.048682038
229	0xbd3b80e2	-0.04577721
230	0xbde8a306	-0.11359219
231	0xba1d2301	-0.00059942907
232	0x3c7d11e3	0.015446159
233	0x3e917f4e	0.28417438
234	0x3d3b7a16	0.045770727
235	0x3b50561e	0.003178961
236	0xbe4a49c5	-0.19754703
237	0xbd8814b2	-0.06644572
238	0x3d1f5361	0.038897876
239	0xbd2e497f	-0.04255056
240	0xbc243b14	-0.010023851
241	0xbd6a7a90	-0.05724579
242	0x3d29eb67	0.041484263
243	0xbd4df4a1	-0.050282124
244	0xbc826ca4	-0.015920945
245	0xbd7be17c	-0.061494336
246	0xbd69d65b	-0.05708919
247	0x3ced6b0c	0.028981708
248	0xbf105aba	-0.5638844
249	0x3f04d6df	0.5189037
250	0x3b83180b	0.004000669
251	0xbd86d11e	-0.06582855
252	0x3d5cbfcb	0.053893846
253	0xbe6eab01	-0.2330742
254	0x3cc8bd80	0.024504423
255	0xbd857d7c	-0.06518075

model.0.bias f4 [128]
0	0xbdf0a263	-0.11749723
1	0x3e1061be	0.14099786
2	0x3dfb2aaf	0.122640006
3	0x3dce9d1a	0.100885585
4	0x3e045c6b	0.1292588
5	0x3e2456ab	0.16048686
6	0xbd8ed121	-0.06973482
7	0xbb1c1b5f	-0.0023820025
8	0x3c1e7008	0.009670265
9	0x3d8b838a	0.068121985
10	0x3c1a6ad0	0.00942488
11	0x3cb43873	0.021999573
12	0xbc82fc7b	-0.015989533
13	0xbd456298	-0.04818973
14	0x3d837525	0.06418828
15	0xbd8b3590	-0.067973256
16	0x3dcbc302	0.09949304
17	0xbcf7dfa9	-0.030258017
18	0x3c3990d9	0.011326038
19	0x3e25eca4	0.16203552
20	0x3dc738ea	0.09727652
21	0x3c068449	0.00821025
22	0xbd46edcc	-0.048566625
23	0x3d887713	0.066633366
24	0x3da86ccd	0.08223877
25	0x3da93f8a	0.08264072
26	0x3cb01a74	0.021496989
27	0x3b454200	0.0030099154
28	0x3e0adf6e	0.13561794
29	0x3de12be7	0.10994702
30	0x3e149ddd	0.14513345
31	0x3dcb402e	0.09924351
32	0x3d973f66	0.07385139
33	0xbd78e64e	-0.06076651
34	0x3d10df1a	0.035369016
35	0x3c8a99f4	0.016919114
36	0x3d931aed	0.0718287
37	0x3de05592	0.10953821
38	0x3de1f0f0	0.11032283
39	0xbd581e3b	-0.052763205
40	0x3cad9056	0.021186989
41	0xbd26999a	-0.04067383
42	0x3daa1d19	0.08306331
43	0x3e0e506a	0.13897863
44	0x3da1d713	0.0790235
45	0x3b961d60	0.0045811385
46	0x3e0c2810	0.13687158
47	0xba8be750	-0.0010673795
48	0xbaf8e380	-0.0018988699
49	0xbc870864	-0.016483493
50	0x3d0651f4	0.032793
51	0x3dd84b7a	0.10561271
52	0x3df853aa	0.12125333
53	0x39e9273a	0.0004447045
54	0xbdbf527b	-0.09341904
55	0xbda71978	-0.08159155
56	0x3dbff503	0.09372904
57	0x3d29c8b2	0.041451164
58	0x3d39419a	0.04522858
59	0x3ddb670e	0.107130155
60	0x3d13dc4d	0.036098767
61	0x3d81a669	0.06330568
62	0x3c962032	0.018325899
63	0x3d47ecfe	0.048809998
64	0x3db9c7ba	0.09071298
65	0xbc895e85	-0.016768703
66	0x3c0a5b1f	0.0084445765
67	0xbaa68ec0	-0.0012707338
68	0x3af5ff32	0.0018768071
69	0x3e0eb3aa	0.13935724
70	0x3ced57fb	0.028972616
71	0x3d7200f2	0.059082933
72	0xbda969ec	-0.08272156
73	0xbd676af4	-0.056498483
74	0x3d7ba608	0.061437637
75	0x3d47abcc	0.048747823
76	0xbd2a9c82	-0.041653164
77	0xbc722fc0	-0.014781892
78	0x3e28925a	0.16462079
79	0xbd18d5cf	-0.03731328
80	0x3d78a038	0.06069967
81	0xbb29a7ed	-0.0025887445
82	0x3d589e13	0.052885126
83	0x3d9e1a58	0.077198684
84	0x3e15cb84	0.14628416
85	0x3dfa44f2	0.122201815
86	0x3c661f40	0.0140455365
87	0xbd74d8d2	-0.05977709
88	0xbcac4757	-0.021030111
89	0xbb3532ce	-0.002764869
90	0xbcc4364c	-0.023951672
91	0x3d46621a	0.0484334
92	0x3e1dda6a	0.1541535
93	0xbd51882b	-0.05115525
94	0xbd5c8a6b	-0.053842943
95	0x3d74da32	0.0597784
96	0x3d2b04a0	0.041752458
97	0x3d33d7e1	0.04390705
98	0xb8dbfc1f	-0.00010489695
99	0xbd1abb4e	-0.037776284
100	0x3c874e42	0.016516808
101	0xbc824cff	-0.015905855
102	0xbcb2e685	-0.021838436
103	0xbd09f987	-0.033685233
104	0x3cee50a7	0.029091192
105	0x3da34e4c	0.07973918
106	0x3b1a13b8	0.0023510288
107	0xbd801c61	-0.06255413
108	0xbbfdfaaa	-0.0077508288
109	0x3d95544b	0.07291468
110	0x3e3798ba	0.17929354
111	0xbd14d5ec	-0.036336824
112	0xbc986061	-0.018600645
113	0x3d612cea	0.054974474
114	0x3e1c77cd	0.15280075
115	0x3c644e70	0.013934717
116	0xbcced05a	-0.025245834
117	0x3e47f886	0.19528398
118	0x3a83ebe9	0.0010064814
119	0x3d9add08	0.075616896
120	0x3e1a5e64	0.1507507
121	0x3d5ff265	0.054674525
122	0xbc7c2778	-0.015390269
123	0x3dc67cb5	0.09691755
124	0x3c383f59	0.011245572
125	0xbd93d223	-0.07217815
126	0x3e150724	0.14553505
127	0x3d382e8d	0.04496627

model.3.weight f4 [64, 128]
0	0xbd93ef58	-0.072233856
1	0x3e22c638	0.15895927
2	0xbd9bf0eb	-0.07614311
3	0xbd1cf70c	-0.03832154
4	0x3c5be3d1	0.013421015
5	0x3d2a03fe	0.041507713
6	0xbc843332	-0.016137693
7	0x3d962396	0.07331006
8	0x3d684714	0.05670841
9	0xbdb478de	-0.08812116
10	0xbd4afa9c	-0.049555406
11	0xbda32130	-0.079653144
12	0x3d83de34	0.06438866
13	0xbb9a7e62	-0.004714773
14	0xbcf9781e	-0.030452784
15	0xbd2ef124	-0.04271044
16	0x3d163ed2	0.036681004
17	0x3c90db25	0.017682621
18	0x3d43b919	0.047783945
19	0x3dc37ba5	0.09545068
20	0x3d906a5b	0.07051536
21	0xbd70e1a6	-0.058808945
22	0xbcaf92ab	-0.021432241
23	0xbd662fd9	-0.056197975
24	0xbd02a0f5	-0.03189178
25	0x3c861281	0.016366245
26	0x3d9fc138	0.078005254
27	0xbd2285bb	-0.039678317
28	0xbd323e58	-0.043516487
29	0x3b3704ea	0.0027926513
30	0x3d061724	0.032736912
31	0x3bf7b73e	0.007559686
32	0x3d8da266	0.06915741
33	0xbda2f04b	-0.079559885
34	0x3c8b7a26	0.017026018
35	0x3d8918d3	0.06694188
36	0x3dd52cdf	0.10408949
37	0xbd00a801	-0.03141022
38	0xbd68d4aa	-0.056843437
39	0x3aab5c40	0.0013073757
40	0xbbc2dcb9	-0.0059467223
41	0x3d195966	0.037438773
42	0x3daa7396	0.083228275
43	0x3c907f45	0.017638812
44	0xbcd4c0e6	-0.025970887
45	0x3d456252	0.04818947
46	0xbd3028dc	-0.043007717
47	0xbbe874f9	-0.0070940224
48	0x3c323158	0.010876022
49	0xbc73b498	-0.0148746
50	0x3d3080e8	0.043091685
51	0xbb809fe6	-0.0039253114
52	0x3cfe5b07	0.031049265
53	0x3d0d3194	0.03447111
54	0x3b0c42f3	0.002140221
55	0xbd03ac2e	-0.032146625
56	0x3da70f82	0.08157255
57	0x3d49c222	0.049257405
58	0xbc5d1640	-0.013494074
59	0xbd59a4cd	-0.053135682
60	0x3c9bcf92	0.019019876
61	0x3d800786	0.06251435
62	0x3d41ad08	0.047284156
63	0x3b5a8e00	0.0033348799
64	0x3d85ae8e	0.06527434
65	0x3cc566a9	0.024096804
66	0x3d324d38	0.043530673
67	0xbd2a47c6	-0.041572355
68	0x3b16bc28	0.0023000333
69	0xbac364e9	-0.0014907393
70	0x3c3bff83	0.011474493
71	0xbdac2a7b	-0.0840654
72	0xba31ce66	-0.000678277
73	0xbd9d31eb	-0.07675537
74	0xbd9881f7	-0.07446664
75	0xbdb4ec0a	-0.088340834
76	0xbd1535e7	-0.03642836
77	0x3c874ba8	0.016515568
78	0x3d24b50a	0.040211715
79	0x3caa7470	0.020807475
80	0x3d0b8981	0.03406668
81	0xbd5730c2	-0.052536733
82	0x3be31f9c	0.0069312584
83	0xbda6dd8d	-0.08147726
84	0xbc9a90fa	-0.018867958
85	0x3c97af17	0.018516107
86	0x3c7a4cb4	0.0152770765
87	0xbd8c2750	-0.06843436
88	0x3d87e757	0.066359214
89	0x3d7431a9	0.059617672
90	0xbd222c0d	-0.03959279
91	0xbd9a2f6c	-0.07528576
92	0x3c888d24	0.016668864
93	0x3cdbecd0	0.02684632
94	0xbcb44dbf	-0.022009728
95	0xbd26515d	-0.040604938
96	0x3cbf5644	0.023356564
97	0xbc9d2262	-0.019181434
98	0xbd32fe45	-0.04369952
99	0x3ce7a2b0	0.028275818
100	0x3d6a4903	0.057198536
101	0x3d644118	0.05572614
102	0x3d8b771e	0.06809829
103	0x3b1b2c76	0.0023677624
104	0x3c749116	0.014927169
105	0x3db7e09c	0.08978388
106	0xbd4e6b3b	-0.05039523
107	0x3d6acaf8	0.057322472
108	0x3dae38bf	0.08506917
109	0xbd0977d3	-0.03356154
110	0x3dd362f4	0.10321608
111	0xbccff095	-0.025383273
112	0xbd4f8e7c	-0.050672993
113	0x3d8b6464	0.06806257
114	0x3d760a50	0.06006843
115	0xbbd0aee0	-0.006368503
116	0xbd4db2d5	-0.050219376
117	0x3e06ff72	0.13183382
118	0x3ce2fa54	0.027707256
119	0xbd88678e	-0.066603765
120	0x3ca922b8	0.020646438
121	0x3d489345	0.048968572
122	0x3d18df7e	0.037322514
123	0xbcba5e62	-0.022750083
124	0x3ad47fab	0.0016212364
125	0xbca5352e	-0.02016696
126	0x3d916344	0.070990115
127	0x3d8c929a	0.068638995
128	0xbce0ee7f	-0.027457474
129	0xbcbd842d	-0.023134315
130	0xbda5b693	-0.08091464
131	0xbd1ea02b	-0.038726967
132	0x3cb1638a	0.02165391
133	0xbdc0561b	-0.09391423
134	0xbb819220	-0.003954187
135	0x3d8fa3f0	0.070136905
136	0x3ca70eeb	0.020392856
137	0x3c220eba	0.009891206
138	0xbd72d089	-0.059280906
139	0xbcb852dd	-0.02250045
140	0xbdbceca4	-0.09224823
141	0xbd442983	-0.04789115
142	0x3c236f4b	0.009975265
143	0x3c7411ca	0.014896819
144	0x3c5f67d6	0.013635596
145	0xbd8da6ca	-0.06916578
146	0x3b889857	0.004168551
147	0xbdcb829b	-0.099370204
148	0xbda9e486	-0.082955405
149	0xbd314ced	-0.043286253
150	0xbd9e921f	-0.07742714
151	0x3c894e68	0.01676102
152	0x3c640bd8	0.013918839
153	0x3d1d1426	0.038349293
154	0xbb3bdd94	-0.0028666006
155	0x3c8d2824	0.017231055
156	0x3c5274cf	0.012845232
157	0xbc7fb643	-0.015607419
158	0xbdcf4f9e	-0.10122608
159	0xbd68db94	-0.05685003
160	0xbdb4173b	-0.08793493
161	0xbd51ea7b	-0.05124901
162	0xbac8e748	-0.0015327716
163	0x3daab355	0.08334986
164	0x3cc013bf	0.023446916
165	0xbd985771	-0.07438553
166	0xbacde6c9	-0.0015709038
167	0x3d7929a6	0.060830735
168	0xb9e68e72	-0.0004397515
169	0xbdb672b0	-0.08908594
170	0xbbae5e43	-0.0053212955
171	0xbbda922b	-0.0066702566
172	0x3c6d16e0	0.014470786
173	0x3da557a3	0.08073356
174	0x3d64b222	0.055833943
175	0xbdb4692b	-0.08809122
176	0x3d89a0a3	0.06720092
177	0xbda201dc	-0.07910511
178	0xbd8d3d24	-0.06896427
179	0x3cadd498	0.021219537
180	0xbc9cddd5	-0.019148747
181	0x3d6236b6	0.055227958
182	0x3d29a1c5	0.04141404
183	0xbd05ebb8	-0.032695502
184	0x3d5eed45	0.054425497
185	0xbd81e940	-0.06343317
186	0x3c86f114	0.016472377
187	0x3c2e739f	0.010647683
188	0x3c811017	0.015754743
189	0x3d89d66a	0.06730349
190	0x3cc42e07	0.023947729
191	0xbd9b1f88	-0.075743735
192	0x3d5587fe	0.052131645
193	0x3d597eec	0.053099558
194	0xbd56dc1a	-0.052456
195	0x3d81f3b1	0.063453086
196	0xb8d757bc	-0.00010268341
197	0xbcc42930	-0.023945421
198	0x3c07982f	0.0082760295
199	0x39818600	0.00024704635
200	0xbd26cd10	-0.040722907
201	0xbb4012c9	-0.0029308072
202	0xbc8b8b6c	-0.017034255
203	0xbd9fcf97	-0.078032665
204	0xbda36f21	-0.079801805
205	0x3ceded60	0.029043853
206	0xbdb0ee39	-0.08639187
207	0x3b0dabe0	0.0021617338
208	0x3d0c9f7c	0.034331784
209	0x3d753055	0.059860546
210	0x3c919dd6	0.017775457
211	0x3ce171f7	0.027520163
212	0x3d2ac219	0.041689012
213	0xbd9db680	-0.07700825
214	0x3d80f022	0.06295802
215	0xbda5d462	-0.080971494
216	0xbd9637f2	-0.073348895
217	0xbd63cdd4	-0.055616215
218	0x3db0ebf1	0.08638752
219	0x3d4aa92a	0.049477734
220	0x3ba31938	0.0049773715
221	0x3d174355	0.036929447
222	0xbdca035c	-0.09863922
223	0xbdaca741	-0.08430339
224	0x3c161dab	0.009162347
225	0xbd692714	-0.056922033
226	0x3cdf2288	0.027238145
227	0xbd807942	-0.06273128
228	0x3d6252e3	0.05525483
229	0xbdbe4e1a	-0.092922404
230	0x3cd38eb2	0.025824878
231	0x3ce48716	0.027896445
232	0xbd8535a4	-0.06504372
233	0x3d0953b4	0.03352709
234	0x3cf87c48	0.0303327
235	0xbd687960	-0.056756377
236	0xbd97c276	-0.07410137
237	0x3c66da42	0.014090123
238	0xbd6f6c47	-0.05845287
239	0xbbce7d44	-0.006301554
240	0x3cb03aca	0.021512408
241	0x3cadee85	0.021231899
242	0xbd8d275e	-0.06892274
243	0x3d884433	0.06653633
244	0x3caa6385	0.020799408
245	0x3c61a679	0.0137726
246	0xbd2839c1	-0.041070703
247	0x3ca56d67	0.020193769
248	0xbcdd53e1	-0.027017536
249	0x3d306541	0.043065313
250	0x3d39a33e	0.045321696
251	0x3d3cdce3	0.04610909
252	0xbccf5f66	-0.025314044
253	0x3d45553b	0.048176985
254	0x3d3e0eba	0.046400763
255	0xbcbbce4c	-0.022925518

model.3.bias f4 [64]
0	0x3e108347	0.14112578
1	0xbd78696f	-0.060647424
2	0x3e48cf53	0.19610338
3	0x3bae8f18	0.0053271167
4	0xbdd9277c	-0.10603234
5	0x3e4e034b	0.20118444
6	0x3cdb2617	0.026751561
7	0xbd3eeb20	-0.04661095
8	0xb9b122ee	-0.00033786095
9	0x3d0243fd	0.03180312
10	0xbce0213c	-0.027359597
11	0x3e764cad	0.24052687
12	0x3e3d6b8d	0.18498059
13	0x3e89f8c1	0.26947597
14	0x3e2eee80	0.17083168
15	0xbcdf34f2	-0.027246926
16	0xbdbe2f34	-0.09286347
17	0xbd0c66a1	-0.034277562
18	0x3e594c00	0.21220398
19	0x3d558bba	0.052135207
20	0x3d8af868	0.06785661
21	0xbcf11578	-0.029429182
22	0x3e68dc1d	0.22740217
23	0x3e0dd203	0.13849644
24	0x3e4c6ed6	0.19964156
25	0x3e4f6734	0.20254213
26	0x3e1bc1af	0.15210603
27	0x3e7cf258	0.24701822
28	0x3e1c76c3	0.15279679
29	0xbd85f57e	-0.065409645
30	0x3de9d3ab	0.114173256
31	0xbc7162f8	-0.014733069
32	0xbd530d90	-0.051526606
33	0x3e5c5b35	0.21519168
34	0x3e0ae4f4	0.13563901
35	0xbd765474	-0.060139135
36	0x3abcf8e7	0.001441744
37	0x3dad7eff	0.08471488
38	0x3d89d99a	0.06730957
39	0x3e54e744	0.20791346
40	0x3cce33e0	0.02517122
41	0x3c864d34	0.016394235
42	0xbca1f641	-0.019770743
43	0x3e2afae1	0.16697265
44	0xbbfb30b3	-0.0076657175
45	0xbdd8790a	-0.10569961
46	0x3d880102	0.06640817
47	0xbc5062c4	-0.01271886
48	0x3d3edfa7	0.04660001
49	0x3e393ca9	0.18089546
50	0x3dc58acb	0.09645613
51	0x3d2735fe	0.040822975
52	0x3e5946b5	0.21218379
53	0x3dfb0621	0.12257028
54	0x3d006d6d	0.031354357
55	0x3bb89684	0.0056331772
56	0xbdb0a4a7	-0.08625155
57	0x3e140b90	0.14457536
58	0x3e0d36ad	0.13790388
59	0x3e551b90	0.20811296
60	0x3e1cbdf8	0.15306842
61	0xbd035b86	-0.032069705
62	0xbd608886	-0.0548177
63	0x3e3610ec	0.17779893

model.6.weight f4 [1, 64]
0	0x3dadc036	0.08483927
1	0xbd376975	-0.044778306
2	0x3d568f6d	0.052382875
3	0xbc5c1ace	-0.013434125
4	0xbd1011d3	-0.03517325
5	0x3d2f1d93	0.042752814
6	0x3da2a868	0.07942277
7	0xbdcd1f97	-0.10015791
8	0xbd26c382	-0.040713795
9	0x3d94f985	0.072741546
10	0xbd3d42eb	-0.046206396
11	0x3d78a688	0.06070569
12	0x3da5059d	0.08057711
13	0x3d481221	0.048845414
14	0x3d32a9c8	0.043618947
15	0xbd8b436a	-0.067999676
16	0xbb064236	-0.0020486242
17	0xbc7c08e8	-0.015382983
18	0x3d2968ac	0.04135959
19	0x3be90013	0.0071106046
20	0xbc8fbe3c	-0.017546766
21	0xbd78b92f	-0.06072348
22	0x3d9f7e6f	0.07787787
23	0x3d3dfd48	0.046384126
24	0x3d5436f7	0.05181023
25	0x3d96fc7f	0.073723786
26	0x3d28f34c	0.04124765
27	0x3dab75f4	0.08372107
28	0x3d4ad112	0.04951579
29	0xbccdce7f	-0.02512288
30	0x3d1e36d3	0.038626503
31	0xbdc3ec40	-0.095665455
32	0xbd47299a	-0.04862366
33	0x3db278d4	0.087144524
34	0x3dcafbce	0.09911309
35	0xbd99f413	-0.075172566
36	0xbd1eb791	-0.03874928
37	0x3d8c7ac0	0.0685935
38	0xbdd24039	-0.10266156
39	0x3d1b6741	0.037940267
40	0xbdcc430b	-0.09973725
41	0xbd289129	-0.04115406
42	0xbd6597e4	-0.056053057
43	0x3d0b8527	0.03406253
44	0xbc52cb7f	-0.0128659
45	0xbd630b20	-0.05543053
46	0x3d7da824	0.06192793
47	0xbd1f4526	-0.038884304
48	0xbddd7f8e	-0.10815345
49	0x3d99b4f3	0.075052164
50	0x3d8e5031	0.06948889
51	0xbc354a4d	-0.011065078
52	0x3d2074d6	0.039173923
53	0x3d3d736e	0.04625266
54	0x3c2af247	0.01043374
55	0xbc5ae1ef	-0.013359531
56	0xbdb94e8c	-0.09048185
57	0x3d5e6676	0.054296933
58	0x3d249b3f	0.040187117
59	0x3d89f1e6	0.067355916
60	0x3d4cfe47	0.050047185
61	0xbd123cce	-0.03570252
62	0xbd401de9	-0.046903525
63	0x3d36215c	0.044465408

exp_avg f4 [128, 131]
0	0x350c4f5f	5.2269564e-07
1	0x37a2746c	1.9366118e-05
2	0x37494c03	1.19982315e-05
3	0xb97dccd5	-0.00024204266
4	0x3674e4aa	3.6491933e-06
5	0xb4be4806	-3.5442662e-07
6	0x3185f325	3.898452e-09
7	0xb3ec37b8	-1.09997416e-07
8	0x35fc41dd	1.8794632e-06
9	0xb593c568	-1.1009806e-06
10	0x351e23a8	5.8911473e-07
11	0x34973b13	2.8168924e-07
12	0x34858f3f	2.4877406e-07
13	0xb3976aa9	-7.050887e-08
14	0xb43cd5bc	-1.758662e-07
15	0x36b156f9	5.285136e-06
16	0xb620ad04	-2.3942566e-06
17	0xb5001a45	-4.7721943e-07
18	0x35027e3e	4.861248e-07
19	0x3495dde7	2.7914868e-07
20	0x360bacea	2.0813263e-06
21	0x34c8483c	3.730546e-07
22	0x35ac3c9e	1.283264e-06
23	0x360f9142	2.1393212e-06
24	0x369c5517	4.659068e-06
25	0x3633f839	2.6817563e-06
26	0xb3a46ade	-7.656284e-08
27	0x352d1d7f	6.4490445e-07
28	0xb4d4c1f2	-3.962919e-07
29	0xb52499b8	-6.131845e-07
30	0x363bbfb3	2.7976755e-06
31	0x3719ab17	9.159346e-06
32	0x344d867b	1.9141036e-07
33	0xb992937d	-0.00027957177
34	0x374844b4	1.1936925e-05
35	0x3641b19f	2.886263e-06
36	0x378dbd28	1.6896593e-05
37	0x35ea8473	1.7472906e-06
38	0xb9ef0ef7	-0.00045596782
39	0x32d78e9a	2.5094142e-08
40	0xb822e3e1	-3.883604e-05
41	0xb94b8d7c	-0.00019412296
42	0x3823bab5	3.9036113e-05
43	0xb6864db4	-4.002557e-06
44	0x35f64636	1.8348862e-06
45	0xb8186408	-3.6332785e-05
46	0xb887710a	-6.458357e-05
47	0x37486133	1.194356e-05
48	0x37767923	1.4690947e-05
49	0xb6804b84	-3.8234884e-06
50	0xb65d5702	-3.2982211e-06
51	0xb80566fd	-3.1805586e-05
52	0x38040bba	3.1482174e-05
53	0xb7285217	-1.0032693e-05
54	0xb88e0382	-6.771741e-05
55	0xb71e88a5	-9.449349e-06
56	0xb92c9fbb	-0.00016462702
57	0xb7d46464	-2.5319117e-05
58	0xb76f4364	-1.4261201e-05
59	0xb4b20663	-3.315973e-07
60	0xb6641bb3	-3.399077e-06
61	0x37247f55	9.8048085e-06
62	0x36bb31a5	5.5788137e-06
63	0xb7c8eb73	-2.3951497e-05
64	0x3641d79b	2.888474e-06
65	0xb5b2dcf8	-1.3326344e-06
66	0xb8094179	-3.272432e-05
67	0x370ffee5	8.5828115e-06
68	0x37373532	1.09200355e-05
69	0x35c66f67	1.4784572e-06
70	0xb8a27739	-7.746969e-05
71	0xb629cd4a	-2.5302456e-06
72	0x37169733	8.9759005e-06
73	0x36410442	2.876172e-06
74	0x36bb3f43	5.580399e-06
75	0xb337a9e4	-4.2762522e-08
76	0xb4e537c3	-4.2695146e-07
77	0x371f5014	9.495783e-06
78	0x378ec601	1.7019922e-05
79	0x35f93505	1.8567376e-06
80	0x37074ee4	8.064995e-06
81	0xb7a10c09	-1.91983e-05
82	0x368e7c03	4.2463666e-06
83	0x37318fed	1.05835325e-05
84	0xb74ddd38	-1.2270459e-05
85	0x35adc0ae	1.2945582e-06
86	0xb6113f99	-2.1643702e-06
87	0x361529f3	2.2227148e-06
88	0xb72243db	-9.671751e-06
89	0x36d53a27	6.3546645e-06
90	0xb61be29e	-2.3228708e-06
91	0xb764d20f	-1.3638767e-05
92	0xb771c165	-1.4409748e-05
93	0xb704be0f	-7.912065e-06
94	0x36c5cc3d	5.894834e-06
95	0xb7a34e90	-1.9467698e-05
96	0xb71f535f	-9.49655e-06
97	0x37132e29	8.77263e-06
98	0xb943baed	-0.00018666284
99	0x36793e77	3.714025e-06
100	0xb75ea877	-1.3271455e-05
101	0x3545cc51	7.368554e-07
102	0x3788cade	1.630693e-05
103	0x37292907	1.0082737e-05
104	0xb42ff00d	-1.6385475e-07
105	0x37ecf94b	2.8249478e-05
106	0x00000000	0.0
107	0xb10c66f1	-2.0431197e-09
108	0x35d1102b	1.5576419e-06
109	0xb6ba90b0	-5.560076e-06
110	0x360b2713	2.0735358e-06
111	0x8212c846	-1.0783862e-37
112	0xb35b6284	-5.107951e-08
113	0xb8911d11	-6.919553e-05
114	0xb969233e	-0.0002223374
115	0x376ccf89	1.4115017e-05
116	0x00000000	0.0
117	0xb8a3bb67	-7.807352e-05
118	0xb95114d3	-0.00019939551
119	0xb60fc92a	-2.1425753e-06
120	0xb8ba96e8	-8.8972796e-05
121	0x36fdfb47	7.56924e-06
122	0xb94b57c7	-0.00019392288
123	0xbc6ff3f5	-0.014645566
124	0xbc42412e	-0.01185636
125	0xbbc480b7	-0.0059967893
126	0xbbd5a4d8	-0.006519895
127	0xbbf7b294	-0.00755913
128	0xbc0cab78	-0.008585803
129	0xbc4fc549	-0.012681314
130	0xbeab7442	-0.33487135
131	0x00000000	0.0
132	0xb8d9c6de	-0.00010384408
133	0xb97cd345	-0.00024111297
134	0x36ee8680	7.1086106e-06
135	0x00000000	0.0
136	0x00000000	0.0
137	0xb6896b84	-4.0954346e-06
138	0x00000000	0.0
139	0x385eea58	5.3147174e-05
140	0x821c2bac	-1.1473603e-37
141	0x00000000	0.0
142	0xb8399e38	-4.425479e-05
143	0x3599d858	1.1462353e-06
144	0x00000000	0.0
145	0x36f654ed	7.341258e-06
146	0x37f31d78	2.898158e-05
147	0x00000000	0.0
148	0xb94c3aae	-0.00019476816
149	0x3568d58a	8.6737475e-07
150	0xb88d1ae4	-6.728413e-05
151	0x3763eccb	1.3585387e-05
152	0x00000000	0.0
153	0x00000000	0.0
154	0x385eea58	5.3147174e-05
155	0x37b419ae	2.146963e-05
156	0x37e4699e	2.72289e-05
157	0xb29c6007	-1.8204458e-08
158	0x33ce6022	9.610109e-08
159	0x3860bb78	5.3580356e-05
160	0x3710b729	8.625714e-06
161	0x00000000	0.0
162	0xb98363c7	-0.00025060607
163	0x00000000	0.0
164	0x39528e0c	0.00020080077
165	0xb948a82e	-0.00019136138
166	0xb92e79ca	-0.00016639303
167	0x38e8d218	0.00011101755
168	0xb83d0ccb	-4.5073026e-05
169	0x39c50cc2	0.00037584273
170	0x00000000	0.0
171	0x36fca483	7.529337e-06
172	0xb66d9afe	-3.540597e-06
173	0x384eef88	4.9337308e-05
174	0x39103374	0.00013752078
175	0x3943a259	0.00018657128
176	0x3946b1b8	0.00018948957
177	0x39091c7a	0.00013075946
178	0xb901b4fc	-0.0001236982
179	0xb980a4e8	-0.00024536927
180	0xb89d687c	-7.505805e-05
181	0x34da28d1	4.0635362e-07
182	0x3a296f8b	0.00064634596
183	0x38e3fdd5	0.000108714834
184	0x38d11c92	9.971218e-05
185	0x39da3b40	0.00041624345
186	0xb9ec340a	-0.000450522
187	0xb9ee4189	-0.00045443725
188	0xb8eb1c26	-0.00011210916
189	0x00000000	0.0
190	0x388a3c2b	6.59156e-05
191	0x399f7937	0.00030417155
192	0xb820dd7a	-3.835324e-05
193	0xb7ab9de9	-2.0458321e-05
194	0x394d5e9e	0.00019585571
195	0xb92a3e50	-0.00016235677
196	0x388730a0	6.446359e-05
197	0x38fa68e4	0.00011940466
198	0x37e12b28	2.6842186e-05
199	0x38a95ac6	8.075456e-05
200	0x00000000	0.0
201	0x38f3a942	0.0001161867
202	0x38a2703b	7.7456665e-05
203	0xb84c1960	-4.8661022e-05
204	0x384c6590	4.8731978e-05
205	0xb9a94722	-0.0003228719
206	0x379fac11	1.9034402e-05
207	0xb9087c04	-0.0001301617
208	0x3852ec76	5.0288123e-05
209	0xb70c77fa	-8.3725845e-06
210	0x38651684	5.4618824e-05
211	0x00000000	0.0
212	0xb95f3235	-0.00021285641
213	0x389afb3d	7.390089e-05
214	0xb97b08d6	-0.00023940517
215	0xb8b76246	-8.744425e-05
216	0x38be5c6b	9.07712e-05
217	0x382eca71	4.167337e-05
218	0x38445ef5	4.6818477e-05
219	0x3610257f	2.1479498e-06
220	0xb64636e3	-2.9536247e-06
221	0x348ac318	2.5846452e-07
222	0x00000000	0.0
223	0x355f8ebd	8.3281685e-07
224	0x340ca0e1	1.3097043e-07
225	0x36c03986	5.7287425e-06
226	0x34e04d2f	4.177941e-07
227	0x360381f3	1.9596162e-06
228	0x34b31fe8	3.3364563e-07
229	0xb6cd332c	-6.1154333e-06
230	0x335daac0	5.161087e-08
231	0x35cebf1c	1.5403816e-06
232	0x34522e6f	1.9574667e-07
233	0xb8fcf5b3	-0.000120620614
234	0x00000000	0.0
235	0x0218e40b	1.1232641e-37
236	0x38489e4d	4.7831145e-05
237	0x00000000	0.0
238	0x3a11191c	0.00055350526
239	0xb973770a	-0.00023218631
240	0xb894a18c	-7.0872804e-05
241	0xb90cb3e6	-0.00013418458
242	0x39852450	0.00025394792
243	0x00000000	0.0
244	0x00000000	0.0
245	0x00000000	0.0
246	0x00000000	0.0
247	0x00000000	0.0
248	0x3aa6983c	0.0012710164
249	0xba854f29	-0.0010170686
250	0x39a9eae6	0.00032409205
251	0x394e1936	0.00019655083
252	0xb9a7c87e	-0.000320021
253	0x385faa69	5.332605e-05
254	0x3d4ff1e8	0.05076781
255	0x3d4add5a	0.049527504

exp_avg_sq f4 [128, 131]
0	0x3010cfed	5.2682375e-10
1	0x328a123c	1.6073606e-08
2	0x3190219a	4.1947716e-09
3	0x34091db6	1.2769928e-07
4	0x303e5dbd	6.925481e-10
5	0x2f90dfba	2.6352415e-10
6	0x2fd1ec32	3.8184705e-10
7	0x3008c3e2	4.975488e-10
8	0x3019804b	5.584339e-10
9	0x2f98e4ef	2.7811306e-10
10	0x305381ba	7.6945705e-10
11	0x3032038e	6.4761074e-10
12	0x30119608	5.29639e-10
13	0x308f40da	1.0423051e-09
14	0x30997660	1.1165859e-09
15	0x3000b235	4.6819376e-10
16	0x304e8ee6	7.5145434e-10
17	0x2fd5a7b5	3.8863637e-10
18	0x2fe53c4e	4.1697706e-10
19	0x2fd89a8e	3.939999e-10
20	0x301719cf	5.4970156e-10
21	0x30963f3b	1.0931908e-09
22	0x300b652b	5.0711674e-10
23	0x304e2b6f	7.5004086e-10
24	0x300c9f0f	5.115774e-10
25	0x306a03b1	8.513395e-10
26	0x3021e50e	5.8896965e-10
27	0x304217a6	7.0610395e-10
28	0x309dd7cc	1.1484587e-09
29	0x30940bc3	1.077176e-09
30	0x308dbf20	1.0313421e-09
31	0x306ba569	8.5727564e-10
32	0x2f9f1969	2.8939987e-10
33	0x34dc6027	4.1048153e-07
34	0x319d629b	4.5805115e-09
35	0x31ed0745	6.8984343e-09
36	0x31e39bd3	6.6242847e-09
37	0x31117c74	2.117102e-09
38	0x358e119f	1.0584953e-06
39	0x32fb5e0b	2.9263012e-08
40	0x32ba401e	2.1682407e-08
41	0x32f0e4a4	2.8043651e-08
42	0x32d274af	2.450028e-08
43	0x32ee8af4	2.7770035e-08
44	0x3327ee64	3.9099533e-08
45	0x32eec2db	2.7795457e-08
46	0x32c1e7e8	2.2573616e-08
47	0x32bce18f	2.1988653e-08
48	0x32ba97a6	2.1722212e-08
49	0x32bbd885	2.1868127e-08
50	0x32d492f2	2.4746871e-08
51	0x331a7e5d	3.5970846e-08
52	0x331e21e4	3.6818065e-08
53	0x3348ab78	4.672208e-08
54	0x33540717	4.9366545e-08
55	0x333d9f5d	4.414993e-08
56	0x33b22b44	8.296641e-08
57	0x33779530	5.7644854e-08
58	0x31984c59	4.432462e-09
59	0x32212571	9.379947e-09
60	0x31bc3aa9	5.478189e-09
61	0x320adc3d	8.082734e-09
62	0x3208cbcf	7.962583e-09
63	0x31e8cfad	6.7756987e-09
64	0x31e9bdf7	6.802789e-09
65	0x31ca8530	5.8941154e-09
66	0x31d18f3d	6.098985e-09
67	0x3204a5d9	7.721121e-09
68	0x3180deef	3.750635e-09
69	0x31d4c8de	6.192848e-09
70	0x31a7c05e	4.8822093e-09
71	0x31cf326b	6.0302248e-09
72	0x31957022	4.3492188e-09
73	0x31aaeb5d	4.974409e-09
74	0x319f562a	4.6373048e-09
75	0x31675fdc	3.3669414e-09
76	0x31edbca7	6.919055e-09
77	0x31c1b4ac	5.6375793e-09
78	0x3181f3f8	3.78213e-09
79	0x318e04cc	4.1332893e-09
80	0x31e9eaa8	6.80787e-09
81	0x31d04510	6.0614482e-09
82	0x31ec4655	6.8765e-09
83	0x319db8cd	4.590311e-09
84	0x31e51de2	6.6681745e-09
85	0x31a87625	4.902875e-09
86	0x314a5956	2.944565e-09
87	0x31a19205	4.702317e-09
88	0x31d94ace	6.3240355e-09
89	0x31dd8f1b	6.4482157e-09
90	0x31b14984	5.1597357e-09
91	0x31921977	4.2520543e-09
92	0x31c26b83	5.6583658e-09
93	0x31901d1e	4.194262e-09
94	0x31d38afa	6.156708e-09
95	0x3185678b	3.882581e-09
96	0x31acef79	5.0330837e-09
97	0x31ff264c	7.4258306e-09
98	0x3216bceb	8.774104e-09
99	0x319b3569	4.5171658e-09
100	0x31a7eeef	4.8875033e-09
101	0x31a84d45	4.898228e-09
102	0x322d0947	1.0072035e-08
103	0x31ae9693	5.081185e-09
104	0x31ddad20	6.4516286e-09
105	0x31ac5c26	5.016335e-09
106	0x00000000	0.0
107	0x31e3c834	6.62933e-09
108	0x3204610a	7.705475e-09
109	0x31d4237f	6.1740475e-09
110	0x31db54e2	6.383389e-09
111	0x30134b07	5.358491e-10
112	0x336d6123	5.5269208e-08
113	0x3404eef7	1.2380393e-07
114	0x3405462e	1.2412121e-07
115	0x331c90de	3.6453336e-08
116	0x00000000	0.0
117	0x3476f457	2.2999426e-07
118	0x3473fa9a	2.2722307e-07
119	0x33dc57e1	1.02605334e-07
120	0x33a37c2a	7.612864e-08
121	0x3394f2f7	6.935982e-08
122	0x33a603d9	7.730677e-08
123	0x3b1231fc	0.0022307625
124	0x3b09d112	0.0021029157
125	0x3b0faebb	0.0021924216
126	0x3b124faf	0.0022325327
127	0x3b14bf23	0.0022696934
128	0x3b1a8582	0.0023578112
129	0x3b1b60ff	0.0023708937
130	0x3ee9963a	0.45622426
131	0x00000000	0.0
132	0x34bb4a38	3.4885466e-07
133	0x3443b2f8	1.8225899e-07
134	0x3664322d	3.4003854e-06
135	0x00000000	0.0
136	0x00000000	0.0
137	0x320788ca	7.8891365e-09
138	0x00000000	0.0
139	0x3332d951	4.1641503e-08
140	0x30b23031	1.2964901e-09
141	0x00000000	0.0
142	0x33314364	4.1272315e-08
143	0x316126c4	3.2763845e-09
144	0x00000000	0.0
145	0x32aae963	1.9896737e-08
146	0x3325b725	3.8583625e-08
147	0x00000000	0.0
148	0x338025f3	5.9673674e-08
149	0x335b0991	5.099861e-08
150	0x32bd1f3c	2.20167e-08
151	0x323de40b	1.1053099e-08
152	0x00000000	0.0
153	0x00000000	0.0
154	0x3332d951	4.1641503e-08
155	0x3242b0bb	1.133247e-08
156	0x3351742a	4.8767255e-08
157	0x337d773b	5.9014592e-08
158	0x30be7834	1.3858483e-09
159	0x32b39ada	2.0908761e-08
160	0x331b1592	3.6108368e-08
161	0x00000000	0.0
162	0x339a5ca8	7.188038e-08
163	0x00000000	0.0
164	0x37044b11	7.885291e-06
165	0x3481b891	2.4162412e-07
166	0x33f483a4	1.1386081e-07
167	0x343647fa	1.6976256e-07
168	0x33948f14	6.917813e-08
169	0x37906e14	1.7217397e-05
170	0x00000000	0.0
171	0x3333f39b	4.1898243e-08
172	0x339d2b72	7.318785e-08
173	0x3292e33f	1.7099977e-08
174	0x35b5a165	1.3532523e-06
175	0x35d9c449	1.6224886e-06
176	0x35913f94	1.0821846e-06
177	0x3561203d	8.3865945e-07
178	0x3587d6d3	1.0120806e-06
179	0x35414b64	7.200781e-07
180	0x3516d575	5.6189975e-07
181	0x349d9486	2.9351594e-07
182	0x3532c246	6.659287e-07
183	0x353ad18a	6.959532e-07
184	0x35785fd3	9.252664e-07
185	0x3555b1f2	7.960763e-07
186	0x35ee7875	1.7767439e-06
187	0x35de6072	1.6568358e-06
188	0x35cb4785	1.5145494e-06
189	0x00000000	0.0
190	0x34a0b60c	2.993478e-07
191	0x3475e97b	2.2902343e-07
192	0x34dcbb31	4.1114393e-07
193	0x34d1adde	3.905579e-07
194	0x3482294a	2.424443e-07
195	0x348ace95	2.585481e-07
196	0x3497ad81	2.8252182e-07
197	0x34326c16	1.6616863e-07
198	0x34776987	2.3042058e-07
199	0x349232da	2.7231619e-07
200	0x00000000	0.0
201	0x3424efa0	1.5360865e-07
202	0x33f9e0f9	1.1635888e-07
203	0x34b62708	3.392854e-07
204	0x344d015e	1.909261e-07
205	0x348753ad	2.5206592e-07
206	0x33a54378	7.695684e-08
207	0x34b9641f	3.4531783e-07
208	0x344b95d3	1.8960354e-07
209	0x34692e60	2.1716687e-07
210	0x33c89600	9.3405106e-08
211	0x00000000	0.0
212	0x34098a2c	1.2809386e-07
213	0x33c26a32	9.053146e-08
214	0x34337e0b	1.6716528e-07
215	0x3441aea5	1.8038061e-07
216	0x34013679	1.2033878e-07
217	0x340a05c7	1.2854353e-07
218	0x341e3627	1.4734597e-07
219	0x32603327	1.3050147e-08
220	0x32da27d6	2.5396655e-08
221	0x32b74f91	2.1340187e-08
222	0x00000000	0.0
223	0x31787010	3.615245e-09
224	0x309f13a3	1.1574354e-09
225	0x3292efc9	1.7105679e-08
226	0x311d3612	2.2877242e-09
227	0x33479b85	4.6474742e-08
228	0x322be9d0	1.0006673e-08
229	0x32786ccb	1.4460237e-08
230	0x3088dba0	9.957724e-10
231	0x3183df2d	3.837974e-09
232	0x309993cd	1.1174223e-09
233	0x33ec8ed0	1.1015584e-07
234	0x00000000	0.0
235	0x2f9bcf5d	2.8341676e-10
236	0x32614164	1.3111592e-08
237	0x00000000	0.0
238	0x34c18102	3.6042917e-07
239	0x34c4a67f	3.6628987e-07
240	0x34f714d3	4.6022487e-07
241	0x35035632	4.8926734e-07
242	0x3703e01f	7.860391e-06
243	0x00000000	0.0
244	0x00000000	0.0
245	0x00000000	0.0
246	0x00000000	0.0
247	0x00000000	0.0
248	0x365dbdcf	3.304205e-06
249	0x36a5df9e	4.9434157e-06
250	0x365290df	3.1376765e-06
251	0x36375f38	2.732455e-06
252	0x35e34e73	1.693565e-06
253	0x340a8444	1.290037e-07
254	0x3db75b02	0.08952905
255	0x3daa79ca	0.08324011

exp_avg f4 [128]
0	0xb9917943	-0.00027746902
1	0x39852450	0.00025394792
2	0x394897c4	0.00019130023
3	0x39e3f3cb	0.00043478454
4	0x3b508bb6	0.0031821555
5	0xb89566e0	-7.1240356e-05
6	0x38318033	4.2319483e-05
7	0xb879d728	-5.9566606e-05
8	0x3995a46b	0.00028541996
9	0xb989a382	-0.000262525
10	0x37be5770	2.2690481e-05
11	0x39295842	0.00016149975
12	0xb7f68444	-2.9387076e-05
13	0x0216b22f	1.1071396e-37
14	0x021907eb	1.1242937e-37
15	0x021f6816	1.1711346e-37
16	0xba2908c0	-0.0006448142
17	0x3a0bef99	0.0005338132
18	0x39da0d3b	0.00041590058
19	0x394fe3f8	0.00019825983
20	0xb9d6715c	-0.0004090172
21	0x383354a3	4.275575e-05
22	0x373b5bcd	1.1167443e-05
23	0x00000000	0.0
24	0x00000000	0.0
25	0x3a57679d	0.00082170387
26	0xb933f63f	-0.00017162504
27	0x00000000	0.0
28	0xb81eeaf0	-3.7888938e-05
29	0x3ac9523a	0.0015359588
30	0x3a2a72f6	0.0006502116
31	0x391aab12	0.00014750313
32	0x36e0ff48	6.705439e-06
33	0x00000000	0.0
34	0x39996e5e	0.00029264664
35	0x00000000	0.0
36	0x3b05e178	0.002042858
37	0x3b145850	0.0022635646
38	0x3aaa8e04	0.0013012295
39	0x02121fa2	1.0735464e-37
40	0x3a0292d2	0.00049809844
41	0x39c70fe1	0.00037968069
42	0x3a52749c	0.00080282404
43	0x3afe7ea0	0.0019416399
44	0x00000000	0.0
45	0x00000000	0.0
46	0x37399820	1.1062279e-05
47	0x3ac5d6c4	0.0015093912
48	0x00000000	0.0
49	0x00000000	0.0
50	0xb99b25be	-0.00029592024
51	0x390588d0	0.00012734835
52	0x3af77b5a	0.0018881366
53	0x3b2c14b6	0.0026257462
54	0x021a9888	1.1357907e-37
55	0xb86f3bb3	-5.703764e-05
56	0x3a93de5c	0.0011281478
57	0x00000000	0.0
58	0x00000000	0.0
59	0xb9ce11e6	-0.00039304717
60	0x3ac80129	0.0015259135
61	0x39ab7e8d	0.0003270995
62	0x391d5b44	0.00015006686
63	0x39b12052	0.0003378415
64	0x3aab8dd8	0.0013088537
65	0x0214cb52	1.0931673e-37
66	0x3a550203	0.0008125605
67	0x00000000	0.0
68	0xb928334b	-0.00016040837
69	0x37783b90	1.479582e-05
70	0x384b27b6	4.8435955e-05
71	0x00000000	0.0
72	0xb7046b0c	-7.892737e-06
73	0xb7a929aa	-2.0165771e-05
74	0xb6bba320	-5.5920245e-06
75	0xb94223be	-0.00018514597
76	0xb8d63116	-0.00010213458
77	0x00000000	0.0
78	0x39c1b948	0.00036949874
79	0x00000000	0.0
80	0xba7e5e5d	-0.0009703392
81	0x02176b63	1.1124546e-37
82	0x3af55225	0.0018716498
83	0x38e19d61	0.0001075815
84	0x391855d4	0.00014527823
85	0x3b0a04ed	0.0021060065
86	0xb8854a9c	-6.355831e-05
87	0xb721a8de	-9.635665e-06
88	0x39f4509c	0.00046599365
89	0x39ea944a	0.00044742442
90	0x00000000	0.0
91	0x00000000	0.0
92	0xb950c414	-0.0001990947
93	0xb8262ead	-3.9620954e-05
94	0x39b98ca8	0.00035390747
95	0x00000000	0.0
96	0xb95c1967	-0.00020990298
97	0x3a20682a	0.0006119037
98	0x38a901c8	8.05888e-05
99	0x00000000	0.0
100	0x3b21d69a	0.0024694563
101	0x02192e23	1.1253905e-37
102	0x396b384e	0.00022432322
103	0x3a68a01e	0.0008873957
104	0xb9503146	-0.00019854782
105	0x39cdd588	0.0003925974
106	0x372ffaf8	1.0489246e-05
107	0x399cd8e7	0.00029916244
108	0x3af19701	0.0018431843
109	0x3aa858d6	0.0012843858
110	0x393dbbc6	0.00018094396
111	0x0210e602	1.0645458e-37
112	0x3a243d8c	0.0006265275
113	0xb89c707f	-7.459614e-05
114	0xba3d10e9	-0.00072122976
115	0x00000000	0.0
116	0x021655dc	1.10449e-37
117	0x3925a54c	0.00015797204
118	0x0219dde1	1.1304341e-37
119	0x3990825f	0.00027562954
120	0x39d82222	0.0004122416
121	0x3a7e749f	0.0009706709
122	0x00000000	0.0
123	0x39d775fd	0.00041095904
124	0xb69e5eb3	-4.7197914e-06
125	0x0215b6e0	1.0999274e-37
126	0x3a81a936	0.0009892348
127	0x3b1002ec	0.0021974398

exp_avg_sq f4 [128]
0	0x34dca03e	4.1094785e-07
1	0x3703e01f	7.860391e-06
2	0x369d3408	4.685022e-06
3	0x36e32f82	6.770658e-06
4	0x3806174b	3.1969783e-05
5	0x36f594de	7.3188994e-06
6	0x356fb62f	8.929955e-07
7	0x34d01b32	3.8762806e-07
8	0x372264e3	9.679442e-06
9	0x37504d4c	1.2415763e-05
10	0x38832c09	6.254769e-05
11	0x36793497	3.7134503e-06
12	0x36208601	2.3919858e-06
13	0x2e17ec50	3.4543313e-11
14	0x303dd01a	6.905353e-10
15	0x3181bdb0	3.775959e-09
16	0x38947b58	7.0801645e-05
17	0x36b5fa95	5.423392e-06
18	0x369be8cd	4.6464615e-06
19	0x38a27b7a	7.747761e-05
20	0x3699351c	4.565938e-06
21	0x32e5613a	2.6703322e-08
22	0x3483e71c	2.4568806e-07
23	0x00000000	0.0
24	0x00000000	0.0
25	0x3801cf23	3.0948908e-05
26	0x38872de2	6.445848e-05
27	0x00000000	0.0
28	0x37303b37	1.05042045e-05
29	0x387ad8d7	5.9806593e-05
30	0x373613ba	1.0852638e-05
31	0x360febb1	2.144585e-06
32	0x363b9092	2.7949322e-06
33	0x00000000	0.0
34	0x3686c689	4.0166237e-06
35	0x00000000	0.0
36	0x38813a5c	6.1620696e-05
37	0x38b43c9b	8.5943575e-05
38	0x37dd33da	2.6369398e-05
39	0x2ef36874	1.1068915e-10
40	0x3625438d	2.4626236e-06
41	0x36a2fd8b	4.8574925e-06
42	0x379c6e8c	1.8648127e-05
43	0x383fe3d1	4.575012e-05
44	0x00000000	0.0
45	0x00000000	0.0
46	0x3816155c	3.578268e-05
47	0x38304105	4.2022224e-05
48	0x00000000	0.0
49	0x00000000	0.0
50	0x371783c2	9.030979e-06
51	0x366d9f01	3.5408304e-06
52	0x3879d251	5.95621e-05
53	0x38064016	3.2007774e-05
54	0x2ffb7e22	4.5746257e-10
55	0x358404de	9.836183e-07
56	0x385e27d3	5.2966014e-05
57	0x00000000	0.0
58	0x00000000	0.0
59	0x36909110	4.308422e-06
60	0x389383b1	7.034036e-05
61	0x36b073fa	5.25871e-06
62	0x363062a6	2.6283465e-06
63	0x384a287a	4.819825e-05
64	0x37b39f4f	2.1412647e-05
65	0x3081be1d	9.440019e-10
66	0x38c60503	9.442309e-05
67	0x00000000	0.0
68	0x3514718a	5.529952e-07
69	0x364688c0	2.9583898e-06
70	0x372cb01b	1.0293002e-05
71	0x00000000	0.0
72	0x34c65be3	3.694723e-07
73	0x3514b6e8	5.540046e-07
74	0x35ff1772	1.9005804e-06
75	0x37510e22	1.2460661e-05
76	0x36188819	2.2728984e-06
77	0x00000000	0.0
78	0x385f769f	5.3277818e-05
79	0x00000000	0.0
80	0x391bb2b4	0.00014848524
81	0x2e87f229	6.1821055e-11
82	0x378efed5	1.7046385e-05
83	0x36bcc3b5	5.62562e-06
84	0x37154d41	8.899079e-06
85	0x37d3c91f	2.5246814e-05
86	0x360198c7	1.9311426e-06
87	0x356357ce	8.469186e-07
88	0x36b08e14	5.261749e-06
89	0x37053e2e	7.941895e-06
90	0x00000000	0.0
91	0x00000000	0.0
92	0x37a32652	1.9448958e-05
93	0x33fa792d	1.1663574e-07
94	0x35fc544f	1.88e-06
95	0x00000000	0.0
96	0x37a71cc1	1.9921341e-05
97	0x375fa16c	1.332942e-05
98	0x359765d0	1.1280008e-06
99	0x00000000	0.0
100	0x3915d887	0.0001429041
101	0x307d3761	9.211956e-10
102	0x3663dc72	3.3953952e-06
103	0x35b3719f	1.3369607e-06
104	0x3660ad8a	3.3479614e-06
105	0x38050a78	3.171942e-05
106	0x357f2945	9.505496e-07
107	0x3581c263	9.667823e-07
108	0x3824d977	3.9303177e-05
109	0x38226d94	3.8725862e-05
110	0x38a033da	7.639053e-05
111	0x34153d1f	1.3898942e-07
112	0x37bf6afa	2.281879e-05
113	0x3765eaa5	1.3704096e-05
114	0x382c7468	4.1116407e-05
115	0x00000000	0.0
116	0x3012b9b7	5.337841e-10
117	0x38b2e955	8.531163e-05
118	0x2dc00d24	2.1833708e-11
119	0x36d852f7	6.44696e-06
120	0x378aac51	1.6531123e-05
121	0x36803aec	3.8215567e-06
122	0x00000000	0.0
123	0x36c7e61c	5.9574504e-06
124	0x33b164be	8.26053e-08
125	0x2fa4b900	2.9962877e-10
126	0x379b8c7f	1.8542863e-05
127	0x38878dcf	6.4637155e-05

exp_avg f4 [64, 128]
0	0xbcd30d8c	-0.025763296
1	0xbac412e6	-0.0014959245
2	0x3d3024bc	0.043003783
3	0x3d2f3479	0.04277465
4	0x3d0c348a	0.034229793
5	0x3a4d1038	0.0007822546
6	0xba319f82	-0.00067757827
7	0x3a593c14	0.00082868454
8	0x3d221828	0.03957382
9	0x3d151b20	0.03640282
10	0x3c416c32	0.011805581
11	0xbb7cbb67	-0.003856385
12	0x3cf057e7	0.02933879
13	0x821d8111	-1.1571579e-37
14	0x821d8f57	-1.1575675e-37
15	0x82165ca9	-1.1046852e-37
16	0x3c296ef2	0.010341393
17	0x3d5c1c05	0.05373766
18	0x3d63675e	0.0555185
19	0x3cde4f3c	0.027137391
20	0x3d49b354	0.049243286
21	0x3a5abb7e	0.00083439786
22	0xb77d3261	-1.5091705e-05
23	0x00000000	0.0
24	0x00000000	0.0
25	0x3caef0f8	0.021355137
26	0x3c9bdb50	0.019025475
27	0x00000000	0.0
28	0x3cbd05fe	0.023074146
29	0x3d40c593	0.04706342
30	0x3d9cac84	0.07650092
31	0x3d23e9b9	0.040017817
32	0x3cf8f0e2	0.0303883
33	0x00000000	0.0
34	0x3c01628d	0.0078970315
35	0x00000000	0.0
36	0x3d5c47d7	0.05377945
37	0x3c311c5e	0.010809986
38	0x3d1dd043	0.038528692
39	0x00000000	0.0
40	0x3da9ba07	0.08287435
41	0xbb891f98	-0.0041846745
42	0x3ca98202	0.020691875
43	0x3cca9c5e	0.024732765
44	0x00000000	0.0
45	0x00000000	0.0
46	0x3c7cc2c5	0.015427296
47	0x3c9874d5	0.018610397
48	0x00000000	0.0
49	0x00000000	0.0
50	0x3ce12498	0.02748327
51	0x3c2e6600	0.010644436
52	0x3cf41b1a	0.02979808
53	0x3cef2a90	0.0291951
54	0x8218dd7e	-1.1230761e-37
55	0x3a560383	0.00081639754
56	0x3c8dded4	0.017318167
57	0x00000000	0.0
58	0x00000000	0.0
59	0x3b7903c0	0.003799662
60	0x3ca12c3b	0.019674411
61	0x3dbb2710	0.0913831
62	0xba41f4f0	-0.0007398864
63	0x3d6176a1	0.055044774
64	0x3d25954c	0.040425584
65	0x0212df2c	1.0790433e-37
66	0x3b836c21	0.0040106927
67	0x00000000	0.0
68	0xb920e6d4	-0.00015344779
69	0x3d63c9b8	0.055612296
70	0x3d647b51	0.055781666
71	0x00000000	0.0
72	0x3947bf9c	0.00019049499
73	0xbc367026	-0.011135137
74	0x3d867fce	0.065673456
75	0x3c8f78dd	0.017513687
76	0xbad4dcee	-0.0016240159
77	0x00000000	0.0
78	0x3d0ba96b	0.034097116
79	0x00000000	0.0
80	0xb976b720	-0.00023528608
81	0x8215ee59	-1.1015194e-37
82	0x3d2eacdc	0.04264532
83	0x3d73bef1	0.059508268
84	0x3c22eb5c	0.009943809
85	0x3d142d3f	0.036175963
86	0x3d150565	0.036382098
87	0xb9d19080	-0.00039971247
88	0x3d2e6a63	0.042581927
89	0x3d68e21f	0.05685627
90	0x00000000	0.0
91	0x00000000	0.0
92	0x3cfbecaf	0.030752508
93	0x3a15ace7	0.00057096634
94	0x3c17063f	0.009217798
95	0x00000000	0.0
96	0x3d5d7041	0.05406213
97	0x3d313784	0.043265834
98	0xbb88caf6	-0.0041745855
99	0x00000000	0.0
100	0x3c340958	0.010988556
101	0x821bc18b	-1.1443146e-37
102	0x3d5754c4	0.052571073
103	0x3ddb6491	0.10712541
104	0x3ccacef8	0.024756894
105	0x3d0157ae	0.03157776
106	0xba5ceb75	-0.000842742
107	0x3c8f301a	0.017478991
108	0x3d1ec058	0.038757652
109	0x3cdf9536	0.027292829
110	0x3cb873bd	0.022516126
111	0x821ccaed	-1.1519307e-37
112	0x3d321348	0.04347542
113	0x3ca25b32	0.019818876
114	0x3c800b47	0.015630377
115	0x00000000	0.0
116	0x02114247	1.0671938e-37
117	0x3c06a71a	0.008218551
118	0x82111fcf	-1.0662046e-37
119	0x3ce9d5c3	0.028544312
120	0x3c814114	0.015778102
121	0x3d8f3662	0.069927946
122	0x00000000	0.0
123	0x3d244dcb	0.04011325
124	0x376f1e5f	1.4252581e-05
125	0x82158c9c	-1.0987144e-37
126	0x3d02887a	0.031868435
127	0x3ce90a79	0.028447377
128	0x9dd18c99	-5.5467214e-21
129	0x021ad6d6	1.1375788e-37
130	0x30347549	6.565029e-10
131	0xb8bf45d9	-9.1206e-05
132	0x34bcf373	3.5194861e-07
133	0x041c8be8	1.8401954e-36
134	0x821aced8	-1.1373494e-37
135	0xb6c6db2b	-5.9263743e-06
136	0xb80653d7	-3.202617e-05
137	0x341affe7	1.4435464e-07
138	0x9e4630a4	-1.0492091e-20
139	0x349b1347	2.8885026e-07
140	0xb8f521b6	-0.000116887895
141	0x0218db5e	1.1230152e-37
142	0x0218536b	1.1191136e-37
143	0x02191b49	1.1248495e-37
144	0x348f3042	2.6670938e-07
145	0x1b4706b9	1.6463066e-22
146	0xb8e39c68	-0.000108533364
147	0x34351346	1.686395e-07
148	0x97ba1b16	-1.2026806e-24
149	0x021d4d5c	1.1556739e-37
150	0x94f1f602	-2.4431814e-26
151	0x00000000	0.0
152	0x00000000	0.0
153	0xb7be3b42	-2.2677359e-05
154	0x32a96e87	1.9724451e-08
155	0x00000000	0.0
156	0xb83bf352	-4.4810884e-05
157	0xb803f1e8	-3.1458127e-05
158	0x3045001a	7.1668327e-10
159	0x36022225	1.9391384e-06
160	0xb8d41580	-0.000101129524
161	0x00000000	0.0
162	0x365398b8	3.1530344e-06
163	0x00000000	0.0
164	0xb799e5f0	-1.8346094e-05
165	0xb677116f	-3.6816016e-06
166	0x9e7a24a7	-1.3242469e-20
167	0x00000000	0.0
168	0xb91803de	-0.0001449729
169	0x14269ddc	8.4119905e-27
170	0x34129f71	1.3655314e-07
171	0x9d0282fa	-1.727307e-21
172	0x00000000	0.0
173	0x00000000	0.0
174	0xb7433c7c	-1.1636988e-05
175	0xb7a5f47b	-1.9783378e-05
176	0x00000000	0.0
177	0x00000000	0.0
178	0xb7d94206	-2.589916e-05
179	0xb881d44b	-6.190742e-05
180	0x9db85768	-4.879477e-21
181	0xb7e15c3c	-2.686504e-05
182	0x02128f46	1.0767503e-37
183	0x9cd9c3a4	-1.4410427e-21
184	0x9e5ff221	-1.1855593e-20
185	0x00000000	0.0
186	0x00000000	0.0
187	0xb86e2234	-5.6775476e-05
188	0x341f13b9	1.4815204e-07
189	0xb8f5ce2a	-0.000117209114
190	0xb92b7521	-0.00016351465
191	0x9c0c0f1c	-4.6341643e-22
192	0xb758b7c6	-1.2917391e-05
193	0x021e9065	1.1649446e-37
194	0x33fdf4fc	1.1825793e-07
195	0x00000000	0.0
196	0x95542066	-4.2838617e-26
197	0xb8c0ca24	-9.192925e-05
198	0xb8f38574	-0.000116120005
199	0x00000000	0.0
200	0x8bd249e8	-8.100026e-32
201	0x352932f4	6.303155e-07
202	0xb8c603fa	-9.4421164e-05
203	0xb8079944	-3.2329248e-05
204	0xb7cc6b23	-2.4368584e-05
205	0x00000000	0.0
206	0x34b424f4	3.35545e-07
207	0x00000000	0.0
208	0x3292560e	1.703577e-08
209	0x021974be	1.1274168e-37
210	0x344f74ce	1.932087e-07
211	0xb8d51de6	-0.000101622005
212	0xb808f913	-3.2656895e-05
213	0x35481876	7.45414e-07
214	0xb8f47ff8	-0.00011658663
215	0x1a139785	3.0521284e-23
216	0xb8fde2ff	-0.000121062614
217	0x3602866d	1.9449756e-06
218	0x00000000	0.0
219	0x00000000	0.0
220	0xb7db7156	-2.615961e-05
221	0x82110d5a	-1.0656749e-37
222	0xb8070448	-3.2190495e-05
223	0x00000000	0.0
224	0xb8422521	-4.6287783e-05
225	0xb7319fbe	-1.0587215e-05
226	0x3502b94d	4.869842e-07
227	0x00000000	0.0
228	0x34325d0c	1.6611392e-07
229	0x02120a31	1.0729311e-37
230	0xb8721a19	-5.77216e-05
231	0xb9083d7e	-0.00012992878
232	0x364c021a	3.0399592e-06
233	0x34a116a5	3.0005063e-07
234	0x9e0eae3d	-7.553449e-21
235	0xb7a0fa99	-1.919018e-05
236	0x34497eae	1.876567e-07
237	0xb7f4fd26	-2.9204948e-05
238	0x2eda910e	9.939259e-11
239	0x02135dd6	1.0826784e-37
240	0xb82c18c9	-4.103108e-05
241	0xb8597563	-5.1846157e-05
242	0x350bee0c	5.212794e-07
243	0x00000000	0.0
244	0x0210e594	1.0645335e-37
245	0x34c566d6	3.6768932e-07
246	0x00000000	0.0
247	0xb8ad6740	-8.268515e-05
248	0xb8091ad9	-3.268835e-05
249	0xb8dac24f	-0.00010431243
250	0x00000000	0.0
251	0xb8f3a562	-0.00011617948
252	0x9c16db7e	-4.9914524e-22
253	0x0213ff9a	1.0873208e-37
254	0xb78b2d4d	-1.6591186e-05
255	0xb7d0924f	-2.4863662e-05
