lightning_model_releases/lightning_quantile_test/model_params/0.7_81054_1334_lightning_quantile.ckpt (torch, 311310 bytes, 15 tensors)

model.0.weight f4 [128, 131]
0	0x3da6dca1	0.081475504
1	0x3d170fde	0.036880367
2	0xbd2f0b0b	-0.04273514
3	0x3cfbf26b	0.030755242
4	0xbc4da4e7	-0.012551523
5	0x3d8bc3c3	0.06824448
6	0xbd9b66d4	-0.07587972
7	0x3d40621e	0.04696857
8	0x3dbf2640	0.093334675
9	0xbdab3a13	-0.08360686
10	0x3d778eb7	0.060438838
11	0x3cc31380	0.02381301
12	0x3d98d727	0.07462912
13	0x3bbefcbb	0.0058284677
14	0x3d60e219	0.054903124
15	0xbd23f7ce	-0.040031247
16	0x3cb47bb7	0.022031648
17	0xbcfd3d3e	-0.030912992
18	0xbcef717e	-0.029228922
19	0x3c0dbd06	0.008651024
20	0xbc81e5cf	-0.015856652
21	0xbcb6352d	-0.022242153
22	0xbcbc4d45	-0.022986064
23	0x3d20b687	0.03923657
24	0xbd9cd107	-0.07657056
25	0xbd935cff	-0.07195472
26	0xbcb44dd3	-0.022009766
27	0xbd7e82ef	-0.062136587
28	0x3d59d5f9	0.053182576
29	0xbe13aced	-0.14421435
30	0x3d9becb9	0.07613511
31	0xbde2fdc6	-0.1108356
32	0x3d348305	0.044070262
33	0xbcfdf4d8	-0.03100054
34	0xbc898545	-0.01678718
35	0x3c0c3ce5	0.00855944
36	0xbbe59f59	-0.007007521
37	0x3d1c15f8	0.03810689
38	0xbd1053a7	-0.035236027
39	0xbda26b08	-0.07930571
40	0xbc3fa105	-0.011696105
41	0xbd1720cd	-0.036896516
42	0xbc71f100	-0.0147669315
43	0x3d72b850	0.059257805
44	0x3cba743c	0.022760503
45	0xbde15da5	-0.110041894
46	0x3d070b26	0.032969616
47	0x3d13995b	0.036034923
48	0x3cff136f	0.031137196
49	0xbd276536	-0.040868007
50	0xbdcc064c	-0.099621385
51	0xbd84512d	-0.064607956
52	0xbd23f7d2	-0.04003126
53	0x3d7fea1f	0.062479135
54	0xba4e80cd	-0.0007877469
55	0x3c85bfcd	0.01632681
56	0xbcfd170f	-0.030894784
57	0xbd598467	-0.053104784
58	0x3d420f90	0.047378123
59	0xbdca0a43	-0.098652385
60	0x3d420b95	0.047374327
61	0xbce20fd0	-0.02759543
62	0xbb7231c9	-0.0036955944
63	0xbd9a1af4	-0.07524672
64	0xbc5d0c31	-0.013491676
65	0xbd40622c	-0.046968624
66	0x3c93bdbc	0.018034808
67	0xbdb43ed4	-0.08801046
68	0xbda16e19	-0.078823276
69	0xbda6b343	-0.0813966
70	0x3dcd3219	0.10019321
71	0x3d9cef91	0.07662881
72	0x3cef1308	0.02918388
73	0xbdb391a6	-0.087680146
74	0xbd8ba50f	-0.06818592
75	0xbd89a2c8	-0.06720501
76	0xbc8681c5	-0.0164193
77	0x3d4a94c3	0.049458276
78	0x3ce4da34	0.027936079
79	0x3d8226ac	0.06355032
80	0xbd8ef0ac	-0.06979498
81	0xbd2e9297	-0.042620268
82	0x39916a13	0.00027735587
83	0xbd35273b	-0.044226866
84	0x3d0a2e9a	0.03373585
85	0x3c911926	0.017712187
86	0x3d402a12	0.04691512
87	0xbde76358	-0.11298245
88	0xbd86c7d2	-0.065810814
89	0x3d2ee031	0.042694274
90	0x3cb759de	0.02238172
91	0xbd5b5b28	-0.05355373
92	0x3d3e2a1b	0.046426874
93	0x3b575cae	0.0032861638
94	0xbd9b55ce	-0.07584725
95	0xbd9e5c5a	-0.077324584
96	0x3d9bdf80	0.076109886
97	0xbd374d59	-0.0447515
98	0xbd0431e2	-0.032274134
99	0xbda83da7	-0.08214884
100	0xbd8a5040	-0.06753588
101	0x3be11276	0.006868656
102	0xbd36f9d5	-0.044671852
103	0xbdf5beed	-0.11999307
104	0xbd28f464	-0.041248694
105	0xbd4613ab	-0.0483586
106	0xbd97ceb9	-0.07412476
107	0xbd4a0d79	-0.049329255
108	0xbd8c4189	-0.06848437
109	0xbdaa8f20	-0.0832808
110	0x3cf5b7ca	0.029994864
111	0x3c872f60	0.016502082
112	0x3a309feb	0.0006737697
113	0xbde94b1c	-0.11391279
114	0xbde16637	-0.11005824
115	0xbc7d6865	-0.015466784
116	0x3c5fd770	0.013662204
117	0xbdcfc057	-0.10144108
118	0xbdbaf188	-0.091281
119	0xbdcbb131	-0.09945906
120	0xbd1ed306	-0.038775466
121	0xbd0740ff	-0.03302097
122	0xbd48fe5b	-0.049070697
123	0xbdd77deb	-0.10522064
124	0xbdcbfd7b	-0.09960457
125	0xbda86f14	-0.082243115
126	0xbd8af34a	-0.06784685
127	0xbdda17e9	-0.10649092
128	0x3cf6a208	0.03010656
129	0xbd924ee3	-0.07143953
130	0x3d07ffe6	0.03320303
131	0xbd8dd52b	-0.06925424
132	0x3d6a2d60	0.05717218
133	0x3eb48884	0.35260403
134	0x3f042a68	0.51627207
135	0xbd0cec0c	-0.0344048
136	0xbf0f66ec	-0.5601642
137	0xbe11c2f8	-0.14234531
138	0xbe8c5528	-0.2740872
139	0x3da45b57	0.08025234
140	0xbd8d0dea	-0.068874195
141	0xbe96648a	-0.2937358
142	0xbd3da63c	-0.04630111
143	0x3ebcec50	0.36899042
144	0x3e8cb68a	0.27483016
145	0x3d24b47c	0.040211186
146	0xbe26b7f3	-0.16281109
147	0x3da40b8e	0.080100164
148	0x3d5a0107	0.053223636
149	0x3e862c81	0.2620583
150	0x3cc46d0a	0.023977775
151	0xbe3e1c41	-0.18565466
152	0x3defe0fb	0.117128335
153	0xbdf159bc	-0.117846936
154	0x3e73ea9a	0.23819962
155	0xbecd74e8	-0.40128255
156	0xbeacd7fa	-0.33758527
157	0x3e505cd6	0.20347914
158	0x3e5808db	0.21097128
159	0xbcf645f9	-0.030062662
160	0x3de883b7	0.113532476
161	0x3efdd2bb	0.49574837
162	0xbd59b408	-0.053150207
163	0xbdb66fd1	-0.08908046
164	0x3e09d223	0.13459067
165	0x3e1214b8	0.14265716
166	0x3e98f75f	0.2987623
167	0x3da63a5e	0.081166014
168	0xbb9be60a	-0.0047576474
169	0x3d4160ff	0.047211643
170	0xbe7eebb1	-0.24894597
171	0xbde5a23e	-0.11212586
172	0x3dc3f51a	0.09568234
173	0x3e732818	0.23745763
174	0x3e0036c2	0.12520888
175	0xbd120b43	-0.03565527
176	0xbe4986dc	-0.19680351
177	0x3d481f56	0.04885801
178	0x3df4e6ce	0.11958085
179	0x3da19c4b	0.07891139
180	0x3dbb812e	0.091554984
181	0x3c04d537	0.008107475
182	0xbf64619c	-0.8921144
183	0xbe8c3c89	-0.27389935
184	0xbe888eae	-0.26671356
185	0xbe3091ea	-0.17243162
186	0xbdbfba89	-0.09361751
187	0x3f5ae03b	0.854984
188	0x3efedabc	0.49776256
189	0xbe89fcb8	-0.26950622
190	0xbe1f0469	-0.15529026
191	0x3eaacc31	0.3335891
192	0xbeae91b4	-0.34095538
193	0x3e40ad4c	0.18816108
194	0x3dcc81e2	0.09985711
195	0xbcda9c56	-0.026685875
196	0xbe0dbfaf	-0.13842653
197	0xbe6c30df	-0.23065518
198	0x3d98f98f	0.074694745
199	0xbd26404f	-0.040588673
200	0xbe3ed855	-0.18637212
201	0xbe2717c8	-0.16317666
202	0x3e387084	0.18011671
203	0x3e029944	0.12753779
204	0x3ca9325a	0.020653892
205	0x3df4e129	0.119570084
206	0xbef760ae	-0.48315948
207	0xbd2a2502	-0.0415392
208	0x3e292f0f	0.16521858
209	0xbe0b27f2	-0.13589457
210	0x3e163bfb	0.14671318
211	0x3e2396c4	0.15975481
212	0x3d5cc7e9	0.053901587
213	0x3eb28c26	0.3487255
214	0x3e1a3840	0.1506052
215	0x3ac718c4	0.0015189876
216	0xbda7a283	-0.081852935
217	0xbebb9805	-0.3663942
218	0x3ea5ea80	0.32405472
219	0xbe3e8ced	-0.18608446
220	0xbf00ba40	-0.50284195
221	0x3e89b791	0.26897863
222	0xbeaee348	-0.34157777
223	0xbc9ab4eb	-0.018885097
224	0xbb5b5dab	-0.0033472579
225	0xbe561d94	-0.2090972
226	0xbd4f44c8	-0.050602704
227	0x3caf7568	0.021418288
228	0xbce981a1	-0.028504195
229	0xbe5ad57d	-0.21370502
230	0x3e1dcaad	0.15409346
231	0x3b5710f4	0.0032816501
232	0x3e34e823	0.17666678
233	0x3e68bad0	0.22727513
234	0x3e7b1dcf	0.2452309
235	0x3e590aee	0.21195576
236	0x3c94a8b5	0.018146852
237	0xbd8814b2	-0.06644572
238	0x3e6fad97	0.23406063
239	0x3de7e1f6	0.113223955
240	0xbe015a21	-0.12632038
241	0xbe713fc3	-0.2355948
242	0x3d9847b1	0.07435549
243	0x3d0be48e	0.034153514
244	0x3d9874f9	0.07444186
245	0xbd94f654	-0.07273546
246	0xbe82478d	-0.25445214
247	0x3ced6b0c	0.028981708
248	0xbf350799	-0.7071472
249	0x3f477f9b	0.77929085
250	0xbcd793da	-0.026315618
251	0xbdc75376	-0.09732716
252	0x3dc061c1	0.09393645
253	0x3db4d7ff	0.088302605
254	0x3d46b2fb	0.048510533
255	0xbdada65d	-0.08478997

model.0.bias f4 [128]
0	0xbe016f5e	-0.1264014
1	0x3e3890be	0.18023965
2	0x3df4cd16	0.119531795
3	0x3deedc37	0.116630964
4	0x3e0f8974	0.14017278
5	0x3e354bfe	0.1770477
6	0xbd4bf3c9	-0.04979304
7	0x3a10dfff	0.0005526542
8	0x3cb2ec04	0.021841057
9	0x3da66594	0.08124843
10	0x3c48dd01	0.012259723
11	0x3c9e665f	0.019335924
12	0x3beb74e1	0.007185564
13	0xbd45af90	-0.048263133
14	0x3d7d5591	0.06184918
15	0xbd896ff4	-0.067108065
16	0x3dd4c965	0.103899755
17	0xbc959973	-0.018261647
18	0x3c9d4afe	0.019200798
19	0x3e2c5184	0.1682797
20	0x3dd364af	0.10321938
21	0xbbd6a6df	-0.0065506543
22	0xbd530aff	-0.05152416
23	0x3d887713	0.066633366
24	0x3da86ccd	0.08223877
25	0x3db643d1	0.08899654
26	0x3d25c9a9	0.04047552
27	0x3b454200	0.0030099154
28	0x3e1ff253	0.15619783
29	0x3de35a5e	0.111012205
30	0x3e2219f4	0.15830213
31	0x3e013b18	0.12620199
32	0x3dc69412	0.09696211
33	0xbd78e64e	-0.06076651
34	0x3d17d2dc	0.037066326
35	0x3c8a99f4	0.016919114
36	0x3d9d54e5	0.07682208
37	0x3df11c55	0.11772982
38	0x3e0479e0	0.12937117
39	0xbd59f28c	-0.053209826
40	0x3cb76bd6	0.022390287
41	0xbce9224a	-0.028458733
42	0x3da4fe2c	0.08056292
43	0x3e1452c2	0.14484695
44	0x3da1d713	0.0790235
45	0x3b961d60	0.0045811385
46	0x3e0bd346	0.13654813
47	0x3c8a0055	0.016845861
48	0xbaf8e380	-0.0018988699
49	0xbc870864	-0.016483493
50	0x3d098e87	0.03358319
51	0x3df3ca51	0.11903823
52	0x3e05c15f	0.13062046
53	0x3c0ff7fd	0.008787152
54	0xbdbcda75	-0.09221355
55	0xbda1e3c2	-0.079047695
56	0x3de0171a	0.10941906
57	0x3d29c8b2	0.041451164
58	0x3d39419a	0.04522858
59	0x3e07f0a5	0.13275392
60	0x3d11f82d	0.03563707
61	0x3db2ba5e	0.08726953
62	0x3cb206d9	0.02173178
63	0x3d3b78eb	0.045769613
64	0x3dc8d472	0.09806146
65	0xbc73dafa	-0.014883751
66	0x3ce24e46	0.027625214
67	0xbaa68ec0	-0.0012707338
68	0xbc1d26ff	-0.009591817
69	0x3c6c9f0e	0.0144422185
70	0x3d06f8ea	0.032952227
71	0x3d7200f2	0.059082933
72	0xbd9b32f8	-0.07578081
73	0x3c9e6c16	0.019338649
74	0x3d1bc324	0.038027897
75	0x3d3b7bab	0.045772236
76	0xbd44c77f	-0.048041817
77	0xbcbba458	-0.022905514
78	0x3e290f4b	0.1650974
79	0xbd18d5cf	-0.03731328
80	0x3d632dea	0.05546371
81	0xbb13b97b	-0.0022540975
82	0xbda79179	-0.081820436
83	0x3da236f5	0.079206385
84	0x3e266d6d	0.1625268
85	0x3df6f7b4	0.12058964
86	0x3d192a74	0.037394002
87	0xbd92278c	-0.07136449
88	0xbccb6923	-0.024830407
89	0x3c63d5e5	0.013905977
90	0xbcc4364c	-0.023951672
91	0x3d46621a	0.0484334
92	0x3e28881f	0.16458176
93	0xbd87bcf2	-0.06627835
94	0xbd6e070d	-0.058112193
95	0x3d74da32	0.0597784
96	0x3d3cee25	0.04612555
97	0x3d51104e	0.05104094
98	0x3b93363b	0.0044925488
99	0xbd1abb4e	-0.037776284
100	0x3cce8dea	0.025214154
101	0x3d93d7e8	0.07218915
102	0xbc148fdd	-0.009067503
103	0xbba91f37	-0.005161192
104	0x3cfcf8a2	0.030880276
105	0x3dc0f4f2	0.094217196
106	0x3b0f665f	0.0021881086
107	0xbd26d29d	-0.0407282
108	0x3b1e0666	0.00241127
109	0x3d910ccd	0.0708252
110	0x3e3fb8d2	0.18722847
111	0xbcc0e7a6	-0.023547959
112	0xbb816c6f	-0.003949694
113	0x3d887d15	0.066644825
114	0x3e264af9	0.16239537
115	0x3c644e70	0.013934717
116	0xbd09b676	-0.033621274
117	0x3e36c237	0.17847525
118	0xbb4093c1	-0.0029384943
119	0x3db08668	0.08619386
120	0x3e2662ed	0.16248675
121	0x3d6480ea	0.055787005
122	0xbc7c2778	-0.015390269
123	0x3de3c475	0.111214556
124	0xbcc9488c	-0.024570726
125	0xbd952b4a	-0.07283647
126	0x3e27bbc0	0.16380215
127	0x3d68e5eb	0.05685989

model.3.weight f4 [64, 128]
0	0xbd908f5c	-0.07058594
1	0x3df44dda	0.119289115
2	0xbd8b2ad0	-0.06795275
3	0xbcdea21b	-0.027176907
4	0x3c0d70dd	0.008632866
5	0x3d298249	0.041384015
6	0x3b98466f	0.004647068
7	0x3daad924	0.083421975
8	0x3d87b9a0	0.06627202
9	0xbd956b2b	-0.07295831
10	0xbd5c111b	-0.05372725
11	0xbd9ea116	-0.077455685
12	0x3d8a8667	0.067639165
13	0xbd04fcef	-0.03246778
14	0xbd019432	-0.03163547
15	0xbd31678b	-0.043311637
16	0x3d06d7ee	0.03292077
17	0x3cbcbde3	0.023039764
18	0x3d45d304	0.048296943
19	0x3d9f8364	0.07788733
20	0x3d9d4e8f	0.076809995
21	0xbd54b83c	-0.051933512
22	0x3c7234b3	0.014783072
23	0xbd662fd9	-0.056197975
24	0xbd02a0f5	-0.03189178
25	0x3c846c76	0.016165
26	0x3d878806	0.06617741
27	0xbd2285bb	-0.039678317
28	0xbd2b208c	-0.041779086
29	0x389c0cbd	7.441032e-05
30	0x3d36e7ba	0.044654585
31	0x3c19cf21	0.009387762
32	0x3d9846ab	0.07435354
33	0xbda2f04b	-0.079559885
34	0x3cbca8a6	0.023029637
35	0x3d8918d3	0.06694188
36	0x3dcbf015	0.099579014
37	0xbd2aa483	-0.041660797
38	0xbd5dc707	-0.054144885
39	0x3befa045	0.007312807
40	0xbbe9a545	-0.0071302974
41	0x3d37a58b	0.04483561
42	0x3db175cf	0.08665048
43	0x3c96cba1	0.018407645
44	0xbcd4c0e6	-0.025970887
45	0x3d456252	0.04818947
46	0xbd47409b	-0.048645597
47	0xbab57154	-0.0013842979
48	0x3c323158	0.010876022
49	0xbc73b498	-0.0148746
50	0x3d55a2f4	0.052157357
51	0x3bfb27f1	0.0076646735
52	0x3d15b7b4	0.036552146
53	0x3d075953	0.03304417
54	0x3b232743	0.0024895228
55	0xbd20aa16	-0.039224707
56	0x3db79527	0.089639954
57	0x3d49c222	0.049257405
58	0xbc5d1640	-0.013494074
59	0xbd3c0df8	-0.04591176
60	0x3c7c0a26	0.015383279
61	0x3d891806	0.06694035
62	0x3d3baaf7	0.04581734
63	0xbb9f8788	-0.0048684515
64	0x3d7f507b	0.06233261
65	0x3ae4d174	0.0017457441
66	0x3d2ca18d	0.042146254
67	0xbd2a47c6	-0.041572355
68	0x3b7d1c75	0.0038621698
69	0xbc12bec3	-0.008956614
70	0x3c662c17	0.014048598
71	0xbdac2a7b	-0.0840654
72	0x3b04537a	0.0020191357
73	0xbd833974	-0.06407443
74	0xbd8b0488	-0.06787974
75	0xbda84961	-0.08217121
76	0xbd33b405	-0.043872852
77	0x3caeea17	0.021351857
78	0x3cf53993	0.02993468
79	0x3caa7470	0.020807475
80	0x3ca3cd43	0.019995337
81	0xbd4c62bf	-0.04989886
82	0xbb064678	-0.002048878
83	0xbda0dde2	-0.07854821
84	0xbbde6d2e	-0.0067879176
85	0x3c982d1b	0.018576195
86	0x3c282d64	0.010264728
87	0xbd9a1991	-0.07524408
88	0x3d89d7c4	0.06730607
89	0x3d938c5c	0.07204506
90	0xbd222c0d	-0.03959279
91	0xbd9a2f6c	-0.07528576
92	0x3c9a3690	0.018824846
93	0x3ce342d2	0.027741823
94	0xbc9a3e8a	-0.01882865
95	0xbd26515d	-0.040604938
96	0x3cacb192	0.021080766
97	0xbce63c00	-0.028104782
98	0xbd272ec9	-0.040816102
99	0x3ce7a2b0	0.028275818
100	0x3d926920	0.07148957
101	0x3e2ae65a	0.16689435
102	0x3d986bad	0.074424125
103	0x3bf313cc	0.0074181315
104	0x3c9ba406	0.01899911
105	0x3d95871a	0.07301159
106	0xbd50f67c	-0.051016316
107	0x3d793614	0.06084259
108	0x3daac9a6	0.08339243
109	0xbcdf9a82	-0.027295355
110	0x3dd6f56b	0.104960285
111	0xbc7cda39	-0.015432888
112	0xbd2d3558	-0.0422872
113	0x3d863c59	0.06554479
114	0x3d8cd7cc	0.068770975
115	0xbbd0aee0	-0.006368503
116	0xbd8b9652	-0.06815781
117	0x3e5fab72	0.21842745
118	0x3d0ee742	0.034888513
119	0xbd8787ab	-0.066176735
120	0x3cdc4ceb	0.026892146
121	0x3d6bd148	0.057572633
122	0x3d18df7e	0.037322514
123	0xbccb3ef6	-0.024810296
124	0xbd0d10b5	-0.03443976
125	0xbca406d8	-0.020022795
126	0x3da5a5d6	0.08088271
127	0x3d9da298	0.07697028
128	0xbcec22bb	-0.028825155
129	0xbd34a9ab	-0.04410712
130	0xbda64911	-0.08119405
131	0xbd1db531	-0.038502876
132	0x3ca9f119	0.020744847
133	0xbdccd49c	-0.100014895
134	0xbb91739d	-0.004438831
135	0x3d8f6209	0.070011206
136	0x3ca4ab8b	0.02010133
137	0x3c58c999	0.013231658
138	0xbd75f3ef	-0.060047086
139	0xbcbd746f	-0.023126809
140	0xbdbcbafd	-0.09215353
141	0xbd72e8f6	-0.0593042
142	0x3c2f2313	0.010689515
143	0x3c82e0f0	0.0159764
144	0x3ca62b3e	0.020284291
145	0xbd8f9ca5	-0.070122994
146	0x3b77e72d	0.0037827
147	0xbdb62710	-0.08894169
148	0xbda97413	-0.082740925
149	0xbd2a2510	-0.04153925
150	0xbd8f5ee1	-0.070005186
151	0x3c894e68	0.01676102
152	0x3c640bd8	0.013918839
153	0x3d1dd0d6	0.03852924
154	0xbb7a7f71	-0.0038222934
155	0x3c8d2824	0.017231055
156	0x3c4500dd	0.012024132
157	0x3c03d939	0.008047395
158	0xbdcfc623	-0.101452135
159	0xbd709eeb	-0.058745306
160	0xbdb4d923	-0.08830478
161	0xbd51ea7b	-0.05124901
162	0xbb193661	-0.002337836
163	0x3daab355	0.08334986
164	0xbc7759a2	-0.015097054
165	0xbd819edb	-0.063291274
166	0xbaa70a8e	-0.0012744234
167	0x3d7929a6	0.060830735
168	0xbad4a92c	-0.0016224734
169	0xbdb5159a	-0.08842011
170	0xbbe76c19	-0.007062447
171	0x3b32bffb	0.0027275074
172	0x3c6d16e0	0.014470786
173	0x3da557a3	0.08073356
174	0x3d65f484	0.05614139
175	0xbda83e29	-0.08214981
176	0x3d89a0a3	0.06720092
177	0xbda201dc	-0.07910511
178	0xbd8ea86e	-0.06965719
179	0x3cacb6b4	0.021083213
180	0xbca311da	-0.019905973
181	0x3d5b2119	0.05349836
182	0x3d2cdc63	0.042202365
183	0xbd06f0e2	-0.032944568
184	0x3d6c55f2	0.05769915
185	0xbd81e940	-0.06343317
186	0x3c86f114	0.016472377
187	0x3c207c83	0.009795311
188	0x3c70adcb	0.014689873
189	0x3d892fbf	0.0669856
190	0x3cbbc8d3	0.022922909
191	0xbd921492	-0.0713283
192	0x3d52b427	0.051441338
193	0x3d595cf6	0.05306717
194	0xbd275df7	-0.040861096
195	0x3d81f3b1	0.063453086
196	0xb98d9fab	-0.00027012578
197	0xbcbeda1d	-0.023297364
198	0x3bdf967d	0.0068233595
199	0x39818600	0.00024704635
200	0xbd28db22	-0.041224606
201	0xbbb4cd12	-0.0055176103
202	0xbc8e99cf	-0.017407326
203	0xbda34287	-0.079716735
204	0xbda113d6	-0.078651115
205	0x3ceded60	0.029043853
206	0xbd81f29b	-0.063451014
207	0x3b0dabe0	0.0021617338
208	0x3cc9056d	0.02453872
209	0x3d693059	0.056930874
210	0x3d0ab790	0.033866465
211	0x3cee6572	0.029101107
212	0x3d162bd2	0.036662884
213	0xbda1912a	-0.07889016
214	0x3d81cdbd	0.063380696
215	0xbda831f1	-0.082126506
216	0xbd9d7fec	-0.07690415
217	0xbd6b6aa5	-0.05747475
218	0x3db0ebf1	0.08638752
219	0x3d4aa92a	0.049477734
220	0x3b91581d	0.0044355527
221	0x3d11e0ec	0.035614893
222	0xbdcaf8b1	-0.09910715
223	0xbdaca741	-0.08430339
224	0x3c0eded1	0.008720116
225	0xbc8f9c32	-0.017530534
226	0x3cdbb06f	0.026817529
227	0xbd807942	-0.06273128
228	0x3d52b84f	0.0514453
229	0xbdef3188	-0.11679369
230	0x3ccb53e5	0.024820277
231	0x3cde862c	0.027163588
232	0xbd881050	-0.06643736
233	0x3d44ea91	0.048075262
234	0x3cf6c0aa	0.030121166
235	0xbd6bfc8c	-0.057613894
236	0xbd8b4493	-0.06800189
237	0x3c84e161	0.01622075
238	0xbd7924b1	-0.060826007
239	0xbbcb3de0	-0.0062024444
240	0x3caf442e	0.021394815
241	0x3ca20af5	0.019780615
242	0xbd8c710d	-0.068575
243	0x3d884433	0.06653633
244	0x3c9fcb2d	0.019506061
245	0x3b35be02	0.0027731662
246	0xbd2839c1	-0.041070703
247	0x3cabda08	0.020977989
248	0xbce9143f	-0.028452037
249	0x3d2ee4d3	0.042698693
250	0x3d39a33e	0.045321696
251	0x3d3b24a1	0.04568923
252	0xbcd569e5	-0.026051471
253	0x3d3eeeb4	0.046614364
254	0x3d3a1370	0.045428693
255	0xbc42db45	-0.011893098

model.3.bias f4 [64]
0	0x3e16cfd0	0.14727712
1	0xbd76395f	-0.060113307
2	0x3e4b0887	0.19827472
3	0x3bb14cfa	0.0054107876
4	0xbdc43da0	-0.095820665
5	0x3e500324	0.20313698
6	0x3d143d73	0.036191415
7	0xbd3d9674	-0.04628606
8	0xb9ab96b0	-0.00032727933
9	0x3d21c7b0	0.039497077
10	0xbcdd63dd	-0.027025158
11	0x3e730255	0.23731358
12	0x3e393046	0.18084821
13	0x3e8a0a12	0.26960808
14	0x3e36518f	0.1780455
15	0xbcb65bd5	-0.022260586
16	0xbdbea4b9	-0.09308762
17	0xbd117aca	-0.03551749
18	0x3e616e3b	0.22014706
19	0x3d5745a3	0.052556645
20	0x3d8b75ae	0.06809555
21	0xbcf32dfb	-0.029685011
22	0x3e630a80	0.22171974
23	0x3e0f690d	0.14004917
24	0x3e543c52	0.20726135
25	0x3e4fde84	0.20299727
26	0x3e1e3e88	0.15453541
27	0x3e7fada3	0.24968581
28	0x3e237677	0.1596316
29	0xbd84b2b5	-0.06479398
30	0x3de913f6	0.1138076
31	0xbc4ec37f	-0.012619852
32	0xbd50ffe6	-0.051025294
33	0x3e548228	0.20752776
34	0x3e10ecae	0.14152786
35	0xbd78e34a	-0.060763635
36	0x3a58ef5a	0.0008275412
37	0x3da86066	0.082215115
38	0x3d8b3b24	0.067983896
39	0x3e6075be	0.21919915
40	0x3cd23671	0.025660725
41	0x3c81850a	0.015810508
42	0xbca3a35f	-0.019975362
43	0xbd1f246d	-0.038853098
44	0xbc272b7b	-0.010203238
45	0xbddac30b	-0.10681733
46	0x3d92e3c9	0.07172353
47	0xbc3687ec	-0.011140805
48	0x3d3b4210	0.0457173
49	0x3e280a4a	0.16410175
50	0x3dd8a7e0	0.105788946
51	0x3d24da2d	0.04024713
52	0x3e5f1d68	0.21788561
53	0x3df81d33	0.12114944
54	0x3cd51fbb	0.026016107
55	0x3cb1eba9	0.021718817
56	0xbdaf8e0c	-0.08572015
57	0x3e1d50ed	0.15362902
58	0x3e1b45a1	0.1516328
59	0x3e53a116	0.20666918
60	0x3e285a7b	0.16440766
61	0xbd01206d	-0.031525064
62	0xbd658cc0	-0.056042433
63	0x3e3607d3	0.17776422

model.6.weight f4 [1, 64]
0	0x3dbfcd80	0.09365368
1	0xbd386534	-0.04501839
2	0x3d5e5b7e	0.054286472
3	0xbc685dbd	-0.014182505
4	0xbd239020	-0.03993237
5	0x3d361ecd	0.044462968
6	0x3db51ab9	0.088429876
7	0xbdcef8cb	-0.10106047
8	0xbd202412	-0.0390969
9	0x3da66b2f	0.081259124
10	0xbd3760a2	-0.04476989
11	0x3d7457ba	0.059653975
12	0x3d8f341f	0.06992363
13	0x3d3c4a7a	0.045969464
14	0x3d3c85fa	0.046026208
15	0xbd8e7ba3	-0.069571756
16	0xbac85a8e	-0.0015285776
17	0xbc78167c	-0.015142079
18	0x3d488f44	0.048964754
19	0x3b02f666	0.001998329
20	0xbc9186e6	-0.01776452
21	0xbd781c19	-0.06057367
22	0x3d9f5d73	0.07781496
23	0x3d35b093	0.044357847
24	0x3d64e591	0.055882994
25	0x3d9bfc1c	0.076164454
26	0x3d2b7928	0.04186359
27	0x3daa909f	0.083283655
28	0x3d56931c	0.05238639
29	0xbce5513a	-0.027992833
30	0x3d0f9b7a	0.035060383
31	0xbdc5f7d3	-0.09666409
32	0xbd47903c	-0.048721537
33	0x3dc5eafc	0.0966396
34	0x3ddc422b	0.10754808
35	0xbd9a303e	-0.07528733
36	0xbd1be951	-0.038064305
37	0x3d97c502	0.07410623
38	0xbdd19693	-0.10233798
39	0x3d34675d	0.044043887
40	0xbdccaf7b	-0.09994408
41	0xbd256650	-0.040380776
42	0xbd6628d4	-0.05619128
43	0x3c035e9a	0.00801816
44	0xbc189af9	-0.009314292
45	0xbd5c629c	-0.05380498
46	0x3d84ddff	0.06487655
47	0xbd1f92fc	-0.038958535
48	0xbddb9a2e	-0.10722767
49	0x3d9787cf	0.0739895
50	0x3d9eba02	0.07750322
51	0xbc24b4c6	-0.010052865
52	0x3d24fdf0	0.040281236
53	0x3d34393f	0.043999907
54	0x3b72e9d8	0.0037065651
55	0xbc24b874	-0.010053743
56	0xbdbba0ed	-0.091615535
57	0x3d7b17f0	0.061302125
58	0x3d3d4def	0.0462169
59	0x3d91b0b6	0.07113783
60	0x3d622ef5	0.055220563
61	0xbd13297c	-0.035928234
62	0xbd3f5c1f	-0.046718713
63	0x3d3b7472	0.045765348

exp_avg f4 [128, 131]
0	0x35bfcbcc	1.4289922e-06
1	0xb555fa12	-7.9712584e-07
2	0x34aa6a73	3.174242e-07
3	0xb8e8f81c	-0.00011108836
4	0x2a645bd0	2.0282322e-13
5	0xa99552b4	-6.631276e-14
6	0x3166a831	3.356501e-09
7	0x2ba91490	1.201388e-12
8	0xb490e8a0	-2.6991347e-07
9	0x366a6520	3.492758e-06
10	0x33c73709	9.2766705e-08
11	0x2af3069a	4.3170052e-13
12	0xaa5b61c1	-1.9485023e-13
13	0xab31a5d5	-6.311317e-13
14	0x3518199c	5.666168e-07
15	0x3594f8a4	1.1099223e-06
16	0xb6a9562b	-5.0466238e-06
17	0xb50ad223	-5.1714795e-07
18	0x2952ef2e	4.6836822e-14
19	0x2af3069a	4.3170052e-13
20	0x3435c94e	1.6930173e-07
21	0xb398279f	-7.0852586e-08
22	0xb1b08571	-5.1374447e-09
23	0xb48e955c	-2.6558234e-07
24	0x309f81c8	1.1605659e-09
25	0x33e50a36	1.0665501e-07
26	0xb4689039	-2.1659152e-07
27	0x3276159e	1.4324e-08
28	0x344c6c5a	1.9038399e-07
29	0xb4e17ce7	-4.2000394e-07
30	0xb545c5bd	-7.3675966e-07
31	0x33421d05	4.5195538e-08
32	0xb423c557	-1.525235e-07
33	0xb8ad405d	-8.2612714e-05
34	0x35bba371	1.3980153e-06
35	0xb6d753c6	-6.417252e-06
36	0x36a0bbd3	4.790237e-06
37	0xb4869832	-2.5070182e-07
38	0xb90ea912	-0.00013605159
39	0xb6905123	-4.30098e-06
40	0x37fde864	3.0268166e-05
41	0xb8fcb17a	-0.00012049354
42	0x37511da2	1.246427e-05
43	0xb590181e	-1.0735855e-06
44	0x380601a3	3.1949614e-05
45	0xb818a4fc	-3.6393278e-05
46	0x35a18a13	1.203562e-06
47	0x36993068	4.5653906e-06
48	0xb5dd0ace	-1.6468928e-06
49	0xb3bb6940	-8.727011e-08
50	0x357a22e1	9.3183013e-07
51	0x37b74c62	2.1850869e-05
52	0x36ccbd9e	6.101748e-06
53	0xb7dbbe82	-2.6195547e-05
54	0xb7e5a7de	-2.7377097e-05
55	0x381a9f0d	3.686459e-05
56	0xb8de5a53	-0.00010602609
57	0x374c28b0	1.2168821e-05
58	0x35cf6911	1.545328e-06
59	0x36fae244	7.4769214e-06
60	0xb6a1b9df	-4.819812e-06
61	0x366efcf7	3.5612009e-06
62	0x356a7b52	8.735125e-07
63	0x3786e474	1.6080427e-05
64	0xb787caa1	-1.618761e-05
65	0xb410b064	-1.3475216e-07
66	0xb756ce26	-1.2803392e-05
67	0x35d9eb64	1.6236268e-06
68	0xb676b1c1	-3.6760323e-06
69	0x3710b202	8.6245145e-06
70	0xb4169a96	-1.4026077e-07
71	0x35ded56f	1.6602406e-06
72	0x36e223a0	6.739472e-06
73	0x3641594a	2.8811214e-06
74	0x33ef0e28	1.113188e-07
75	0xb29e909d	-1.8459383e-08
76	0xb61258fb	-2.1807489e-06
77	0xb3228a28	-3.7844217e-08
78	0x297f1a54	5.664421e-14
79	0x2a525a45	1.8683065e-13
80	0xb70ad92e	-8.276007e-06
81	0xab09e35f	-4.898772e-13
82	0xb5d7ee68	-1.6088134e-06
83	0xa8beaa88	-2.1168194e-14
84	0x296b441f	5.2239568e-14
85	0xb3bbf86a	-8.753052e-08
86	0x2ddcad69	2.5088114e-11
87	0x2a7bc531	2.2361693e-13
88	0x32a5ef32	1.9317302e-08
89	0x3511b418	5.427878e-07
90	0x34c72fd0	3.7101427e-07
91	0xb6e439ae	-6.8016443e-06
92	0x3620d4d3	2.3965738e-06
93	0x3410874b	1.3460264e-07
94	0xb575a11f	-9.1504074e-07
95	0x37c3795f	2.330233e-05
96	0x368172f4	3.857882e-06
97	0x36b9ea05	5.540673e-06
98	0xb9030535	-0.00012495073
99	0x359b98b7	1.1592846e-06
100	0xb549ed3d	-7.522356e-07
101	0xb56e0ac1	-8.867756e-07
102	0x35659808	8.553038e-07
103	0x37537117	1.2602911e-05
104	0x322cbd78	1.0054798e-08
105	0x344cb18b	1.906357e-07
106	0x00000000	0.0
107	0x371a407a	9.194127e-06
108	0xb4bf88f9	-3.5676183e-07
109	0xb64793b2	-2.973928e-06
110	0xb6d56401	-6.3595367e-06
111	0x00000000	0.0
112	0x8eb1f682	-4.3871247e-30
113	0x3338f244	4.3061178e-08
114	0xb8de46a2	-0.00010598941
115	0x37c3bc93	2.3333623e-05
116	0x00000000	0.0
117	0xb7d6ea98	-2.562003e-05
118	0xb86f0b70	-5.6992692e-05
119	0x37deed7c	2.657505e-05
120	0xb800729e	-3.0624324e-05
121	0xb5575ff9	-8.02334e-07
122	0xb8a313ae	-7.776111e-05
123	0xbbe53230	-0.006994508
124	0xbbad4d94	-0.005288789
125	0xbbc43a18	-0.0059883706
126	0xbbe86922	-0.007092611
127	0xbb4e157e	-0.0031445916
128	0xbc404a24	-0.0117364265
129	0xbc16d7a3	-0.009206685
130	0xbdd7ff08	-0.1054669
131	0x395ff9e6	0.00021360032
132	0x39d847ba	0.0004125217
133	0xb7ab9678	-2.0454856e-05
134	0xbad03920	-0.0015886165
135	0xb8ad5ab6	-8.266179e-05
136	0x38f45c95	0.000116520714
137	0x38767a74	5.8765014e-05
138	0x38944722	7.0704395e-05
139	0x3932e644	0.00017061183
140	0xb8b5d356	-8.670117e-05
141	0x392991b7	0.00016171379
142	0xb8e437fa	-0.00010882314
143	0xb9994b28	-0.0002923843
144	0xb9b55fab	-0.00034594288
145	0x381cc892	3.7380094e-05
146	0x396e59a5	0.00022730844
147	0xb85fb8f1	-5.3339583e-05
148	0x385acc5b	5.216557e-05
149	0xb98189c5	-0.00024707444
150	0xb8bc6abf	-8.9844216e-05
151	0x39467dce	0.00018929617
152	0x389ac74a	7.380413e-05
153	0x3912bb58	0.00013993436
154	0x38da3bc8	0.00010406185
155	0x39e55106	0.0004373865
156	0x38edb6f1	0.00011335116
157	0x3654a3d2	3.1685818e-06
158	0xb907bd96	-0.0001294523
159	0xb923a92c	-0.00015607913
160	0xb8cbae6d	-9.712284e-05
161	0xb9613fff	-0.00021481513
162	0x395a8fc3	0.00020843656
163	0x37909d2b	1.7239325e-05
164	0x3b6f94b3	0.0036557138
165	0x391235d5	0.00013943699
166	0xb9f29618	-0.00046269665
167	0x3a54e5b0	0.00081213843
168	0x361c4dc6	2.3291082e-06
169	0x3bbea924	0.005818503
170	0x3a435b22	0.00074522395
171	0x3a86012c	0.0010223738
172	0xba69628a	-0.0008902928
173	0xb89dac45	-7.518431e-05
174	0xba7b2f7c	-0.0009581966
175	0x3a8ccadc	0.0010741609
176	0x3ac82df4	0.0015272484
177	0x38186e1e	3.634218e-05
178	0x3ac5d2f7	0.001509278
179	0x39318b90	0.00016932026
180	0xb9d7a193	-0.00041128378
181	0x36c4d006	5.8654723e-06
182	0x3b135472	0.0022480753
183	0x399ea95c	0.0003026229
184	0x3b147c58	0.0022657122
185	0x3a08617c	0.00052025146
186	0xb8cc3215	-9.7368065e-05
187	0xbb1546b0	-0.0022777729
188	0x3a4ff7c7	0.0007933345
189	0x3a14c720	0.0005675424
190	0x3994daf7	0.000283919
191	0xb9a78751	-0.0003195354
192	0x39acc01a	0.00032949523
193	0x3a1174ac	0.00055486965
194	0xb9842c18	-0.00025209854
195	0x3aae47e8	0.0013296576
196	0x39d2fb92	0.00040241756
197	0xb82c4d8c	-4.1080217e-05
198	0x38710f28	5.7472993e-05
199	0x38eef1cd	0.00011393763
200	0x39c20936	0.00037009426
201	0x3966ac74	0.00021998753
202	0xb9aa62c9	-0.00032498527
203	0x3883d0fd	6.285494e-05
204	0x39cf8587	0.00039581602
205	0xb8bd429a	-9.024628e-05
206	0x3a8dc4c0	0.0010816082
207	0x38360347	4.3395234e-05
208	0xb8f0113f	-0.00011447304
209	0x39afdf1a	0.00033544825
210	0xb61218d7	-2.1770154e-06
211	0xb96a679d	-0.00022354578
212	0x39a8161d	0.00032059933
213	0xba3e1b04	-0.00072519504
214	0x38517c81	4.9945436e-05
215	0xb8812965	-6.15891e-05
216	0xb918b079	-0.00014561591
217	0x397dd8cc	0.00024208723
218	0xb9ddf2a1	-0.00042333177
219	0xb9082af5	-0.00012985973
220	0x39f5c90e	0.0004687984
221	0xb74821a4	-1.19287615e-05
222	0x392827d6	0.00016036569
223	0x39a4b828	0.00031417725
224	0xb8cb6e0a	-9.700291e-05
225	0x38f10c2d	0.000114940434
226	0x3a09eef9	0.0005261745
227	0x39a337c6	0.00031131337
228	0x396f8c5e	0.00022845107
229	0xbaa9a826	-0.0012943789
230	0xb816c115	-3.594261e-05
231	0x39073b89	0.00012896782
232	0x39f51790	0.00046747597
233	0xb991c027	-0.0002779972
234	0xb925feda	-0.00015830566
235	0xb96cbe36	-0.00022577573
236	0xb92d174c	-0.00016507244
237	0x00000000	0.0
238	0xbae66dda	-0.0017580346
239	0x3993c381	0.00028183687
240	0x399fe985	0.0003050083
241	0x3a13f229	0.00056436897
242	0xb9f6d1ac	-0.00047076994
243	0x3b41732e	0.0029518115
244	0x3a433fc6	0.00074481627
245	0x3a420b68	0.00074022124
246	0xb95d7bfb	-0.00021122389
247	0x00000000	0.0
248	0x3baedf2a	0.005336662
249	0xbacf549f	-0.0015818066
250	0x3a61c165	0.0008611887
251	0x3b49622e	0.0030728686
252	0xb977911c	-0.00023609813
253	0x386ea490	5.6896883e-05
254	0x3f142390	0.57866764
255	0x3f0ad63e	0.5423316

exp_avg_sq f4 [128, 131]
0	0x302019b9	5.8244215e-10
1	0x3235bc16	1.0578352e-08
2	0x314dfaf3	2.9974074e-09
3	0x33cdc459	9.581772e-08
4	0x30040815	4.8032806e-10
5	0x2f088f0e	1.2419951e-10
6	0x2f8b85b7	2.5378963e-10
7	0x2fb340f7	3.260607e-10
8	0x304ac358	7.376477e-10
9	0x2f36c9c5	1.6624487e-10
10	0x30323229	6.4827305e-10
11	0x30040372	4.8026216e-10
12	0x2fd65309	3.8985373e-10
13	0x3000daf4	4.687728e-10
14	0x30385e7d	6.7073086e-10
15	0x2fe19b17	4.103746e-10
16	0x2f876b21	2.4632477e-10
17	0x2fb591ea	3.3027386e-10
18	0x2fc495fd	3.5758765e-10
19	0x2fc86782	3.6453335e-10
20	0x2f8e3ccf	2.5872857e-10
21	0x304a95e3	7.3700174e-10
22	0x2fb84cc4	3.352395e-10
23	0x30703dcb	8.7399304e-10
24	0x2f82787e	2.3732477e-10
25	0x2fa03794	2.914332e-10
26	0x302ee8c5	6.3631617e-10
27	0x300031b4	4.663676e-10
28	0x303433d5	6.5557276e-10
29	0x2fb96ac3	3.3727163e-10
30	0x30928582	1.0660843e-09
31	0x301fc00b	5.811677e-10
32	0x30044ce5	4.8130594e-10
33	0x349bb990	2.9006014e-07
34	0x3183121d	3.814661e-09
35	0x319cfb1e	4.5687463e-09
36	0x31afaffa	5.1131765e-09
37	0x308a1acd	1.0048439e-09
38	0x354b5fad	7.576262e-07
39	0x32972b68	1.7598452e-08
40	0x328eb202	1.6611924e-08
41	0x32bc9160	2.195219e-08
42	0x3293fe4f	1.7228698e-08
43	0x329dd0ae	1.8372102e-08
44	0x32aa7bc9	1.9846896e-08
45	0x32a7ccaa	1.953443e-08
46	0x3280d71d	1.4998983e-08
47	0x3268ad4d	1.3543581e-08
48	0x3271b163	1.4068379e-08
49	0x326145bf	1.3112582e-08
50	0x32916172	1.6924535e-08
51	0x32a785b4	1.950216e-08
52	0x32e4337d	2.6566108e-08
53	0x330f258a	3.3328924e-08
54	0x32d9ad73	2.5341e-08
55	0x330a18d5	3.2153213e-08
56	0x336cfe84	5.5179513e-08
57	0x33175db7	3.524266e-08
58	0x31543ee7	3.0885816e-09
59	0x31a0fa60	4.685077e-09
60	0x31922235	4.253048e-09
61	0x31882bf7	3.963119e-09
62	0x3191c0dd	4.2419814e-09
63	0x31a28392	4.7297783e-09
64	0x3197c519	4.417086e-09
65	0x319a5b74	4.492387e-09
66	0x318a92a3	4.0329993e-09
67	0x3195790b	4.3502317e-09
68	0x3125830e	2.4085156e-09
69	0x31508617	3.0344205e-09
70	0x3123a174	2.3811397e-09
71	0x31bb4bad	5.4510196e-09
72	0x315925b9	3.15991e-09
73	0x31895f5f	3.998067e-09
74	0x312cc4c8	2.5141151e-09
75	0x311dff9a	2.29918e-09
76	0x312e925c	2.5403528e-09
77	0x310a10fb	2.0091295e-09
78	0x312a8535	2.4813975e-09
79	0x312de653	2.5305738e-09
80	0x31b26098	5.1914633e-09
81	0x311ead9c	2.3090712e-09
82	0x320ad2ed	8.080616e-09
83	0x31693f67	3.3942003e-09
84	0x30be23bf	1.3834479e-09
85	0x312e76f4	2.538795e-09
86	0x31073238	1.9673632e-09
87	0x31951372	4.3386814e-09
88	0x3172ce69	3.5332965e-09
89	0x313af474	2.7205518e-09
90	0x31adf1e0	5.0624607e-09
91	0x3150b6f5	3.0371983e-09
92	0x319f19f6	4.6304605e-09
93	0x3162f374	3.3025715e-09
94	0x317a0d29	3.6387269e-09
95	0x3157b692	3.1390397e-09
96	0x3176628e	3.5853733e-09
97	0x3231cc96	1.0349273e-08
98	0x31acfdc8	5.0347104e-09
99	0x310fd2e0	2.0929107e-09
100	0x317a1e42	3.6396988e-09
101	0x3168532e	3.3807726e-09
102	0x319fb40f	4.6479793e-09
103	0x31ceee9d	6.0225163e-09
104	0x31457da9	2.8738703e-09
105	0x314f4931	3.016407e-09
106	0x00000000	0.0
107	0x31c38dfd	5.691389e-09
108	0x31c849be	5.8291496e-09
109	0x3145658c	2.8724996e-09
110	0x315339d2	3.0737408e-09
111	0x00000000	0.0
112	0x32a4b2c7	1.9173411e-08
113	0x3395d7cc	6.9776064e-08
114	0x33f7b084	1.1533942e-07
115	0x32fa597c	2.9144523e-08
116	0x00000000	0.0
117	0x341987d9	1.4298656e-07
118	0x341906f7	1.4251769e-07
119	0x338252a6	6.0686304e-08
120	0x33523542	4.8942873e-08
121	0x3353fa45	4.9354885e-08
122	0x3387eb5c	6.329239e-08
123	0x3b373253	0.002795358
124	0x3b31b1df	0.0027114076
125	0x3b354636	0.0027660257
126	0x3b393d0b	0.0028265144
127	0x3b406586	0.0029357388
128	0x3b470da6	0.0030373125
129	0x3b402355	0.0029317935
130	0x3ebc2c14	0.3675238
131	0x340c58f9	1.3070884e-07
132	0x36a03252	4.7742296e-06
133	0x35d678a3	1.5979352e-06
134	0x3819e8f7	3.6695008e-05
135	0x3496de91	2.8101616e-07
136	0x3394d80c	6.931086e-08
137	0x34041e4c	1.230448e-07
138	0x33b062cd	8.2136104e-08
139	0x346e211c	2.2177522e-07
140	0x34119f46	1.356212e-07
141	0x33f27ba9	1.1291497e-07
142	0x33ed4a58	1.10496956e-07
143	0x350d0ea9	5.2547927e-07
144	0x34a8dac0	3.14516e-07
145	0x34827348	2.4298265e-07
146	0x33f69048	1.1481512e-07
147	0x33f705b4	1.1502871e-07
148	0x3421ccdd	1.5068822e-07
149	0x351e9e63	5.909007e-07
150	0x340ded60	1.3218005e-07
151	0x34027186	1.2148493e-07
152	0x33d88ea1	1.0084228e-07
153	0x340a1608	1.2860266e-07
154	0x34a852d2	3.1352698e-07
155	0x33fe154f	1.1831673e-07
156	0x34040c9f	1.229805e-07
157	0x349dcace	2.939109e-07
158	0x34a90ff5	3.1490313e-07
159	0x341bcd5f	1.4510213e-07
160	0x34591c06	2.0219895e-07
161	0x34b013d5	3.2796984e-07
162	0x348a681d	2.5780255e-07
163	0x33fc5a55	1.1751096e-07
164	0x38f5f44a	0.00011728013
165	0x35de80b7	1.657775e-06
166	0x3603bcac	1.9630343e-06
167	0x360f1b4e	2.1324554e-06
168	0x34fe1374	4.732534e-07
169	0x39990208	0.00029183947
170	0x36a2927c	4.8450293e-06
171	0x36abf68d	5.1248994e-06
172	0x369d2300	4.683039e-06
173	0x36fe6bf9	7.5823596e-06
174	0x36d394f2	6.3056295e-06
175	0x36dd3798	6.592785e-06
176	0x36d6a81f	6.397269e-06
177	0x36ba647c	5.55493e-06
178	0x36b8c8e4	5.507014e-06
179	0x36e59ead	6.843204e-06
180	0x36bc7a41	5.617069e-06
181	0x36c4b3d6	5.862191e-06
182	0x3739dded	1.107853e-05
183	0x371bd11e	9.287409e-06
184	0x3722e353	9.7088805e-06
185	0x372ffb13	1.0489271e-05
186	0x3731f8f4	1.0607986e-05
187	0x379caa5e	1.8675983e-05
188	0x376d3f39	1.4141021e-05
189	0x356da063	8.8522773e-07
190	0x35b96f88	1.3816034e-06
191	0x35f019d3	1.7888909e-06
192	0x35b5058b	1.3487164e-06
193	0x35df87eb	1.6654352e-06
194	0x35ccedf4	1.5268438e-06
195	0x35ea5364	1.7458628e-06
196	0x3597a0b1	1.1297144e-06
197	0x35918895	1.0843092e-06
198	0x35bc3003	1.4021065e-06
199	0x35a8488e	1.2538092e-06
200	0x35a5dbe6	1.2357457e-06
201	0x3579bc7e	9.303402e-07
202	0x35d45cd0	1.5822243e-06
203	0x35a81a3b	1.252461e-06
204	0x35bd0036	1.4081659e-06
205	0x35a8b86e	1.2570652e-06
206	0x356ae581	8.7505765e-07
207	0x35bac698	1.3915878e-06
208	0x35c3da39	1.4592143e-06
209	0x35a58aed	1.2333891e-06
210	0x35fc1716	1.8782182e-06
211	0x35ab9246	1.2783064e-06
212	0x35b5d587	1.3547696e-06
213	0x35e01643	1.669578e-06
214	0x35ad9333	1.2932345e-06
215	0x3593ce55	1.1012404e-06
216	0x359c20a5	1.1632407e-06
217	0x3584cc65	9.894253e-07
218	0x35b98b48	1.382411e-06
219	0x35f078cd	1.7916551e-06
220	0x35749ca3	9.112502e-07
221	0x35b4f959	1.3483615e-06
222	0x3557df07	8.041829e-07
223	0x35a1eb3e	1.2063899e-06
224	0x35cb6cb5	1.5156317e-06
225	0x3572b26e	9.0411675e-07
226	0x3584ef5f	9.904433e-07
227	0x35843af9	9.85193e-07
228	0x35a6d1ad	1.2428987e-06
229	0x35a38993	1.2184486e-06
230	0x35a0e656	1.1987966e-06
231	0x35898afe	1.0247747e-06
232	0x35ddc8d8	1.6524236e-06
233	0x35964eec	1.119884e-06
234	0x35bda45d	1.4129433e-06
235	0x35ce80e2	1.5385706e-06
236	0x35a8c4a1	1.2574202e-06
237	0x00000000	0.0
238	0x35fad55a	1.8688545e-06
239	0x3604eac8	1.9806193e-06
240	0x35c001df	1.4305659e-06
241	0x35bd2191	1.4091366e-06
242	0x379340c5	1.7553926e-05
243	0x37adc735	2.071597e-05
244	0x37b10850	2.1103915e-05
245	0x37967a6a	1.7938397e-05
246	0x3660bab4	3.3487277e-06
247	0x00000000	0.0
248	0x3869862a	5.567648e-05
249	0x3869bf01	5.5729415e-05
250	0x379fd41b	1.9053046e-05
251	0x37abd549	2.0484107e-05
252	0x37b0adb7	2.1061727e-05
253	0x379b2801	1.8496068e-05
254	0x3fa54ddd	1.2914387
255	0x3fa489f7	1.2854604

exp_avg f4 [128]
0	0xb8ad405d	-8.2612714e-05
1	0x3b761406	0.0037548556
2	0x3a1464a6	0.000566075
3	0x39f0e4a1	0.0004594671
4	0x3b56f685	0.0032800746
5	0xbabc6a6a	-0.0014374976
6	0x3822d585	3.8822665e-05
7	0x36f84b7e	7.3997644e-06
8	0x3a1426fe	0.0005651562
9	0x3a00dcd9	0.00049157214
10	0x3b2d9841	0.0026488455
11	0x39d82ff4	0.00041234458
12	0x39c12763	0.00036841174
13	0x388963d3	6.551263e-05
14	0x021c21f1	1.1470811e-37
15	0x021b11ef	1.1392748e-37
16	0x3b03eab7	0.0020128915
17	0x3a327662	0.00068078015
18	0x3a819027	0.000988488
19	0x3ad40ec8	0.0016178722
20	0xb70f45c0	-8.539704e-06
21	0x0213750d	1.0833446e-37
22	0x02107659	1.0613413e-37
23	0x00000000	0.0
24	0x00000000	0.0
25	0x3aa0b768	0.001226169
26	0x38700f20	5.7234545e-05
27	0x00000000	0.0
28	0x3b013ef0	0.0019721352
29	0x3a2116a8	0.00061450386
30	0x3a36d9e1	0.00069752155
31	0x3975afb8	0.00023430481
32	0xb9215844	-0.00015387038
33	0x00000000	0.0
34	0x39c6f88c	0.00037950685
35	0x00000000	0.0
36	0x3a97ad53	0.001157204
37	0x3b8f193c	0.004367022
38	0x3a0bb782	0.0005329774
39	0x021481b4	1.0910546e-37
40	0x396ede0b	0.00022780166
41	0x398996b9	0.00026242973
42	0xb968be7c	-0.00022196205
43	0xba59f6f2	-0.0008314691
44	0x00000000	0.0
45	0x00000000	0.0
46	0x3a724e6e	0.00092432543
47	0x3a33476a	0.00068389496
48	0x00000000	0.0
49	0x00000000	0.0
50	0x3a29858e	0.00064667396
51	0x37f5a960	2.9285147e-05
52	0x3b43ad37	0.0029857883
53	0x3ab81d4e	0.0014046819
54	0x0215bf20	1.1001641e-37
55	0x390763ba	0.00012911754
56	0x3b100b24	0.0021979297
57	0x00000000	0.0
58	0x00000000	0.0
59	0x3a1896e0	0.0005820822
60	0x3ac40aee	0.001495687
61	0x39fce2e3	0.0004823423
62	0x376560f0	1.3672034e-05
63	0x3af1d48c	0.0018450185
64	0x3a338b99	0.000684911
65	0x0217838e	1.1131482e-37
66	0x3b3ed042	0.002911583
67	0x00000000	0.0
68	0x368f600c	4.2729134e-06
69	0xb86699fd	-5.4979686e-05
70	0x371a3200	9.190757e-06
71	0x00000000	0.0
72	0x365a6bec	3.254735e-06
73	0x3a352ef6	0.00069116
74	0x39a25c54	0.00030967838
75	0x3a8a0f66	0.0010533154
76	0x39ed1584	0.00045220193
77	0x0211112d	1.0657847e-37
78	0x39e0cbea	0.00042876537
79	0x00000000	0.0
80	0xbaead7cf	-0.0017917099
81	0x0210cfbf	1.0639069e-37
82	0x02142cb6	1.0886154e-37
83	0x39af79b4	0.00033469277
84	0x3887b1a0	6.470387e-05
85	0x3aab0de2	0.0013050402
86	0x399f347d	0.0003036595
87	0x36ac11d8	5.1280767e-06
88	0x39beba26	0.00036378315
89	0x3a4525de	0.0007520596
90	0x00000000	0.0
91	0x00000000	0.0
92	0x39d09cb2	0.000397896
93	0xb91785d2	-0.00014450334
94	0x3a39d5fe	0.0007089077
95	0x00000000	0.0
96	0x391c56ac	0.00014909607
97	0x3a26bd9f	0.0006360653
98	0x38238e40	3.899471e-05
99	0x00000000	0.0
100	0xba65bb24	-0.0008763543
101	0xbb50021e	-0.0031739543
102	0x3a07b0c9	0.00051761843
103	0x3a4e6a13	0.00078740827
104	0xb6fddec0	-7.565919e-06
105	0x3964b45c	0.00021810964
106	0xb785bafe	-1.594191e-05
107	0x378f71a0	1.709984e-05
108	0x3a7da2fe	0.0009675472
109	0x3a8f23d9	0.0010920718
110	0x394ae638	0.00019349984
111	0xb782553c	-1.5536898e-05
112	0x3a875419	0.0010324746
113	0xb9442d28	-0.00018708839
114	0xbaca2590	-0.0015422571
115	0x00000000	0.0
116	0x021d0ccb	1.153821e-37
117	0x3a4319f2	0.0007442526
118	0x02173c8d	1.1111105e-37
119	0x3999484f	0.00029236308
120	0x39f7584e	0.00047177303
121	0x3a224058	0.00061893975
122	0x00000000	0.0
123	0x39eead0e	0.00045523833
124	0xbb31ab0e	-0.0027110013
125	0x0212c458	1.0782734e-37
126	0x3a0ea836	0.00054419355
127	0x3afb1d6f	0.0019158552

exp_avg_sq f4 [128]
0	0x349c0a55	2.9064782e-07
1	0x38f758a5	0.00011794389
2	0x36dd3d23	6.5934305e-06
3	0x371e1a26	9.423622e-06
4	0x37fe96b5	3.0349338e-05
5	0x3713e2d1	8.814693e-06
6	0x341f4440	1.4832858e-07
7	0x349bb6a0	2.9003877e-07
8	0x372d51bc	1.0330634e-05
9	0x378a0c30	1.6456557e-05
10	0x38c1149a	9.2067945e-05
11	0x3684872e	3.9496435e-06
12	0x36a68d62	4.9636446e-06
13	0x34b95482	3.4520423e-07
14	0x2f9eda67	2.8895217e-10
15	0x31a7f335	4.887989e-09
16	0x38998508	7.3203875e-05
17	0x3735ff6a	1.0847909e-05
18	0x36d39b1f	6.3063485e-06
19	0x38a0beb3	7.664915e-05
20	0x36ceeb74	6.1666888e-06
21	0x2fec9881	4.303651e-10
22	0x2f01b0a1	1.1795233e-10
23	0x00000000	0.0
24	0x00000000	0.0
25	0x37e8495a	2.7690712e-05
26	0x38aab006	8.1390186e-05
27	0x00000000	0.0
28	0x3732bedf	1.0654067e-05
29	0x388e1658	6.7752495e-05
30	0x37529c69	1.25533925e-05
31	0x368b04ea	4.143095e-06
32	0x36eb26cf	7.0080637e-06
33	0x00000000	0.0
34	0x3688a6e5	4.072545e-06
35	0x00000000	0.0
36	0x388ec36c	6.807488e-05
37	0x389dec32	7.530338e-05
38	0x37e6a0cf	2.7493019e-05
39	0x2ecb706f	9.2513434e-11
40	0x3679dfa3	3.7234065e-06
41	0x36b8f5ad	5.5122277e-06
42	0x37aa3c9e	2.0293806e-05
43	0x38831057	6.24961e-05
44	0x00000000	0.0
45	0x00000000	0.0
46	0x380a88fd	3.3029344e-05
47	0x386441be	5.4420663e-05
48	0x00000000	0.0
49	0x00000000	0.0
50	0x371a42ef	9.1946995e-06
51	0x369ac0e7	4.6120144e-06
52	0x38909238	6.8936904e-05
53	0x38283398	4.010237e-05
54	0x30c11ab4	1.4050188e-09
55	0x35aa176f	1.2672807e-06
56	0x38a7ce5b	8.001617e-05
57	0x00000000	0.0
58	0x00000000	0.0
59	0x37045ce4	7.889441e-06
60	0x389d2b7f	7.494445e-05
61	0x36a62fca	4.952749e-06
62	0x36487b4d	2.9874093e-06
63	0x38210689	3.8391478e-05
64	0x37be7212	2.2702883e-05
65	0x2f548e37	1.9331813e-10
66	0x39174944	0.00014427776
67	0x00000000	0.0
68	0x355f3ecb	8.316535e-07
69	0x34e4edc0	4.2641295e-07
70	0x37519836	1.249281e-05
71	0x00000000	0.0
72	0x34c370b7	3.640359e-07
73	0x36b0eeae	5.2729947e-06
74	0x35cbabd1	1.5174684e-06
75	0x3750571b	1.2418047e-05
76	0x36266db1	2.4799776e-06
77	0x2cb0f11a	5.0289885e-12
78	0x385e812f	5.3049236e-05
79	0x00000000	0.0
80	0x38fe995a	0.00012140228
81	0x2f4071b1	1.750269e-10
82	0x30105913	5.2513477e-10
83	0x36cef468	6.167731e-06
84	0x377ef1d7	1.51958875e-05
85	0x37f7419e	2.947525e-05
86	0x368a986f	4.130466e-06
87	0x359ff63f	1.191809e-06
88	0x36d36410	6.299939e-06
89	0x37500bc7	1.2400508e-05
90	0x00000000	0.0
91	0x00000000	0.0
92	0x37c6eae4	2.3712819e-05
93	0x352d6249	6.4590546e-07
94	0x36072a1f	2.0141085e-06
95	0x00000000	0.0
96	0x3794d32a	1.7741306e-05
97	0x37ebffb5	2.8133256e-05
98	0x35a2bac4	1.2124297e-06
99	0x00000000	0.0
100	0x3937478c	0.00017478893
101	0x3956be19	0.00020479447
102	0x36959c31	4.458729e-06
103	0x36635e3a	3.3880483e-06
104	0x369da5d5	4.69827e-06
105	0x37d1ff16	2.5033525e-05
106	0x356a2154	8.722029e-07
107	0x3555292a	7.9408585e-07
108	0x3857825d	5.1381405e-05
109	0x3830c24d	4.2142627e-05
110	0x38b1500b	8.454927e-05
111	0x34b6309e	3.3935515e-07
112	0x37ef6f3a	2.8542814e-05
113	0x37697461	1.3914979e-05
114	0x3854ddad	5.075119e-05
115	0x00000000	0.0
116	0x2fe78313	4.211179e-10
117	0x388ee059	6.812876e-05
118	0x2e267b49	3.785353e-11
119	0x370ac3dd	8.271044e-06
120	0x37a642ac	1.9819789e-05
121	0x36ce2af9	6.144281e-06
122	0x00000000	0.0
123	0x37123c25	8.716282e-06
124	0x37d5e708	2.5499161e-05
125	0x3001d773	4.72361e-10
126	0x37e5e95d	2.7407596e-05
127	0x387b12be	5.986052e-05

exp_avg f4 [64, 128]
0	0xbc2b3064	-0.010448549
1	0x3cc7f995	0.024411002
2	0xbc53821c	-0.012909438
3	0xbccc2fe8	-0.024925187
4	0x3d672019	0.056427095
5	0xbc8589b4	-0.016301014
6	0x39d43811	0.00040477564
7	0x38089fdc	3.2573807e-05
8	0x3d443d5a	0.047910072
9	0x3cb05d62	0.021528903
10	0x3bf4b93f	0.007468372
11	0xbc73a89c	-0.014871743
12	0x3d899a9a	0.06718941
13	0x3a1c0cbc	0.00059528253
14	0x82119462	-1.0695501e-37
15	0x82181d25	-1.117556e-37
16	0x3ccbe18e	0.024887826
17	0x3ce48bd2	0.027898703
18	0x3dccd64a	0.1000181
19	0x3d2a008c	0.041504428
20	0xbb1db0e0	-0.0024061725
21	0x021334d8	1.081502e-37
22	0x02166ba3	1.105115e-37
23	0x00000000	0.0
24	0x00000000	0.0
25	0x3c9758eb	0.018475017
26	0x3c8b1c1f	0.016981183
27	0x00000000	0.0
28	0x3d733e4d	0.059385587
29	0x3c597824	0.013273273
30	0x3de40a63	0.111347936
31	0x3cd1995e	0.025585826
32	0xbbef6124	-0.0073052812
33	0x00000000	0.0
34	0xbd14512c	-0.036210224
35	0x00000000	0.0
36	0x3ce4e1e7	0.02793975
37	0x3d21a0c6	0.039459966
38	0x3cc66c00	0.02422142
39	0x821f8dd1	-1.1722174e-37
40	0xbcb39110	-0.021919757
41	0xbbd61729	-0.0065335226
42	0x3ba66897	0.005078386
43	0x3c42c802	0.011888506
44	0x00000000	0.0
45	0x00000000	0.0
46	0x3c2c7858	0.010526739
47	0x3c2eb21b	0.010662581
48	0x00000000	0.0
49	0x00000000	0.0
50	0x3c942f21	0.018088879
51	0xbcdb1326	-0.02674253
52	0x3cbe33aa	0.023217995
53	0x3c9a55c7	0.01883973
54	0x821e8c73	-1.1648314e-37
55	0xbc87f982	-0.016598467
56	0x3d630044	0.055420175
57	0x00000000	0.0
58	0x00000000	0.0
59	0xbc920862	-0.017826263
60	0x3cad11f5	0.021126727
61	0x3d0c80f6	0.034302674
62	0xbd06f3bd	-0.03294729
63	0x3d4f4b4c	0.050608918
64	0x3c74bd7d	0.014937756
65	0x82101a98	-1.0587081e-37
66	0x3cd081b8	0.02545248
67	0x00000000	0.0
68	0xb689d5d3	-4.1078106e-06
69	0xb9b52d80	-0.0003455691
70	0x3d0da10e	0.03457742
71	0x00000000	0.0
72	0xb7a30d7e	-1.9437397e-05
73	0x3a093e20	0.00052353926
74	0x3a44f484	0.00075132423
75	0x3c878d16	0.016546767
76	0xbb800c4a	-0.003907715
77	0x0219b407	1.129233e-37
78	0x3c1fff4d	0.009765458
79	0x00000000	0.0
80	0x3a9199e8	0.001110849
81	0x821afb94	-1.1386333e-37
82	0x0218fe57	1.1240188e-37
83	0xbac99260	-0.0015378706
84	0xbcaf676f	-0.021411626
85	0x3cdd2ea0	0.026999772
86	0x3b81f890	0.0039663985
87	0xbc6ea092	-0.01456465
88	0xbcaabd2e	-0.020842161
89	0x3c224614	0.009904403
90	0x00000000	0.0
91	0x00000000	0.0
92	0x3bf309f2	0.007416957
93	0xbae02a62	-0.0017102475
94	0xbaedba8c	-0.001813726
95	0x00000000	0.0
96	0x3c79d7a4	0.015249167
97	0x3cccb618	0.024989173
98	0xbc8ae6c5	-0.016955743
99	0x00000000	0.0
100	0xba308330	-0.00067334156
101	0x3b495b74	0.0030724676
102	0x3dd2cb4e	0.102926835
103	0x3d62a6d2	0.055334873
104	0xbd89c6eb	-0.06727394
105	0x3b62954e	0.0034573856
106	0xbb5c6bbe	-0.0033633555
107	0x3b72d118	0.00370509
108	0x3cf023b9	0.029313909
109	0x3c825fb6	0.01591478
110	0x3c67b36e	0.0141419
111	0xba10e00e	-0.0005526551
112	0x3d9ac82c	0.07557711
113	0xbc0f7d88	-0.008757956
114	0xbc126f9a	-0.008937741
115	0x00000000	0.0
116	0x8213139f	-1.0805485e-37
117	0xbb8b7de5	-0.004256951
118	0x821a8662	-1.1352699e-37
119	0xbd28b813	-0.04119117
120	0xbbf22076	-0.0073891236
121	0x3d3babd2	0.045818157
122	0x00000000	0.0
123	0xbbce7660	-0.0063007325
124	0x3c12b8b8	0.008955173
125	0x0211491f	1.0673902e-37
126	0x3caa76fa	0.020808686
127	0x3cad1bb0	0.021131366
128	0x3680cf3a	3.8388216e-06
129	0x3829bbeb	4.0467752e-05
130	0x355a78fb	8.138738e-07
131	0xb8c334e3	-9.3081755e-05
132	0x38b3acfb	8.567605e-05
133	0x349881b1	2.840657e-07
134	0x82188307	-1.1204799e-37
135	0x0218ee09	1.1235509e-37
136	0x39846009	0.00025248554
137	0x38b21ce3	8.493082e-05
138	0x3597c989	1.1309031e-06
139	0x384d1a0d	4.890007e-05
140	0xb9236fbc	-0.00015586516
141	0x0215974c	1.0990211e-37
142	0x0210b47a	1.0631243e-37
143	0x0219cca7	1.1299397e-37
144	0x36bea334	5.6814406e-06
145	0x39cc07b2	0.00038915646
146	0xb90263ba	-0.00012434917
147	0xb785eee8	-1.5966085e-05
148	0x35db4941	1.6338091e-06
149	0x0211275c	1.0664213e-37
150	0x021caac3	1.1510076e-37
151	0x00000000	0.0
152	0x00000000	0.0
153	0x37ffa547	3.0475332e-05
154	0x3867fe26	5.5311386e-05
155	0x00000000	0.0
156	0x38ed8f1c	0.00011327697
157	0x375616dd	1.2760717e-05
158	0x35a20a71	1.2072979e-06
159	0x3980f98c	0.0002459999
160	0xb8f33d11	-0.000115985174
161	0x00000000	0.0
162	0x3a0c7bfe	0.00053590524
163	0x00000000	0.0
164	0x38c2487e	9.2641436e-05
165	0x38202226	3.8178776e-05
166	0x390f3a58	0.00013659277
167	0x00000000	0.0
168	0x399dc777	0.00030093986
169	0x96818253	-2.092332e-25
170	0xb7f6694d	-2.937452e-05
171	0x360ca828	2.0959505e-06
172	0x00000000	0.0
173	0x00000000	0.0
174	0x37b584f4	2.1638793e-05
175	0x38b27edc	8.511331e-05
176	0x00000000	0.0
177	0x00000000	0.0
178	0x391bc939	0.00014856913
179	0xb846cdca	-4.7398535e-05
180	0x36b4ff97	5.3941726e-06
181	0x3867bf3a	5.5252785e-05
182	0x0219b58b	1.1292765e-37
183	0x382c183f	4.1030577e-05
184	0xb7842c02	-1.5756119e-05
185	0x00000000	0.0
186	0x00000000	0.0
187	0x3946ddd4	0.00018965389
188	0x3853a9ae	5.0464347e-05
189	0x398e9c4a	0.00027200795
190	0x39b0dc03	0.00033733257
191	0x1744eb39	6.362791e-25
192	0x38aee68d	8.33991e-05
193	0x02193675	1.1256293e-37
194	0xb72e1882	-1.0376914e-05
195	0x00000000	0.0
196	0x95737acf	-4.9170338e-26
197	0xb7252e28	-9.845513e-06
198	0x3946dc9e	0.00018964938
199	0x00000000	0.0
200	0x94120e76	-7.373968e-27
201	0x39813fda	0.0002465237
202	0x391c6f4f	0.00014918785
203	0x390890b8	0.00013023883
204	0x368fb088	4.282283e-06
205	0x00000000	0.0
206	0x9e93f8fe	-1.5667211e-20
207	0x00000000	0.0
208	0x34dccf8d	4.1129206e-07
209	0x021c1b7c	1.1468958e-37
210	0x0215bc46	1.1000823e-37
211	0xb8d013a2	-9.92187e-05
212	0x394ad2b1	0.0001934271
213	0x391211a2	0.00013930214
214	0x39a654e4	0.00031725236
215	0x38d7031b	0.00010252577
216	0x399d0941	0.00029952268
217	0x362e6c70	2.599114e-06
218	0x00000000	0.0
219	0x00000000	0.0
220	0x38bc0987	8.966313e-05
221	0x36cc4d73	6.08869e-06
222	0xb7d0a113	-2.4870538e-05
223	0x00000000	0.0
224	0x3910082b	0.00013735953
225	0x36e07591	6.6894067e-06
226	0x3859cac9	5.192569e-05
227	0x00000000	0.0
228	0x35de2b30	1.6552858e-06
229	0xb707464c	-8.062994e-06
230	0x39705b9c	0.00022922311
231	0x399218d8	0.000278658
232	0x3684a4d9	3.9530973e-06
233	0x37b3ff5c	2.1457374e-05
234	0x350669fc	5.007312e-07
235	0x339fd346	7.442445e-08
236	0xb70f2edc	-8.5343745e-06
237	0xb6be3af2	-5.6693034e-06
238	0x3846ca64	4.739537e-05
239	0x021f027e	1.168219e-37
240	0x394a5dbe	0.00019299143
241	0x38c55d02	9.411016e-05
242	0x3821051b	3.8390146e-05
243	0x00000000	0.0
244	0x021a311e	1.1328229e-37
245	0x3436cbb0	1.7024172e-07
246	0x00000000	0.0
247	0xb8c8689d	-9.556229e-05
248	0x388ee60b	6.8139365e-05
249	0xb8e47b4a	-0.000108948516
250	0x00000000	0.0
251	0x396e5a94	0.00022731192
252	0x34f1703d	4.4971412e-07
253	0x02154413	1.0966327e-37
254	0xb85b26f9	-5.2249965e-05
255	0x3763b5b7	1.3572563e-05
