lightning_model_releases/lightning_quantile_test/model_params/0.8_80558_1331_lightning_quantile.ckpt (torch, 311310 bytes, 15 tensors)

model.0.weight f4 [128, 131]
000000 29 85 c9 3b 24 15 0f 3e c0 fc c0 bc 63 49 c6 3d
       0.006149907 0.13972908 -0.02355802 0.09681966
000010 d0 7e 15 3e 70 91 71 3e 18 09 c4 3b 28 e8 d2 3d
       0.14599156 0.23590636 0.0059825294 0.102981865
000020 ae 43 8c bc 6f a3 16 3d 7c 60 94 3c 65 9e 9c 3b
       -0.017122116 0.036776956 0.018112414 0.0047796243
000030 91 e4 23 3d b0 59 00 3c 4a c9 14 3e 43 0a 9f 3d
       0.0400129 0.007833883 0.1452991 0.07765629
000040 15 d4 01 3e 5e 38 95 3e 61 ef 88 ba 6e 81 ae 3c
       0.12678559 0.29144567 -0.0010447317 0.021301951
000050 bf 40 8e 3d f2 5d 21 3e 61 4d 1d 3e c2 37 73 3d
       0.06945943 0.15758494 0.15361549 0.059379347
000060 df 97 dc 3d 9f 94 e2 3d 15 26 47 3d 95 86 a4 3d
       0.107711546 0.110635035 0.048620302 0.08033482
000070 2a c6 0e 3e 93 b1 40 be 7a 03 b5 3d 64 cd 49 3e
       0.13942781 -0.18817739 0.08838554 0.19707257
000080 34 43 26 be fc 77 08 3e d1 1a e6 bc 57 4f 20 bb
       -0.16236573 0.1332702 -0.028088959 -0.0024461353
000090 7e 87 5a 3e 09 62 b5 3a bd fa 56 3d 64 aa 9e be
       0.21340749 0.0013838421 0.052485216 -0.30989373
0000a0 ba 7b 38 be 8e f5 5d bc d9 1f ba 3e 45 86 e8 3e
       -0.18015948 -0.013547314 0.36352423 0.4541494
0000b0 83 17 35 3e 81 1e ab bd 96 a9 80 3e 94 b3 c8 3c
       0.1768475 -0.083554275 0.25129384 0.024499692
0000c0 fc 00 81 3e 8c 52 f5 3c 90 54 f8 ba 05 a3 62 3e
       0.25196064 0.029946588 -0.00189461 0.221325
0000d0 a1 92 09 3e c9 2b 9e 3e 42 69 8e bc 91 72 a6 bd
       0.1343484 0.3089278 -0.017384175 -0.081273206
0000e0 05 56 16 be ae 69 84 3e e9 2d 83 3e 27 81 1f 3c
       -0.14681251 0.25861877 0.25620964 0.009735382
0000f0 ef b2 3c be df c1 46 3e 78 6c 2e 3e cd 87 d3 bd
       -0.18427633 0.19409893 0.17033565 -0.10328636
000100 ba cd 14 3e 7c 97 5d bd 8f 67 bb 3c d6 90 4d bd
       0.14531603 -0.054099545 0.022876529 -0.050186954
000110 ae 28 11 bd 43 28 e1 be ff b4 fa 3e 9f 53 d9 3d
       -0.035439186 -0.4397603 0.48966214 0.106116526
000120 8f e3 a3 3e ae ea 80 3e 1b c2 99 be d6 3f 84 bc
       0.3200955 0.25179046 -0.30030903 -0.01614372
000130 81 31 80 3d 76 3f d8 3d f2 81 2d 3e f9 40 df 3d
       0.06259442 0.10558979 0.16944101 0.109010644
000140 db 88 e6 bd b6 6d a0 3d b1 a4 2b 3e 93 99 91 bc
       -0.11256572 0.07833426 0.16762044 -0.017773425
000150 ed 39 48 3e 60 77 3f bd 38 18 3e 3e 73 6d 69 bd
       0.19553347 -0.046744704 0.18563926 -0.056989145
000160 df 3f a1 3d 2a ce 8a ba b4 9a 9c 3c 96 15 f0 bd
       0.078735106 -0.0010590006 0.019116737 -0.11722867
000170 b8 57 3f 3c 51 15 57 3b 67 6a 4a be 53 cb ef bd
       0.011678629 0.0032819102 -0.19767152 -0.11708703
000180 f1 c9 3b 3b 53 c2 69 bc c8 81 1e be 91 97 80 3e
       0.0028654302 -0.014267522 -0.15479195 0.25115636
000190 f5 b3 ce bd 3c fd 82 3e f0 40 05 3c 9e e4 ca 3e
       -0.10092918 0.25583827 0.008133158 0.39627546
0001a0 43 25 96 3e fb d0 07 be b9 ce 97 bd b4 96 9d 3d
       0.29325303 -0.13263313 -0.07412476 0.0769476
0001b0 89 33 a9 3e 29 87 44 3e 57 3d c3 3e a5 6d 2a 3f
       0.3304713 0.19192185 0.38132736 0.66573554
0001c0 9a b3 32 be 7c e0 2e be cf d1 dd bc f5 01 ec bd
       -0.17451325 -0.17077821 -0.027077584 -0.11523811
0001d0 70 d7 5f 3c dd 53 1a 3e 3c 5d dc bd 76 f1 27 bc
       0.013662204 0.15071054 -0.107599705 -0.01025044
0001e0 0d 48 4e 3d 3c 56 25 3e 5b 1c d4 3c dc e3 94 be
       0.05036168 0.16146177 0.025892427 -0.29080093
0001f0 bd b3 c2 bd 64 d6 eb bd 3d 39 8a bd 3a b1 8b bd
       -0.095069386 -0.11515501 -0.067491986 -0.06820913
000200 e5 ef 96 3d e4 08 07 bd 92 e4 fb 3c e0 02 df 3c
       0.07369975 -0.032967463 0.03074864 0.02722305
000210 bb 06 19 3d 09 a6 98 3e 08 03 c5 bc ad 55 93 bd
       0.037359934 0.29814175 -0.024049297 -0.07194076
000220 40 87 94 bd c5 e3 b1 bd c4 c7 cc 3c 40 59 9c bc
       -0.072523594 -0.08686022 0.0249976 -0.019085526
000230 a6 53 0b 3d 32 6a 1a 3e a3 d8 84 3d fc 58 83 bd
       0.03401532 0.15079573 0.06486633 -0.06413457
000240 88 2d 77 bc fc 7e 95 3c 7d 63 1c 3d ab 74 90 3d
       -0.015086539 0.018249027 0.038180817 0.07053503
000250 8b 00 a3 3d 96 e1 8d bd 09 8d 27 3d c7 ed 19 bd
       0.07959088 -0.06927793 0.040905986 -0.037580278
000260 38 de 1c bc 43 b9 4f 3e ef fb a2 3d e0 98 39 bd
       -0.009574465 0.20285515 0.07958209 -0.04531181
000270 7e 43 3f 3d f0 89 fb 3c bc 47 d5 3c 09 7b 41 bd
       0.046695225 0.030705422 0.026035182 -0.047236476
000280 93 a4 a2 3d 92 74 77 3e d9 db fe 3d fb cc 3f be
       0.07941546 0.24165562 0.12444276 -0.18730538
000290 4b 13 38 3d 2a ff cc 3d e8 fa 5a bd f9 54 a8 3e
       0.044940274 0.10009606 -0.05346194 0.3287733
0002a0 01 46 1d 3d 0e e1 5f bd 97 7a 60 bd 19 09 7e bd
       0.03839684 -0.05465799 -0.05480441 -0.062020395
0002b0 71 04 2c bd 87 81 f8 bd 70 be 70 3e 75 f3 36 3d
       -0.041996423 -0.121340804 0.23510146 0.044665772
0002c0 f7 59 19 3e 23 83 4a 3c 38 da 18 3e f4 c5 cc 3c
       0.14975725 0.012360367 0.14926994 0.024996735
0002d0 45 20 dd 3b 45 a6 a8 3e 58 d1 43 3e c2 c5 08 3e
       0.0067482316 0.32939354 0.19122827 0.13356689
0002e0 ab 40 bc 3e 5e 19 26 3e b8 4c 7f bc 53 8c 7d be
       0.36768088 0.16220614 -0.015582256 -0.2476056
0002f0 5d e4 12 3e 2e 6d ec 3d d4 62 ab 3c ba e5 00 3e
       0.14344926 0.11544262 0.020921148 0.12587634
000300 9e c0 64 3d 39 20 66 3d 60 b6 0d bc fe 33 2f 3d
       0.055847757 0.056183074 -0.008649439 0.042774193
000310 c0 1b a7 3a da 00 47 3e 54 12 ac 3c 45 4c ba 3b
       0.0012749359 0.19433919 0.021004833 0.0056853616
000320 bc 4e 0a be 36 11 04 bd a3 af 96 3d e4 68 0b 3d
       -0.13506597 -0.032242976 0.07357719 0.03403558
000330 70 65 8e bb 03 8f 92 bd de 60 37 3d 9f 48 a0 bd
       -0.0043455884 -0.071561836 0.044770114 -0.078263514
000340 1e 37 1f bc 2d 35 f8 3d 8e 88 5a 3d 66 77 2c 3e
       -0.009717731 0.121195175 0.053352885 0.16842422
000350 ba d3 f6 3c 78 6c 92 bd 72 f9 05 bd 58 3a e6 3d
       0.030130256 -0.07149595 -0.032708593 0.11241597
000360 12 da 7e ba ae a2 9f 3c 34 78 42 3e 23 af 6c bc
       -0.0009721826 0.019486751 0.18991166 -0.014446053
000370 0e fc a1 3e 15 d4 8d 3d 86 c8 13 be 0c 88 2f be
       0.31637615 0.06925217 -0.14431962 -0.17141742
000380 36 4f df bd 18 ca f2 3d 5a ee 3d 3e e8 a1 78 3b
       -0.1090378 0.118549526 0.18547955 0.00379383
000390 94 0d fa bc 0e 68 9f be 40 5a ff bd b7 be 16 3f
       -0.030524053 -0.31134075 -0.12468386 0.5888476
0003a0 00 43 b6 bd 95 93 34 3d a6 db 60 bd ab 95 c8 bd
       -0.08899498 0.044086058 -0.054896973 -0.09794172
0003b0 25 06 2f 3e b2 14 88 bd ea ab 84 3e 4b 20 dc 3d
       0.17092188 -0.06644572 0.2591241 0.10748347
0003c0 5d 8a 8d bc 46 ad ce bc b1 10 b2 bd e1 9a f2 3d
       -0.01727789 -0.025229108 -0.0869459 0.11845947
0003d0 a7 38 73 bc 7c e1 7b bd 5b d6 69 bd 0c 6b ed 3c
       -0.01484505 -0.061494336 -0.05708919 0.028981708
0003e0 df ac 7c 3e 7e 3a 04 be 54 3f 16 3e fd e6 b3 3d
       0.2467532 -0.12912938 0.14672595 0.08784292
0003f0 14 4a 5f 3e 6d 9f 3b be 99 b7 72 bd 7c f8 0a be
       0.21805602 -0.18322535 -0.059257124 -0.13571352

model.0.bias f4 [128]
000000 a2 52 0b 3d 49 b7 b8 3d 79 f4 f4 3b ef dd 73 3c
       0.03401435 0.09019334 0.0074754325 0.014884456
000010 74 f1 90 3d 4d 9d a5 3d 90 8e 62 bd a4 90 0c 3e
       0.070773035 0.08086643 -0.05531174 0.13727051
000020 29 39 75 bd 73 5a 39 bc a6 31 b8 b9 b4 88 fe 3d
       -0.059868965 -0.011313069 -0.00035132206 0.12428418
000030 3b 13 cd bd ac 5a 7e bd 69 a4 6c 3d 32 8d 05 bd
       -0.100134335 -0.06209819 0.05777398 -0.032605357
000040 7c 7a 1e 3d 71 28 d6 bd 7b a1 62 bd 7a 43 3e 3e
       0.03869103 -0.10456932 -0.05532978 0.18580428
000050 67 88 18 bb 34 fa 82 bb b2 98 16 be a5 6c 6f 3d
       -0.0023274662 -0.0039971117 -0.14706686 0.05845322
000060 67 57 84 3d e7 44 5e 3c c4 03 04 3c ab df 90 3c
       0.06461983 0.013566232 0.008057538 0.017684778
000070 11 63 07 3d 3c 4b a9 3d f2 eb 93 3d 60 b0 37 3d
       0.03305346 0.08266303 0.07222737 0.04484594
000080 0f a4 0e 3c 77 3c 4a bd cf 8d 8f bc e4 20 3a 3c
       0.008706107 -0.04937407 -0.017523674 0.011360381
000090 fa 77 7e 3d 96 09 c3 3d ac 22 a1 3d ca b2 ff 3c
       0.062126137 0.09523313 0.07867941 0.031213183
0000a0 4f 5c 43 bd 70 15 d0 bd 7f 74 ba bb f1 9f 03 3e
       -0.047695454 -0.10160339 -0.005690157 0.12853982
0000b0 05 58 ec 3d 60 1d 96 3b c2 d4 93 3d 6b de 92 b9
       0.11540226 0.0045811385 0.07218315 -0.00028013004
0000c0 ae 32 01 be 64 08 87 bc 05 25 29 bd c8 06 17 3d
       -0.12616989 -0.016483493 -0.04129507 0.0368717
0000d0 bc 9b c7 3d f0 03 83 bd d3 64 48 bd 3b f4 4d 3c
       0.09746501 -0.063972354 -0.04892428 0.012570436
0000e0 93 6c b5 3d b2 c8 29 3d 1d 5d e6 3d ea 03 1e 3d
       0.088585995 0.041451164 0.11248229 0.03857795
0000f0 6b d0 e2 3c f8 e0 8a bc eb 6a 81 bd aa cf 61 3d
       0.027687272 -0.016952977 -0.06319221 0.055129685
000100 87 80 14 3a ac 02 42 3c f8 76 4e 3d a1 8e 95 3e
       0.0005664904 0.011841457 0.050406426 0.2921038
000110 a0 09 9f 3d 0d 64 81 3d ce d5 53 bd b2 e2 e6 3d
       0.07765508 0.06317911 -0.051717572 0.112737074
000120 06 8f 90 bd 73 06 fd bc 02 f4 e6 3c b7 49 3e bd
       -0.070585296 -0.030886864 0.028192524 -0.04645702
000130 f9 f7 58 3d e0 00 99 bc cd c9 33 3e cf d5 18 bd
       0.05297086 -0.018677175 0.1755745 -0.03731328
000140 dd fa 62 3d 46 78 11 3d 6e 74 58 bd a3 1c 35 3c
       0.055415023 0.035515092 -0.05284541 0.011054191
000150 6a 75 9e 3d 1d a5 16 3d 3d bb 04 bd f1 d5 5f bc
       0.07737239 0.036778558 -0.032405127 -0.013661847
000160 fb 42 e1 bd 25 38 a0 bd 02 43 84 3e 92 ba fe 3d
       -0.10999104 -0.07823209 0.25832373 0.12437929
000170 15 31 94 3d 4d 0c 1d bc 51 ff 05 be 93 50 29 3e
       0.07235924 -0.009585452 -0.13085677 0.16534643
000180 cd 09 12 bd 3b b2 48 3d 8c 98 85 3d 51 e6 54 bd
       -0.035653878 0.0489981 0.06523237 -0.05197746
000190 10 de 0b bd eb 66 22 bb 90 bd cd bd 9f ee fc bd
       -0.034147322 -0.0024780582 -0.10045922 -0.12350201
0001a0 ac 10 92 bd 9a b4 b2 3d f8 e3 de bc e8 86 77 bd
       -0.07132086 0.08725853 -0.027208313 -0.06043139
0001b0 be 5e a0 bc c7 0c 2c 3d e6 4b 1a 3e d2 1a 68 3e
       -0.019576427 0.042004373 0.15068015 0.22666481
0001c0 12 f5 99 bd 06 46 27 bc 26 d8 ef 3d c5 b3 aa bc
       -0.075174466 -0.010209566 0.11711149 -0.020837674
0001d0 ac c9 48 3d f7 98 b4 3d b4 8c 0b 3e 47 af 57 3c
       0.049020454 0.08818238 0.13627893 0.013164348
0001e0 98 1e a6 3d f9 d2 a6 bb 02 4f 1c 3e a3 b3 8e 3c
       0.08111304 -0.005091068 0.15264514 0.017419642
0001f0 9e 58 28 3e e4 13 81 bd 43 a5 c0 3d c5 1f 4d 3b
       0.16440055 -0.06302622 0.09406521 0.0031299454

model.3.weight f4 [64, 128]
000000 0f 72 dc bd 03 25 66 bd 10 d8 73 bd f1 6d d6 bc
       -0.107639425 -0.05618764 -0.059532225 -0.026175471
000010 51 09 55 3c 00 9c 08 ba fb 6c 19 bb e1 e0 94 3c
       0.0130027095 -0.0005211234 -0.0023410905 0.018173637
000020 02 37 81 3d 44 07 83 bd 6d 73 f3 bc 56 4c cf bd
       0.0630932 -0.0639787 -0.029718125 -0.10121982
000030 b0 54 91 3d fa f7 f1 3b 49 3e e2 bc 8c c3 9e 3d
       0.07096231 0.0073842974 -0.02761759 0.07752141
000040 37 5f a5 3c 4a 0d c8 3c 31 74 53 3d 15 2b fd 3d
       0.020187004 0.0244204 0.05162448 0.12361733
000050 b6 14 bf 3d ff bf 54 bd 11 6c 2a 3e b7 f9 4d bd
       0.09330122 -0.051940914 0.16642787 -0.050286975
000060 38 0d 09 3e 58 cb 9c 3c 42 d1 d3 3d 3e 19 36 39
       0.13383949 0.01913993 0.10342647 0.00017366276
000070 24 be 50 bc 00 cc e5 3b 59 5a 4b 3d 29 5d 76 3c
       -0.012740646 0.007012844 0.04964671 0.01503686
000080 db 25 8c 3d 90 cc 0c bb f1 83 b1 3c 3e 7b 94 3d
       0.06843158 -0.0021484233 0.02166936 0.07250069
000090 20 b1 e2 3d 2e eb 37 bd d4 d9 3b bd d0 4e fe bd
       0.1106894 -0.04490202 -0.045862034 -0.12417376
0000a0 36 16 5c bc af 39 37 3d 28 b3 a2 3d 2c e7 94 3c
       -0.01343303 0.044732746 0.079443276 0.018176638
0000b0 af e7 50 be 52 62 45 3d 13 11 40 bd d6 af f4 3b
       -0.2040088 0.04818947 -0.046891283 0.0074672503
0000c0 d7 0b 04 3e 98 b4 73 bc b3 31 4a 3d bc 8e 17 3d
       0.12895142 -0.0148746 0.049363803 0.037001356
0000d0 5d e1 22 3d 65 30 55 3d ee 13 a9 3d 0a 01 b5 bd
       0.039765704 0.052048106 0.082557544 -0.08838089
0000e0 89 d1 8f 3d 22 c2 49 3d 37 39 25 3d 56 e7 57 bd
       0.070223875 0.049257405 0.040337767 -0.052710854
0000f0 9e 0a a3 3c 0a 41 91 3d a7 85 54 3d d8 a8 51 3b
       0.019902524 0.07092483 0.051885273 0.0031991508
000100 cb 11 9d 3d 8c 3a 13 be 49 68 63 3d f6 d4 9f be
       0.07669409 -0.14377803 0.055519376 -0.31217164
000110 02 8d fe bc 28 1a 92 bc 03 3c aa 3c 51 1c 23 3b
       -0.031073097 -0.017834738 0.020780569 0.0024888704
000120 21 92 a2 3a f4 63 d3 bd db a6 93 bd 4f c8 94 bd
       0.0012403169 -0.10321799 -0.072095595 -0.07264768
000130 a6 4e d5 bd 74 db 9c 3c c1 f8 17 3d 70 74 aa 3c
       -0.104153916 0.019147612 0.037102465 0.020807475
000140 db a6 f8 3c f8 a5 73 3d 29 1a 67 3d e8 8f 81 bd
       0.030353 0.059484452 0.056421433 -0.06326276
000150 7f 28 01 bd 09 bd 67 3c 52 44 52 3c 46 56 a8 bd
       -0.03153276 0.014144191 0.012833672 -0.0821958
000160 7f 09 97 3d 3a 65 86 3d 55 ac 97 be 8c 3b 58 be
       0.07374858 0.06562276 -0.29623666 -0.21116465
000170 42 a7 88 3c d7 4e 3f 3c 10 ec 4a 3c fb b6 d7 bd
       0.016681317 0.011676512 0.012385383 -0.10532948
000180 04 ad 9f 3c 7d da 58 bc 56 e3 7e bd 52 21 15 be
       0.01949168 -0.013235685 -0.062228523 -0.14563492
000190 35 d2 a0 3d 4b 19 ff 3d ee 52 9c 3d ed c9 80 3c
       0.07852594 0.12455996 0.07633005 0.015721286
0001a0 3c 83 4f 3c 82 85 9d 3d 72 bb 75 bd 14 96 8f 3d
       0.012665566 0.0769148 -0.059993215 0.07011047
0001b0 12 a4 a5 3d 0a c4 6e bc a9 1e bb 3d 60 6c 1b be
       0.080879346 -0.014573107 0.09136707 -0.1517806
0001c0 60 3d 1f bd 96 19 8e 3d c6 72 8e 3d 75 7a dd bd
       -0.03887689 0.06938474 0.06955485 -0.108143725
0001d0 a3 f4 94 3d fb 48 72 3e b0 34 8e be 51 05 72 bd
       0.07273223 0.23660652 -0.27774572 -0.0590871
0001e0 5a 76 ff 3c 8c 36 87 3d 29 7c 80 be f0 18 c7 bc
       0.031184364 0.06602201 -0.25094727 -0.024303883
0001f0 1f 6f 7a bd 32 05 74 bd 15 a4 ad 3d 68 84 3f 3d
       -0.06114113 -0.059575267 0.08478562 0.04675713
000200 99 4a df bc cd f7 28 3d 40 c8 ab bd a6 fb 1f bd
       -0.02725725 0.041251946 -0.08387804 -0.03905835
000210 a0 d6 87 3c 98 22 a3 bd b9 b9 8c bb 17 af 8f 3d
       0.016581833 -0.079655826 -0.004294601 0.070158176
000220 9e c0 9e 3c 8a 4a c6 3b 72 f4 f4 bc e6 ad b7 bc
       0.019378956 0.006051366 -0.029901717 -0.022421788
000230 78 5c c0 bd c8 70 72 bd 5b a0 49 3c 1c 58 42 3c
       -0.09392637 -0.059189588 0.012306298 0.011861827
000240 ab 5f 8c 3c 89 27 93 bd 28 9a 09 3b 7f 90 ae bd
       0.017135462 -0.07185275 0.0020996425 -0.08523654
000250 e3 4f ae bd 59 c2 1f bd 9c d2 8e bd 68 4e 89 3c
       -0.08511331 -0.039003704 -0.06973764 0.01676102
000260 0c 38 72 ba 80 80 1b 3d 98 6f f3 3b e6 36 21 bd
       -0.0009239919 0.037964344 0.0074290745 -0.039358996
000270 59 09 49 3c cf 2f 4a 3c 83 32 d5 bd 3e 64 69 bd
       0.012270295 0.0123405 -0.10410025 -0.056980364
000280 2f a3 b3 bd 06 73 87 bd e1 ab 36 bb ee 50 9f 3d
       -0.08771359 -0.06613736 -0.0027873444 0.07779108
000290 43 c3 39 3d de c1 86 bd 3e e8 a4 bb a6 ec 68 3c
       0.04535223 -0.06579946 -0.0050325682 0.014216578
0002a0 1f 13 5d 3a 48 0a bc bd cc 62 18 bc b4 fc 60 b9
       0.000843333 -0.091816485 -0.009300899 -0.00021456444
0002b0 a0 99 a0 3c a3 57 a5 3d 2b 28 69 3d 94 23 9e bd
       0.019604504 0.08073356 0.056923073 -0.0772163
0002c0 d2 d0 7b 3d dc 01 a2 bd b2 3e 93 bd fd ea af 3c
       0.061478443 -0.07910511 -0.071896926 0.021474356
0002d0 be d4 89 bc 6a fc 2c 3d e5 24 f9 3b ba 52 09 bd
       -0.016825076 0.04223291 0.007603275 -0.03352616
0002e0 66 47 63 3d 40 e9 81 bd e9 ea ca bb ad 5d 10 3c
       0.055488013 -0.06343317 -0.0061925543 0.008811397
0002f0 b0 07 40 3d 63 26 8b 3d f0 dc b9 3c 7f 01 93 bd
       0.04688233 0.06794431 0.022688359 -0.0717802
000300 90 a0 47 3d 7e bf f2 3d 49 82 19 bd b3 14 53 3c
       0.04873711 0.118529305 -0.037477765 0.012883353
000310 12 69 41 39 c5 8e c2 bc c5 83 cb 3b b1 fd 83 bc
       0.00018445056 -0.023749718 0.0062107765 -0.01611218
000320 e8 4e 27 bd 41 3e 1b 38 88 b3 8b bc 2d c7 a2 bd
       -0.040846735 3.701286e-05 -0.01705338 -0.07948146
000330 3c ee a2 bd 39 1a 2e 3d 15 02 62 bd e0 ab 0d 3b
       -0.07955596 0.042505477 -0.055177767 0.0021617338
000340 cf e9 62 3d 2a 3e fe 3c 75 45 04 3d 7c 7f d4 3c
       0.05539876 0.031035502 0.032292802 0.025939696
000350 56 62 31 3d 5a 92 98 bd ed 43 80 3d b4 54 a6 bd
       0.04330667 -0.07449789 0.06262956 -0.081216246
000360 09 e7 98 bd 50 00 65 bd 83 c9 15 3d b7 00 fd 3d
       -0.074659415 -0.0559085 0.03656913 0.12353652
000370 a6 43 02 39 3c 3f 18 3d 23 95 c9 bd 88 1b 01 be
       0.00012422967 0.03716968 -0.09842899 -0.12608159
000380 a2 44 d0 3b 8f 89 2c bd 6c 7d e0 3c 4e 8b 86 3c
       0.006355838 -0.042123374 0.027403556 0.016423848
000390 67 31 3c 3d 78 21 da bd a9 1d bf 3c d1 09 d5 3c
       0.04594555 -0.10650915 0.023329573 0.026005657
0003a0 b6 a7 85 bd f5 15 47 3d 33 55 fa 3c d6 ff 77 bd
       -0.06526129 0.048604924 0.030558204 -0.06054672
0003b0 21 eb 8d bd 67 a3 2a 3d 62 33 f2 bc 97 1c e0 bb
       -0.06929613 0.04165974 -0.029565517 -0.0068393457
0003c0 17 54 ab 3c 17 7f 4c 3c c9 32 8e bd 3d 9a a5 3d
       0.02091412 0.012481472 -0.0694328 0.08086059
0003d0 e3 1a 94 bb 79 0e 54 bc 60 55 8d bd c7 06 89 3c
       -0.0045198067 -0.012942904 -0.069010496 0.016726865
0003e0 02 5b e6 bc f5 f8 2e 3d d0 f0 12 3d ed 3b 43 3d
       -0.028119568 0.042717893 0.035874188 0.04766457
0003f0 21 f2 d5 bc 29 3a d6 3d ff be 3b 3d be f0 2a bc
       -0.026116433 0.10460312 0.045836445 -0.010433374

model.3.bias f4 [64]
000000 3d fa ab 3d 6b cb 88 bd ba 49 04 3e d8 14 13 bd
       0.083973385 -0.06679424 0.1291875 -0.03590855
000010 1c f0 fc bd 12 91 78 3d 74 f1 28 bd 3e 88 02 be
       -0.12350485 0.060685225 -0.041245893 -0.12747285
000020 8e c6 5f bc dd 48 d0 bc aa 2b de bc e6 2f 11 3e
       -0.013658179 -0.025425369 -0.02712043 0.14178428
000030 53 c7 ef 3d 48 5a 16 3e e2 02 80 3d e8 14 84 bd
       0.1170794 0.14682877 0.0625055 -0.064493
000040 25 5f bd bd 32 14 a3 bd 78 d1 ed 3d ec 10 5d 3d
       -0.09246663 -0.07962836 0.116122186 0.053971216
000050 42 21 78 3d 25 b5 1b bd ce fe 12 3e 92 37 07 3d
       0.060578592 -0.03801455 0.14355013 0.03301198
000060 6e 29 dc 3d 15 13 d5 3d 2a 3c b3 bc ad da 37 3e
       0.107500896 0.1040403 -0.021879274 0.17954512
000070 19 c5 64 3d 02 b4 95 bd d1 ec ed bc d5 aa f7 bc
       0.05585203 -0.073097244 -0.029043587 -0.030232826
000080 d5 7c 6e bd bb ab 13 3e 63 7c a3 3d 9c 61 a8 bd
       -0.058224518 0.14420979 0.07982709 -0.082217425
000090 2e 08 de bb 21 94 44 3c 5e 7f 50 3b 40 82 84 3c
       -0.0067758774 0.011998207 0.0031814198 0.01617539
0000a0 47 d4 c8 3c f4 62 b2 3a b8 7b 12 bd f5 42 54 be
       0.024515284 0.0013609813 -0.03576252 -0.20728667
0000b0 4e eb 0b bc 03 ac eb bd 8d 19 03 bb bf af 61 3d
       -0.008539988 -0.11507418 -0.0020004243 0.055099245
0000c0 8e 9c 50 3d 63 7c a0 3d b9 23 28 3d 29 61 4f 3d
       0.050930552 0.07836225 0.041049693 0.05062977
0000d0 62 7c b4 3d e7 47 ad bd 5a c2 6e 3c b5 ee 36 3b
       0.08812787 -0.0846098 0.014572704 0.0027913277
0000e0 b7 36 e4 bd 51 1b 91 3d b3 58 da 3c aa 8a 05 3e
       -0.111432485 0.07085288 0.026653623 0.13041177
0000f0 3e ef 8d 3d 5e c4 f8 bc 04 76 52 bd 20 48 4b 3d
       0.069303975 -0.030367073 -0.05138208 0.04962933

model.6.weight f4 [1, 64]
000000 1c f3 e9 3d 4b 5a 37 bd 0f 28 94 3d 02 6b 30 bc
       0.114233226 -0.044763844 0.07234203 -0.0107677
000010 68 b8 19 3d ee 90 6e 3d 29 3d d3 3d df 4b 7a bd
       0.03752938 0.058243684 0.103144 -0.061107513
000020 e4 6c c2 bd a2 28 c9 3d 8d 26 3f bd 2b ee 78 3d
       -0.094934255 0.09822203 -0.046667624 0.06077401
000030 62 4f a4 3d d1 76 6a 3d dd 7f 97 3d 17 2e 90 bd
       0.080229536 0.05724222 0.07397435 -0.07040041
000040 c9 b2 bc ba 72 d5 a0 bd 98 19 78 3d fb 8d bd 39
       -0.0014396544 -0.078532115 0.060571283 0.00036154673
000050 7f 35 78 bc 0c 0a 72 bd 75 a5 d8 3d b4 f9 5b 3d
       -0.015149473 -0.059091613 0.105784334 0.053704932
000060 e6 36 94 3d 23 e8 a9 3d 91 c6 59 3d 64 49 df 3d
       0.072370335 0.0829623 0.053167883 0.1090267
000070 e6 70 6d 3d ee 56 83 bc a0 ca 46 3d 14 39 d3 bd
       0.057968996 -0.016032662 0.048533082 -0.10313621
000080 f0 a1 47 bd 96 9f ff 3d 94 1b fd 3d f9 15 9f bd
       -0.04873842 0.124816105 0.12358776 -0.07767863
000090 5c 96 12 bd c5 ba aa 3d fa c0 ba bd d4 70 77 3b
       -0.035787925 0.08336405 -0.091188386 0.003775646
0000a0 0c 86 cb bd 66 21 29 bd 2f ca 62 bd 03 46 3b 3d
       -0.09937677 -0.041291617 -0.0553686 0.045721065
0000b0 e8 a3 a0 bc 12 97 60 bd cd 17 9b 3d 36 cc fd bc
       -0.019609407 -0.054831572 0.07572899 -0.030981164
0000c0 fe d8 df bd 6a ba b3 3d b8 f3 d6 3d a8 4b fd bb
       -0.1093006 0.0877579 0.104957044 -0.007729966
0000d0 35 7b 49 3d 4a 27 6a 3d d9 6b 3a 3b ee 8d c4 bb
       0.049189765 0.057166375 0.002844563 -0.0059983646
0000e0 81 76 b3 bd 0d d1 a5 3d e1 ab 45 3d 65 15 ae 3d
       -0.08762837 0.08096514 0.04825962 0.085001744
0000f0 0e 6a 88 3d 5a 50 13 bd bf 1b 3f bd b3 9a 5b 3d
       0.06660853 -0.0359653 -0.04665732 0.05361433

exp_avg f4 [128, 131]
000000 22 87 1e 02 98 5a f9 b7 aa ca 53 b8 9d e7 61 b9
       1.1646788e-37 -2.97253e-05 -5.0495066e-05 -0.00021543955
000010 fa 1f 1b b6 1b 73 46 b5 ab ec 4a b1 4a bc 1e 82
       -2.3115413e-06 -7.392825e-07 -2.95294e-09 -1.1662043e-37
000020 f2 ca 49 30 fe 84 24 b3 53 f3 12 02 83 ea d9 b4
       7.3411777e-10 -3.830518e-08 1.0796217e-37 -4.059003e-07
000030 56 a1 b7 b2 17 f1 f7 b5 2e 0b 65 b7 1d af 14 b6
       -2.1377371e-08 -1.84731e-06 -1.3652067e-05 -2.2155648e-06
000040 66 e7 18 82 df da f5 b5 4c e2 9a b3 96 b6 99 31
       -1.1233604e-37 -1.8317622e-06 -7.212347e-08 4.4736437e-09
000050 70 47 2d 35 84 2e 98 b5 87 52 f6 b2 f2 ca 49 30
       6.455148e-07 -1.133842e-06 -2.8675698e-08 7.3411777e-10
000060 cf 97 9a 33 57 18 c4 b6 44 ec 2d b6 2e 3d e9 34
       7.198798e-08 -5.8440887e-06 -2.5916534e-06 4.3444146e-07
000070 d5 ae 0f b5 7d 4f 12 02 1f 2a 24 b5 c4 d2 4d b8
       -5.3526065e-07 1.0749198e-37 -6.1156055e-07 -4.90721e-05
000080 5e c6 d3 35 f0 87 ca b9 27 15 52 b8 54 58 2f b7
       1.5778458e-06 -0.00038629724 -5.00876e-05 -1.0451378e-05
000090 b9 8b aa b7 d8 7a 2e 35 b0 65 f5 b9 e4 ef 9e 39
       -2.0330643e-05 6.499881e-07 -0.00046805805 0.0003031484
0000a0 1c 50 03 39 7d a9 69 38 71 3c a6 b8 c3 d3 80 b9
       0.00012522977 5.5709377e-05 -7.926755e-05 -0.00024571837
0000b0 2d f6 92 b7 de cf 8a b7 30 d5 bd b9 44 e0 68 b8
       -1.751919e-05 -1.6547678e-05 -0.00036207726 -5.5521974e-05
0000c0 3d c0 e0 b7 0c 0a ae b7 c6 be 41 b8 94 96 49 b7
       -2.6792399e-05 -2.0747095e-05 -4.6192457e-05 -1.2015593e-05
0000d0 7a 1f 85 b8 41 18 01 b9 ae a9 8e b9 57 5a 13 39
       -6.347797e-05 -0.00012311434 -0.00027210772 0.00014052667
0000e0 d5 89 35 38 60 6f d0 b8 34 1c 13 b7 b4 b3 29 b8
       4.328213e-05 -9.938958e-05 -8.768449e-06 -4.04601e-05
0000f0 88 0c 24 37 19 ef 39 b7 b4 6f 63 38 e7 f5 33 37
       9.778079e-06 -1.10825285e-05 5.422505e-05 1.0726485e-05
000100 52 ed 53 b5 4e 64 d6 b6 6a a9 b5 b7 05 9f 43 b7
       -7.894897e-07 -6.389374e-06 -2.1655771e-05 -1.165993e-05
000110 a0 b1 0e b8 cf 4d 13 39 50 2f ad b9 44 98 15 37
       -3.4020864e-05 0.00014047998 -0.00033032382 8.916544e-06
000120 c4 4b c9 b7 32 1c 5f b7 a8 9f 43 b7 c7 e2 08 b5
       -2.3996348e-05 -1.32984005e-05 -1.1660079e-05 -5.099395e-07
000130 cf d1 b3 b6 ee a3 0f b7 b6 33 9b b6 79 62 63 b6
       -5.3590406e-06 -8.561632e-06 -4.62538e-06 -3.3882955e-06
000140 37 c0 34 b5 16 22 c6 b6 87 7d b9 b5 81 ce 28 b7
       -6.7334935e-07 -5.904828e-06 -1.3820107e-06 -1.0061661e-05
000150 09 3d 97 b6 ca f0 b2 b5 d3 41 f7 b7 34 26 91 b7
       -4.507256e-06 -1.3332112e-06 -2.9475346e-05 -1.7303137e-05
000160 5e bf 79 b6 93 b8 62 35 ae af 13 02 72 c5 3a 38
       -3.7215282e-06 8.446015e-07 1.0850272e-37 4.452974e-05
000170 65 6b f0 36 ea 51 1d 02 82 55 86 b8 82 f7 3e 39
       7.1650597e-06 1.1558047e-37 -6.405545e-05 0.00018212016
000180 b4 de 10 24 96 f1 59 a3 96 1f c5 35 2c 3c 95 38
       3.141366e-17 -1.1814751e-17 1.4686836e-06 7.1160815e-05
000190 66 00 8e b7 6f 37 97 b7 8a 41 fd 38 de 30 33 b8
       -1.6927905e-05 -1.8026416e-05 0.00012076188 -4.2722437e-05
0001a0 60 1a 5c 37 38 22 d0 b7 00 00 00 00 65 38 c2 b8
       1.3119163e-05 -2.4811467e-05 0.0 -9.261145e-05
0001b0 ad 69 12 b9 f3 cd ab 35 8c 17 35 b8 b5 63 93 b9
       -0.00013963012 1.2800432e-06 -4.3175693e-05 -0.00028112312
0001c0 8c c4 49 39 f2 76 f9 38 ac 8d 1c ba 68 6e 3d 39
       0.00019242073 0.000118954005 -0.00059720385 0.00018065574
0001d0 00 00 00 00 60 ca f6 b9 3a 0a b1 38 ea 65 27 38
       0.0 -0.00047071557 8.4419225e-05 3.9910818e-05
0001e0 36 9e e3 b9 f3 91 c4 b8 88 38 d5 38 d3 ee 9b 3c
       -0.0004341469 -9.3731935e-05 0.00010167161 0.019034779
0001f0 8b 02 43 ba 3d 0b 35 bd d9 38 7b bd b2 de 75 bd
       -0.00074390386 -0.04420017 -0.06133351 -0.060026832
000200 b4 81 8e bd e8 db a5 bc 8c 37 8f be 00 00 00 00
       -0.06958333 -0.020246461 -0.27972066 0.0
000210 ef 67 9a b9 3d d3 cd 38 b0 ae 23 ba c2 43 d0 12
       -0.00029450606 9.814508e-05 -0.0006243987 1.3143349e-27
000220 00 00 00 00 00 00 00 00 00 00 00 00 00 00 00 00
       0.0 0.0 0.0 0.0
000230 00 00 00 00 3b be 25 b9 00 00 00 00 00 00 00 00
       0.0 -0.00015806493 0.0 0.0
000240 00 00 00 00 00 00 00 00 f3 2c 1c 02 00 00 00 00
       0.0 0.0 1.147397e-37 0.0
000250 00 00 00 00 00 00 00 00 90 80 14 82 00 00 00 00
       0.0 0.0 -1.0910218e-37 0.0
000260 00 00 00 00 0e 35 15 b9 00 00 00 00 5e 8c 1e 82
       0.0 -0.00014229512 0.0 -1.164829e-37
000270 00 00 00 00 00 00 00 00 81 d7 a0 09 00 00 00 00
       0.0 0.0 3.8721258e-33 0.0
000280 00 00 00 00 ab b6 ac b8 f4 44 3d 39 2e 6d c4 36
       0.0 -8.235624e-05 0.00018050132 5.8539654e-06
000290 60 62 0e 39 f4 44 3d 39 d9 6f a0 b8 a5 79 9d b9
       0.00013578823 0.00018050132 -7.650228e-05 -0.00030036006
0002a0 90 80 14 82 b0 9b 34 39 58 1c 6c 3a 01 d0 33 39
       -1.0910218e-37 0.00017224136 0.0009006909 0.00017148258
0002b0 03 17 e7 39 f5 f2 92 39 85 66 a7 ba a5 0d b5 b7
       0.00044076898 0.00028028307 -0.0012771642 -2.1583235e-05
0002c0 3a 6a 5f b9 5b 50 1b 02 d0 4b af b7 d8 46 87 b8
       -0.0002130651 1.1410662e-37 -2.0896929e-05 -6.450497e-05
0002d0 38 76 1c 02 b3 97 7c b8 4f ac 4d ba 47 aa 6a 37
       1.1494997e-37 -6.0222763e-05 -0.00078458054 1.3987133e-05
0002e0 7f 24 64 b9 d8 9b d5 39 b2 df 82 38 b7 3b 33 3a
       -0.0002175737 0.00040742639 6.2405496e-05 0.00068372063
0002f0 6f 47 f8 b7 de d0 b9 39 9b 0d b5 b7 90 1c 38 ab
       -2.9597168e-05 0.00035441568 -2.1583217e-05 -6.540957e-13
000300 00 00 00 00 9f d5 1a 02 00 00 00 00 ea d6 6d ad
       0.0 1.1375439e-37 0.0 -1.3519611e-11
000310 00 00 00 00 36 6a 5f b9 00 00 00 00 5b 50 1b 02
       0.0 -0.00021306504 0.0 1.1410662e-37
000320 cc 3c e8 39 00 00 00 00 00 00 00 00 00 00 00 00
       0.00044295785 0.0 0.0 0.0
000330 00 00 00 00 e1 3d 1a 02 d0 4b af b7 00 00 00 00
       0.0 1.1331892e-37 -2.0896929e-05 0.0
000340 5e 36 10 82 84 41 87 b6 81 d7 a0 09 46 6d d2 b7
       -1.0595052e-37 -4.0309405e-06 3.8721258e-33 -2.5084835e-05
000350 7f a5 7d b8 d8 1c 16 02 2a cd 11 02 6d 47 17 82
       -6.047403e-05 1.1028537e-37 1.0711797e-37 -1.1114226e-37
000360 ca 3b 1f 02 68 46 1c 82 21 4d 85 b5 ad 32 1b 82
       1.1698634e-37 -1.1481276e-37 -9.93172e-07 -1.1402145e-37
000370 47 6d 78 b8 18 52 40 92 bb a3 06 39 f4 33 98 b7
       -5.922958e-05 -6.0685706e-28 0.0001284023 -1.8144005e-05
000380 6c 62 cf b7 89 23 18 b8 d8 65 83 39 68 6f b8 b6
       -2.4722154e-05 -3.627272e-05 0.00025062147 -5.4965967e-06
000390 bc aa 9b b8 c8 ce 1a 3a 1b 15 fa 38 d4 7e 46 b9
       -7.422778e-05 0.00059054466 0.0001192486 -0.00018929999
0003a0 d4 7b af 39 d1 a7 eb b8 1a 92 17 39 d5 1b d7 2d
       0.0003347086 -0.000112369315 0.00014454909 2.445503e-11
0003b0 da a3 50 b9 00 00 00 00 51 a8 a0 ba 84 88 7f 38
       -0.00019897465 0.0 -0.0012257193 6.0923878e-05
0003c0 be 5f 10 30 90 5a 95 ad 14 32 52 b9 16 c7 08 b9
       5.252295e-10 -1.6979557e-11 -0.00020045816 -0.00013044136
0003d0 c5 ad f4 39 00 00 00 00 00 00 00 00 00 00 00 00
       0.00046668775 0.0 0.0 0.0
0003e0 d9 3c 18 ba 72 d5 3b 3a 40 b2 d0 b9 b4 53 75 b9
       -0.0005807407 0.000716529 -0.00039805658 -0.00023396203
0003f0 5a c9 02 b9 fc f8 69 3a 40 48 26 3c 94 a6 26 be
       -0.00012472775 0.0008925346 0.010149062 -0.16274482

exp_avg_sq f4 [128, 131]
000000 bf 66 e4 31 2f fb d5 33 09 9e da 32 24 7f 36 35
       6.6473542e-09 9.9642754e-08 2.5450406e-08 6.79853e-07
000010 e3 1f 3b 31 9c 4b 2b 30 f0 c0 ca 30 51 bf ac 2f
       2.7230207e-09 6.2316885e-10 1.475227e-09 3.1422556e-10
000020 6d 4b 07 32 23 1b 8e 30 fc 55 8f 31 6f e0 11 31
       7.875184e-09 1.0339573e-09 4.171623e-09 2.1227853e-09
000030 eb c3 00 31 ea 9d 18 31 bd ef e4 30 98 93 a4 30
       1.8737818e-09 2.2208675e-09 1.6657321e-09 1.1974519e-09
000040 2a 1f 84 30 e9 2e 3d 31 50 15 10 30 00 cc 13 31
       9.613121e-10 2.7529785e-09 5.241718e-10 2.1507276e-09
000050 d1 eb ff 2f e9 4d e1 2f 29 58 de 31 d7 6b bc 31
       4.6551787e-10 4.098262e-10 6.471073e-09 5.48378e-09
000060 86 e6 1f 31 0e 60 d8 30 c5 da 63 30 c5 15 f5 2f
       2.3268583e-09 1.5743369e-09 8.289301e-10 4.4580709e-10
000070 a1 e1 24 30 09 b3 1e 32 c5 6c 46 31 c0 79 b2 31
       5.998349e-10 9.237518e-09 2.887462e-09 5.194323e-09
000080 e7 48 57 33 c5 c9 2b 36 a9 b1 c9 32 5d e3 86 33
       5.0124893e-08 2.559843e-06 2.348027e-08 6.2812184e-08
000090 ef a2 e3 32 03 54 47 32 fc 5a a1 36 05 94 fc 34
       2.6500372e-08 1.1602427e-08 4.808766e-06 4.7046356e-07
0000a0 08 02 7b 34 bd d9 32 34 53 5c 0c 34 ce f2 f2 33
       2.3376936e-07 1.6656755e-07 1.3072103e-07 1.1313169e-07
0000b0 3a 44 8d 34 bc 25 ae 34 c2 20 5f 34 7f 45 05 34
       2.6312938e-07 3.243748e-07 2.078041e-07 1.2411873e-07
0000c0 38 f8 2c 33 44 23 b7 33 64 d3 4f 33 39 16 2b 34
       4.0272624e-08 8.528016e-08 4.8388202e-08 1.59337e-07
0000d0 01 a5 56 34 78 14 49 34 a1 08 e5 34 73 fc 0a 35
       1.9990331e-07 1.872703e-07 4.2660852e-07 5.177637e-07
0000e0 ae 3d 22 35 d5 7f 31 34 ca 78 b9 31 93 ef d6 32
       6.043946e-07 1.6530915e-07 5.3979408e-09 2.5021825e-08
0000f0 49 b6 b9 33 0f 6a dc 32 c1 8e e3 33 88 5e 0a 34
       8.647891e-08 2.56596e-08 1.0596478e-07 1.2886642e-07
000100 8e 90 11 33 84 da 8b 33 02 2d 86 33 62 5a 42 33
       3.3891915e-08 6.51244e-08 6.248048e-08 4.5251348e-08
000110 6d 48 8c 32 17 24 aa 34 d4 c1 0a 34 cb b6 5f 32
       1.633108e-08 3.1691226e-07 1.2922766e-07 1.3021871e-08
000120 03 02 ef 32 b9 61 12 32 cc 86 b4 33 0a 20 aa 32
       2.7824177e-08 8.520538e-09 8.4064226e-08 1.9805174e-08
000130 be e9 00 32 8b ec 60 32 7b 27 a9 31 be fe 37 32
       7.503727e-09 1.30923e-08 4.9230358e-09 1.0709924e-08
000140 8b 58 51 33 77 f3 e4 31 a7 26 f8 31 54 a2 bc 32
       4.8742134e-08 6.663352e-09 7.222144e-09 2.1959899e-08
000150 32 45 f7 31 6e ae 2f 33 e7 e8 51 32 32 22 82 32
       7.1965127e-09 4.0904006e-08 1.2218357e-08 1.5149542e-08
000160 88 39 f2 31 13 b3 8e 32 f2 63 e9 31 0e 61 92 33
       7.0496675e-09 1.661241e-08 6.792555e-09 6.816309e-08
000170 07 72 92 32 7d 9d 28 32 0f b2 da 33 20 38 8f 33
       1.704849e-08 9.814696e-09 1.0183805e-07 6.6691655e-08
000180 c7 f7 d4 32 ea 88 41 32 e3 f2 a5 33 6f 2d 46 33
       2.4792724e-08 1.1265209e-08 7.727592e-08 4.614179e-08
000190 40 03 0f 33 04 e9 25 33 13 79 60 33 57 70 f5 32
       3.3297738e-08 3.8628983e-08 5.226418e-08 2.857284e-08
0001a0 e0 96 80 32 e3 1f 2d 33 00 00 00 00 b2 10 e2 32
       1.4969771e-08 4.0308702e-08 0.0 2.6317455e-08
0001b0 b7 3c 11 33 85 b6 94 32 8c 40 8b 32 99 45 2a 34
       3.3815663e-08 1.7312468e-08 1.6211082e-08 1.5857803e-07
0001c0 c9 15 92 33 cc 87 86 34 75 4d 8f 35 c9 b7 5a 35
       6.8026175e-08 2.505825e-07 1.0676873e-06 8.147877e-07
0001d0 00 00 00 00 db 4d 99 35 d3 f0 b5 35 e0 bc 69 35
       0.0 1.1422047e-06 1.355564e-06 8.7074113e-07
0001e0 da 29 31 35 e2 71 4e 34 7c 08 0f 35 d2 35 d2 3c
       6.599854e-07 1.9226675e-07 5.3284e-07 0.02566043
0001f0 78 50 86 3c 39 8a a5 3c 93 81 b7 3c 9a 21 f1 3c
       0.016395792 0.020207511 0.022400653 0.029434968
000200 41 1c 2c 3d 8b bd 42 3d 4c 0b 81 40 00 00 00 00
       0.042019133 0.047544044 4.032629 0.0
000210 e0 a3 8d 34 f1 cf 77 33 1f 0d 81 36 e7 b9 cc 32
       2.638253e-07 5.769829e-08 3.846027e-06 2.3833264e-08
000220 00 00 00 00 00 00 00 00 00 00 00 00 00 00 00 00
       0.0 0.0 0.0 0.0
000230 00 00 00 00 f6 ff 8d 33 00 00 00 00 00 00 00 00
       0.0 6.612383e-08 0.0 0.0
000240 00 00 00 00 00 00 00 00 7c ea 0d 32 00 00 00 00
       0.0 0.0 8.260596e-09 0.0
000250 00 00 00 00 00 00 00 00 b0 28 0a 30 00 00 00 00
       0.0 0.0 5.026193e-10 0.0
000260 00 00 00 00 9d 6b 66 33 00 00 00 00 c9 98 fd 2f
       0.0 5.364892e-08 0.0 4.6128992e-10
000270 00 00 00 00 00 00 00 00 7d c8 3a 32 00 00 00 00
       0.0 0.0 1.0872211e-08 0.0
000280 00 00 00 00 4a be c5 32 d2 f0 14 33 4e ca 03 34
       0.0 2.3020352e-08 3.467796e-08 1.2273924e-07
000290 3f e8 b5 37 d2 f0 14 33 1f 82 1c 34 36 cc 22 34
       2.168503e-05 3.467796e-08 1.457597e-07 1.5161717e-07
0002a0 b0 28 0a 30 08 97 1d 38 2f 33 bd 35 d5 cd 81 36
       5.026193e-10 3.7572376e-05 1.4096494e-06 3.8684616e-06
0002b0 89 e3 59 36 7e d3 97 35 ef b1 24 36 a3 da 28 34
       3.2467963e-06 1.1311929e-06 2.4541475e-06 1.5725759e-07
0002c0 71 11 00 33 ce 7c be 31 05 3b a4 33 2a 1f 9b 35
       2.9818185e-08 5.5439164e-09 7.647581e-08 1.155747e-06
0002d0 4f 3d d0 32 35 21 67 34 54 cc df 34 3c c4 7e 35
       2.4242267e-08 2.1525632e-07 4.1685655e-07 9.490793e-07
0002e0 b0 9d 5d 34 06 21 8b 36 f6 84 eb 36 06 a8 6a 36
       2.0639595e-07 4.1463672e-06 7.0190245e-06 3.496652e-06
0002f0 eb 0e e8 33 b9 b2 4c 35 c8 70 ff 33 b5 d2 46 32
       1.08060554e-07 7.6256e-07 1.18948776e-07 1.1573026e-08
000300 00 00 00 00 ec 23 11 32 00 00 00 00 34 7e 6c 31
       0.0 8.4482785e-09 0.0 3.4414258e-09
000310 00 00 00 00 1b 93 e2 32 00 00 00 00 ce 7c be 31
       0.0 2.6376759e-08 0.0 5.5439164e-09
000320 0f 61 3e 34 00 00 00 00 00 00 00 00 00 00 00 00
       1.7730439e-07 0.0 0.0 0.0
000330 00 00 00 00 27 e3 0f 32 a4 3e 92 33 00 00 00 00
       0.0 8.375344e-09 6.810049e-08 0.0
000340 a2 69 1f 30 7a 31 01 33 7d c8 3a 32 91 98 44 33
       5.7993976e-10 3.008015e-08 1.0872211e-08 4.5773564e-08
000350 5b c8 95 35 ec ed 28 32 a0 b3 d0 31 c0 eb 82 30
       1.1159676e-06 9.832984e-09 6.0740177e-09 9.525749e-10
000360 b0 d0 06 32 44 98 14 31 17 3f 38 33 55 5d 39 30
       7.847277e-09 2.1623388e-09 4.289822e-08 6.743524e-10
000370 0a e8 d0 33 39 52 59 32 ff c5 d8 34 d9 68 91 35
       9.7279624e-08 1.2649758e-08 4.0377196e-07 1.0833857e-06
000380 bb fc e0 35 e8 3e 07 35 58 c8 02 35 1a 38 71 35
       1.6762855e-06 5.038296e-07 4.872031e-07 8.9861135e-07
000390 7f 82 85 34 6a 9e a7 35 9a bc 0f 35 c0 83 4a 34
       2.486813e-07 1.2488574e-06 5.35461e-07 1.8860646e-07
0003a0 71 00 7a 34 79 df 40 34 0a e1 b8 34 e9 22 49 34
       2.3283225e-07 1.7962692e-07 3.4436408e-07 1.8732284e-07
0003b0 8c 9a e3 34 00 00 00 00 7c c2 46 35 ab 58 89 34
       4.2394493e-07 0.0 7.404376e-07 2.5582753e-07
0003c0 eb 53 ae 35 e0 0b e4 32 61 a6 0e 37 5b 4f fe 36
       1.2988434e-06 2.6548094e-08 8.502598e-06 7.579028e-06
0003d0 35 35 6a 35 00 00 00 00 00 00 00 00 00 00 00 00
       8.724922e-07 0.0 0.0 0.0
0003e0 64 95 b4 36 a5 b3 37 37 93 07 88 36 b0 23 f9 33
       5.3818094e-06 1.0949477e-05 4.0539976e-06 1.16014576e-07
0003f0 24 c4 bc 35 8e ab 14 37 a9 57 50 3f 66 33 4a 3f
       1.4064176e-06 8.861431e-06 0.8138376 0.7898468

exp_avg f4 [128]
000000 d1 87 ca b9 68 62 0e 39 a7 a7 ac b9 d4 ad b6 39
       -0.00038629633 0.00013578834 -0.00032931307 0.00034843257
000010 30 2c d5 39 84 1b 17 02 51 f4 17 36 d4 ac 2a b9
       0.00040659448 1.1101625e-37 2.2642964e-06 -0.00016276847
000020 d1 62 2b ba ca 87 93 b9 00 c7 f6 ba 72 91 f9 b9
       -0.0006537857 -0.00028139196 -0.0018827617 -0.00047601346
000030 95 32 cf b9 0a 66 ad 06 7e 8e 1b 02 14 de cf ba
       -0.00039519803 6.52253e-35 1.1428495e-37 -0.0015859031
000040 62 dc c6 ba d7 13 3d 3a 2c 01 19 39 b5 6a 08 ba
       -0.001517188 0.0007212734 0.00014591654 -0.0005203889
000050 aa d0 4c ba 55 2e 16 02 5c cf e0 3a c4 df 12 02
       -0.0007813076 1.1033556e-37 0.0017151642 1.0790604e-37
000060 a6 f1 ba 3a d0 07 ec b9 f0 91 e9 b9 94 f3 0a 3a
       0.0014262691 -0.00045019249 -0.00044549955 0.0005300578
000070 b8 1a cf 38 29 04 4e ba 68 44 2e ba 8c b1 21 39
       9.875506e-05 -0.0007858896 -0.00066477666 0.00015420298
000080 bc d7 93 b9 da 4a b9 37 b0 e8 87 b8 ab 22 12 02
       -0.0002819876 2.2088574e-05 -6.480643e-05 1.0736335e-37
000090 ec 92 92 ba ca e0 91 b9 fb 2e cb ba 82 98 9b 39
       -0.0011182702 -0.00027824036 -0.0015501672 0.0002967753
0000a0 80 77 26 b8 20 77 11 39 10 c5 9e b8 dc a6 b3 b9
       -3.9688777e-05 0.00013872655 -7.570733e-05 -0.0003426586
0000b0 13 f5 d9 3a 00 00 00 00 07 b3 11 ba 0d 32 a1 ba
       0.0016628824 0.0 -0.0005557988 -0.0012298241
0000c0 75 90 bf b8 00 00 00 00 3c ba 1f ba af f4 11 ba
       -9.134497e-05 0.0 -0.000609312 -0.0005567772
0000d0 20 00 a7 b8 b4 d8 03 3a b2 31 9a ba 58 c7 cd b9
       -7.963204e-05 0.00050295447 -0.0011764078 -0.0003924917
0000e0 a0 aa 53 b9 00 00 00 00 4e 53 16 3a 6e 77 87 b9
       -0.00020186091 0.0 0.0005734459 -0.0002583819
0000f0 75 e2 e1 ba d6 d0 37 ba ed 0a 4e b9 d2 c3 4b ba
       -0.0017233627 -0.0007012015 -0.00019649761 -0.0007773015
000100 90 92 0e ba 34 44 84 3a b8 01 28 ba 3a b3 8e b9
       -0.00054387096 0.0010091127 -0.00064089475 -0.00027217885
000110 61 97 ed b9 78 a9 18 39 b0 64 d8 38 60 50 ed 38
       -0.0004531695 0.00014558982 0.00010318437 0.00011316012
000120 31 4b 87 39 ba 8e 87 b9 c6 8a 87 37 00 9a 0c 38
       0.00025805229 -0.00025855546 1.6157876e-05 3.3522025e-05
000130 c0 00 f8 b8 f8 60 c1 33 84 44 65 ba 00 00 00 00
       -0.00011825701 9.0049014e-08 -0.00087458664 0.0
000140 f3 5c a9 ba b6 9f 79 ba e0 ed 06 38 f4 e3 03 b9
       -0.0012921378 -0.0009522395 3.2169628e-05 -0.00012578053
000150 dc 7a 40 ba a8 f8 72 39 e8 75 e7 b9 b7 a1 67 b9
       -0.0007342526 0.0002317155 -0.000441476 -0.0002209012
000160 20 d3 84 38 cc 01 10 3a 17 4d 82 ba 2a 88 d7 ba
       6.3335756e-05 0.0005493432 -0.0009941187 -0.0016443778
000170 6c 6f 6e 39 ae 06 19 b8 0d b5 48 b9 3a b6 d6 38
       0.00022738957 -3.6484264e-05 -0.00019140933 0.000102382575
000180 62 10 9d b9 2e f8 27 ba a6 6b a9 38 ae ea d0 3a
       -0.0002995758 -0.0006407526 8.078599e-05 0.0015939081
000190 8a c4 4c 3a 0a 11 3a 39 8e 25 50 b9 8f 32 0a 3a
       0.0007811269 0.0001774469 -0.00019850416 0.0005271816
0001a0 f1 f0 66 b9 80 e8 03 39 46 33 5e 3a 17 47 18 3a
       -0.00022024267 0.00012579747 0.0008476268 0.0005808933
0001b0 48 91 e9 38 c8 40 50 ba 5d f1 c4 ba aa e5 65 ba
       0.000111373665 -0.00079442235 -0.0015025545 -0.00087698794
0001c0 56 1e d1 ba 54 11 78 b9 62 e1 d9 ba cc d3 9a 39
       -0.0015954475 -0.00023657578 -0.0016622955 0.0002953097
0001d0 40 6f 43 39 c5 af a2 ba 82 c2 cc 3a 60 06 e1 37
       0.00018638093 -0.0012412003 0.0015621933 2.6825059e-05
0001e0 e2 60 ea b9 44 1c fe b9 9c ce d1 b8 2f ba 27 3a
       -0.0004470414 -0.00048467715 -0.000100043806 0.0006398288
0001f0 aa 7b 42 ba 01 2e 9e 39 0d e8 37 ba a8 2f cb 3a
       -0.000741894 0.00030170384 -0.0007015474 0.0015501874

exp_avg_sq f4 [128]
000000 e3 a1 2b 36 3f e8 b5 37 22 1d 65 37 de d3 27 37
       2.5575216e-06 2.168503e-05 1.3656247e-05 1.0003305e-05
000010 d6 11 53 37 24 a6 c8 2b 83 a6 2b 34 78 11 41 37
       1.2580733e-05 1.4256968e-12 1.5986193e-07 1.1507764e-05
000020 d3 5b 13 37 0b d5 8e 37 c9 2c 88 38 99 ad 8c 36
       8.783262e-06 1.7026925e-05 6.493327e-05 4.1925346e-06
000030 ec 9b 03 36 81 56 89 30 4e 68 18 30 33 03 74 36
       1.961128e-06 9.992648e-10 5.5445504e-10 3.6360696e-06
000040 1e ff a4 37 bb 1c f4 36 1d dc ca 36 e4 15 82 38
       1.9669122e-05 7.2751113e-06 6.0456937e-06 6.2029605e-05
000050 fe ee c4 36 59 72 36 2e 80 7f c3 37 ea f7 02 2f
       5.8690775e-06 4.148357e-11 2.3305183e-05 1.1911508e-10
000060 86 17 2a 38 27 9a 95 37 bf 8b 65 37 ff 3f 87 38
       4.0553066e-05 1.7833967e-05 1.3682001e-05 6.449222e-05
000070 75 f7 29 37 69 3d 55 38 2e 6c 56 37 51 9c cd 35
       1.0130801e-05 5.084035e-05 1.27805815e-05 1.5319184e-06
000080 e8 a0 36 36 2b 2b a6 33 7e 08 f9 36 c3 8c ae 2f
       2.7213773e-06 7.7378296e-08 7.421767e-06 3.1750433e-10
000090 2d 39 8d 37 64 cd ae 37 38 d3 ce 37 29 03 41 37
       1.6835134e-05 2.0838059e-05 2.465547e-05 1.1504432e-05
0000a0 05 65 50 36 8f d4 fb 36 21 7a 43 37 86 af ac 37
       3.1053216e-06 7.505128e-06 1.1651341e-05 2.0585732e-05
0000b0 35 55 14 37 00 00 00 00 6b 72 88 37 ec 0b c4 37
       8.841326e-06 0.0 1.6265743e-05 2.3370572e-05
0000c0 65 d2 67 37 00 00 00 00 87 14 01 37 37 f7 6e 37
       1.3817659e-05 0.0 7.693779e-06 1.4243465e-05
0000d0 31 c5 11 38 4a 9d 17 38 83 51 da 38 98 41 0b 37
       3.4754343e-05 3.6147692e-05 0.00010410233 8.300318e-06
0000e0 a0 04 13 38 00 00 00 00 0b 76 b1 38 1f ef dd 36
       3.505184e-05 0.0 8.462005e-05 6.6141506e-06
0000f0 8b 9a 96 38 b1 be 73 36 8f 6e 4f 36 f2 84 e4 37
       7.181343e-05 3.6320819e-06 3.0909757e-06 2.7241626e-05
000100 bc 41 36 37 3e 69 d1 36 b5 fd 89 38 e3 04 54 37
       1.086335e-05 6.240937e-06 6.579926e-05 1.26373225e-05
000110 bd 1d 01 37 e9 86 2f 36 d1 4b 6d 37 6c fa 74 34
       7.695923e-06 2.615556e-06 1.4143953e-05 2.2815374e-07
000120 26 f4 08 35 24 29 66 36 43 98 a0 35 05 5a 88 37
       5.101923e-07 3.4296618e-06 1.1965243e-06 1.6254382e-05
000130 be 21 95 37 10 84 35 31 36 59 1e 38 00 00 00 00
       1.7777897e-05 2.6414035e-09 3.775322e-05 0.0
000140 1e 64 a6 38 53 11 23 39 09 a0 44 35 32 57 3d 37
       7.934145e-05 0.00015551345 7.324857e-07 1.128558e-05
000150 97 ff 88 36 92 e3 02 37 d3 51 18 36 10 ff d3 35
       4.0828704e-06 7.801589e-06 2.2697393e-06 1.5794958e-06
000160 20 b3 2e 37 26 d1 66 36 71 a2 8f 37 d2 69 94 36
       1.0412914e-05 3.4394411e-06 1.7122571e-05 4.423063e-06
000170 64 3a a3 37 9b d6 aa 35 94 62 58 36 7c 63 1d 34
       1.9458304e-05 1.2728445e-06 3.2243888e-06 1.4657957e-07
000180 51 d0 8c 37 3f 0e 26 38 38 8a 73 36 14 c7 2b 38
       1.6786305e-05 3.9590752e-05 3.6290276e-06 4.0954983e-05
000190 0a d7 a1 38 5e e0 c8 36 c7 dc a8 36 a7 db 91 36
       7.7171324e-05 5.9865843e-06 5.032492e-06 4.3469076e-06
0001a0 ef 6b a2 36 ef 09 a9 37 72 e5 ee 35 c8 01 00 37
       4.8405414e-06 2.0150996e-05 1.7799159e-06 7.629809e-06
0001b0 f0 aa 9f 37 f7 79 2f 38 7d 04 21 38 e5 63 fc 36
       1.9033876e-05 4.183684e-05 3.838957e-05 7.5218145e-06
0001c0 82 da cd 37 3a b3 9e 36 78 db bc 37 f5 a8 e1 36
       2.4539655e-05 4.7296317e-06 2.2513545e-05 6.7251917e-06
0001d0 a5 5a 64 38 5a 52 15 39 9e 8d 81 36 0e 63 ec 36
       5.4443855e-05 0.00014240426 3.860986e-06 7.0448796e-06
0001e0 75 88 ac 37 dd 8c 58 36 14 77 18 37 e6 58 dd 36
       2.056754e-05 3.2268501e-06 9.087631e-06 6.5966624e-06
0001f0 d6 70 d6 36 79 e0 b7 35 69 2d ac 36 38 51 1f 38
       6.390833e-06 1.3699893e-06 5.131286e-06 3.7984195e-05
