lightning_model_releases/lightning_quantile_test/model_params/0.8_81054_1334_lightning_quantile.ckpt (torch, 311310 bytes, 15 tensors)

model.0.weight f4 [128, 131]
00000000: f004 3d3e 05f5 39bc 4886 b8bd 3bf5 ccbd
00000010: 2ac1 1dbe c18a 253e 7d82 c8bc b8b9 1c3e
00000020: e887 fc3b 8cde 3ebc f1f1 ae3d 2d75 8d3c
00000030: 565c 7bbd 5de7 c3bd 8e5d 6c3d f765 923d
00000040: f4e7 1f3e 1e8e 2d3d 69a9 5dbd cf10 d73c
00000050: a608 3cbd 8ed8 a5bd 672b d93d 60a7 03bd
00000060: 17cb 7b3d e85f 9c3d 7684 e1bd a3b9 c2bd
00000070: 38a5 0b3e b894 0fbd 90fb 0abe 0405 4fbd
00000080: f40c b33d 8729 2bbd 20f3 343b f85b cabd
00000090: cbbd 3abd c806 b13d 6d00 40bd 97c0 4b3d
000000a0: 8b1b 8e3d 58df b4bd 954c a3bd f680 653d
000000b0: 66d2 b83c f6d1 83bd 2325 7d3d c664 a4bc
000000c0: a162 d03c a60a 12be 0025 32be 2e70 a93e
000000d0: 08c2 cb3d 077d d33d 6e17 07bc 3bbd 483d
000000e0: f1dc 96be 5017 45be 67ec b03d d9f5 15bc
000000f0: 13ec 5cbd ea95 c93b 9432 9fbd ada7 24bd
00000100: 9d14 b7ba 413a c8bd 1b71 c93d 3391 abbc
00000110: c44f a0bd f929 253b df62 3c3e 7cad fd3b
00000120: 6dbf 063e 3b28 f2bd dbc0 e5bd b6e4 2fbd
00000130: 566d 6ebd 8922 46bd 9114 ab3a ff24 e63d
00000140: f13b d9bd f7f9 50bd fc5b 0dbe cb04 cbbd
00000150: 2846 f43d 0b69 84bc c262 e43d e744 41be
00000160: 403c 33bd 7871 243e f455 18be 58d9 f23d
00000170: 5426 953d 03ad 843c e7b0 aebb 1fac 433b
00000180: ab72 dc3d cafe bebd 55e2 3abd 00bb 6b3d
00000190: 2dad 5cbe 947a 7c3a 1934 913c d085 31be
000001a0: 9511 82bb 4670 35be b9ce 97bd dd0d 1ebe
000001b0: b475 04be 55bf 703d 739f 313e 602f 873c
000001c0: 444c 2cbc 31b4 31be 01be 04be 350d c83d
000001d0: 70d7 5f3c e2af cc3d a04f 9abe bba7 0cbd
000001e0: 089c c6bc 846e 0bbe 7cc4 96bd a824 e5bd
000001f0: a44b d4bd baf9 afbd 7edf 87bd 0268 dfbd
00000200: 456e f13c 9ce7 87bd ebb4 fe3c 6e44 54be
00000210: 443f 3f3d 119c bc3e fcd0 e83e a89e 0f3d
00000220: ec99 16bf 2dbb 0ebe 6eca 98be 441f 503d
00000230: faa4 d3bd ccd9 acbe 7ce6 9bbd 0376 a73e
00000240: 5557 773e 4b20 823d 5b6f 8cbe fdc4 533d
00000250: 13f0 833d d49e 723e fea1 0bbd 7871 76be
00000260: 8c6c 1c3d ac63 98bd f12e 633e e8d2 d9be
00000270: 5665 b9be e4ca 4f3e 05f6 9a3d 3ca7 d4bd
00000280: 6a89 af3d 8c74 fb3e b6ea c7bd 9110 30be
00000290: 63ac f83d 8e02 dc3d 832d a23e 273c ca3d
000002a0: 1f50 3abd af04 0e3d 9a2f a6be c234 5cbe
000002b0: 466e b53d 2a6d 9b3e 90e9 e63d 9382 3dbd
000002c0: 7e08 35be 940d 7ebb d98d c63d 09e6 5a3d
000002d0: 6b0a bf3d 4d5f 683d 0a2c 68bf 4ae6 aebe
000002e0: f8eb 98be 08fb 2dbe 96f4 f0bd 13ae 4e3f
000002f0: d9e7 dd3e a572 60be 2975 2dbe 277d 903e
00000300: 27ab adbe a49b 5b3e 5c8b 063e b817 073c
00000310: e875 fabd 5a63 92be f027 873d 3136 e8bc
00000320: e672 63be 843b 82be 0fea b03d 990c 503d
00000330: 6f74 843b 2dc7 033e 05a8 f7be 8a50 27bd
00000340: 0046 383e 5cff e2bd 1ac3 d43d 6f54 d93d
00000350: 411f 683c aa4b 8a3e b18b 293e 724b 8e3c
00000360: 8f3e cdbd 10d8 b2be 80b0 973e 120b 5cbe
00000370: ad10 e9be 3ada 703e 9687 c7be 7a61 9abd
00000380: 4550 b3bd 6844 5ebe 6f9a a5bd dcd8 87bd
00000390: be69 00be dfdf 52be a812 213e c46a dc3d
000003a0: 1080 3e3e 59f3 253e a786 413e da5d 713e
000003b0: 0c65 013e b214 88bd a145 4b3e 7b69 153e
000003c0: c182 3cbe 1ff1 8cbe 591f 883d c062 bcbc
000003d0: 6324 123e f64b bcbd 9177 85be 0c6b ed3c
000003e0: 1dbf 39bf 4c58 3e3f ead1 57bd b7cc 01be
000003f0: da0b e33d 66c3 bd3d a396 5e3d 3a03 c1bd
0.18458915 -0.011349921 -0.09009987 -0.100077115 -0.15405717 0.16166212 -0.024476284 0.15305221
0.007706631 -0.011649739 0.085422404 0.017267788 -0.061367355 -0.095656134 0.05770641 0.071483545
0.15615827 0.04237186 -0.05411664 0.026253132 -0.045906685 -0.08097945 0.106039815 -0.032142043
0.06147298 0.0763548 -0.11011593 -0.09508064 0.13637245 -0.03505394 -0.13572526 -0.050541893
0.08742705 -0.04178765 0.0027610734 -0.09880823 -0.045591157 0.086438715 -0.046875406 0.049744215
0.06938847 -0.08831662 -0.07973591 0.05603119 0.022561263 -0.06436531 0.061802994 -0.020067584
0.025437655 -0.14261875 -0.17396927 0.330934 0.09949118 0.103265814 -0.008245332 0.04900859
-0.2946544 -0.19247174 0.0863884 -0.009152853 -0.053936075 0.0061519044 -0.07773319 -0.04019897
-0.0013967935 -0.09776736 0.09836026 -0.02094326 -0.07827714 0.002520202 0.18397091 0.007741628
0.1315896 -0.118240796 -0.11218425 -0.042942725 -0.05820974 -0.04837278 0.0013052394 0.11237525
-0.10607136 -0.051019635 -0.1380462 -0.099130236 0.11927444 -0.01616337 0.11151649 -0.1887394
-0.04375863 0.1605891 -0.14876539 0.11857861 0.07282701 0.01619578 -0.005331147 0.002985723
0.10764059 -0.09325941 -0.045626003 0.057551384 -0.21550436 0.00096313027 0.017725037 -0.17336202
-0.003969381 -0.1771861 -0.07412476 -0.15434976 -0.12935525 0.05877622 0.17345981 0.016502082
-0.01051623 -0.17353894 -0.12963106 0.09768144 0.013662204 0.099944845 -0.30138874 -0.034339648
-0.024244323 -0.13616377 -0.07361695 -0.11188632 -0.1036599 -0.085925534 -0.066344246 -0.1090851
0.029471526 -0.06635973 0.031092128 -0.20729229 0.046691194 0.3683782 0.45471942 0.035063416
-0.58828616 -0.1393859 -0.29841942 0.050811067 -0.10334201 -0.33759916 -0.07612321 0.32707223
0.24154408 0.06353816 -0.27428707 0.051701535 0.06442275 0.236934 -0.034090035 -0.24066722
0.038189456 -0.07440886 0.22185875 -0.4254372 -0.36210126 0.2029224 0.07566456 -0.1038346
0.085711315 0.49112356 -0.097615644 -0.1719382 0.12142255 0.10742675 0.31675348 0.098747544
-0.045486566 0.034672435 -0.32458192 -0.215045 0.088589236 0.30356723 0.11275017 -0.046267103
-0.17679021 -0.0038765417 0.09695024 0.053442035 0.09328159 0.05673151 -0.906922 -0.34160072
-0.2986753 -0.16990292 -0.11765401 0.80734366 0.43340948 -0.21918733 -0.16939224 0.28220484
-0.3391964 0.21446091 0.13139099 0.008245401 -0.1222952 -0.28591424 0.06599414 -0.028346153
-0.22211799 -0.25436032 0.08638393 0.050793264 0.0040422003 0.12868948 -0.48370376 -0.040848292
0.17995453 -0.11083862 0.10388775 0.106118076 0.014167608 0.27010852 0.16557194 0.01736996
-0.10021698 -0.34930468 0.29626846 -0.21488598 -0.45520535 0.23520747 -0.3897063 -0.075381234
-0.087555446 -0.21705782 -0.080860965 -0.066331595 -0.12540337 -0.20593213 0.15729773 0.107625514
0.1860354 0.16206111 0.18899022 0.23570958 0.12636203 -0.06644572 0.1985078 0.14591019
-0.18409254 -0.2752771 0.06646604 -0.022996306 0.14271693 -0.09194176 -0.26067784 0.028981708
-0.7255724 0.7435348 -0.052690424 -0.12675749 0.11086245 0.09265785 0.054342877 -0.094244435

model.0.bias f4 [128]
00000000: bbfa 0ebe f976 2b3e cbd0 e03d b4bc e03d
00000010: 2b4c 073e 3d49 253e 0fbf c5bc 3133 74b9
00000020: c20a 043c c4d8 953d 47b7 273c 7807 ab3c
00000030: 14b4 c4bb 7795 42bd 2f56 7d3d 7d70 89bd
00000040: a1df c03d 4531 0cbd 463b 063b 9e6a 233e
00000050: 29b8 d43d 11a1 873d 5b99 623d 1377 883d
00000060: cd6c a83d 45c0 ab3d 9f6f 0d3d 0042 453b
00000070: a4d0 113e 6a41 dc3d 01de 133e 3655 ee3d
00000080: 431d b13d 4ee6 78bd a7bc 063d f499 8a3c
00000090: 0adf 903d 063c df3d 81ab f53d 96f2 59bd
000000a0: 8579 913c bf4a 21bd 3818 8d3d ab75 093e
000000b0: 13d7 a13d 601d 963b 5c2d fe3d e736 b33b
000000c0: 80e3 f8ba 6408 87bc 578c ce3c 5a59 d43d
000000d0: 7122 fd3d 4cf1 e4ba 50da bcbd c14c aebd
000000e0: 2e0e d43d b2c8 293d 9a41 393d 9b84 053e
000000f0: 9aa6 e33c 7a54 993d 3214 553c 3ca9 3b3d
00000100: 3879 b13d 9d43 55bc cd59 6e3c c08e a6ba
00000110: ae14 da3b 4ef4 973d bef9 9e3c f200 723d
00000120: 470f 97bd 654c f23b 756e 233d 3086 293d
00000130: d2b9 54bd d56a 84bc 9389 263e cfd5 18bd
00000140: 70e5 423d f0ca 13bb e0b9 5a3d 05ec 8a3d
00000150: 6177 1d3e 0a83 ed3d 841e fe3c 40fc 96bd
00000160: 0fc5 e7bc 2444 e9ba 4c36 c4bc 1a62 463d
00000170: ab75 193e 84c4 68bd 46bc 4bbd 32da 743d
00000180: cb06 0f3d cffc 153d 3f30 093b 4ebb 1abd
00000190: 9e8c 643c b1d8 893d d58f b2bc 0a8a 78bc
000001a0: 41ca be3c 3a2e a83d 7b5f 8d3d 44c4 0bbd
000001b0: 87cb d0bb 8638 823d 6988 383e 542f cbbb
000001c0: 3b11 6dbc 85a2 553d 3f67 173e 704e 643c
000001d0: 283c f8bc 50bf 293e 2a1e 28bb 4d61 9a3d
000001e0: 81a2 1a3e 208b 513d 7827 7cbc b5ad ce3d
000001f0: fcd6 7abc 3910 1bbd 1d5d 163e 1b93 2d3d
-0.13962834 0.16744603 0.10977324 0.10973492 0.1321265 0.1614122 -0.024138955 -0.00023288724
0.0080592055 0.073167354 0.010236568 0.020877585 -0.0060029123 -0.047505822 0.06184977 -0.067109086
0.09417654 -0.034226675 0.0020482107 0.1595864 0.10386688 0.06622518 0.055322032 0.066633366
0.08223877 0.08386282 0.03453028 0.0030099154 0.14239746 0.10754664 0.14440157 0.116373464
0.08648159 -0.06076651 0.032894757 0.016919114 0.07073791 0.109001204 0.119956024 -0.053209864
0.01775814 -0.039377924 0.06889385 0.13423793 0.0790235 0.0045811385 0.12410995 0.0054691914
-0.0018988699 -0.016483493 0.025213404 0.10368605 0.12360085 -0.0017466932 -0.09221327 -0.085107334
0.10354267 0.041451164 0.04522858 0.13038866 0.027789403 0.07486816 0.013005303 0.04581569
0.08665699 -0.013016609 0.014547777 -0.0012707338 0.0066552972 0.07419644 0.019406196 0.059082933
-0.07375961 0.007394361 0.039900262 0.041387737 -0.051935025 -0.016164223 0.16263418 -0.03731328
0.04758209 -0.002255138 0.05339992 0.067832984 0.1537757 0.11597259 0.03102041 -0.073723316
-0.028292207 -0.0017796797 -0.023951672 0.0484334 0.14986293 -0.056828037 -0.0497401 0.0597784
0.034918588 0.03661805 0.0020933298 -0.037776284 0.013949541 0.06730784 -0.0217971 -0.01516963
0.023289802 0.08211942 0.06902977 -0.03412272 -0.0063719186 0.06358437 0.18020786 -0.0062007103
-0.01446944 0.052156944 0.14785479 0.013934717 -0.030302122 0.16576886 -0.0025652745 0.0753809
0.15101053 0.05115807 -0.015390269 0.10091726 -0.015310045 -0.037857268 0.14683957 0.04237662

model.3.weight f4 [64, 128]
00000000: 9bef 8ebd abd3 f83d 274f 8cbd ebd0 e3bc
00000010: 3fa8 623c 37f6 9f3c 0e51 bf3c 132d ab3d
00000020: c539 893d f3ff 8bbd d529 59bd d69f 9cbd
00000030: 14a6 903d 76ef 953c 2694 01bd 2767 31bd
00000040: b0bb e03c 0ed5 b13c 6666 3c3d 81de a13d
00000050: 9da5 a53d 26f7 c33d 78b5 0a3d d92f 66bd
00000060: f5a0 02bd 8fa8 633c 79cf 933d bb85 22bd
00000070: 8564 4fbd 3919 18bb 8aa2 2a3d 4a11 583c
00000080: d392 983d 4bf0 a2bd 68f7 ad3c d318 893d
00000090: 6e61 c63d 345b 39bd 8014 51bd 5fa0 ef3b
000000a0: 1c32 68bb 2f05 373d d5d8 a83d b4a8 093c
000000b0: e6c0 d4bc 5262 453d b1df 49bd bd93 be3a
000000c0: 5831 323c 98b4 73bc 9649 683d 81de c23b
000000d0: 1c4a 0f3d a09c 083d df2a 233b c074 13bd
000000e0: de10 bd3d 22c2 493d 4016 5dbc c8da 37bd
000000f0: d94e 963c d957 853d e2bd 493d 7906 14bc
00000100: 0d3c 883d 2b36 d336 bbd2 2f3d c647 2abd
00000110: d305 d83b 56d5 14bc 99a8 743c 7b2a acbd
00000120: 5617 893b 7a78 8abd 2cc5 83bd 11ba a3bd
00000130: 531b 76bd a267 ba3c c0c4 ed3c 7074 aa3c
00000140: 02b1 3e3c f360 4cbd 81ef 2e3d 2557 9abd
00000150: 7581 6cbc eae3 5c3c 2548 813c 789a 95bd
00000160: 5e1b 8e3d 4c64 933d 0d2c 22bd 6c2f 9abd
00000170: 653c a33c d008 f13c 583d 79bc 5d51 26bd
00000180: 1a22 a43c 88df 42bd 9ab2 32bd b0a2 e73c
00000190: cb96 7d3d f061 233e 9475 963d 41f3 5e3b
000001a0: ee19 a83c a630 8c3d fb18 25bd b84d 823d
000001b0: ed10 a13d 1aa1 e5bc cce4 d33d 9b39 efbc
000001c0: adb9 2ebd a026 8d3d ee22 863d e0ae d0bb
000001d0: 324f 86bd 9028 b43e 725d 0f3d abde 83bd
000001e0: 85d9 bf3c 259d 763d 7edf 183d 2ef8 c3bc
000001f0: f04f 9ebc 6f30 b43d 8ad4 9f3d b63d 933d
00000200: 737e eabc 4415 14bd b4e8 a6bd f9fa 1cbd
00000210: c099 b33c 3ec9 c4bd 6a59 95bb 804d 8f3d
00000220: 38bb a43c e90c 803c 389b 8bbd 20e7 babc
00000230: 77fe bcbd 6ce8 72bd 0f23 2f3c f7e0 823c
00000240: f27c bc3c d2a8 90bd e421 c13b b0c2 c4bd
00000250: 4fea abbd 4ded 23bd 85e9 9abd 684e 893c
00000260: d80b 643c e402 213d 0cc1 82ba 2428 8d3c
00000270: 97e9 503c e0d6 ebb9 e9a4 d0bd 96d2 6cbd
00000280: 5901 b5bd 7bea 51bd 7d4e 27bb 55b3 aa3d
00000290: 242e da3b f836 7fbd b341 97ba a629 793d
000002a0: 1872 b8ba 1dd0 b5bd 0338 d8bb 3a33 b23b
000002b0: e016 6d3c a357 a53d de26 653d 8e2f a6bd
000002c0: a3a0 893d dc01 a2bd 58ce 90bd 8f61 b23c
000002d0: 2958 93bc 44ff 563d 63dc 2c3d 1c1d 07bd
000002e0: 6712 733d 40e9 81bd 14f1 863c 0c44 1a3c
000002f0: 30a2 0c3d 2168 893d 2104 bd3c 54c8 8cbd
00000300: d316 513d df5d 593d c953 23bd b1f3 813d
00000310: c5f5 8f38 c0c6 c0bc b944 e53b 0086 8139
00000320: e777 28bd ba1e e9bb f7e7 8abc ea3b a2bd
00000330: 0ad7 a4bd 60ed ed3c a126 7dbd e0ab 0d3b
00000340: f747 5a3d 5130 693d 71da a63c c459 e93c
00000350: 66cf 1b3d 0621 a4bd 64fc 813d d34d a7bd
00000360: 7156 99bd d690 73bd f1eb b03d 2aa9 4a3d
00000370: cb6d b83b 67db 133d ef0b cbbd 41a7 acbd
00000380: 1daa 213c 8268 edbc 20c2 dd3c 4279 80bd
00000390: 4b8e 623d 19e5 a8bd 0e45 d43c b546 e13c
000003a0: c477 81bd b4c8 373d 3a00 ee3c 3253 6ebd
000003b0: 17fe 8bbd 0fbe f23c f771 13bd 11a6 f9bb
000003c0: 01f1 ae3c f109 9e3c f5bf 8abd 3344 883d
000003d0: 2bcb 9f3c 8067 a23c c139 28bd 1aef a53c
000003e0: c9f5 e5bc 410e 2b3d 3ea3 393d ec03 3d3d
000003f0: 1cb4 d2bc b2ee 3e3d 2962 423d bc81 62bc
-0.06979295 0.121497475 -0.068510346 -0.02780958 0.013834058 0.019526584 0.02335408 0.083582066
0.06700472 -0.06835928 -0.05301841 -0.07647674 0.07062927 0.01830266 -0.031635426 -0.043311264
0.027433246 0.021708038 0.045996092 0.079037674 0.08088229 0.09568624 0.03386447 -0.056197975
-0.03189178 0.013895168 0.07217307 -0.039678317 -0.050632972 -0.0023208393 0.041658916 0.013187716
0.074498795 -0.079559885 0.021236137 0.06694188 0.09686552 -0.045252994 -0.05104494 0.007312819
-0.0035430258 0.044682678 0.082444824 0.008402038 -0.025970887 0.04818947 -0.049285594 0.0014539879
0.010876022 -0.0148746 0.056710802 0.0059469347 0.034982786 0.033352494 0.002489738 -0.036000013
0.09231733 0.049257405 -0.013494074 -0.04488638 0.018348144 0.06510896 0.049253352 -0.009034746
0.06652079 6.294596e-06 0.042925578 -0.041572355 0.006592491 -0.009084066 0.014932775 -0.0840654
0.00418369 -0.0676126 -0.06434092 -0.07994474 -0.060084652 0.022754494 0.029024482 0.020807475
0.011638882 -0.049897145 0.042708877 -0.07536153 -0.014435162 0.013482073 0.015781472 -0.07304853
0.069388136 0.071968645 -0.03959279 -0.07528576 0.01992626 0.029423147 -0.015212379 -0.040604938
0.020035792 -0.047576457 -0.04362736 0.028275818 0.061911386 0.15955329 0.07346645 0.0034019502
0.020520177 0.068452165 -0.040307026 0.0636248 0.078645565 -0.02803092 0.10346374 -0.029202273
-0.042657543 0.06892133 0.06549631 -0.006368503 -0.06558074 0.35187197 0.035001226 -0.06438955
0.023419151 0.06020846 0.037322514 -0.023922052 -0.019325227 0.087983005 0.078042105 0.07189505
-0.028624749 -0.036153093 -0.08149853 -0.038325284 0.0219239 -0.096086964 -0.004557778 0.06997204
0.020108804 0.015631156 -0.06816715 -0.022815287 -0.09228223 -0.059303686 0.010689511 0.015976412
0.023008797 -0.0706345 0.0058939327 -0.09607446 -0.083943 -0.04002123 -0.075640716 0.01676102
0.013918839 0.039309397 -0.0009975745 0.017231055 0.012751005 -0.00044982787 -0.10187704 -0.057818018
-0.08838148 -0.05124901 -0.002552896 0.08334986 0.0066583324 -0.06230828 -0.0011539966 0.060830735
-0.0014072089 -0.08877585 -0.006598474 0.0054382356 0.014470786 0.08073356 0.05594527 -0.08114539
0.06720092 -0.07910511 -0.07070607 0.021775035 -0.017986374 0.052489534 0.042202365 -0.032986745
0.05934372 -0.06343317 0.016472377 0.009415638 0.03433436 0.06709314 0.023073258 -0.06874147
0.051047157 0.053068038 -0.039874826 0.063453086 6.8645495e-05 -0.023532271 0.006996718 0.00024704635
-0.041129973 -0.0071142586 -0.016956313 -0.07921584 -0.08048828 0.029043853 -0.061804418 0.0021617338
0.053291287 0.056930844 0.020367833 0.028485186 0.038039587 -0.08014111 0.06346968 -0.08169141
-0.074871905 -0.0594643 0.08638752 0.049477734 0.0056283227 0.03609791 -0.099143855 -0.08430339
0.009867218 -0.028980497 0.027070105 -0.06273128 0.055311482 -0.08246822 0.025911834 0.027499536
-0.063216716 0.04486914 0.029052842 -0.05818481 -0.06835573 0.029631643 -0.035997357 -0.0076186736
0.021355154 0.01929185 -0.06774894 0.06653633 0.019506058 0.019824743 -0.041070703 0.020255614
-0.028071301 0.04176164 0.045321696 0.04614632 -0.025720648 0.046614356 0.047456894 -0.013824876

model.3.bias f4 [64]
00000000: 6f27 023e d25b 76bd 7d47 343e 5f23 963b
00000010: b504 bdbd fd80 333e a7ca 473c 4fdd 3dbd
00000020: 3d97 abb9 8a21 823c a444 eabc 7b9d 573e
00000030: cc3c 273e ae35 7d3e 5ef3 203e 5a5b c5bc
00000040: 18da bebd 4e42 21bd 9052 523e 419a 573d
00000050: 5cd7 8a3d f20e f4bc 4e85 4e3e 531c f23d
00000060: 7d9c 383e a9cd 383e faf8 073e 4229 653e
00000070: f155 093e 3852 79bd 99d2 bb3d f641 4abc
00000080: 5a51 50bd 21a4 3c3e 03d6 f83d 4691 75bd
00000090: a234 cd3a ea2d 823d 94b1 f73c 2144 443e
000000a0: 496c cd3c 4ef5 833c 5ea3 a3bc 78bb 2f3e
000000b0: 5251 06bc 1550 d9bd 7752 3e3d e0a9 3fbc
000000c0: 262b 403d e399 183e b9d7 a83d dd5f 263d
000000d0: ef14 443e 11fb ce3d df86 d73c de99 b93b
000000e0: 0c8e afbd b02e 053e 27e1 053e d69a 3d3e
000000f0: 831a 233e 9ed9 01bd d2cd 65bd 9f12 203e
0.12710355 -0.06014616 0.17605396 0.0045818533 -0.092294134 0.17529674 0.012194312 -0.046353634
-0.00032728343 0.015885133 -0.028597184 0.21056168 0.16331786 0.24727508 0.15717837 -0.024091411
-0.09318942 -0.039369874 0.20539308 0.052637342 0.06779358 -0.029792283 0.20168039 0.11821809
0.18028446 0.18047203 0.13278571 0.2237902 0.1341169 -0.060869426 0.09171028 -0.012344828
-0.050858833 0.18421985 0.121501945 -0.059952997 0.0015655945 0.06356414 0.030236043 0.19166614
0.025076048 0.016108181 -0.01997536 0.17161357 -0.008198099 -0.106109776 0.046465363 -0.011698216
0.04691615 0.14902453 0.08244271 0.040618766 0.1914861 0.10106481 0.026309429 0.0056640944
-0.08572015 0.13006091 0.1307417 0.18516096 0.15928082 -0.031701677 -0.05610449 0.15632103

model.6.weight f4 [1, 64]
00000000: 9b12 c43d b4e8 39bd 4518 5c3d 4f12 2fbc
00000010: bbf9 56bd 00b5 303d cfee b53d 183c cdbd
00000020: af28 1cbd 23e0 a43d fdd0 37bd cd7c 6e3d
00000030: a061 913d 3cdd 3d3d 3ddc 4a3d 2ac2 c6bd
00000040: 1e45 9bba 9692 28bc 6df2 413d 54c3 9eba
00000050: 283b 90bc 4d14 78bd 44f4 a73d 60ac 3b3d
00000060: a50b 653d 55e7 983d 486f 2e3d cd19 a13d
00000070: d1fe 593d 181b eebc 5785 0c3d a243 c6bd
00000080: 56e5 47bd 063f ca3d ce75 e03d 051a 9bbd
00000090: 62b7 1cbd 5a53 983d f5ba a8bd 0d59 213d
000000a0: 4d4d ccbd 1958 25bd 9b28 66bd 9c36 313d
000000b0: 7d04 83bc c7ce 5bbd 6850 873d 92e5 1cbd
000000c0: 7037 dabd 2457 993d 0073 a63d b331 26bc
000000d0: 256a 1d3d cffc 3b3d e2d7 5d3b 244d 25bc
000000e0: ad6f bbbd f37f 753d 4e75 3e3d 3b7f 993d
000000f0: 2434 6f3d a389 12bd b06c 3fbd 03a1 363d
0.09573861 -0.04538794 0.053734083 -0.010685517 -0.052484255 0.043141365 0.0888344 -0.100212276
-0.038124736 0.08050563 -0.04487704 0.058224488 0.070986986 0.046353564 0.04952644 -0.097050026
-0.001184616 -0.010288855 0.047350336 -0.0012112656 -0.017606333 -0.060566235 0.08200887 0.045818686
0.05591931 0.07465998 0.042586595 0.07866249 0.053221527 -0.029065654 0.03430685 -0.09680869
-0.048802696 0.09875302 0.109599695 -0.07573322 -0.038260825 0.07437773 -0.08238784 0.039391566
-0.099756815 -0.04036722 -0.05619107 0.04326497 -0.015993351 -0.053663995 0.06607133 -0.038304873
-0.10655105 0.07487324 0.08127403 -0.010143685 0.038431305 0.045895394 0.00338506 -0.010089193
-0.0915216 0.059936475 0.04649859 0.074949704 0.058399335 -0.03577579 -0.04673451 0.044587146

exp_avg f4 [128, 131]
00000000: 60ac 82b4 9c1a 66b6 3590 aab5 803c 0837
00000010: 4685 5833 bc4e 0829 f413 34b2 549e 09b2
00000020: 6134 19b5 96a8 3037 0252 fdb3 bf7f 02b1
00000030: 42c3 1233 9570 2c31 4495 dd33 ae6c 0bb6
00000040: 2946 e4b6 7009 4fb5 cfd4 11af c77f 02b1
00000050: f7f3 40b4 a7de 34b5 aff3 84b2 edbb 93b5
00000060: ae9d d0b0 e491 1a33 8cc6 beb5 d652 35b2
00000070: 15d8 4db4 3ec9 6ab5 041f 1bb4 5607 0cb2
00000080: 2445 75b4 608a eb37 50c6 89b5 728d 0fb7
00000090: a73f c736 5ec4 8db5 64cc 4238 e201 4037
000000a0: 9b7f 60b7 3011 52b8 1d3a a137 57c4 61b4
000000b0: 2e3f ac37 1600 0138 1838 90b6 3c10 a635
000000c0: 3a34 d836 5d68 03b5 00b7 e736 e00b cdb7
000000d0: ddf5 8937 92e6 14b5 86b2 ecb7 1f27 2838
000000e0: d822 5337 ac2e 4c37 055b fb35 4122 5e37
000000f0: 8bfd 2eb4 426f 78b4 99f1 1237 0536 5437
00000100: 8248 dfb6 ae96 9637 ab4b 0037 77f3 86b5
00000110: c439 78b3 631d 1f36 ff2a e9b4 e6d1 1db6
00000120: 5379 09b6 bdad aa35 ec97 8eb4 599e 2533
00000130: a08a 4235 b522 27b2 fba1 0133 b5c2 88b1
00000140: 6f13 4cb6 077e 32b2 1f34 db36 c349 80a8
00000150: 2be3 d1a9 180c 13b5 8bbd 21b3 0e9e 2e33
00000160: 5ce7 01b4 1069 cb36 0a75 7735 0a0e 59b7
00000170: dd77 43b4 54ae 36b3 6404 c5b6 07e5 46b7
00000180: a8f1 1036 5a03 02b6 20a5 39b8 f9bd 05b5
00000190: efd8 82b5 e241 36b6 ec9a b537 c175 bc37
000001a0: 54cd 99b2 2f3a ec34 0000 0000 6086 8037
000001b0: 3313 c7b2 73e5 57b4 829b 82b7 0000 0000
000001c0: 41de e3a6 c323 a035 da83 deb7 6d04 6038
000001d0: 0000 0000 df37 1ab8 bffd 8738 4c3e 0538
000001e0: 2a53 e837 17bf 5737 0794 39b8 e01b 133a
000001f0: 0847 383a b412 de3a 94cf de3a 5f4b 853b
00000200: aa2c 4c3b 9e0b 283b c6e7 313d fcd0 1d39
00000210: 7062 fc37 7029 6338 3ef9 efba 4aca f4b8
00000220: ba57 ae38 590c 9437 3263 8438 ee72 ef38
00000230: 5603 16b9 92df 1439 e2c1 25b9 a79d bbb9
00000240: 917e e5b9 22aa 92b7 1fb5 2f39 4917 2538
00000250: 212a aa37 4819 11b9 1e42 a1b8 0e5d 0a39
00000260: 799c 3438 a4f4 cd38 9a2e c338 23b3 c539
00000270: 9554 a838 83aa db34 67fd 6db6 9cb3 c537
00000280: 6b35 4538 b618 77b9 27b2 1a39 9d6b 72b5
00000290: 6e1f f839 6e99 2439 6542 38ba 2ea1 1c3a
000002a0: b412 d638 7652 223a e527 1c3a f87d 473a
000002b0: 40d1 1cba 7432 b2b9 4ab2 b8ba d28c 0d3a
000002c0: 7597 833a f878 0439 c0af 8b3a f7bd aeb9
000002d0: 5694 5eba 9e6e abb7 b416 a739 4393 343a
000002e0: c0f0 a53a 7120 ce39 aa12 43b6 bf9e 36bb
000002f0: 336f 2e3a c0b4 d439 13fc 8738 fa41 8db8
00000300: 059e 5338 ae6d ab39 1a7f 24b9 442d 853a
00000310: d648 3a39 74ba 23b9 c238 c438 2e51 9739
00000320: 1a9b cc39 297b 5939 e79c a4b9 8db5 c438
00000330: 1872 8b39 0c03 2eb8 0a3f 413a c8fd f7b8
00000340: 7d2e b1b9 d88c f338 7449 8fb8 012b beb8
00000350: 8805 8639 d27f 1aba 9018 37b7 b062 92b9
00000360: fae5 60b9 4b0d 9f37 da52 f4b9 cdcc 5b39
00000370: 0d9f 7639 3874 3537 0798 d438 1444 d539
00000380: cde3 1bb9 1531 dc37 dbd0 a039 2bcf 6839
00000390: aaa0 d039 a33f abba 403d e437 ffb7 6439
000003a0: 45c5 b239 ea00 5bb9 0fd4 a2b9 568a 0b38
000003b0: 0cd9 ceb9 0000 0000 42d3 01bb 1986 af39
000003c0: 8984 8d38 4cae ba39 4a75 5fba 4018 1a3b
000003d0: ce0a 8239 98b6 f4b9 5254 41ba 0000 0000
000003e0: 18c4 2e3b b633 0bbb b45f 8fb9 2aeb 0f3b
000003f0: 66a7 9dba 18b2 39b9 8af3 3a3e 7ea3 5f3e
-2.4339806e-07 -3.428816e-06 -1.2707957e-06 8.120318e-06 5.041263e-08 3.0266357e-14 -1.0481916e-08 -8.010449e-09
-5.7073163e-07 1.0529669e-05 -1.1796148e-07 -1.8990105e-09 3.417086e-08 2.509329e-09 1.0318266e-07 -2.0775874e-06
-6.803097e-06 -7.712724e-07 -1.3263278e-10 -1.8990123e-09 -1.7970147e-07 -6.737923e-07 -1.5477637e-08 -1.1007047e-06
-1.5178807e-09 3.5988606e-08 -1.4213888e-06 -1.0554421e-08 -1.9170723e-07 -8.746464e-07 -1.4446783e-07 -8.1507405e-09
-2.2842556e-07 2.8078619e-05 -1.0265012e-06 -8.556397e-06 5.9380723e-06 -1.0562469e-06 4.6443558e-05 1.144453e-05
-1.3381151e-05 -5.008391e-05 1.9219757e-05 -2.1026186e-07 2.0533418e-05 3.0756077e-05 -4.2980646e-06 1.2372689e-06
6.4433816e-06 -4.895317e-07 6.9056405e-06 -2.4443434e-05 1.6446162e-05 -5.546982e-07 -2.8216524e-05 4.0090756e-05
1.2584693e-05 1.2170214e-05 1.8727447e-06 1.32402065e-05 -1.6297251e-07 -2.3137275e-07 8.7585295e-06 1.2648762e-05
-6.654359e-06 1.795156e-05 7.647012e-06 -1.0054636e-06 -5.7794537e-08 2.3709952e-06 -4.3430916e-07 -2.3517e-06
-2.048521e-06 1.2716552e-06 -2.65601e-07 3.8561073e-08 7.247236e-07 -9.728571e-09 3.0182473e-08 -3.9802566e-09
-3.040968e-06 -1.0389619e-08 6.5327763e-06 -1.4242844e-14 -9.320872e-14 -5.4779366e-07 -3.7658122e-08 4.0656282e-08
-1.2098229e-07 6.0621023e-06 9.2184985e-07 -1.2937477e-05 -1.8204396e-07 -4.2533728e-08 -5.8715686e-06 -1.1855044e-05
2.1598335e-06 -1.937346e-06 -4.426122e-05 -4.982281e-07 -9.748891e-07 -2.7158462e-06 2.1649023e-05 2.246618e-05
-1.7904917e-08 4.400076e-07 0.0 1.5321362e-05 -2.317538e-08 -2.0106908e-07 -1.5569622e-05 0.0
-1.5811531e-15 1.1931337e-06 -2.652586e-05 5.3409884e-05 0.0 -3.6768495e-05 6.4845655e-05 3.176769e-05
2.7695281e-05 1.285949e-05 -4.42453e-05 0.00056117587 0.00070296274 0.001694283 0.0016999119 0.004067823
0.0031154552 0.002564169 0.043433927 0.0001505054 3.008658e-05 5.415961e-05 -0.0018308533 -0.00011672506
8.313307e-05 1.7648725e-05 6.312727e-05 0.000114178154 -0.00014306357 0.00014197666 -0.00015807853 -0.0003578488
-0.00043772583 -1.748378e-05 0.00016756773 3.936075e-05 2.0285197e-05 -0.00013837696 -7.6893935e-05 0.00013195371
4.306107e-05 9.8207296e-05 9.307005e-05 0.00037708235 8.026619e-05 4.0915992e-07 -3.5463252e-06 2.3567867e-05
4.701821e-05 -0.00023564961 0.00014752951 -9.0308623e-07 0.00047325663 0.00015697416 -0.00070289365 0.00059749454
0.00010207799 0.0006192097 0.00059568725 0.00076100184 -0.00059821084 -0.00033988396 -0.001409122 0.0005399707
0.0010039645 0.00012633565 0.0010657236 -0.000333294 -0.00084907317 -2.0436299e-05 0.00031869637 0.0006888399
0.001266025 0.00039315553 -2.9068128e-06 -0.0027865616 0.0006654143 0.0004057046 6.484254e-05 -6.735693e-05
5.0453487e-05 0.0003269738 -0.00015687608 0.0010160585 0.00017765476 -0.0001561435 9.35658e-05 0.00028861448
0.00039025472 0.00020740613 -0.0003139742 9.379825e-05 0.00026597152 -4.148767e-05 0.0007371759 -0.00011825148
-0.00033794707 0.00011613377 -6.832453e-05 -9.067916e-05 0.00025562593 -0.00058936805 -1.0913369e-05 -0.00027920818
-0.00021447978 1.8960467e-05 -0.00046601036 0.00020961762 0.00023519639 1.08155e-05 0.00010137265 0.00040677248
-0.00014866814 2.62489e-05 0.00030673188 0.0002220242 0.00039792556 -0.001306523 2.720824e-05 0.00021812318
0.00034097783 -0.00020885808 -0.00031057044 3.3269018e-05 -0.00039453094 0.0 -0.0019809757 0.00033478512
6.7480905e-05 0.00035606546 -0.00085242523 0.002351299 0.00024803582 -0.0004667535 -0.00073749304 0.0
0.0026667174 -0.002124054 -0.0002734639 0.0021960237 -0.0012028038 -0.0001770932 0.18256965 0.21839711

exp_avg_sq f4 [128, 131]
00000000: f3ff ef2f 49b6 8332 f144 9831 257c 1634
00000010: 4cd8 0131 c6e8 d82e 8fbe b62f b3d4 582f
00000020: 9819 8c30 575a bf2f 68e8 1e30 3dc1 b32f
00000030: ad70 8f30 f5c4 9930 932c 0230 2188 f62f
00000040: c5e5 af2f 33fd a02f c607 2030 b591 942f
00000050: 7b7c d22f 51cd ef30 a2bc 942f 4a8f bd30
00000060: 20e5 432f b6ea 012f 9247 9230 9046 0431
00000070: a95a 932f a517 bf2f 11a5 2131 8a2a 2e30
00000080: 1109 0330 3ae6 f434 5412 8031 9a92 0b32
00000090: 79a0 1032 c456 8d30 340f a035 821f d932
000000a0: 6cf7 a732 915c d732 4ddc e432 cd58 bc32
000000b0: 810f d632 928b f832 af28 9e32 dd37 9632
000000c0: c8b6 7132 e7a5 9132 6c34 0633 b8f7 c932
000000d0: d661 0f33 8909 2a33 02db 3733 bf5a 4533
000000e0: f0ec bd33 516d 5b33 4fbb 9c31 6402 ae31
000000f0: 284f b031 a69d ac31 1aa8 ef31 5e3d c431
00000100: bbcc ed31 9939 f931 8774 be31 7bf1 a231
00000110: 02d3 9d31 c178 a931 4b3d 3831 f451 de31
00000120: c2d5 4f31 e199 8c31 f837 7531 c601 6631
00000130: 4bdf 8a31 c4f4 7131 6333 8b31 e9f5 1831
00000140: b317 ea31 8e16 4c31 8364 df31 3de6 4a31
00000150: 6317 a630 675f 4d31 1316 3831 921c 5a32
00000160: d4a8 d631 2313 4a31 6402 0c32 5cf0 9031
00000170: 36ac a531 09a4 b131 ef6f 7931 7882 8e31
00000180: 4ee8 8c31 2224 2c32 80f7 ae31 f324 1a31
00000190: 5c7c da31 4c66 b931 997a db31 47d7 4732
000001a0: 8e41 8131 0176 c031 0000 0000 4795 0132
000001b0: b2e1 d231 6ac4 6c31 ec13 8e31 0000 0000
000001c0: b1cd 8932 bd8a c833 8f35 4234 0fc2 2e33
000001d0: 0000 0000 f483 4434 3625 7334 1306 b133
000001e0: 0b60 9633 f764 9333 455a aa33 9b34 883b
000001f0: e00e 863b 4e67 883b 672f 923b 9300 8f3b
00000200: 1260 943b 311e 903b 4826 193f a389 a133
00000210: c060 a336 b813 e035 b118 0e38 a363 bc34
00000220: f96b 1c33 9fe2 ec33 7d7f 4633 eba5 7934
00000230: 77ec db33 6c2b a433 d0cd a133 efcb 4835
00000240: 7c2d c334 a67a a334 710e 8133 0cb3 e533
00000250: ff37 1b34 12a5 1e35 5247 d033 eae2 e333
00000260: ece8 af33 5463 ed33 5bd3 bd34 a5c6 7533
00000270: 192d 8933 9cde bd34 aae2 8a34 277e f133
00000280: ce99 3834 5ac0 0435 fd23 8634 d961 a733
00000290: 3433 d238 4e25 df35 9a4d 1636 05c5 0d36
000002a0: 4833 cd34 a789 8239 d607 7f36 0cd2 8d36
000002b0: 8787 8a36 6f27 0037 9058 c736 c325 b536
000002c0: 8ef4 cc36 c386 a336 f4d3 a436 79fd d336
000002d0: cbbf 9836 38f6 a036 2aa0 0a37 08fb 0337
000002e0: cc5e 0e37 f931 1837 f58e 1037 2863 9b37
000002f0: efd0 4a37 da83 3535 d39b 8b35 b662 d135
00000300: 12ff 9a35 21e5 c135 b30e bf35 10d1 ee35
00000310: 031b 7b35 be8c 6635 1290 b935 6331 9235
00000320: 5d21 8c35 79ef 3335 6820 d335 bfe7 9e35
00000330: e4f9 ba35 f06d 9d35 82a5 2535 66a1 9135
00000340: c2d1 c635 ffa0 8735 af59 f835 1d81 8c35
00000350: b1f2 a235 7c70 c335 c544 a835 bf21 7435
00000360: 52ca 7a35 5579 3635 ad57 be35 d933 ad35
00000370: 6c6e 3135 ea6e b035 dac5 1e35 d56c 9f35
00000380: 85c8 9e35 3b5f 3d35 5c03 5c35 bd9f 5c35
00000390: c12c 7935 1335 8e35 41ec 9035 93dc 9035
000003a0: f2cb f235 d3a4 6235 238d b935 1dfb dd35
000003b0: c7ad af35 0000 0000 dab5 ef35 7072 1136
000003c0: 0efd a935 409d a135 e6c3 8837 4215 9937
000003d0: 2e11 a237 c893 8437 2a1d 4836 0000 0000
000003e0: 8297 3e38 062e 4938 284f 8237 95c3 9837
000003f0: 4750 9637 18d9 8a37 5fa7 8e3f 2e8a 8b3f
4.365571e-10 1.53333e-08 4.43162e-09 1.4015002e-07 1.8894921e-09 9.8638916e-11 3.3241007e-10 1.9720652e-10
1.0193615e-09 3.4806888e-10 5.7810334e-10 3.2697214e-10 1.0436644e-09 1.1188194e-09 4.735707e-10 4.4843865e-10
3.1995576e-10 2.928374e-10 5.821871e-10 2.7024574e-10 3.8287226e-10 1.7447893e-09 2.7055075e-10 1.3792285e-09
1.7816548e-10 1.1815868e-10 1.064324e-09 1.9248638e-09 2.6803562e-10 3.4759498e-10 2.3522413e-09 6.3361283e-10
4.7670407e-10 4.5616054e-07 3.727374e-09 8.124198e-09 8.41839e-09 1.028376e-09 1.1925354e-06 2.5276453e-08
1.9553873e-08 2.5071389e-08 2.6642875e-08 2.1926462e-08 2.491993e-08 2.8934469e-08 1.8412122e-08 1.7487702e-08
1.4069606e-08 1.6955665e-08 3.1246984e-08 2.351213e-08 3.3383763e-08 3.958988e-08 4.2807194e-08 4.595017e-08
8.844097e-08 5.1089334e-08 4.561492e-09 5.0643383e-09 5.131273e-09 5.0237814e-09 6.9749264e-09 5.7113274e-09
6.920883e-09 7.253402e-09 5.5429754e-09 4.7422737e-09 4.59329e-09 4.9322755e-09 2.6810365e-09 6.4703674e-09
3.0243972e-09 4.0920303e-09 3.5684007e-09 3.3470413e-09 4.041714e-09 3.5209249e-09 4.0512744e-09 2.2258695e-09
6.8129906e-09 2.9698728e-09 6.501581e-09 2.9525744e-09 1.2084737e-09 2.9885656e-09 2.6788072e-09 1.2695766e-08
6.2474133e-09 2.9405747e-09 8.149616e-09 4.2182773e-09 4.82171e-09 5.1700266e-09 3.6297896e-09 4.1475765e-09
4.1009462e-09 1.0019933e-08 5.092204e-09 2.2430953e-09 6.358773e-09 5.3958384e-09 6.3876766e-09 1.1632273e-08
3.761847e-09 5.601351e-09 0.0 7.54273e-09 6.137463e-09 3.4454168e-09 4.135009e-09 0.0
1.6042437e-08 9.338462e-08 1.8087142e-07 4.0689027e-08 0.0 1.8301927e-07 2.2644676e-07 8.24331e-08
7.0023894e-08 6.863586e-08 7.932662e-08 0.0041566617 0.0040911287 0.0041627055 0.004461217 0.004364082
0.004528054 0.0043981303 0.5982404 7.522183e-08 4.8690417e-06 1.669504e-06 3.3878434e-05 3.5090224e-07
3.641978e-08 1.10308285e-07 4.6216417e-08 2.3250293e-07 1.0240995e-07 7.6447435e-08 7.534584e-08 7.480257e-07
3.6354675e-07 3.0450354e-07 6.0096575e-08 1.0696212e-07 1.4455871e-07 5.9099796e-07 9.698728e-08 1.0611787e-07
8.191441e-08 1.105424e-07 3.5357775e-07 5.7224174e-08 6.387763e-08 3.5365963e-07 2.5869423e-07 1.1245384e-07
1.7192289e-07 4.945374e-07 2.498563e-07 7.794342e-08 0.00010023118 1.6625652e-06 2.2396912e-06 2.1125318e-06
3.8221538e-07 0.0002489809 3.8002522e-06 4.22658e-06 4.128498e-06 7.638576e-06 5.940972e-06 5.3986164e-06
6.1081437e-06 4.873467e-06 4.9122555e-06 6.317798e-06 4.5522806e-06 4.797035e-06 8.262732e-06 7.866656e-06
8.485931e-06 9.071541e-06 8.616354e-06 1.8523613e-05 1.2088784e-05 6.7619624e-07 1.0401658e-06 1.5600442e-06
1.1548129e-06 1.4446306e-06 1.4234887e-06 1.7793227e-06 9.3544094e-07 8.5886484e-07 1.3825504e-06 1.0892221e-06
1.0440523e-06 6.7031175e-07 1.5730157e-06 1.1839364e-06 1.3930808e-06 1.1729408e-06 6.1708135e-07 1.0850315e-06
1.4813197e-06 1.010514e-06 1.8503541e-06 1.046839e-06 1.2140573e-06 1.4561369e-06 1.253699e-06 9.094619e-07
9.342667e-07 6.7976845e-07 1.418162e-06 1.2904594e-06 6.6098323e-07 1.3145302e-06 5.91475e-07 1.1878097e-06
1.1830276e-06 7.0546565e-07 8.1961275e-07 8.2188836e-07 9.2824854e-07 1.0595271e-06 1.0797595e-06 1.0793032e-06
1.8089761e-06 8.443141e-07 1.382465e-06 1.6538867e-06 1.3089092e-06 0.0 1.7859813e-06 2.1673295e-06
1.266513e-06 1.20412e-06 1.6303686e-05 1.824892e-05 1.9319905e-05 1.5804442e-05 2.9819298e-06 0.0
4.5440633e-05 4.7964997e-05 1.5534068e-05 1.8210887e-05 1.7918775e-05 1.6551974e-05 1.1144828 1.0901544

exp_avg f4 [128]
00000000: 3e87 eb37 8341 0e3a 60d6 0db8 5943 03ba
00000010: b6ed c43a a53e 51ba f6e2 d738 ee67 49b8
00000020: f816 17b8 5295 e2b9 028d ce3a e12e a139
00000030: f190 e338 8071 bb12 dd81 1002 668f 1f02
00000040: fbbd f039 73f5 0c39 fc0e 233a 55d8 053a
00000050: 046d beb8 3222 dfba b80f a5b8 0000 0000
00000060: 0000 0000 42f9 003a c1de acba 0000 0000
00000070: bca2 a83a acf8 90b9 768f b2b9 008b bcb9
00000080: 48be cab9 0000 0000 68ef 0a38 0000 0000
00000090: 2829 10b9 6826 913a fcea 3539 d2bf 1802
000000a0: 585e 96b7 cc58 37b9 b3c9 3fba 5170 62ba
000000b0: 0000 0000 0000 0000 9c11 b738 6464 80b9
000000c0: 0000 0000 0000 0000 a3f2 26b9 fa29 9eb9
000000d0: ea1e 5e3a 3ea4 453a a300 1a02 5075 08b7
000000e0: eaaa b839 0000 0000 0000 0000 6cf4 d7b8
000000f0: a051 0a38 80e2 40b9 cc09 96b9 6a46 69ba
00000100: 605e b4b7 39f7 1002 e866 3039 0000 0000
00000110: c0ca 04b5 7aec 62b9 df7d e1b9 0000 0000
00000120: a386 2437 52ad 8339 42f5 1939 de28 ce39
00000130: b812 c6b8 3e66 1302 f0f4 c3ba 0000 0000
00000140: 6a67 87bb 360f 1502 5ec7 773a 6b77 1239
00000150: b4cf 37ba 0cae 4e3a 8a29 2eb9 6277 bb38
00000160: 450f 6db9 1b92 1b3a 0000 0000 0000 0000
00000170: 246d 8cb9 d5a2 2234 7c88 df39 0000 0000
00000180: 90d9 36ba 84aa f6b9 8803 6237 0000 0000
00000190: 0c5e 9dba fef1 f3bb 7696 51b9 a535 0539
000001a0: 10ce 60b8 7e57 51ba f5cf aab9 583c 12b9
000001b0: a4ab 0239 f7cb 533a 141b 5aba d290 e738
000001c0: 66bb d3b9 8617 54ba 4420 c2ba 0000 0000
000001d0: a410 1402 21bb 7bba d943 1102 e040 4237
000001e0: 8c12 58b8 df26 5139 0000 0000 c642 f638
000001f0: 40ed 9737 ec49 633a b6d1 d2b9 dc99 0a3a
2.807716e-05 0.0005426632 -3.3816672e-05 -0.0005007289 0.0015024457 -0.0007982052 0.00010294274 -4.8018926e-05
-3.6022597e-05 -0.0004321733 0.0015758576 0.0003074324 0.00010851201 1.1829339e-27 1.0616718e-37 1.1722628e-37
0.00045917914 0.00013442877 0.00062201894 0.00051057833 -9.080212e-05 -0.0017023741 -7.870741e-05 0.0
0.0 0.0004919955 -0.0013188944 0.0 0.0012865881 -0.00027651095 -0.00034057692 -0.00035961717
-0.00038670213 0.0 3.312473e-05 0.0 -0.00013748242 0.0011074068 0.00017349044 1.1222246e-37
-1.7925326e-05 -0.0001748532 -0.00073161273 -0.0008637952 0.0 0.0 8.7294e-05 -0.0002448886
0.0 0.0 -0.00015921383 -0.00030167383 0.00084732345 0.00075394276 1.1314316e-37 -8.133546e-06
0.00035222556 0.0 0.0 -0.00010297526 3.2977783e-05 -0.00018394925 -0.0002861753 -0.0008898737
-2.1501619e-05 1.0650399e-37 0.00016823004 0.0 -4.946887e-07 -0.00021641134 -0.00043009126 0.0
9.806509e-06 0.000251154 0.00014682583 0.0003932183 -9.4448624e-05 1.0829196e-37 -0.0014950316 0.0
-0.004132201 1.0951156e-37 0.000945201 0.00013968132 -0.0007011846 0.00078842114 -0.00016609408 8.939092e-05
-0.0002260777 0.0005934552 0.0 0.0 -0.00026784197 1.5146664e-07 0.00042635563 0.0
-0.00069751684 -0.0004704782 1.3471472e-05 0.0 -0.0012006178 -0.007444619 -0.00019987844 0.00012703853
-5.3597672e-05 -0.00079857546 -0.00032579867 -0.00013946125 0.00012461707 0.00080794044 -0.0008320075 0.00011041913
-0.0004038468 -0.00080906635 -0.0014810641 0.0 1.0878098e-37 -0.00096027745 1.0672389e-37 1.1578406e-05
-5.1515686e-05 0.00019946274 0.0 0.000117426316 1.811108e-05 0.0008670378 -0.00040210568 0.0005287209

exp_avg_sq f4 [128]
00000000: 0fa6 f534 c862 d338 4dc6 a736 e5ca 0d37
00000010: a6da d637 d868 2137 5002 b734 2081 9b34
00000020: eadb 1a37 8924 4a37 5ee4 9938 6582 8836
00000030: 1119 8c36 53c3 bb32 027c cf2f 765e db31
00000040: c3de 3a38 a661 0637 5fdf a136 be09 8638
00000050: 11aa 9c36 1105 6b36 5184 7a38 0000 0000
00000060: 0000 0000 6d13 a737 f6c2 8238 0000 0000
00000070: c1e2 e536 6c69 6a38 3e4d 3637 2b7a 4436
00000080: f36a 8f36 0000 0000 3f84 9736 0000 0000
00000090: c426 6738 a4a7 2338 3f68 c437 b6db 042f
000000a0: f61a 8036 5ff4 d436 db67 6937 882c 2938
000000b0: 0000 0000 0000 0000 ad35 b437 85a6 1b38
000000c0: 0000 0000 0000 0000 9bcf fd36 fae8 7836
000000d0: cb70 4738 9126 d837 4d37 fc30 d3eb 8835
000000e0: 9809 7838 0000 0000 0000 0000 ffda c936
000000f0: 73ee 8838 4352 6436 c561 2b36 f4e9 1338
00000100: d3e7 6737 184a 852f 3bfd de38 0000 0000
00000110: 744c 3035 bebb e734 bb6f 2137 0000 0000
00000120: 390b de34 5572 7a36 80c8 db35 7d23 4937
00000130: 31e7 6936 4b1d 3c2b 5154 4338 0000 0000
00000140: 033a d238 6d5b 7b2f fd4e 9436 36b2 c436
00000150: b14e 5237 44dd a937 c66d 6836 507c c035
00000160: 49e7 e936 8255 1d37 0000 0000 0000 0000
00000170: 90de 9f37 caf3 0334 db7b 7c35 0000 0000
00000180: 39d0 4437 5f2d 3138 9415 c835 0000 0000
00000190: 16a8 eb38 9dc0 3439 8e92 8436 15b2 4d36
000001a0: 14a7 ac36 051f 8637 c0fb 8336 9622 5535
000001b0: b5f5 1138 dac5 0838 8dfb 9538 7dae eb35
000001c0: c68e c837 c72a 1737 ee57 0138 0000 0000
000001d0: e486 852f acad c438 8d60 272e afe5 0b37
000001e0: b784 6e37 e145 e836 0000 0000 0001 f536
000001f0: cfd4 1637 ef4b 2c36 f353 5237 596d 0e38
4.575563e-07 0.000100796635 5.000073e-06 8.451495e-06 2.5612604e-05 9.620759e-06 3.408809e-07 2.896495e-07
9.230318e-06 1.2048645e-05 7.338145e-05 4.0682958e-06 4.1752432e-06 2.1858488e-08 3.7741194e-10 6.384478e-09
4.455332e-05 8.009758e-06 4.8241777e-06 6.3914325e-05 4.6689606e-06 3.5020678e-06 5.9727874e-05 0.0
0.0 1.9916997e-05 6.235197e-05 0.0 6.8511295e-06 5.588813e-05 1.086603e-05 2.9277387e-06
4.2741826e-06 0.0 4.515546e-06 0.0 5.5110795e-05 3.9018356e-05 2.3413564e-05 1.2083387e-10
3.817836e-06 6.346541e-06 1.3912063e-05 4.0334213e-05 0.0 0.0 2.1482667e-05 3.7109963e-05
0.0 0.0 7.564156e-06 3.709049e-06 4.7550344e-05 2.5767165e-05 1.8351131e-09 1.0201423e-06
5.9136742e-05 0.0 0.0 6.0157613e-06 6.5294e-05 3.402253e-06 2.5537895e-06 3.5265417e-05
1.3822649e-05 2.4245206e-10 0.00010632953 0.0 6.5676363e-07 4.3163703e-07 9.622362e-06 0.0
4.1358888e-07 3.7319453e-06 1.6375125e-06 1.1988796e-05 3.4854277e-06 6.683167e-13 4.657015e-05 0.0
0.00010024386 2.2860798e-10 4.419939e-06 5.8620017e-06 1.2535297e-05 2.0249405e-05 3.463459e-06 1.4341294e-06
6.9708663e-06 9.377838e-06 0.0 0.0 1.9057916e-05 1.2289016e-07 9.405755e-07 0.0
1.1730991e-05 4.2242344e-05 1.4907441e-06 0.0 0.00011236982 0.00017237892 3.9509678e-06 3.0651038e-06
5.14545e-06 1.598849e-05 3.933412e-06 7.939901e-07 3.4799526e-05 3.260919e-05 7.151729e-05 1.7559647e-06
2.3908342e-05 9.010261e-06 3.0837888e-05 0.0 2.4288405e-10 9.378357e-05 3.8057158e-11 8.338523e-06
1.42168055e-05 6.9222738e-06 0.0 7.3016854e-06 8.990245e-06 2.5674196e-06 1.2536521e-05 3.3957276e-05

exp_avg f4 [64, 128]
00000000: 2ca8 dfbb 1007 a63b a820 9fbc e4b3 64bd
00000010: a991 013d 6f8a 65bc a48a 993a f5e4 d2b9
00000020: fb85 ab3c 00ce 36b8 be41 cd3b 9f27 01bc
00000030: e278 463d ffad 4b93 9dbd 1582 6d79 1c82
00000040: 7c2d 873c 14a5 7b3b 0ea2 803d 8c43 a63c
00000050: e235 16bc 0847 06bc 54c2 c93a 0000 0000
00000060: 0000 0000 da21 e23c 4485 5d3c 0000 0000
00000070: 669a 233d b380 80bc f221 e43c 08e6 29bc
00000080: 11f2 c8bc 0000 0000 da6c f6bc 0000 0000
00000090: b678 8e3c 64f4 073d a618 233d 89b3 1382
000000a0: 9bfd efbc 2c0f 753c 9281 953b 96f5 ca3b
000000b0: 0000 0000 0000 0000 ddab 2c3c f286 603c
000000c0: 0000 0000 0000 0000 ac21 94bb 663a 16bc
000000d0: eb86 8d3c 6f06 c73c 60cb 1282 e0f5 27b9
000000e0: cd33 083d 0000 0000 0000 0000 7377 0abd
000000f0: fa90 86bb 2e50 0ebd a84f 98bc 5406 083d
00000100: f0db e03c 5be0 1282 6c5b 563c 0000 0000
00000110: 3dec 43bb ea3f 3dbc 422e 5e3c 0000 0000
00000120: f4e8 8b38 a09a b83a 0334 c7bc 373b db3b
00000130: 1b5a 30bb ac4c 1582 7a06 24bc 0000 0000
00000140: 90f7 07bb a885 1f82 ccd3 f93c 566a 2a3a
00000150: 7090 9cbc 1913 153d 843d 91bb 232a 9abc
00000160: 528f 45bd 3a3e a33b 0000 0000 0000 0000
00000170: 7096 df3a dea1 9735 1396 cdba 0000 0000
00000180: 18ec 18bb a43c 49bb 096c 42bc 0000 0000
00000190: f9d9 25bc 202d 39bc 2cc8 a93c 1dd2 b1bc
000001a0: a4f1 61bd 514e 9c3c 7e52 9a3b 52ae 4f3b
000001b0: df29 4a3b a4be ad3b ec91 abbb b249 29ba
000001c0: 6899 a83c 30ff c2bc 7e07 06bc 0000 0000
000001d0: 6f68 1482 cee8 c6bb 33ed 1382 886e 20bd
000001e0: 768d 6dbc 60fb 5c3b 0000 0000 2d3a 0dbd
000001f0: 1419 95bb fc49 94b9 171d 883c 6023 1e3b
00000200: cafe 1437 838e 0b38 f855 0835 9c1f 8bb8
00000210: c157 6e38 056c d503 f1d6 a802 93c5 1f02
00000220: d8f7 ad39 dee7 1139 0cba e337 d654 9938
00000230: d941 e9b8 44d5 1902 dad6 1402 9131 1e02
00000240: 6b5a 84b3 147f f439 a304 c2b8 aad7 86b6
00000250: d0aa 5f35 b035 1f98 83c0 28b4 0000 0000
00000260: 0000 0000 4a67 0839 19f2 9338 0000 0000
00000270: f92c 2739 7717 8538 e032 8b21 acf8 b839
00000280: 00f2 99b8 0000 0000 5b7e 243a 0000 0000
00000290: 4d90 cc38 05b4 3b38 caa9 1b39 0000 0000
000002a0: 3bb9 de39 1081 d797 7812 efb7 9208 c333
000002b0: 0000 0000 0000 0000 7299 1238 708a f038
000002c0: 0000 0000 0000 0000 fff4 7139 d156 5fb7
000002d0: c09e 30b4 9cd5 0839 db19 1e02 ed6a 6c38
000002e0: 7c8f f9b6 0000 0000 0000 0000 cf94 ac39
000002f0: d07b 74b4 7110 cd39 af94 163a cae6 ceb6
00000300: 272a 5939 ae89 1d02 a1f6 83b3 0000 0000
00000310: c6d7 1237 81bc 8538 c862 a039 0000 0000
00000320: 70e7 6707 15d9 7139 3950 6339 ff12 2a39
00000330: 9bbc 1638 0000 0000 b5e9 1db4 0000 0000
00000340: d81c 41b3 c582 1002 5d06 dc37 36f5 8db8
00000350: f3a7 9039 9152 7039 b8e4 de39 a661 0c39
00000360: a0d7 dd39 aa00 4cb4 0000 0000 0000 0000
00000370: 4ea4 f938 e5a5 3a87 aaaf 98b7 0000 0000
00000380: 645b 4639 b2be 60b6 89c6 cb38 0000 0000
00000390: 65a4 c3b3 7c4d fcb6 b542 9239 a2b2 b339
000003a0: 1988 96b5 a450 4f38 b630 d0b7 1a6f 95b5
000003b0: 6a4a 2db6 802c d0b6 b912 f137 79ac 14b3
000003c0: e94e 7b39 755c 3d39 936d 1738 0000 0000
000003d0: e398 1e02 9a5b 399a 0000 0000 32cd 8db8
000003e0: 141f e438 2997 9fb8 0000 0000 df08 bd39
000003f0: 30a8 08b7 dc87 1902 b9c8 fcb7 ef20 9837
-0.0068254676 0.00506676 -0.019424751 -0.05583562 0.031633053 -0.014010056 0.0011714292 -0.00040224908
0.02093791 -4.3584034e-05 0.0062639406 -0.007882982 0.048455127 -2.5707989e-27 -1.1001207e-37 -1.1495917e-37
0.01650118 0.0038397955 0.062809095 0.02029588 -0.00916812 -0.008195646 0.0015392997 0.0
0.0 0.027604032 0.0135205425 0.0 0.039942168 -0.015686369 0.027848218 -0.010369785
-0.024529489 0.0 -0.030081201 0.0 0.017391544 0.033192053 0.03981843 -1.0851378e-37
-0.029295733 0.014957231 0.004562565 0.006193827 0.0 0.0 0.010539022 0.0137040485
0.0 0.0 -0.0045206156 -0.009169197 0.017276248 0.02429506 -1.0784752e-37 -0.00016017957
0.033252526 0.0 0.0 -0.033805322 -0.004106638 -0.034744434 -0.01859267 0.03320916
0.027448624 -1.0790773e-37 0.01308332 0.0 -0.0029895448 -0.011550883 0.013560833 0.0
6.6714274e-05 0.0014084168 -0.024316793 0.0066904086 -0.0026909176 -1.0968795e-37 -0.01001131 0.0
-0.0020746924 -1.1719833e-37 0.0304965 0.00065008306 -0.019111842 0.036395166 -0.004432382 -0.01881892
-0.048232384 0.004981783 0.0 0.0 0.0017058384 1.1297486e-06 -0.0015684984 0.0
-0.0023334082 -0.003070631 -0.011866578 0.0 -0.0101227695 -0.011302263 0.020725332 -0.021706635
-0.055162087 0.019080313 0.004709541 0.0031689596 0.003084771 0.005302267 -0.005235901 -0.000645782
0.020580962 -0.023803324 -0.008180497 0.0 -1.0903294e-37 -0.006070233 -1.0867927e-37 -0.03916791
-0.014499059 0.0033719167 0.0 -0.03447931 -0.0045501087 -0.00028283882 0.016615434 0.0024129972
8.88081e-06 3.3272907e-05 5.078905e-07 -6.633924e-05 5.682535e-05 1.2543815e-36 2.4808752e-37 1.1738176e-37
0.0003318179 0.00013914655 2.7147144e-05 7.3114104e-05 -0.00011122571 1.1301869e-37 1.0934982e-37 1.1622232e-37
-6.163176e-08 0.00046633987 -9.2515045e-05 -4.018618e-06 8.332254e-07 -2.0577374e-24 -1.5716255e-07 0.0
0.0 0.00013008449 7.0546004e-05 0.0 0.00015943115 6.346305e-05 9.432473e-19 0.0003528049
-7.3406845e-05 0.0 0.0006274932 0.0 9.754356e-05 4.475193e-05 0.00014845203 0.0
0.00042481147 -1.3926629e-24 -2.849962e-05 9.081954e-08 0.0 0.0 3.495202e-05 0.00011469878
0.0 0.0 0.00023074819 -1.3312049e-05 -1.644903e-07 0.00013049546 1.1615427e-37 5.6366367e-05
-7.437482e-06 0.0 0.0 0.00032917268 -2.2769314e-07 0.00039112897 0.00057442015 -6.166146e-06
0.00020710436 1.157405e-37 -6.1450244e-08 0.0 8.752517e-06 6.377046e-05 0.00030591176 0.0
1.7446522e-34 0.0002306442 0.00021678292 0.0001621954 3.593844e-05 0.0 -1.4706787e-07 0.0
-4.4962547e-08 1.0616978e-37 2.6229007e-05 -6.769078e-05 0.00027590952 0.00022918942 0.00042513548 0.00013387817
0.00042313058 -1.8999222e-07 0.0 0.0 0.000119038494 -1.4041837e-34 -1.8201612e-05 0.0
0.00018916797 -3.34896e-06 9.7167744e-05 0.0 -9.110298e-08 -7.5192056e-06 0.0002789699 0.00034274632
-1.121548e-06 4.942775e-05 -2.4818215e-05 -1.11337e-06 -2.5822324e-06 -6.2040635e-06 2.8738157e-05 -3.46158e-08
0.00023966622 0.00018058888 3.6103254e-05 0.0 1.1651883e-37 -3.83311e-23 0.0 -6.7616245e-05
0.00010877676 -7.6098666e-05 0.0 0.000360555 -8.145391e-06 1.1279654e-37 -3.013421e-05 1.8135148e-05
