lightning_model_releases/lightning_quantile_test/model_params/0.8_81054_1335_lightning_quantile.ckpt (torch, 311310 bytes, 15 tensors)

model.0.weight f4 [128, 131]
00000000: 0a20 fc3d ae0e 6a3d 3dfa 7bbd f86c 54bc
00000010: 447b 3abd c312 f83d 6b44 a03c 7ecf d63d
00000020: 93ae d43d bbf1 c23b f748 633d 19db 3c3c
00000030: 4daf 993c 4ed7 3bbd 46e4 813c 6d61 2f3d
00000040: efa6 9e3d 4011 893d ae93 34bd 5890 e03c
00000050: e16a a2bd 3912 40bd f7ce 0d3d bd45 4c3d
00000060: d953 74bc 8d21 7cbd 99f2 65bd ee1e fbbc
00000070: 6e22 173d 0e7a 0abe 7832 f33c fd00 d3bd
00000080: b0fa cc3d 912c febc be57 6d3b 4609 ff3b
00000090: d7ee 9f3c e05f a73c 49a9 10bd d69a cbbc
000000a0: 92d3 4a3d 3600 81bd c948 773c 988c 6b3d
000000b0: b1a6 2c3d 0b27 e8bd 7e37 b13c 9190 6f3b
000000c0: 96c8 573b 61fe a4bd dd77 0cbe a6aa c93c
000000d0: 7609 03bb 71b1 ed3d 618f 1e3d 0831 553d
000000e0: 4db3 e7bd f708 06be bd52 9e3d 789b b0bd
000000f0: a59f 8a3c 6afe 26bd 3f68 f53c 034c 8bbd
00000100: 4b69 d13c b15c d9bc 1628 42bc 868f c0bd
00000110: d1b2 9cbd 9e5b d0bb 058b 603d 4b8a 5a3d
00000120: 5cbc 9a3d 0e43 9ebd c17b d9bd 51c0 25bd
00000130: 1dd5 85bd 0cea 50bd d585 963d 40f3 8a3d
00000140: 59a8 d4bd b1e9 9abd 1e52 0a3c 2703 3dbc
00000150: e8ee 933c 1274 92bd e95e b43d 3ce4 b3bd
00000160: 4b0f cbbc c3d5 2fbd 263d 3fbc 7e1d 1d3c
00000170: a1d4 3f3d 0175 433d 6faf 3cbc 1bda 50bc
00000180: 37c9 583d ffdd 48bc f30a a4bd 4a4f b8bd
00000190: 3e01 edbd 8139 ba3c 3567 c0bc 50d6 63bc
000001a0: 2e03 57bd eac6 94bd b9ce 97bd 402d 2cbd
000001b0: 17e9 1abe 36a6 a63c 23b1 8e3d 71e1 103c
000001c0: 5f58 0bbd e9cb e2bd d97c a3bd 979f 03bd
000001d0: 70d7 5f3c 40ba 4abc 3bca 2ebe 52d5 75bd
000001e0: c375 7cbd 6bb9 bbbd 662d 94bc 5566 e4bd
000001f0: 3735 d1bd 6120 b1bd 7d58 52bd a600 cfbd
00000200: 68e0 dc3c b2cb 7ebd 351f 1b3d 8292 66be
00000210: 9454 94bd 14e2 aa3e fe5e 043f d6b6 04be
00000220: e0ec f8be 1200 77be c856 82be 445d fe3c
00000230: 55df 2bbd 9b8b 0fbe b0bf 213e 731c acbd
00000240: 77f2 c43d 37af 98bc 5a88 d73c 644e 043e
00000250: a83c f03d ea5f f7bd 2dc3 babe b177 9abd
00000260: 25ff 50bd 9198 323d b67f 3c3e 5df1 9fbe
00000270: f663 68be 5fb2 8a3d 7482 4b3e 0d51 febd
00000280: 2b03 a83e 60a8 ab3e 692a f03d 4e7a ddbe
00000290: c4d8 093e 825d 2a3d 604c 09bd 6855 0d3e
000002a0: f33b 053e 864d 483d d45e 74be de49 6cbe
000002b0: d8a2 083e df78 e53c 31a1 f03d 2847 dbbd
000002c0: a15a 02be 4d15 1f3e 5e70 023c 24d0 2c3d
000002d0: fa66 293e fa91 61bd 8130 59bf 3faf 1bbf
000002e0: 7a2c 2ebe 9246 3ebe a70f a43d ae03 343f
000002f0: 9c6e e73e b3cc 85bd 193d 20be bbb9 1abd
00000300: ee6a aabc 29cd f4bc 7e30 38bd 98ce 90bd
00000310: c1ce d93d 6460 36be b7d8 873e 68ab a63d
00000320: c42d adbe 00f7 44be 4337 00bd 4fc6 233e
00000330: 8591 43be 5b1f 3d3e 31ba 23bf 4753 593d
00000340: 9012 d83d 2c6b 38be 2ba2 26be 48fc 133e
00000350: e9bd bd3d 2c81 813e 30b5 abbd 7b6f 7c3e
00000360: b991 b3bb f22b a1be cad1 02bd 1686 9abd
00000370: 0288 cbbd 3abb 45be bc11 b9be 74ef 8abc
00000380: 1333 e5bd dc7a 53be f9d0 e4bd 8912 143e
00000390: 6dc0 97be 71e0 16be fc3c 943d bff3 963d
000003a0: a95d b2bd d21e d33e 40ad 9d3c c7fb bb3e
000003b0: 0110 28be b214 88bd 94a4 d8bd fc96 e43d
000003c0: edf0 1abe 1ce0 85bd e660 0e3d 4461 073e
000003d0: 73e3 7a3d d2ce 6ebe cb48 f9bd 0c6b ed3c
000003e0: ee01 57bf f941 413f 9dfd b2bc 1a6b 2cbd
000003f0: 86e0 cd3d 5fd9 68bd 9a0b 6e3d fc4e 8bbd
0.123107985 0.057142906 -0.061517943 -0.012965433 -0.04552771 0.121129535 0.019563874 0.10488795
0.1038486 0.0059492267 0.055489507 0.011526846 0.018760348 -0.045859627 0.01585592 0.04281752
0.07746684 0.06692743 -0.04408615 0.027412578 -0.07930542 -0.04689238 0.034621205 0.049871195
-0.014912569 -0.061555434 -0.056139562 -0.030654397 0.03689807 -0.13523123 0.029687151 -0.10302923
0.10008752 -0.03102711 0.0036215628 0.007783088 0.019523067 0.020431459 -0.035317693 -0.024854105
0.049518175 -0.06298868 0.015093037 0.057507128 0.042151157 -0.11335572 0.021632906 0.0036554674
0.0032925955 -0.080563314 -0.13717599 0.024617504 -0.0019994653 0.1160611 0.038710956 0.052048713
-0.11313496 -0.13089357 0.07730625 -0.08623403 0.016921828 -0.040769972 0.029956935 -0.068016075
0.025562903 -0.026533457 -0.011850378 -0.09402375 -0.07651294 -0.006358578 0.05482008 0.053354543
0.07555458 -0.077276334 -0.10619307 -0.04046661 -0.06534789 -0.051004454 0.07349745 0.067846775
-0.10383672 -0.07564104 0.00844243 -0.011536396 0.018058255 -0.07151045 0.08807165 -0.087837666
-0.024787566 -0.04292847 -0.011672294 0.009589551 0.046833638 0.047719005 -0.011516436 -0.012747313
0.05292627 -0.012259959 -0.08009901 -0.08999498 -0.115725026 0.022732498 -0.023486713 -0.013906077
-0.052493267 -0.07264502 -0.07412476 -0.04203534 -0.15127979 0.020342927 0.0696738 0.008842812
-0.034019824 -0.11074049 -0.07982797 -0.03213462 0.013662204 -0.012373507 -0.17069332 -0.06001789
-0.061635744 -0.09166225 -0.018088054 -0.11152331 -0.10215228 -0.08648754 -0.05135392 -0.101075456
0.026962474 -0.062205978 0.03787156 -0.22516826 -0.072426945 0.3337561 0.51707447 -0.12960371
-0.4861822 -0.2412112 -0.25456834 0.031050332 -0.041961033 -0.14018099 0.15795779 -0.08403864
0.09616559 -0.018638236 0.026310135 0.12920529 0.11730319 -0.12078841 -0.36477032 -0.075423606
-0.051024575 0.04360253 0.18408093 -0.31238833 -0.22694382 0.06772303 0.19873983 -0.12417803
0.32814917 0.33526897 0.11726839 -0.43257374 0.13461596 0.041593082 -0.033520103 0.13802111
0.1301115 0.048902057 -0.23864299 -0.23075053 0.1334337 0.028011737 0.11749495 -0.10706931
-0.12729885 0.1553547 0.007961361 0.042190686 0.16543189 -0.055070855 -0.84839636 -0.6081428
-0.17009154 -0.18581608 0.08010798 0.70318115 0.45201576 -0.06533184 -0.15648307 -0.037774783
-0.020802941 -0.029882984 -0.04496812 -0.07070655 0.10635138 -0.17810208 0.26532528 0.08138162
-0.3382398 -0.19234848 -0.0313027 0.15993617 -0.1909848 0.18468992 -0.6395598 0.053057935
0.105504155 -0.18009633 -0.162728 0.14451706 0.09264738 0.25293863 -0.08384168 0.24651901
-0.005480018 -0.3147884 -0.03193835 -0.07545106 -0.09938051 -0.19309703 -0.36146343 -0.016959883
-0.11191382 -0.20652336 -0.11172671 0.14460196 -0.29638997 -0.14734055 0.07238194 0.0737071
-0.087092705 0.41234452 0.019247651 0.36715528 -0.16412355 -0.06644572 -0.10578266 0.111616105
-0.15130968 -0.06536886 0.03476038 0.13220698 0.06125207 -0.23321083 -0.12172087 0.028981708
-0.8398732 0.7549129 -0.021849448 -0.042094328 0.1005259 -0.056847926 0.058116533 -0.068021744

model.0.bias f4 [128]
00000000: b7b7 01be 8137 363e 115d e93d d70e d23d
00000010: 721b 023e 6617 0a3e 028e 98bd ef34 c0bb
00000020: c2e3 87b9 5d38 8e3d 2f2e de3b ba38 b23c
00000030: be27 d9bc c962 45bd f474 833d 1436 8bbd
00000040: 07bb c03d 1bc1 15bd 1ac5 0f3c d712 253e
00000050: 7e28 bf3d 583c e13d 8dce 693d 1377 883d
00000060: cd6c a83d d542 9d3d 540f c43c 0042 453b
00000070: e09e 0f3e 730c e33d c839 0b3e c5bf b93d
00000080: ccb8 8e3d 4ee6 78bd d812 ff3c f499 8a3c
00000090: ad4c 893d 0083 cc3d 5e20 de3d 451e 58bd
000000a0: 75cc ba3c 6098 2abd e2e1 913d 18c9 0c3e
000000b0: 13d7 a13d 601d 963b abf8 0b3e 9549 80ba
000000c0: 80e3 f8ba 6408 87bc 8c43 093d 3ff1 ee3d
000000d0: f586 fc3d 0069 a135 6b52 bfbd 724e 9cbd
000000e0: f0b0 c13d b2c8 293d 9a41 393d cfbe b83d
000000f0: 33e3 083d a831 663d 4c8d 9b3c a133 3a3d
00000100: f30f a63d bef6 89bc 52ca bc3b c08e a6ba
00000110: f2af d33c 3c2b e03d 6bd9 bb3c f200 723d
00000120: 1023 a2bd e1fd 6abd fd3d 933d 6108 3f3d
00000130: 4b3e 51bd c02f 72bc d27b 2a3e cfd5 18bd
00000140: 52ae 733d d3a8 29bb 5810 f43a a588 8f3d
00000150: 4233 023e 3f3b f03d b87a 603b 601c 70bd
00000160: 9c39 f4bc c6bf cebb 4c36 c4bc 1a62 463d
00000170: 74b5 183e 5065 53bd db95 49bd 32da 743d
00000180: 9aab 0b3d 8161 e73c 3405 b13b 4ebb 1abd
00000190: f8ed 6e3c e836 85bc e6a8 f0bc 06f6 83bc
000001a0: a70e a03c 75ce a23d 5159 db3c 37b2 7bbd
000001b0: 3b1e cbbb d47e 983d 0fef 383e 05c5 14bd
000001c0: f299 c0bc 3471 513d cceb 1a3e 704e 643c
000001d0: cc67 cbbc 841c 953d 45e8 833a ae11 9a3d
000001e0: c2e6 113e e952 443d 7827 7cbc a39f c23d
000001f0: d72b 643c 06cc 93bd fb14 123e e9e5 233d
-0.12667738 0.1779461 0.11394704 0.10256737 0.12705782 0.13485488 -0.07448961 -0.005865685
-0.000259189 0.06944344 0.006780408 0.021755565 -0.026508208 -0.048189912 0.064187914 -0.06797424
0.09410673 -0.036561113 0.00877502 0.16120468 0.09333895 0.10997838 0.057081748 0.066633366
0.08223877 0.07678763 0.02393309 0.0030099154 0.1402545 0.11086359 0.1359626 0.0906978
0.06968841 -0.06076651 0.031136915 0.016919114 0.06704078 0.09985924 0.10846017 -0.052763242
0.02280257 -0.041649222 0.07123162 0.13748586 0.0790235 0.0045811385 0.13669078 -0.0009787554
-0.0018988699 -0.016483493 0.033511683 0.11667108 0.123304285 1.2025994e-06 -0.09341892 -0.0763215
0.09457576 0.041451164 0.04522858 0.09020769 0.0334198 0.0561997 0.018988274 0.045459393
0.08108511 -0.016841289 0.005761423 -0.0012707338 0.025840733 0.10945746 0.022930821 0.059082933
-0.07916844 -0.057371024 0.07189558 0.04663885 -0.051084798 -0.014781892 0.16648796 -0.03731328
0.059492417 -0.002588798 0.0018620593 0.07008485 0.12714866 0.1173005 0.0034252834 -0.05862081
-0.029812627 -0.0063094823 -0.023951672 0.0484334 0.14912969 -0.05161029 -0.04921518 0.0597784
0.0340992 0.028244736 0.0054022316 -0.037776284 0.014583103 -0.016261533 -0.029377412 -0.016108524
0.019538237 0.07949535 0.026775988 -0.061449256 -0.006198672 0.074460655 0.18059944 -0.036320705
-0.023510907 0.05113335 0.15129012 0.013934717 -0.024829768 0.072808295 0.0010063729 0.075229034
0.14248183 0.04793063 -0.015390269 0.095031045 0.013926468 -0.07216649 0.14265816 0.04001418

model.3.weight f4 [64, 128]
00000000: a4bf 96bd c8d8 df3d 63e4 94bd 7793 03bd
00000010: 553a 413c f134 c63c 730f 8abb 202f 9d3d
00000020: aebc 723d 77ae a2bd 45de 28bd 605a 9bbd
00000030: 170b 8a3d 507e 9abb f471 f9bc 0cf1 2ebd
00000040: 3b50 f53c a107 dc3c 7e61 383d 2aa8 c33d
00000050: b5a7 983d 60ee 33bc 32c9 153b d92f 66bd
00000060: f5a0 02bd 5aa1 6f3c eab7 9a3d bb85 22bd
00000070: 88d4 19bd 5ce7 8f3a 01b5 1a3d 5aee 383c
00000080: 2a8b 933d 4bf0 a2bd 9fb8 953c d318 893d
00000090: b47a e03d 6558 28bd b604 61bd 405c ab3a
000000a0: 2aa1 21ba 5d8a 173d 1adf a03d 4205 733c
000000b0: e6c0 d4bc 5262 453d d0b8 1bbd 196d f7bb
000000c0: 5831 323c 98b4 73bc 9c77 753d 14db 153b
000000d0: 7240 1e3d 06ce ec3c e143 0c3b 7837 fcbc
000000e0: c4e6 ab3d 22c2 493d 4016 5dbc 8b7f 59bd
000000f0: ead2 803c 6354 7d3d 4976 443d b382 b03b
00000100: 625f 903d 9961 533a 186f 1f3d c647 2abd
00000110: 7761 253c 5dde b7bb 1844 3f3c 7b2a acbd
00000120: b253 ae39 38d7 96bd 86c4 8fbd 9c2b 9cbd
00000130: 7926 0bbd a84b 873c 79eb 1e3d 7074 aa3c
00000140: 4963 d33c 8530 57bd 2e56 cd3c 41a4 94bd
00000150: b81a 96bc a878 903c 3b53 8a3c 82d4 8cbd
00000160: f374 843d 8ce8 6a3d 0d2c 22bd 6c2f 9abd
00000170: fb63 9f3c 6317 ed3c 2f00 98bc 5d51 26bd
00000180: 6a9a c63c ebd7 9abc 2d98 22bd b0a2 e73c
00000190: 01f3 533d 5108 643d 8361 8f3d 3d7b dc3b
000001a0: 4698 843c 67ff b03d 9f10 41bd 47cf 733d
000001b0: 32e4 b03d 1ec6 ddbc 7438 df3d be16 cebc
000001c0: 6a5e 39bd d91f 8d3d 7d89 6b3d e0ae d0bb
000001d0: 0992 6cbd 0efe 623d 55fa e23c 9312 72bd
000001e0: b084 ac3c 965b 5f3d 7edf 183d 780f b2bc
000001f0: 4f34 ab3b 8d2d a5bc 47db a23d 8544 8a3d
00000200: c84f e2bc 9b36 59bd 6baf a4bd 1d50 1cbd
00000210: 63b3 ba3c 2571 b6bd cf57 a8bb 9837 903d
00000220: 7564 ad3c fd97 6d3c 44e6 3fbd b6ef b4bc
00000230: dcb9 bcbd 8429 44bd 4c70 233c dc11 743c
00000240: 771c a83c 787c 8abd 6315 dc3b 563e c3bd
00000250: b2fa a9bd 7694 66bc 6d96 b5bd 684e 893c
00000260: d80b 643c 94cc 223d 265f 35ba 2428 8d3c
00000270: 17d5 783c b884 98ba 53f6 ccbd 97a8 65bd
00000280: cba5 b2bd 7bea 51bd be13 9239 55b3 aa3d
00000290: 0192 643c 8474 85bd ba84 afba a629 793d
000002a0: a400 b93a f4b0 b4bd 892f c1bb 5320 83ba
000002b0: e016 6d3c a357 a53d 2673 683d 135b a8bd
000002c0: a3a0 893d dc01 a2bd eb17 8bbd 9762 b63c
000002d0: 49fa 9dbc 27c6 673d c4a1 293d 04d9 06bd
000002e0: 32b6 683d 40e9 81bd 14f1 863c 546c 373c
000002f0: 6c18 9e3c 9447 8d3d 10fb d03c 52ed 8ebd
00000300: 774a 5d3d e77e 593d 2bd8 febc b1f3 813d
00000310: c7ff d639 7a27 bbbc 3de0 123c 0086 8139
00000320: f3ec 26bd 46dc 3cbb 22cd 84bc 3174 9ebd
00000330: d65a a1bd 60ed ed3c 0679 8bbd e0ab 0d3b
00000340: 40ac d43c 4d30 753d cd11 e53c 1169 ee3c
00000350: b550 333d 66c9 9cbd db57 843d 00f1 a5bd
00000360: 7ab0 94bd ef72 63bd f1eb b03d 2aa9 4a3d
00000370: 43a5 be3b db66 163d 13ad c9bd 41a7 acbd
00000380: 5656 223c 4718 1bbd 8a87 e33c 4279 80bd
00000390: 11bb 5f3d 0d4e bebd 078a d93c 5a03 f03c
000003a0: 685e 81bd d556 353d 13ab f83c c13e 6abd
000003b0: 4aeb 91bd a1d9 8c3c 89ab 7cbd 5e12 cfbb
000003c0: 5048 b63c d067 b03c 2492 8fbd 3344 883d
000003d0: 8563 aa3c 6dee b73c c139 28bd e6f8 b23c
000003e0: a9e5 debc e575 363d 3ea3 393d bc2b 433d
000003f0: 2608 d1bc 3a55 453d 728b 483d 1559 7ebc
-0.07360771 0.109300196 -0.07270124 -0.032123055 0.011793693 0.024195166 -0.0042132675 0.07675004
0.05926197 -0.07943433 -0.041227598 -0.07585597 0.067403965 -0.0047147647 -0.030449845 -0.04271035
0.029945483 0.026859106 0.04501485 0.09553559 0.074538626 -0.010982126 0.0022855517 -0.056197975
-0.03189178 0.014625872 0.0755461 -0.039678317 -0.0375562 0.0010978985 0.037770275 0.011287296
0.07204278 -0.079559885 0.01827651 0.06694188 0.10960904 -0.041099925 -0.054936133 0.0013073757
-0.0006165678 0.036997188 0.07855053 0.0148327965 -0.025970887 0.04818947 -0.038018048 -0.0075508473
0.010876022 -0.0148746 0.05992852 0.0022866176 0.03863568 0.028906833 0.0021402764 -0.030788168
0.083936244 0.049257405 -0.013494074 -0.05310015 0.015725572 0.061848056 0.047964368 0.0053866743
0.07049443 0.00080635544 0.038924307 -0.041572355 0.010094038 -0.0056112246 0.01167395 -0.0840654
0.00033250224 -0.073652685 -0.07019906 -0.07625505 -0.033972237 0.016515568 0.038798783 0.020807475
0.025804179 -0.052536506 0.025065508 -0.072578914 -0.018323287 0.017635658 0.01688539 -0.0687647
0.06467619 0.05735068 -0.03959279 -0.07528576 0.019456854 0.028941816 -0.018554775 -0.040604938
0.024243552 -0.018901786 -0.039695907 0.028275818 0.05174542 0.055671994 0.07001021 0.0067285583
0.01618589 0.08642464 -0.04713499 0.059523847 0.08637275 -0.027072009 0.108994395 -0.025157329
-0.045256056 0.0689084 0.057504166 -0.006368503 -0.057756457 0.055418067 0.027707258 -0.059099745
0.021059364 0.054530703 0.037322514 -0.021735892 0.0052247415 -0.020163322 0.0795198 0.0675135
-0.027625933 -0.05303059 -0.08041271 -0.03816234 0.022790616 -0.08908299 -0.0051374207 0.07041854
0.021166066 0.014501569 -0.046850458 -0.02208696 -0.09215137 -0.047891155 0.009975504 0.014896836
0.020521386 -0.06762022 0.0067164167 -0.09533374 -0.082997695 -0.014073482 -0.08866582 0.01676102
0.013918839 0.039745882 -0.000691878 0.017231055 0.015187523 -0.0011636233 -0.1000792 -0.056068983
-0.08723029 -0.05124901 0.00027862 0.08334986 0.013950826 -0.06516364 -0.0013390996 0.060830735
0.0014114571 -0.08822814 -0.005895559 -0.001000414 0.014470786 0.08073356 0.05675044 -0.08220496
0.06720092 -0.07910511 -0.06791671 0.022263808 -0.019284384 0.056585457 0.041414037 -0.032921806
0.05681438 -0.06343317 0.016472377 0.011195261 0.019298755 0.06898418 0.02551034 -0.06978859
0.054026093 0.05309954 -0.031108936 0.063453086 0.0004100783 -0.022845972 0.008964595 0.00024704635
-0.040753316 -0.0028817817 -0.016211096 -0.077370055 -0.07878654 0.029043853 -0.06810193 0.0021617338
0.025961041 0.059860516 0.02796259 0.029102834 0.04377814 -0.07655601 0.064620696 -0.08102608
-0.07260223 -0.05552953 0.08638752 0.049477734 0.0058180406 0.036719184 -0.098474644 -0.08430339
0.009908279 -0.03786495 0.027774591 -0.06273128 0.05462176 -0.09292231 0.026555074 0.029298473
-0.06316835 0.044272263 0.030355012 -0.057188753 -0.07124956 0.017193617 -0.061687026 -0.006319328
0.022251278 0.021533877 -0.07010296 0.06653633 0.020799408 0.022452557 -0.041070703 0.0218472
-0.02720912 0.044546027 0.045321696 0.04764913 -0.02551658 0.04817698 0.04896111 -0.0155241685

model.3.bias f4 [64]
00000000: 070d 013e ed38 71bd 4421 353e 0fdf 813b
00000010: 5599 bfbd 5046 423e 771e 873c afff 4cbd
00000020: 8835 e4b8 71a1 863c 9f7d d9bc 4868 633e
00000030: 08a9 2d3e eded 823e 8459 273e 914e bbbc
00000040: f028 bebd a466 0cbd 3768 523e 004a 683d
00000050: 68f8 8a3d 8c29 f3bc 1a39 533e 9d5e f03d
00000060: 90bb 3d3e 5252 453e 7eb7 153e 53fc 743e
00000070: 5439 0c3e 8d21 8abd a2bc cb3d dda8 4cbc
00000080: 0f26 52bd 66a9 4b3e 124c fd3d 0d82 76bd
00000090: 0846 e33a 2ff4 893d c477 893d bfe5 333e
000000a0: d674 cf3c 3053 853c 43f6 a1bc f6f4 243e
000000b0: e064 edbb a82a d5bd 31ca 453d 65b0 3dbc
000000c0: 01df 3c3d 7fc3 253e e792 aa3d 46b4 263d
000000d0: b280 533e bfb7 e23d 96f3 e13c 0c05 2cbc
000000e0: a58c adbd 2572 053e 52c3 0d3e 516c 433e
000000f0: d88a 203e 2bbd 03bd 709c 5fbd 22d6 243e
0.12602626 -0.05889218 0.17688471 0.0039633582 -0.09355418 0.18972135 0.016494019 -0.050048526
-0.00010881858 0.016434403 -0.026549159 0.22207749 0.16959012 0.25572148 0.16342741 -0.022864612
-0.09285152 -0.034277573 0.20547567 0.056711197 0.06785661 -0.029682897 0.20627251 0.11736796
0.1852858 0.19269684 0.14620778 0.23924379 0.13693744 -0.067446806 0.09948088 -0.012491432
-0.051305827 0.19888839 0.12368025 -0.06018262 0.0017339597 0.067360274 0.067122966 0.1756811
0.025324266 0.016275018 -0.019770747 0.1610907 -0.0072446913 -0.10408527 0.048288528 -0.0115777
0.04611111 0.16187857 0.08328801 0.040699266 0.20654562 0.11070203 0.027581971 -0.01049925
-0.084740914 0.13031824 0.1384404 0.19084288 0.15677965 -0.032162827 -0.05459255 0.1609731

model.6.weight f4 [1, 64]
00000000: 0b34 ac3d 8a1f 3abd 9df9 503d 17a3 20bc
00000010: 55ab 48bd f892 2f3d 4ad3 b03d a52d cabd
00000020: 3150 28bd e087 993d e55b 3ebd ecee 663d
00000030: 5c1a a03d d418 323d 1643 3e3d 1bb1 b8bd
00000040: 1f89 03bb ff0e 7cbc 809a 343d b882 113c
00000050: fdbd 8fbc d65f 78bd fd8d 973d ec31 313d
00000060: fa18 573d c1e7 a23d 003b 2c3d c990 a93d
00000070: 36e1 453d 44f2 c0bc 4a5a 173d cac0 c3bd
00000080: a4df 46bd a99c c53d 1e9d da3d 8a31 9abd
00000090: 89f9 1ebd 7358 883d bcf4 d1bd d1c3 0d3d
000000a0: cda5 ccbd 958a 28bd 5a97 65bd 035c 063d
000000b0: edd0 a5bc dfa4 63bd 6a04 823d e76c 1cbd
000000c0: d2ba d9bd 4a1e 9a3d 98f6 973d 86fb 35bc
000000d0: 8b57 2e3d 5da7 4a3d 83c6 1c3c 0db2 77bc
000000e0: ee1e bcbd d7e5 6c3d 58dc 343d 8e29 8e3d
000000f0: 192d 623d e39e 12bd d286 3fbd e636 373d
0.08408364 -0.045440234 0.0510193 -0.009804509 -0.04899152 0.04286477 0.0863405 -0.09871987
-0.0410921 0.07496619 -0.046474356 0.056380197 0.07817528 0.04348071 0.046450697 -0.09018155
-0.0020070744 -0.015384435 0.044092655 0.008881263 -0.017546648 -0.06063827 0.07400129 0.0432605
0.052514054 0.0795436 0.042048454 0.08279569 0.04831048 -0.023553021 0.03695134 -0.09558256
-0.048553124 0.09649021 0.10674499 -0.0752898 -0.038812194 0.06657495 -0.102517575 0.034610573
-0.099925615 -0.041147787 -0.056052543 0.032802593 -0.020241225 -0.055577155 0.06348498 -0.038189795
-0.10631336 0.075253084 0.07420081 -0.011107331 0.042563956 0.049476016 0.009568813 -0.015118134
-0.09185587 0.05783638 0.04415545 0.0694152 0.05521879 -0.035796057 -0.046759434 0.04473009

exp_avg f4 [128, 131]
00000000: 0e05 0db5 2b00 5f37 ecac ed35 2b2e 04b9
00000010: 91da d836 096a c8b4 d08c 0e31 0c91 20b4
00000020: 97d6 7735 18cf 9fb5 760d bd35 ef1c 8d33
00000030: fb07 2535 c43c 89b3 7d60 4fb5 4c4a 8635
00000040: 43cb c6b5 9e74 afb4 6347 d7b5 0905 8a33
00000050: 12a6 3536 a64c 64b4 a218 cf34 9fd2 dc35
00000060: 794e 2f36 1b93 b535 c49b b8b5 7b61 a5b3
00000070: 33f2 5535 ba40 94b3 277c 5db5 db64 ad36
00000080: 2482 a3b3 38a9 ffb7 bff1 a136 8cd1 ceb5
00000090: d170 2937 3854 3536 0831 56b8 2080 1437
000000a0: f470 78b7 2aaf eab8 d9ac 7238 8413 8eb7
000000b0: d502 5237 6f1f 0d37 57a3 91b8 fc08 1b37
000000c0: 9ec4 b238 09d2 0537 d09a d8b6 7532 11b8
000000d0: 20d2 a137 424e d1b7 849e 3637 0137 bb37
000000e0: 6abc 0bb8 8583 3737 9113 16b6 91ed 9737
000000f0: 8691 1eb7 a71f e336 a3c5 8a36 14c3 bab7
00000100: caf8 b735 b724 d137 c791 e3b6 dab6 4e37
00000110: d219 5f36 c2fd f3b6 0c6e bab8 cad3 b436
00000120: 6d7e cf35 4cf8 8433 9f31 3337 c8d0 50b5
00000130: b4ee 5d34 eec3 4738 e41f c136 57d1 7237
00000140: 2cca 53b6 3bff 0f37 ad85 3a37 801c c636
00000150: 3e98 af36 960b 01b6 144e 6eb6 4659 8436
00000160: 05bb 04b7 81ec 7236 9fb9 8fb6 f734 b1b6
00000170: 0ae8 4cb3 b16b 58b6 e7b8 0f37 a09b 93b7
00000180: c1ea 7db7 cf03 c136 e14d e2b8 a40b ee36
00000190: 8eb8 cab6 1376 86b6 9873 da37 d3cd 3537
000001a0: 742b 3437 9c32 2d38 0000 0000 17e5 cbb5
000001b0: ee3a c1b5 1ba7 beb6 2083 0eb7 11f9 1e82
000001c0: c23d 9ab3 ca3f db36 8619 67b8 82eb a037
000001d0: 0000 0000 c491 f6b7 0010 80b3 dbb7 9436
000001e0: 903c 59b8 32f5 b538 db66 90b8 e090 723a
000001f0: 76b8 023b b116 ab3b e5b0 b23b d004 d53b
00000200: 9764 bc3b 10b9 5e3b 98fc 13bd b99c c738
00000210: 1048 00b8 2762 b439 207c 77ba 2670 2937
00000220: f918 3638 ec3e 1d37 62fa c937 8f8c 9038
00000230: 3145 bab7 13d1 bd38 5baf 28b9 04c4 4637
00000240: 8309 0b38 ba88 87b7 cfd6 4b38 5357 8b37
00000250: a5aa 32b9 0ac4 6a38 ee52 50b8 5ba0 fdb8
00000260: b7f8 fc37 0da3 15b9 d9f4 dc37 de61 8439
00000270: 46f2 7038 931c 7c35 7e1a 4fb8 38ad 2138
00000280: c3ea c737 b5e5 ad37 3e09 dc38 ce54 9037
00000290: ecc4 f1b8 275a 5e39 d4ae b038 4930 5039
000002a0: 92e7 19b9 7526 acb9 54af 8438 b8c7 f039
000002b0: 70d7 76ba e21f ffb8 04a9 e9b8 f7f5 de38
000002c0: a7ac b539 007f 3f36 6a78 41b9 401d 9238
000002d0: 380b 25b8 7f8d 8d39 dde0 f43a abcb d038
000002e0: cced 663a bd48 c039 2f1d 9fb9 14a4 40bb
000002f0: e850 5fb8 a855 05b9 5a8a c0b7 de18 ef37
00000300: 35f3 6639 985f fa37 667e 0c38 4a7c f939
00000310: f3c9 43b9 8a05 81b7 0b68 0b38 59d8 6038
00000320: 4573 7a39 21f5 ef37 620f 5139 a58f 86b9
00000330: 61d7 b438 57ce eab9 3df6 2839 54e7 dab8
00000340: 45d7 8fb7 2979 e239 5e2e 3fb9 8ce2 c4b8
00000350: f0a9 7b37 96ff 97b8 2f52 4d39 502b 44b8
00000360: f003 b3b9 98d3 0739 f954 4338 92fc 4739
00000370: 0866 99b8 1a75 2739 d8c2 fd38 fc33 5139
00000380: 562a 48b9 fc61 2e39 f0c6 0b39 0377 e3b8
00000390: dadd 2c39 08c4 6cba 543b 5d38 8dbf 6fb8
000003a0: d54f c839 5357 f9b9 bed2 58b9 0122 a1b9
000003b0: bcd0 c137 0000 0000 22cd 6439 2fc3 96b8
000003c0: 247d da37 0eaa 8ab7 903c 0fb8 2c68 d63a
000003d0: c5af 0e38 bcf2 b1ba 5311 bcb9 0000 0000
000003e0: 56bb 523b ff04 58bb 80f8 7338 dede 2c39
000003f0: 6573 9d39 8d57 1eba 76b3 d13d 0266 e63d
-5.253395e-07 1.3291875e-05 1.7708203e-06 -0.000126057 6.462746e-06 -3.7330054e-07 2.0743762e-09 -1.4953929e-07
9.232694e-07 -1.1906695e-06 1.4085515e-06 6.571087e-08 6.1478903e-07 -6.390613e-08 -7.725392e-07 1.0005401e-06
-1.4811307e-06 -3.268114e-07 -1.6039525e-06 6.427042e-08 2.7067767e-06 -2.1262039e-07 3.8574677e-07 1.6452576e-06
2.612271e-06 1.3528364e-06 -1.3754402e-06 -7.701143e-08 7.970113e-07 -6.903561e-08 -8.250958e-07 5.167543e-06
-7.6139514e-08 -3.0477167e-05 4.826317e-06 -1.5409182e-06 1.0099452e-05 2.7020124e-06 -5.106724e-05 8.851319e-06
-1.4808251e-05 -0.00011190616 5.7858273e-05 -1.6936807e-05 1.2517635e-05 8.411574e-06 -6.944563e-05 9.240812e-06
8.524324e-05 7.97632e-06 -6.455324e-06 -3.4617686e-05 1.9290543e-05 -2.4951183e-05 1.0884953e-05 2.231775e-05
-3.3315657e-05 1.0938272e-05 -2.236313e-06 1.8111228e-05 -9.451416e-06 6.768812e-06 4.1357284e-06 -2.2263768e-05
1.370697e-06 2.4931838e-05 -6.782098e-06 1.232113e-05 3.3244619e-06 -7.2715056e-06 -8.889669e-05 5.3890735e-06
1.5459497e-06 6.191894e-08 1.0680785e-05 -7.7789855e-07 2.0669069e-07 4.762777e-05 5.755561e-06 1.4473065e-05
-3.155913e-06 8.58289e-06 1.1117588e-05 5.9041777e-06 5.2331297e-06 -1.9229242e-06 -3.551021e-06 3.9442994e-06
-7.911357e-06 3.6198473e-06 -4.2833412e-06 -5.281177e-06 -4.770849e-08 -3.2249193e-06 8.566515e-06 -1.7596234e-05
-1.5134633e-05 5.7522916e-06 -0.00010791026 7.094308e-06 -6.041554e-06 -4.007257e-06 2.6041453e-05 1.0836363e-05
1.0738953e-05 4.1293548e-05 0.0 -1.5191353e-06 -1.4396771e-06 -5.681895e-06 -8.4943895e-06 -1.1679485e-37
-7.1824175e-08 6.5341346e-06 -5.5098462e-05 1.9183153e-05 0.0 -2.9393363e-05 -5.963375e-08 4.4321473e-06
-5.1793235e-05 8.676424e-05 -6.8856134e-05 0.00092531554 0.0019946373 0.005221211 0.0054532164 0.006500818
0.005749296 0.0033984818 -0.036129564 9.518251e-05 -3.058469e-05 0.00034405405 -0.00094407983 1.0099297e-05
4.341544e-05 9.372579e-06 2.407766e-05 6.892636e-05 -2.2205148e-05 9.0511654e-05 -0.00016087054 1.1847358e-05
3.314904e-05 -1.6156922e-05 4.8599028e-05 1.6610755e-05 -0.00017038973 5.5972523e-05 -4.96683e-05 -0.000120938486
3.0156558e-05 -0.00014270488 2.634006e-05 0.0002524992 5.7446094e-05 9.3918896e-07 -4.937732e-05 3.8546714e-05
2.3831968e-05 2.0730173e-05 0.00010492139 1.7205628e-05 -0.00011528455 0.00021205154 8.424898e-05 0.00019854413
-0.00014677484 -0.0003283505 6.326908e-05 0.0004592517 -0.0009416258 -0.00012165286 -0.000111417874 0.000106315994
0.00034651646 2.8535142e-06 -0.00018450772 6.967271e-05 -3.9349514e-05 0.00026999039 0.0018682737 9.956149e-05
0.0008809238 0.00036675288 -0.00030348587 -0.0029394673 -5.3242693e-05 -0.00012715778 -2.2952609e-05 2.85026e-05
0.00022025111 2.9846837e-05 3.349632e-05 0.00047585584 -0.00018671881 -1.5380578e-05 3.323708e-05 5.360725e-05
0.00023884799 2.8605167e-05 0.00019937524 -0.00025665495 8.623186e-05 -0.00044785693 0.0001611346 -0.00010438138
-1.7147171e-05 0.0004319635 -0.00018232453 -9.388206e-05 1.50003325e-05 -7.247848e-05 0.00019580939 -4.677038e-05
-0.00034144474 0.00012953428 4.657076e-05 0.00019072209 -7.314613e-05 0.00015969985 0.000121002726 0.00019951159
-0.00019089258 0.00016630435 0.00013330183 -0.00010846371 0.00016485844 -0.00090318965 5.274576e-05 -5.7160436e-05
0.00038206452 -0.00047558043 -0.00020677873 -0.00030733648 2.3104592e-05 0.0 0.00021820192 -7.188913e-05
2.6045898e-05 -1.653007e-05 -3.415026e-05 0.001635795 3.4019136e-05 -0.0013576369 -0.00035871062 0.0
0.0032155118 -0.0032961962 5.816715e-05 0.00016486223 0.0003003135 -0.0006040268 0.102393076 0.11249925

exp_avg_sq f4 [128, 131]
00000000: e6bf df2f 4935 4832 572c 8431 d505 e033
00000010: 7111 4b30 be6d df2e 1bb4 182f a338 8a2f
00000020: d9b2 b72f 32fb c32e d205 c32f bc0d e12f
00000030: f03a 2c30 5084 8930 9cff 8e30 12f6 a52f
00000040: adbf 3830 19bb 082f cd29 0d30 ce50 892f
00000050: 72c5 f32f 98ad 5d30 6c61 5e2f 67d0 3330
00000060: fb7d 1e2f aefb 2230 9006 ee2f b339 ca2f
00000070: fef7 a030 20d2 9b30 0e45 9230 1377 4d30
00000080: f356 cf2e 4387 c034 f9b9 7931 de82 c831
00000090: b084 9531 4755 0331 a052 7835 63b6 bc32
000000a0: d90d 9032 d6eb cd32 7f68 a332 b436 b432
000000b0: b5fa f932 4484 ca32 358b 9732 0050 9432
000000c0: 37c9 a832 bf27 9a32 6f1d 9132 ee08 c732
000000d0: 7819 db32 542b 0a33 9376 1133 aec8 0c33
000000e0: efa7 9f33 42bd 5b33 65fd 5c31 24e2 d131
000000f0: 65b2 7e31 3b7a aa31 9b55 1132 891e b431
00000100: e1c1 8b31 2289 ac31 553d ca31 7241 f531
00000110: 2ee7 6331 351c b231 1658 8331 5046 6c31
00000120: 14ad 7331 ca75 3331 a3b9 8e31 a13a fb30
00000130: fd3d e531 1178 f931 184f 4031 8b7d 5231
00000140: af50 0832 ee99 b231 c5f7 ab31 8efc 4731
00000150: abc1 c031 5702 9931 3e39 fb30 10eb 7631
00000160: bfb6 6031 60aa ab31 f72d 8331 d9d6 5431
00000170: 90e3 ac31 8e6f 7431 7dcf 3031 10ec 4931
00000180: 4549 8d31 3d1e 0932 e148 cb31 263a 7331
00000190: 956d ae31 2864 8c31 8a77 c131 27c1 3b31
000001a0: e6f9 ce31 626b 7231 0000 0000 6132 ae31
000001b0: 64f1 eb31 d019 6931 e32c 9431 b41b 3030
000001c0: dd42 3333 6bf9 d533 2cc2 e233 40c5 f932
000001d0: 0000 0000 a79b 2e34 5b3f 4f34 278c a933
000001e0: c1da 8533 655e 7e33 491c 8b33 8b80 043b
000001f0: f10f f53a ebbd f93a c680 f03a 56db fd3a
00000200: 2cdf 093b f8fc 0a3b 3919 c93e 246d c032
00000210: 53d0 cf35 6e59 1335 0618 3937 d11c ea33
00000220: 6a54 6e32 c539 1c33 aa53 cf32 3276 9c33
00000230: 8c15 4033 4d38 6633 2287 a233 9e8e 4234
00000240: 1d0e ae33 1ff3 0b34 f257 6e33 91e2 2533
00000250: 6678 9633 5c7c 5033 76c4 ad32 ab28 9d33
00000260: 5db3 c832 a199 7233 2c48 2134 d039 1633
00000270: d518 1c33 2500 9933 e4e0 bc33 6aaf 5b33
00000280: af63 2534 0774 1d34 8e46 2234 4bce 7f32
00000290: 01a9 1038 2efb eb34 4a3c 3235 7288 6235
000002a0: aee0 6934 14fb b138 f037 ba35 86c9 db35
000002b0: fc6c 0036 d36d 1636 3fc3 1e36 6bb0 1d36
000002c0: 9054 1e36 d7bd 1e36 9b6f 0336 b389 0c36
000002d0: 2954 0a36 81c1 0436 6b25 4f36 1f6b 3036
000002e0: 5c0c 8136 7057 6336 14af 7136 9820 ee36
000002f0: ac14 ab36 7796 b434 71e5 e534 6953 f934
00000300: 04f7 ea34 76fe 0635 9ddd eb34 3fec 0a35
00000310: c2f1 1e35 99d7 e334 6d15 4435 53be 0f35
00000320: 7f1d ac34 b98c ac34 cce5 fc34 cf1e 1935
00000330: ad62 cd34 ff00 1535 f4b0 7334 52b2 0f35
00000340: a09a 1635 e73e f134 214d 1735 4025 ca34
00000350: 2a31 f634 aa84 4935 a491 c434 d384 0f35
00000360: 4875 e134 af17 9634 fdbe d534 7d9a 0d35
00000370: 064c e834 8b5a 9e34 56c4 5534 4b27 0935
00000380: ebea d634 b267 ab34 0e7b ad34 1fe9 0c35
00000390: c711 9234 23f9 0535 8ab0 db34 eb7b 0735
000003a0: 686a ec34 620c 2335 f8ac cb34 8384 6b35
000003b0: 4c14 0635 0000 0000 44bb da34 d191 6235
000003c0: 0984 0c35 e6e0 1a35 e26a db36 35a7 e436
000003d0: f0d4 cd36 7067 a236 4a26 a735 0000 0000
000003e0: 1fdc 7f37 7689 9e37 3b4b da36 a5b8 f436
000003f0: dc38 ce36 8f77 cb36 4e1a 793e 0183 6e3e
4.0699816e-10 1.1653648e-08 3.8467465e-09 1.0431874e-07 7.3875756e-10 1.016036e-10 1.3888306e-10 2.5142297e-10
3.3414585e-10 8.9121946e-11 3.547443e-10 4.093702e-10 6.265699e-10 1.0005667e-09 1.0404508e-09 3.018817e-10
6.72112e-10 1.2435598e-10 5.1354904e-10 2.497757e-10 4.4341736e-10 8.0646023e-10 2.0225394e-10 6.541598e-10
1.4414774e-10 5.9292915e-10 4.329661e-10 3.6784584e-10 1.1712016e-09 1.1337455e-09 1.0642525e-09 7.474778e-10
9.4287154e-11 3.5861203e-07 3.6339982e-09 5.835644e-09 4.3515556e-09 1.9111484e-09 9.2507435e-07 2.196902e-08
1.6770104e-08 2.3972387e-08 1.9023217e-08 2.0979634e-08 2.9101423e-08 2.3576042e-08 1.7642018e-08 1.7265847e-08
1.9649276e-08 1.7946034e-08 1.6893607e-08 2.317071e-08 2.5506537e-08 3.2170036e-08 3.3868286e-08 3.2778807e-08
7.4345614e-08 5.116204e-08 3.2158252e-09 6.10841e-09 3.706327e-09 4.961547e-09 8.459575e-09 5.242161e-09
4.067474e-09 5.021449e-09 5.8859464e-09 7.1378787e-09 3.3164258e-09 5.1836886e-09 3.822616e-09 3.4382488e-09
3.5459538e-09 2.6114884e-09 4.1538484e-09 1.8279317e-09 6.6718244e-09 7.2605038e-09 2.7984637e-09 3.0630385e-09
7.934587e-09 5.1979816e-09 5.004923e-09 2.9101872e-09 5.609953e-09 4.453152e-09 1.8278923e-09 3.593133e-09
3.270017e-09 4.9961244e-09 3.8178274e-09 3.0972187e-09 5.0317297e-09 3.5570085e-09 2.5729314e-09 2.9383536e-09
4.11197e-09 7.981325e-09 5.916363e-09 3.5394208e-09 5.0765245e-09 4.0859227e-09 5.6306293e-09 2.7321876e-09
6.0237992e-09 3.5276675e-09 0.0 5.069794e-09 6.866843e-09 3.3920635e-09 4.31247e-09 6.4067796e-10
4.1737497e-08 9.963954e-08 1.0559265e-07 2.9077114e-08 0.0 1.6261639e-07 1.9301426e-07 7.895169e-08
6.233086e-08 5.9224835e-08 6.477837e-08 0.002021822 0.0018696768 0.0019053792 0.0018348924 0.0019367735
0.0021037562 0.002120791 0.39277056 2.2401373e-08 1.5483332e-06 5.4891905e-07 1.1032453e-05 1.0901716e-07
1.3872617e-08 3.637412e-08 2.4136018e-08 7.285816e-08 4.472308e-08 5.3602253e-08 7.5682934e-08 1.8119542e-07
8.1050736e-08 1.3033831e-07 5.549368e-08 3.8623117e-08 7.00682e-08 4.8541878e-08 2.022919e-08 7.31828e-08
2.336463e-08 5.648474e-08 1.502055e-07 3.4977177e-08 3.6344165e-08 7.124644e-08 8.7953396e-08 5.114945e-08
1.5403087e-07 1.4663975e-07 1.5113093e-07 1.4889859e-08 3.4489673e-05 4.3954918e-07 6.63979e-07 8.4390115e-07
2.1781554e-07 8.486785e-05 1.387436e-06 1.6375423e-06 1.9136924e-06 2.2415668e-06 2.3657483e-06 2.3497512e-06
2.3593057e-06 2.3654336e-06 1.9585484e-06 2.0941777e-06 2.061259e-06 1.9782167e-06 3.0867184e-06 2.6288396e-06
3.8459384e-06 3.3876531e-06 3.6013707e-06 7.096747e-06 5.0986037e-06 3.363709e-07 4.2821515e-07 4.6440553e-07
4.3765624e-07 5.028918e-07 4.3933406e-07 5.175279e-07 5.921139e-07 4.2438913e-07 7.304687e-07 5.354861e-07
3.2058958e-07 3.2139886e-07 4.7105857e-07 5.7041774e-07 3.8256022e-07 5.5508275e-07 2.2695514e-07 5.353114e-07
5.6104363e-07 4.4935516e-07 5.636412e-07 3.7652535e-07 4.5856842e-07 7.5071387e-07 3.6613812e-07 5.3464936e-07
4.199485e-07 2.795691e-07 3.9813304e-07 5.2751403e-07 4.3268682e-07 2.9495672e-07 1.9908597e-07 5.1093656e-07
4.0031532e-07 3.192668e-07 3.2313295e-07 5.24933e-07 2.7207554e-07 4.99089e-07 4.0920378e-07 5.0471743e-07
4.4035846e-07 6.074025e-07 3.7937548e-07 8.773715e-07 4.9948426e-07 0.0 4.0741918e-07 8.440375e-07
5.23462e-07 5.769674e-07 6.5391514e-06 6.814395e-06 6.1342653e-06 4.840018e-06 1.2453613e-06 0.0
1.5250435e-05 1.8899078e-05 6.5056643e-06 7.293262e-06 6.1458977e-06 6.06379e-06 0.2432644 0.23292162

exp_avg f4 [128]
00000000: d811 f7b7 dc34 a9b8 027e 26b9 bc55 9439
00000010: 86a9 fc3a b32d b5b9 befb 8939 cd7c e636
00000020: e0ce 67b9 68a1 0eba 3ee3 b0ba ba59 e338
00000030: f0d0 8bb9 2b00 1b02 b466 1d02 7b98 1302
00000040: 56f1 8bba 20de 7d39 94e8 13b9 2c1d 363a
00000050: 5647 62ba 8029 a6b8 3066 a139 0000 0000
00000060: 0000 0000 df2d 4039 e0bd f5b9 0000 0000
00000070: c8af d4b9 9027 bfb9 a40b 383a 2e19 1d39
00000080: 1dfb 89b9 0000 0000 c849 0e39 0000 0000
00000090: 6f91 a03a 46cb 2e3b 7840 fdb9 714c 1602
000000a0: 99b6 223a 5689 3039 3fe0 0f39 66b5 02ba
000000b0: 0000 0000 0000 0000 690c 3bba da1e e239
000000c0: 0000 0000 0000 0000 536b 53ba b5a6 ebb9
000000d0: 4f73 9f3a 9d6d c33a 7601 1f02 762b 0c39
000000e0: c0c7 ebb8 0000 0000 0000 0000 187a 2eba
000000f0: 5d30 053a a0c3 d7b6 fd2b b0b8 9e39 6238
00000100: 24fe 813a f298 1402 737e 8bba 0000 0000
00000110: 58bd b2b9 e8a1 b3b9 10eb 97b9 0000 0000
00000120: a04f 0739 c035 1439 703f d6b6 c49d 2fba
00000130: 11e6 32b7 0000 0000 9cc8 35ba 0000 0000
00000140: d3d4 2cbb d4be 1b02 dc52 4138 8cbe 28b8
00000150: 6448 a1b9 f379 813a 0b69 d0b8 a6b2 3c38
00000160: a0c4 deb6 e053 4ab8 0000 0000 0000 0000
00000170: 5498 0cba a221 1602 aa1e b239 0000 0000
00000180: 3cbd 96ba a12f 283a 5cf5 2737 0000 0000
00000190: 28e0 1839 285a 1402 dd3c b0b8 ca74 363a
000001a0: 7dc5 06ba 9ac9 9539 4124 c8b9 4ea9 0939
000001b0: 8afc 013a 9598 703a 0a86 d2ba 7825 1302
000001c0: 1ec6 083a 0de4 10ba e6f8 f5ba 0000 0000
000001d0: 6c07 1302 76c4 1d02 5643 1e02 b2e4 56b9
000001e0: 3f36 3aba d10c 273a 0000 0000 edfe 0fb9
000001f0: 0a5d c637 d206 1902 1499 943a ef15 a13a
-2.9453004e-05 -8.068394e-05 -0.00015877935 0.00028292637 0.0019276596 -0.0003455706 0.0002631824 6.869063e-06
-0.00022106944 -0.00054409215 -0.0013495458 0.000108409164 -0.00026667817 1.138765e-37 1.1564013e-37 1.0843614e-37
-0.0010676782 0.00024210708 -0.00014105655 0.0006947096 -0.00086318457 -7.923227e-05 0.0003078445 0.0
0.0 0.00018327635 -0.0004687151 0.0 -0.00040566758 -0.00036459835 0.00070207776 0.00014982067
-0.0002631777 0.0 0.00013569661 0.0 0.0012250374 0.0026671453 -0.00048303953 1.1042197e-37
0.0006207019 0.0001683583 0.00013721081 -0.0004986137 0.0 0.0 -0.0007135333 0.00043129065
0.0 0.0 -0.0008065004 -0.000449469 0.0012165102 0.0014909987 1.1681894e-37 0.00013367631
-0.000112428796 0.0 0.0 -0.00066557666 0.0005080754 -6.430273e-06 -8.4005274e-05 5.393626e-05
0.0009917659 1.0917216e-37 -0.0010642543 0.0 -0.00034091878 -0.0003426217 -0.000289761 0.0
0.00012904266 0.00014134403 -6.385082e-06 -0.0006699229 -1.0663193e-05 0.0 -0.0006934495 0.0
-0.002637197 1.1442367e-37 4.6091955e-05 -4.0231782e-05 -0.00030762248 0.0009878263 -9.937779e-05 4.4989072e-05
-6.6390057e-06 -4.8238668e-05 0.0 0.0 -0.0005363275 1.1029912e-37 0.00033973652 0.0
-0.0011500488 0.00064157887 1.0011103e-05 0.0 0.00014579354 1.0899196e-37 -8.403671e-05 0.0006960152
-0.00051411224 0.000285697 -0.00038173984 0.00013128409 0.0004958591 0.000917801 -0.0016061675 1.0810607e-37
0.000521751 -0.0005527146 -0.0018766194 0.0 1.0801984e-37 1.159092e-37 1.1627331e-37 -0.00020493826
-0.000710342 0.0006372454 0.0 -0.0001373251 2.3646764e-05 1.1242622e-37 0.0011337125 0.0012289862

exp_avg_sq f4 [128]
00000000: 4600 c134 9f85 1038 cc44 8436 9968 d036
00000010: 62ca c037 c1db 2c36 b298 4b35 bc0d a334
00000020: ba1f f436 dfcd 1e37 8454 5e38 2267 6f36
00000030: b0f2 0f36 6f6d 462e 07ef 7730 cf76 a931
00000040: e82a 4238 eb4c c036 302c 8d36 0c89 7938
00000050: b1af 6236 609b 5337 0b78 d236 0000 0000
00000060: 0000 0000 bc02 9e37 e6f3 5938 0000 0000
00000070: e105 3737 b7f9 4e38 fc71 1737 cdf9 d435
00000080: 704f 2f36 0000 0000 cba2 8236 0000 0000
00000090: 4dca 7f38 8463 5338 2553 9d37 ddf5 1e2f
000000a0: 892d 3736 74e4 b436 97ac 8437 a513 0338
000000b0: 0000 0000 0000 0000 a703 e537 c74c ed37
000000c0: 0000 0000 0000 0000 dc85 0237 e6c6 e036
000000d0: 0ab6 3438 0037 b537 963b 2430 ead6 1e35
000000e0: 6072 3a38 0000 0000 0000 0000 0ec5 2f36
000000f0: 2cf8 7d38 819c 3436 8199 0836 b244 2338
00000100: 2853 4a37 5096 0f2f 6e19 8c38 0000 0000
00000110: 21f7 4f35 c0b7 7c35 f8f8 1137 0000 0000
00000120: 56d7 e134 cd20 ed34 8734 1836 7a25 3b37
00000130: b3d0 a735 0000 0000 7376 2238 0000 0000
00000140: 740f e238 d38f b12e 97d8 2e36 d233 9536
00000150: 4dbf 3e36 8a31 8537 232f c235 5295 6d35
00000160: 38c3 8a36 28d1 db36 0000 0000 0000 0000
00000170: eacf 7537 f11d 8833 7c7e 7b35 0000 0000
00000180: d3c3 7737 a841 c836 96bf 9d35 0000 0000
00000190: 7be6 d938 aa66 a630 fe15 2e36 61e7 de35
000001a0: 5c1e 4536 43fd dc37 d2ef a935 aa4d 4d35
000001b0: 6cf8 0b38 46bc 0638 7f22 9338 683e 4334
000001c0: 0231 a637 a4fd 2c37 32fb 0a38 0000 0000
000001d0: f483 c42f 70d7 082e b5d7 fa2d 2619 d736
000001e0: 9c1a 1337 7cea 7e36 0000 0000 60fc b336
000001f0: a326 c733 960c d72f 7ffa 4937 49d2 2638
3.594925e-07 3.445672e-05 3.9419156e-06 6.21106e-06 2.2982425e-05 2.575791e-06 7.5845594e-07 3.037111e-07
7.27546e-06 9.465467e-06 5.3007636e-05 3.5673806e-06 2.1449923e-06 4.5117184e-11 9.0197755e-10 4.9320543e-09
4.6293164e-05 5.7310003e-06 4.2072716e-06 5.949386e-05 3.377889e-06 1.2612756e-05 6.2724625e-06 0.0
0.0 1.8836341e-05 5.196398e-05 0.0 1.0909019e-05 4.9346792e-05 9.02684e-06 1.5867932e-06
2.612327e-06 0.0 3.8932535e-06 0.0 6.0985145e-05 5.0399e-05 1.8754576e-05 1.4457364e-10
2.729563e-06 5.3910135e-06 1.5815995e-05 3.125113e-05 0.0 0.0 2.7300628e-05 2.8288354e-05
0.0 0.0 7.77977e-06 6.698875e-06 4.308488e-05 2.1602493e-05 5.974753e-10 5.917233e-07
4.4452376e-05 0.0 0.0 2.6191733e-06 6.055103e-05 2.6913187e-06 2.035493e-06 3.8926206e-05
1.20595e-05 1.3059176e-10 6.680457e-05 0.0 7.747313e-07 9.4144707e-07 8.700641e-06 0.0
4.2066193e-07 4.4168556e-07 2.268034e-06 1.1154794e-05 1.2503209e-06 0.0 3.8734124e-05 0.0
0.00010779398 8.0745764e-11 2.6054092e-06 4.4465787e-06 2.8423558e-06 1.5877904e-05 1.4467845e-06 8.850667e-07
4.135447e-06 6.5510576e-06 0.0 0.0 1.4651547e-05 6.33844e-08 9.3688845e-07 0.0
1.4767941e-05 5.968108e-06 1.175317e-06 0.0 0.00010390297 1.2107269e-09 2.5940822e-06 1.6607629e-06
2.937296e-06 2.6343978e-05 1.2661278e-06 7.648147e-07 3.3371543e-05 3.2123433e-05 7.0159316e-05 1.8183493e-07
1.9811563e-05 1.0311054e-05 3.3135708e-05 0.0 3.574595e-10 3.1114167e-11 2.8517503e-11 6.410427e-06
8.768078e-06 3.7985437e-06 0.0 5.363996e-06 9.2736876e-08 3.9117215e-10 1.2038857e-05 3.9773327e-05

exp_avg f4 [64, 128]
00000000: fb1c 73bd d77c 92bb 8f4c f6bc 3af6 1ebd
00000010: 0665 1b3c f110 57bb b45a 01bb 258d 41b6
00000020: 0304 9b3b fe95 6e3c 70a2 30ba 7036 72bb
00000030: 7103 06bc dacd 1182 60ff 1182 01a9 1a82
00000040: 27c1 d3bb 700e 2dbc 509b 2b3a cf56 483c
00000050: 98e4 a8bd 3614 933c a2a9 443c 0000 0000
00000060: 0000 0000 501a e03a eca7 0f3c 0000 0000
00000070: 22c7 07bd 5a16 383c 8cf6 5d3d a0fc f13b
00000080: 7cbb 0fbd 0000 0000 da47 e9bd 0000 0000
00000090: 3030 9d3c d40d ea3a 6ec9 7d3c 0000 0000
000000a0: 8752 3dbd be9e 5dbd 209d 093b e07b a53b
000000b0: 0000 0000 0000 0000 5cc3 61bc 206a a039
000000c0: 0000 0000 0000 0000 2d5d 0cbc cc35 07bd
000000d0: 533b 3e3c 87fe 933c 343c 1d82 d822 36bb
000000e0: 2fdb 0c3c 0000 0000 0000 0000 58c3 45bd
000000f0: 4a95 443c 0021 abb8 0448 88bd babf 053d
00000100: 4e0b 9c3c 9d82 1682 9c6e 87bb 0000 0000
00000110: 0918 21bd a20c c0bc b5a2 1ebd 0000 0000
00000120: 72cf 21ba 1e8e ccbb 8821 d63b 9b07 4cbc
00000130: 031d 4039 0000 0000 62db 9b3c 0000 0000
00000140: 90c4 51bc 0437 1a82 50cb 80bb dc31 26bc
00000150: ca81 13bd 0d67 503c 1e54 52bd 1032 12bd
00000160: 081b 85bd 34a5 47bc 0000 0000 0000 0000
00000170: 666e 913b ecd2 1782 5d01 b5bc 0000 0000
00000180: 626c 0abc c1cc 223c 9ee5 15bd 0000 0000
00000190: 3a1d acbb 5ef0 1b82 161c a53c 3957 873c
000001a0: 5e97 b8bd 88e9 773b 696a 0abd e846 23ba
000001b0: 70db 9d3c a89d 193b 782a 263b 2bc2 1682
000001c0: b4ec fa3c d7be 06bc ca93 8fbb 0000 0000
000001d0: 26c5 1c02 46ca 1d82 4245 1582 7747 52bd
000001e0: 4f8b bfbc 0e84 253d 0000 0000 a2bf b2bd
000001f0: eb7c 9bb8 b827 1a82 bf15 773c 34f3 f33b
00000200: 84ef 5fb8 aa0b 2b34 5994 75af 433d 7cb8
00000210: 8c45 73b6 8065 1302 6204 1e82 9db3 a691
00000220: 1e4c 79b8 5f06 80b7 2f81 f3a9 6e95 4ead
00000230: c20e a1b8 6739 1d02 ada9 1c02 ee7a 1d02
00000240: 4f34 da33 96c0 bcb8 902f a8b8 368c db33
00000250: 0c48 8797 fc05 acb8 b46f ee34 0000 0000
00000260: 0000 0000 e236 8cb8 1409 d5b6 0000 0000
00000270: c00a e9b8 5089 2db8 02d4 6aaf 3e2a 8fb8
00000280: e222 8fb8 0000 0000 873b 14b9 0000 0000
00000290: 9f4e 2835 8529 1eb5 ad93 3fb6 0000 0000
000002a0: 0d15 79b9 75d8 b6ae 3ac9 a3b6 68da e533
000002b0: 0000 0000 0000 0000 d599 17b8 0c93 d5b7
000002c0: 0000 0000 0000 0000 3f2b a7b8 3dc3 07b8
000002d0: 7168 7dac 09b8 5ab8 39bf 1602 edeb 2fae
000002e0: 01ba 0c91 0000 0000 0000 0000 4eb3 e4b8
000002f0: a2dc a6b6 3f22 52b9 1d84 89b9 198a 2892
00000300: 5f81 61b8 e3c7 1202 898a 0434 0000 0000
00000310: 66cc a8b8 541a 02b9 d243 5fb9 0000 0000
00000320: 711b 7aae 0082 e2b7 a2c7 2fb9 1e59 36b8
00000330: 2835 4b84 0000 0000 1052 8dab 0000 0000
00000340: ed38 5b34 34d7 1d02 ff9c 1d82 5490 8ab8
00000350: 5abc b9b8 7c88 56b8 552b 43b9 e8a0 15b8
00000360: 0225 54b9 4877 3236 0000 0000 0000 0000
00000370: 20c8 58b8 0c2a 1c82 0c52 dab7 0000 0000
00000380: fcb2 97b8 02d6 35ac 1684 17b8 0000 0000
00000390: 3f31 5134 c635 1602 12d7 e9b8 169d 5fb9
000003a0: 4b97 7c36 fbc6 4933 7c8b e8b7 13e3 ab19
000003b0: 3194 adb6 8a96 3eb8 e3e2 32b7 c43c 1802
000003c0: 28e1 84b8 b57f a5b8 4955 a1b7 0000 0000
000003d0: 6609 1502 03b7 1402 0000 0000 2d5f 83b8
000003e0: 6048 7eb8 2281 8cb8 0000 0000 6e92 59b9
000003f0: 5172 1602 143a 1802 d628 8c34 cb73 c7b7
-0.05935381 -0.0044704485 -0.030065803 -0.03880904 0.009484535 -0.0032816494 -0.0019737901 -2.8841398e-06
0.004730703 0.014562128 -0.0006738072 -0.0036958717 -0.008179531 -1.0711994e-37 -1.0726207e-37 -1.1362635e-37
-0.0064622345 -0.010562524 0.00065462757 0.012227728 -0.08246726 0.017953973 0.012003334 0.0
0.0 0.0017097685 0.008768063 0.0 -0.033148892 0.011235798 0.054190204 0.0073848516
-0.03509091 0.0 -0.11390658 0.0 0.019188017 0.0017856904 0.015489919 0.0
-0.046221282 -0.054106466 0.0020998195 0.0050501674 0.0 0.0 -0.013779487 0.00030596647
0.0 0.0 -0.008567137 -0.03301029 0.011610824 0.018065704 -1.1551816e-37 -0.0027791765
0.008597179 0.0 0.0 -0.048281997 0.011998484 -8.160062e-05 -0.06654361 0.032653548
0.01904836 -1.1057744e-37 -0.0041330587 0.0 -0.039329562 -0.023443524 -0.03872939 0.0
-0.00061725744 -0.0062425276 0.006534759 -0.012452985 0.00018321355 0.0 0.019025508 0.0
-0.012803212 -1.1329922e-37 -0.0039304867 -0.010143723 -0.03601245 0.012719882 -0.05134975 -0.035692275
-0.064992964 -0.012185384 0.0 0.0 0.0044382093 -1.115426e-37 -0.022095377 0.0
-0.008448692 0.009936512 -0.036595933 0.0 -0.0052525075 -1.1456584e-37 0.020154994 0.016521083
-0.09013246 0.0037828404 -0.033792887 -0.00062285224 0.019269675 0.0023439918 0.0025354903 -1.1075983e-37
0.030630447 -0.008224211 -0.0043816315 0.0 1.1517649e-37 -1.1592588e-37 -1.0966667e-37 -0.051337685
-0.023381857 0.04040914 0.0 -0.08727957 -7.414244e-05 -1.1325532e-37 0.015080868 0.0074447636
-5.339041e-05 1.592986e-07 -2.2335324e-10 -6.0138536e-05 -3.6250303e-06 1.0828983e-37 -1.1609265e-37 -2.6300877e-28
-5.9437116e-05 -1.5261756e-05 -1.08137776e-13 -1.1742924e-11 -7.679827e-05 1.1551012e-37 1.1509764e-37 1.1569817e-37
1.0160931e-07 -9.0004105e-05 -8.0197235e-05 1.02234864e-07 -8.742358e-25 -8.202714e-05 4.441223e-07 0.0
0.0 -6.685943e-05 -6.3489515e-06 0.0 -0.00011112308 -4.1374296e-05 -2.1357496e-10 -6.8266396e-05
-6.825269e-05 0.0 -0.00014136556 0.0 6.2699286e-07 -5.8920006e-07 -2.8547176e-06 0.0
-0.00023754333 -8.314852e-11 -4.8812044e-06 1.0703371e-07 0.0 0.0 -3.6144473e-05 -2.5460053e-05
0.0 0.0 -7.971236e-05 -3.2368338e-05 -3.601144e-12 -5.2146646e-05 1.1075138e-37 -3.9999937e-11
-1.110137e-28 0.0 0.0 -0.00010905285 -4.9728706e-06 -0.00020039918 -0.00026229108 -5.318167e-28
-5.3764667e-05 1.0783751e-37 1.2343857e-07 0.0 -8.0489364e-05 -0.00012407574 -0.00021292202 0.0
-5.686779e-11 -2.7001835e-05 -0.0001676367 -4.347518e-05 -2.3886943e-36 0.0 -1.004143e-12 0.0
2.0416674e-07 1.1596299e-37 -1.1579594e-37 -6.607236e-05 -8.856571e-05 -5.1148687e-05 -0.00018612792 -3.5674224e-05
-0.00020231682 2.6593498e-06 0.0 0.0 -5.1684794e-05 -1.1473137e-37 -2.6025831e-05 0.0
-7.2335795e-05 -2.5840445e-12 -3.612422e-05 0.0 1.9482557e-07 1.1035692e-37 -0.00011150366 -0.00021325456
3.763899e-06 4.697993e-08 -2.7721508e-05 1.77727e-23 -5.1730535e-06 -4.543973e-05 -1.0662453e-05 1.1184635e-37
-6.336189e-05 -7.8916004e-05 -1.923241e-05 0.0 1.0949488e-37 1.0925845e-37 0.0 -6.264295e-05
-6.0625724e-05 -6.699773e-05 0.0 -0.00020749282 1.1053067e-37 1.1183864e-37 2.6106744e-07 -2.3776569e-05
