lightning_model_releases/lightning_quantile_test/model_params/0.9_81054_1335_lightning_quantile.ckpt (torch, 311310 bytes, 15 tensors)

model.0.weight f4 [128, 131]
00000000: 0724 213e dc52 f63d 7221 33bd 7240 91bc
00000010: 000e 1ebc 1941 383e b042 afbb 1549 da3d
00000020: 60e5 ef3d 10a5 5a3d 664d 943d 5df2 c03c
00000030: 9ffd 223b dc45 153d 44a9 833d 07e2 a13d
00000040: 2305 8e3b 3611 db3d d2fa 02bd 2f3d 133d
00000050: 9409 78bd 2581 e13c 9d83 073e da1a ab3d
00000060: aa87 d43c f627 babc 3276 99bc 28e6 57bd
00000070: db5b e43c a295 13be c6a0 953d 4187 90bd
00000080: 0e72 243e 0f4e 23bd 7ac8 c53c eb5f 2c3d
00000090: cdb2 ca3d a1b1 1b3b 7ee3 32bd 368c d5b9
000000a0: 36b6 693d b134 7ebd 72c0 e1bc f742 8a3d
000000b0: e706 523d 3ea3 03be fcf4 cc3a 8ba0 833c
000000c0: 0aa0 b4bd 5b7c bdbd 7e72 a9bd 6113 aa3d
000000d0: b101 403d ff18 e33d 9283 6f3d ff08 d03c
000000e0: 2fea 2cbe 7684 2abe 61f3 203e b5fb 8ebd
000000f0: 062d a83c f8ea 25bd 93f1 a83d 30b3 a2bd
00000100: f9f3 f33d a2f9 87bd 70df 49bd 9f9e 11be
00000110: 0076 8cbd 9922 d7bc 5451 5b3d 2ff7 ad3d
00000120: 7a2e e03d 31f0 a1bd d0a9 04be 258f 24bd
00000130: d761 debc bf1e aabd 95f5 cc3d d2dc 563d
00000140: dd58 b1bd 736a 43be d28a f13b 116d 95bc
00000150: e42e a53c 437e 9bbd 398a cb3d 019b 64bd
00000160: dbe7 69bb 318c 7dbc 771b 383c 5943 e5bb
00000170: fbb3 0e3d 3ae3 163d e0fb 083c 5060 bcbb
00000180: 6291 ba3d bc15 3ebc 209f c4bd 926c 39bd
00000190: 4d32 09be ba9b d8bb 79ad 32bd 1834 3a3d
000001a0: 3c71 d5bd 0686 a4bd b9ce 97bd 8e7a aebc
000001b0: 8958 06be 0069 173d 87de 793d 87f2 013c
000001c0: cb86 bebc 599d 3fbe 7293 85bd 2caf a43c
000001d0: 70d7 5f3c 563d 8b3c d34e 63be 59ad 19bd
000001e0: 3725 9bbd 04bd f3bd eb36 1abd 61be f0bd
000001f0: e1aa d3bd 78a6 b4bd 6a9a 78bd decf e4bd
00000200: 0135 983c edaf 86bd 9924 133d 5f9b 3dbe
00000210: 372f 08bd d0af 6d3e fd0c c13e 910a 38be
00000220: 9606 e6be a904 9fbe 666f a9be 45b4 3f3d
00000230: 4204 22bb 6915 56be ee4e e13d 206e 57be
00000240: 07da 41bd 200e de3d b962 45be c95d f43d
00000250: f0d6 253d a3c5 d3bd 05f2 57be facd 4bbd
00000260: ca79 b3bd 361b b23d 6f8f 483e b26d c5be
00000270: b7f9 d0be dc34 c2bc 857e 2a3e 5cde 44be
00000280: 2b67 613e f8df 7d3e f997 b63c 5334 d3be
00000290: d4a9 163e dc5e 3ebd 21da 0abe 0046 5f3e
000002a0: 5e77 c63d bdb5 823d b666 19be acbd 36be
000002b0: c846 243e 4b4c 0d3e ec3f 4c3e 8ccb 11be
000002c0: b205 9bbd c66a 103d 37cb dcbc 8746 693a
000002d0: 56c1 b03c 419d f4bd eac0 15bf 2e75 22bf
000002e0: 9428 60be 8a7f 89be e11a a13d 2b56 123f
000002f0: 33ef b13e 864f 24bb 6be5 6dbe c34e dcbd
00000300: f48f 1abd da1e 12be 2f89 853b d4c4 2bbe
00000310: 1c12 a13d 3668 a3bd 6f52 5d3e 4ab1 333d
00000320: d9eb 97be 5dce 65be 00e8 76be 35ee 9a3d
00000330: a639 2abe a29f 283e 4436 f2be cd0e f4bd
00000340: f92b ec3c 54b6 61be 2ec4 c73c 76fb ec3d
00000350: 53f8 a83c a23c 2d3e 6770 36be ee11 143e
00000360: 105c e3bc c52a cebe daaa dbbd 2536 22be
00000370: 0a68 9bbd eeae 89be 4a41 87be 467e 14bd
00000380: 2332 2cbc b916 97be 1123 33be d003 9f3d
00000390: 1130 5fbe d9af a7bd 88be d43d 1617 af3c
000003a0: 805b 61bd 56d6 b43e 0ddf bebd 3975 903e
000003b0: df82 c73d b214 88bd 4df8 fdbd 5295 0a3e
000003c0: 5b5f 3dbb 4d4f d5bd 58f1 4a3d 53eb 693d
000003d0: 4bea 943c c123 50be 5f1b 68bd 0c6b ed3c
000003e0: 313d 47bf dbf5 1d3f f3c8 1a3d 1d3b 94bd
000003f0: 7617 acbc 9fa0 493d 4a35 883d 754e 5dbd
0.157364 0.12027523 -0.043733068 -0.017730925 -0.009646893 0.17993583 -0.005348526 0.106584705
0.11713672 0.053380072 0.07241325 0.023553068 0.0024870408 0.036443576 0.06428769 0.079044394
0.0043341084 0.10696642 -0.031977482 0.03594702 -0.06055601 0.027527401 0.132338 0.08354731
0.025943596 -0.022724133 -0.018733118 -0.05270973 0.027875831 -0.14412549 0.07306056 -0.07057048
0.16059133 -0.039869364 0.024143446 0.042083662 0.09897385 0.0023756998 -0.043673985 -0.0004073099
0.057058536 -0.06206197 -0.027557585 0.06751054 0.051276114 -0.1285524 0.0015636976 0.016067764
-0.088195875 -0.092522345 -0.08273791 0.083044775 0.046876613 0.11088752 0.058475085 0.025394915
-0.16886209 -0.16652092 0.15717842 -0.06981603 0.020529281 -0.040507287 0.082492016 -0.079443336
0.119117685 -0.066394106 -0.049285352 -0.14220665 -0.06858444 -0.026261615 0.053544357 0.08494412
0.10946365 -0.07907141 -0.12955403 -0.040175576 -0.027146263 -0.083066456 0.100077786 0.052456684
-0.086595275 -0.19083576 0.007371285 -0.018240483 0.02016396 -0.07592442 0.09938473 -0.055811886
-0.0035691175 -0.015475319 0.011237017 -0.006996554 0.03483961 0.036837794 0.008360833 -0.005748786
0.09109761 -0.011601862 -0.09600663 -0.045269556 -0.13398094 -0.006610361 -0.043622468 0.045459837
-0.10421988 -0.080333754 -0.07412476 -0.021298673 -0.13119711 0.03696537 0.061003234 0.007931358
-0.023257634 -0.18712367 -0.065222636 0.02010306 0.013662204 0.01699702 -0.22198038 -0.037518833
-0.075754575 -0.11901286 -0.03765003 -0.11755062 -0.10335327 -0.08820814 -0.060694136 -0.1117246
0.018579962 -0.06576524 0.035923574 -0.185163 -0.033248153 0.23211598 0.37705222 -0.17972781
-0.449269 -0.31058243 -0.33092803 0.046802778 -0.0024721776 -0.20906605 0.11001383 -0.21038103
-0.047327068 0.10842538 -0.19275941 0.119319506 0.040488183 -0.103404306 -0.21088417 -0.04975698
-0.08763464 0.08696596 0.19585966 -0.38560253 -0.40815517 -0.023706846 0.16649826 -0.19225448
0.22012012 0.24792469 0.022289263 -0.41250858 0.14713222 -0.046477184 -0.13559772 0.21804047
0.09690736 0.0638232 -0.14980587 -0.17845792 0.16042626 0.13798635 0.1994626 -0.14237803
-0.07569446 0.035258077 -0.02695237 0.0008898754 0.021576565 -0.11944056 -0.5849749 -0.6346005
-0.2189048 -0.26855117 0.07866455 0.5716273 0.34752807 -0.0025071814 -0.23232047 -0.1075721
-0.03773494 -0.14269581 0.0040751914 -0.16774303 0.07864782 -0.07978861 0.21613477 0.043870248
-0.29672125 -0.22442003 -0.24111938 0.07564966 -0.16623554 0.16467145 -0.47307026 -0.119168855
0.028829562 -0.22042209 0.024385538 0.115714 0.020626223 0.16917661 -0.17816316 0.14459965
-0.02775386 -0.40267006 -0.10725947 -0.15840967 -0.07588203 -0.26891273 -0.26417 -0.036253236
-0.01051 -0.29509524 -0.17493846 0.07764399 -0.2179568 -0.08187837 0.103879035 0.021373313
-0.0550189 0.35319775 -0.09319887 0.28214434 0.097417586 -0.06644572 -0.12400875 0.13533524
-0.0028895948 -0.10415516 0.04954657 0.05710919 0.018178126 -0.20326139 -0.056666728 0.028981708
-0.77827746 0.6170327 0.037789296 -0.072378375 -0.02100728 0.049225446 0.06650789 -0.0540299

model.0.bias f4 [128]
00000000: 104d 0bbe 1b11 463e 40f2 db3d d03f c63d
00000010: 78d6 033e 00b2 043e 1a87 83bd 6e40 5ebb
00000020: 3258 3bbb fd01 593d 1417 ce3b 074c d63c
00000030: 6522 02bd ea62 45bd 0f75 833d 4736 8bbd
00000040: 7eca b53d 01ef 3abd 28f2 bfba 9883 283e
00000050: 5ac1 ab3d 93f1 f23d e719 4c3d 1377 883d
00000060: cd6c a83d a798 923d cf4e bf3c 0042 453b
00000070: 06a5 0f3e a16a de3d d5dd 043e 4789 8a3d
00000080: 7d8f 873d 4ee6 78bd b702 ff3c f499 8a3c
00000090: 9f39 893d f2cf cd3d 8eff d63d 4e1e 58bd
000000a0: d063 ab3c d5bc 1fbd 9501 8a3d a3b4 063e
000000b0: 13d7 a13d 601d 963b 1abd 073e 498f 5f3b
000000c0: 80e3 f8ba 6408 87bc 3446 923c 48fa e63d
000000d0: 7f13 083e 0349 56bc 5852 bfbd b2e3 8ebd
000000e0: 5f1d b13d b2c8 293d 9a41 393d bee6 d13d
000000f0: 4fc7 0b3d c003 3e3d 8200 2c39 9986 4e3d
00000100: 4a9b 8b3d b7d6 f9bc 92d9 5d3b c08e a6ba
00000110: a57a 403c b482 e83d c33e 913c f200 723d
00000120: e7b7 91bd d647 b1bb 80e6 523d 5fdb 183d
00000130: 0ffb 54bd c02f 72bc f43c 283e cfd5 18bd
00000140: 89e1 713d 81a9 29bb 2bac 473d 39d0 953d
00000150: 0038 0d3e a7cd ce3d 95ab 443c 8744 50bd
00000160: cef2 2dbd 2a43 44bc 4c36 c4bc 1a62 463d
00000170: 96ba 123e a0a2 4dbd f717 3ebd 32da 743d
00000180: 7036 f53c ed76 293d dc82 4a3b 4ebb 1abd
00000190: 2fe7 893c 974d 82bc 124e 07bd 1e95 c3bc
000001a0: f384 803a b4eb 963d c990 a63c b9eb 2cbd
000001b0: 2ad4 33bc 96b9 aa3d 654c 3a3e b6e7 14bd
000001c0: 5010 d3bc 4460 433d 3126 143e 704e 643c
000001d0: de12 cabc 7b9d 8d3d 6ee5 833a 7543 833d
000001e0: 4c6a 053e eaeb 2e3d 7827 7cbc 9329 a53d
000001f0: d907 843c 7bca 93bd f074 003e b2fb 293d
-0.13603616 0.19342463 0.10739565 0.0968014 0.12874782 0.12958527 -0.06422253 -0.0033912915
-0.0028586504 0.05298041 0.006289372 0.0261593 -0.031771082 -0.048190035 0.064188115 -0.06797462
0.08876513 -0.045638088 -0.0014644312 0.16456449 0.08386488 0.11862483 0.04982939 0.066633366
0.08223877 0.071580224 0.023353009 0.0030099154 0.14027795 0.108601816 0.12975247 0.06764465
0.06619165 -0.06076651 0.031129224 0.016919114 0.067004435 0.10049428 0.10497962 -0.052763276
0.020921618 -0.038998444 0.06738583 0.13154845 0.0790235 0.0045811385 0.1325573 0.0034112504
-0.0018988699 -0.016483493 0.017855741 0.11278206 0.13288687 -0.013078931 -0.09341878 -0.06977023
0.0864818 0.041451164 0.04522858 0.10249089 0.034125622 0.046390295 0.00016403387 0.05042133
0.068167284 -0.030497892 0.0033851606 -0.0012707338 0.011747991 0.11353055 0.017730122 0.059082933
-0.07115155 -0.005410175 0.051489353 0.037318584 -0.05199724 -0.014781892 0.16429502 -0.03731328
0.059052978 -0.0025888386 0.048748177 0.07315106 0.13790894 0.10097819 0.012003799 -0.050846603
-0.042467885 -0.011978904 -0.023951672 0.0484334 0.1432899 -0.05020392 -0.046409573 0.0597784
0.029933184 0.041373182 0.0030900752 -0.037776284 0.01683387 -0.015906138 -0.033033438 -0.023874816
0.0009805247 0.073691756 0.02033271 -0.04221699 -0.010975877 0.08336179 0.18193205 -0.03635379
-0.025764614 0.047699228 0.14467694 0.013934717 -0.0246672 0.06914803 0.0010062882 0.06409351
0.1302883 0.042705454 -0.015390269 0.0806457 0.016117023 -0.072163545 0.12544608 0.0414998

model.3.weight f4 [64, 128]
00000000: fa69 8cbd 1508 013e 6d7f 87bd 96c6 eabc
00000010: 7245 2d3c 484e 163d 3604 10bc 313f a03d
00000020: 7714 8d3d fd76 aabd c8ca 1bbd 716f 9dbd
00000030: 8efd 8e3d 487e 9abb c66d f9bc fff0 2ebd
00000040: 843f 1d3d 0435 023d 103f 473d b8d1 d13d
00000050: 9f43 a63d f5d7 19bd e9f1 24bb d92f 66bd
00000060: f5a0 02bd be7f 563c b81c 903d bb85 22bd
00000070: 1bec 16bd 0d28 48bb c60d 1d3d 5d85 873c
00000080: 25dd 9f3d 4bf0 a2bd 613e f93c d318 893d
00000090: c3f9 c73d 0c26 24bd 718b 5abd 405c ab3a
000000a0: ce29 893b 3737 483d a162 9d3d 41dc 863c
000000b0: e6c0 d4bc 5262 453d 9353 15bd 5ff2 c6bb
000000c0: 5831 323c 98b4 73bc bfb2 5f3d 4236 d3ba
000000d0: 8d31 313d afe8 cf3c 6844 0c3b 320b dcbc
000000e0: 6811 a43d 22c2 493d 4016 5dbc 5ca0 4dbd
000000f0: d502 5e3c a8b1 833d ed2f 533d 88ed 62bb
00000100: a1a2 813d 1148 00bd 5b21 483d c647 2abd
00000110: ef7c 2c3c 8f01 74bb 9647 be3c 7b2a acbd
00000120: 866e 753b 9df8 85bd 97be 86bd 06d7 9dbd
00000130: f5b5 2bbd a84b 873c cf6a f13c 7074 aa3c
00000140: 5bf3 e53c 5830 57bd 0ea5 8e3c 2f84 80bd
00000150: e8fd 40bc 4428 693c a56b a83c f21a 85bd
00000160: 48b7 933d d210 8b3d 0d2c 22bd 6c2f 9abd
00000170: 123b 9c3c 16f8 023d 6d64 4abc 5d51 26bd
00000180: 0293 af3c 0818 52bd f02c 17bd b0a2 e73c
00000190: a4b1 493d 7848 613d 1ee2 993d 0b55 323c
000001a0: 0738 c73c 84c1 923d 0afc 31bd 011b 803d
000001b0: 2039 b63d 7d8b b7bc e13a da3d 14b4 ccbc
000001c0: 6d54 28bd ec7d 8b3d 8b4d 7f3d e0ae d0bb
000001d0: 02c8 6cbd b449 3c3d 57fa e23c 39a5 68bd
000001e0: 5d89 9a3c 1a99 833d 7edf 183d 8c3e 92bc
000001f0: 11b8 ef3b a728 a5bc ba1e a03d 4115 983d
00000200: 2d69 e2bc eba7 0cbd a278 a5bd b81d 1bbd
00000210: 5b7a b03c c40f 0abd ca67 bcbb 9e20 903d
00000220: 7983 ac3c 3ff3 503c c913 68bd 35bc b5bc
00000230: 6138 bcbd 8629 44bd ef70 233c ea11 743c
00000240: 99f7 743c 7d46 8abd d052 ec3b 642e c5bd
00000250: 1d6f a8bd d6fe da3c 01ae c8bd 684e 893c
00000260: d80b 643c dc0c 233d 1c36 a538 2428 8d3c
00000270: 57d3 7f3c a83c 66bc 4b31 cebd dac4 65bd
00000280: 7db2 b1bd 7bea 51bd 84c9 1739 55b3 aa3d
00000290: a924 013d 5d6f 97bd 2138 0dbb a629 793d
000002a0: c3de af3a 09d3 b4bd 8438 cdbb 5947 daba
000002b0: e016 6d3c a357 a53d 2142 663d 03c5 aebd
000002c0: a3a0 893d dc01 a2bd be69 8cbd 6953 ae3c
000002d0: b127 b0bc 4ba0 653d c4a1 293d cc50 06bd
000002e0: ea01 5c3d 40e9 81bd 14f1 863c ce54 363c
000002f0: b55b 833c dab4 8c3d 027b d43c 399c a9bd
00000300: 3b03 5b3d b6a3 8a3d 0641 22bd b1f3 813d
00000310: efe9 9337 0be4 bdbc e619 003c 0086 8139
00000320: fe3d 25bd 3393 7bbb 8c9d 85bc de4f 9ebd
00000330: a841 a0bd 60ed ed3c de18 91bd e0ab 0d3b
00000340: 1ec6 163d 4b30 753d 63a8 a9bb 71ee f53c
00000350: 3e4f 2f3d 520f 9cbd dc2a 853d 61d7 a5bd
00000360: 3b59 97bd 0266 5dbd f1eb b03d 2aa9 4a3d
00000370: 0fd2 bc3b be45 163d b672 c9bd 41a7 acbd
00000380: b3b7 233c 9282 a6bc 58bd e03c 4279 80bd
00000390: b4d4 4b3d 094e bebd 2e17 dd3c 698f eb3c
000003a0: 3501 82bd 8d4b 1e3d d547 fc3c 89fa 68bd
000003b0: 3487 92bd 4d8b ac3c 0a6d a6bd 6282 cfbb
000003c0: 0071 ba3c 46b6 b43c 6bce 8fbd 3344 883d
000003d0: 8463 aa3c 67ee b73c c139 28bd 2e08 b63c
000003e0: 2be3 e0bc 7199 393d 3ea3 393d 7c38 453d
000003f0: c583 d1bc 3a55 453d 28d2 493d ea87 e5bc
-0.06856151 0.1260074 -0.066161014 -0.028659146 0.010575639 0.03669575 -0.0087900665 0.07824553
0.06888669 -0.083234765 -0.038035184 -0.076872714 0.069819555 -0.004714761 -0.030447852 -0.0427103
0.03839065 0.03178884 0.048644125 0.10245079 0.081183665 -0.03755947 -0.0025168604 -0.056197975
-0.03189178 0.01309198 0.07036728 -0.039678317 -0.03684626 -0.003054145 0.038343213 0.016543085
0.07805852 -0.079559885 0.030425252 0.06694188 0.09764435 -0.040075347 -0.053355638 0.0013073757
0.0041858917 0.048880782 0.076848276 0.016462447 -0.025970887 0.04818947 -0.036456656 -0.0060713734
0.010876022 -0.0148746 0.054613825 -0.0016114193 0.043260146 0.025379507 0.0021403078 -0.026860807
0.080111325 0.049257405 -0.013494074 -0.05020176 0.01355048 0.064303696 0.051559377 -0.0034626443
0.06329847 -0.031318728 0.048859935 -0.041572355 0.010527833 -0.0037232374 0.023227494 -0.0840654
0.003744991 -0.0654156 -0.06579321 -0.07707028 -0.041921575 0.016515568 0.029469876 0.020807475
0.028070142 -0.05253634 0.017412689 -0.06275212 -0.011779286 0.0142307915 0.020559141 -0.0649928
0.072126925 0.067903176 -0.03959279 -0.07528576 0.019071136 0.031974874 -0.012353045 -0.040604938
0.021432403 -0.05129245 -0.03690809 0.028275818 0.049241677 0.055000752 0.075138316 0.010884534
0.024318708 0.071658164 -0.043453254 0.062551506 0.088976145 -0.02240538 0.106557615 -0.024988212
-0.04109614 0.06811127 0.06232981 -0.006368503 -0.05780793 0.045968726 0.027707262 -0.056798194
0.018864328 0.06425686 0.037322514 -0.01785209 0.0073156436 -0.020160986 0.078183606 0.07425929
-0.027638042 -0.034339827 -0.080796495 -0.03787014 0.021542719 -0.03370644 -0.0057496773 0.07037471
0.021058785 0.012753307 -0.056659494 -0.02218447 -0.09190441 -0.047891162 0.009975656 0.014896849
0.01495161 -0.06751726 0.0072120205 -0.09627989 -0.08224318 0.026732843 -0.097988136 0.01676102
0.013918839 0.039807186 7.877892e-05 0.017231055 0.015614352 -0.0140525475 -0.10067996 -0.056095935
-0.08676622 -0.05124901 0.00014475553 0.08334986 0.031529102 -0.07394288 -0.0021548348 0.060830735
0.0013417829 -0.08829314 -0.0062628407 -0.0016653343 0.014470786 0.08073356 0.05621541 -0.08533671
0.06720092 -0.07910511 -0.06856106 0.021280007 -0.021503301 0.05606107 0.041414037 -0.032791898
0.053712763 -0.06343317 0.016472377 0.011128617 0.01603494 0.06870432 0.025937561 -0.0828175
0.053469878 0.06769507 -0.039612792 0.063453086 1.76327e-05 -0.023180028 0.007818675 0.00024704635
-0.040342323 -0.0038387298 -0.016310476 -0.07730077 -0.07825023 0.029043853 -0.07084821 0.0021617338
0.036810033 0.05986051 -0.005177544 0.030020924 0.04280018 -0.076201096 0.065023154 -0.08097721
-0.07390066 -0.05405236 0.08638752 0.049477734 0.0057623456 0.036687605 -0.098363325 -0.08430339
0.009992528 -0.020325933 0.027434036 -0.06273128 0.049763396 -0.09292228 0.026988592 0.028754907
-0.063478865 0.03864627 0.030795971 -0.056879554 -0.07154694 0.021062518 -0.08126266 -0.0063326815
0.02275896 0.022059571 -0.07021793 0.06653633 0.020799406 0.022452546 -0.041070703 0.022220697
-0.027452072 0.04531235 0.045321696 0.04814957 -0.025575528 0.04817698 0.049272686 -0.02801891

model.3.bias f4 [64]
00000000: 50cf d63d f963 73bd dd3f 173e 4d96 683b
00000010: 3aae c8bd d665 243e d643 2bbc d133 6abd
00000020: 841b f5b9 a44b 97bb 2de4 d2bc 9046 443e
00000030: 8965 1c3e 921d 5e3e 289f 163e 5d14 35bd
00000040: e01d bebd 640a 19bd a6c3 3f3e 4194 5b3d
00000050: 68f8 8a3d 9a9d f6bc 78b3 3b3e 3649 b33d
00000060: 8463 1f3e d7c7 243e eada d23d da67 583e
00000070: ca93 db3d 9243 95bd 6917 9d3d 97b8 8abc
00000080: e819 54bd 38c6 303e 29b8 cb3d 224e 77bd
00000090: 45b3 073b 768b 2d3d b338 8b3d 6859 b33d
000000a0: c996 d83c d8e9 853c c442 a1bc 9a42 143e
000000b0: 88c5 b4bb 33c0 d7bd d308 da3c 8825 2bbc
000000c0: 51b8 403d 5e79 063e 51aa 703d ce70 283d
000000d0: b36c 3b3e 184b ad3d 21ab db3c a1ca f73b
000000e0: 40d5 abbd 106c d63d 7193 f43d 49c2 273e
000000f0: 7867 073e cebf 03bd 616e 63bd 8a19 0a3e
0.104887605 -0.059421513 0.14770456 0.0035489977 -0.09798856 0.16054472 -0.010453185 -0.057178322
-0.00046750542 -0.0046171714 -0.025743568 0.19167542 0.15273108 0.21690968 0.14709151 -0.044208873
-0.09283042 -0.037363425 0.18726978 0.053608183 0.06785661 -0.030104447 0.1833018 0.08754198
0.15565306 0.16091858 0.10295661 0.21133366 0.10721548 -0.07288279 0.07670481 -0.016933722
-0.05178252 0.17263114 0.09947235 -0.060377248 0.0020706218 0.04236933 0.06797924 0.08757287
0.026439087 0.016346857 -0.019685157 0.14478531 -0.0055167116 -0.10534706 0.026615536 -0.01044596
0.047050778 0.13132235 0.058756176 0.041123204 0.18303184 0.084615886 0.026814999 0.007561997
-0.083902836 0.1046983 0.11942185 0.16382708 0.13223064 -0.03216534 -0.055525187 0.13486305

model.6.weight f4 [1, 64]
00000000: b676 bb3d 7483 39bd 768e 463d da7c 06bc
00000010: 4e8e 20bd d670 293d dbd9 b33d 2457 c7bd
00000020: fc4c 23bd 93bf a13d dabc 3ebd 4931 673d
00000030: 5225 9f3d 5e60 2e3d 9b5e 4d3d e233 c8bd
00000040: 7b05 feba 9c0a 6dbc c512 3b3d 4b31 543b
00000050: cfbd 8fbc 3339 77bd 2a2f a13d 7912 293d
00000060: c41e 5a3d 2446 9d3d d3ad 143d f962 a53d
00000070: 26ae 443d 3a15 51bc df16 2d3d 9132 c0bd
00000080: a562 46bd f77c d63d d05e e93d c5f6 96bd
00000090: e8f0 1ebd 9071 893d c480 d2bd 6a2e e23c
000000a0: 205b ccbd 5494 28bd 3bd6 65bd 424c 153d
000000b0: d1c7 abbc 49bd 60bd 7375 883d 1cf6 1fbd
000000c0: cd0c dbbd dfe7 953d 12fd a13d 6222 36bc
000000d0: 3457 393d acc8 513d 9af9 d23b 4acf 64bc
000000e0: 2828 bcbd f951 713d 463f 313d 3052 973d
000000f0: 0c88 423d fd23 12bd aab3 3ebd f194 4d3d
0.09153502 -0.04529138 0.048475705 -0.008208478 -0.039198212 0.041367374 0.08781787 -0.09733418
-0.03986834 0.07897868 -0.04656682 0.056443486 0.0777079 0.04257237 0.05013905 -0.09775521
-0.0019380295 -0.0144678615 0.045672197 0.0032378014 -0.017546562 -0.060357284 0.07870324 0.041277383
0.053251997 0.07679394 0.036298584 0.08075518 0.048017643 -0.012761408 0.04225814 -0.09384645
-0.04843392 0.10473054 0.11395037 -0.07371286 -0.038803965 0.067111135 -0.10278466 0.027610023
-0.09978318 -0.04115708 -0.05611251 0.03644968 -0.020969303 -0.054868016 0.06663027 -0.039053068
-0.10695801 0.073196165 0.079095975 -0.011116596 0.04524918 0.051216766 0.006438446 -0.013965437
-0.09187347 0.058916066 0.043273233 0.07388723 0.047493026 -0.035678852 -0.04655806 0.05019087

exp_avg f4 [128, 131]
00000000: b25f bdb5 1b4f 21b5 4fae 06b5 6efc 9e38
00000010: eb65 01b5 fac1 eab4 f28b deb0 5707 0fb4
00000020: 45f5 15b4 7e82 ccae 8796 d3b4 cf1d 00b4
00000030: 46c9 b3b4 fd80 6531 fa23 83b5 c12b 82b5
00000040: 3110 1a36 8f20 9fb4 f87c 4ab3 d01d 00b4
00000050: c8eb 9336 3922 54b5 b4bc 0cb4 890c ccb4
00000060: 4471 e734 2792 ebb3 78ff feb5 e0e7 48b1
00000070: f17b 32b4 f992 5035 0c43 37b5 fa64 ae35
00000080: 37bc a0b4 29d7 1f39 4830 1db5 24a7 52b5
00000090: 7743 a1b6 3bfd a936 81b0 7539 6a95 27b7
000000a0: c0c5 76b5 be4b f4b8 8499 1a38 e96d c3b7
000000b0: e6ab 8337 97bd b137 3c36 fe37 1b40 9e37
000000c0: 3968 3139 693a d336 b68d 9e36 25e6 d6b7
000000d0: b846 8f37 8669 a8b7 fd09 1a39 9bd2 8837
000000e0: f073 f0b7 a101 4338 566f abb6 dc7c 1537
000000f0: 6dd7 6fb6 87c8 cc36 960b db36 4ae0 a0b6
00000100: 7909 02b7 7054 2138 2f52 1ab7 9537 4337
00000110: 5be4 b035 f76f 4836 3e4c dd35 0aa6 8837
00000120: 2d30 65b5 9ddd ff35 a9c2 a837 c5f5 1db6
00000130: c69e 5fb3 79b0 e238 a762 2536 d1f9 f637
00000140: 8663 60b6 ddd3 8737 f5ee 9537 c929 5c35
00000150: 517c 5236 c1af d5b4 d7a5 0fb6 84cf 2a37
00000160: 4047 2ab6 7fd2 6c35 a8ae abb5 9619 41b6
00000170: 7cf3 8636 cca2 b534 2ac5 0837 9a94 5ab7
00000180: 442b 38b6 6166 92b6 7b5d ccb8 a887 bbb6
00000190: 1872 1bb7 d177 95b6 8215 6bb6 3a2e 8c37
000001a0: e944 aeb6 ace3 0738 0000 0000 efb8 67b6
000001b0: 586b 4bb6 9270 c4b6 08b8 27b7 fbd5 1902
000001c0: 3741 05b1 87b9 7e37 35e2 1a39 a182 2fb7
000001d0: 0000 0000 bf11 f838 f630 0f38 b68c 93b7
000001e0: fc8c 9338 7af6 3c39 87ec a8b8 8a7c 583c
000001f0: ca6f 0e3c 0ea2 3c3c 1ebc 7e3c 15f6 883c
00000200: b411 7a3c 5140 413c 51fc 303e 80ef 2938
00000210: 804e d339 b538 1e39 34c7 18b9 56f5 8237
00000220: c05a b937 42be c4b6 db46 9937 6548 0438
00000230: b9ba f5b7 c668 0038 a174 b337 ecdb bc37
00000240: 5ef6 1838 25a4 5db7 d2ed 9f37 c2ed 1137
00000250: cec3 cb36 50b6 a637 e931 2137 04d5 0e38
00000260: c74d 8137 3a77 b837 33c7 f136 008b e538
00000270: a137 b037 905f bc35 7cc7 6437 ef6c 9637
00000280: 381a 5737 2032 7d37 b7d7 2938 4649 e336
00000290: 3813 6539 f1f0 2d39 5bc8 3439 d40c 3939
000002a0: 0ee8 6c38 44fe c539 7945 6e39 5bbc 2639
000002b0: 21de 1039 deca 94b9 ae4e 87b9 c607 b7b6
000002c0: 2c45 c6b8 5dce 30b7 aa0e 0239 9a4c 3438
000002d0: 9617 70b6 2717 5239 9261 4d3a 8d8c ef38
000002e0: 6a94 f839 e16d a1b8 6172 e2b9 70d6 6fba
000002f0: edde 9639 0333 0b39 8659 e537 3839 1cb7
00000300: 8352 0439 376b f7b7 003d d5b8 c88f 5739
00000310: 3c3e 14b9 f8fb b8b8 70ca 5438 37d1 adb8
00000320: 84a5 d538 5d09 b037 bbaa 3c38 7879 83b6
00000330: 2b58 4137 76ae dcb8 0220 7e39 b0fa b8b8
00000340: c8b1 de38 9c6f 2139 0c86 9bb8 9636 b0b8
00000350: e721 6f38 4019 43b9 f7b8 0439 c2e8 efb8
00000360: 9528 aeb8 9fdf 1c39 ef8c 7938 00c0 8f38
00000370: 718c 27b8 8608 ab38 d9e7 bf38 8461 f237
00000380: 5db6 bdb8 ee70 9e38 ba24 9e38 be96 0838
00000390: 5b22 fc38 b526 a038 d605 c2b7 7dea 6735
000003a0: c68e 8538 f575 2cb9 4be9 12b9 eb01 1fb8
000003b0: 4c7a 4bb9 0000 0000 16bb 91b8 e59e a8b8
000003c0: 9740 c837 4678 b9b8 16e4 98b9 9bff ba39
000003d0: 079f e539 eea0 1eb9 022d f3b8 0000 0000
000003e0: cfb7 a93a 17d0 8aba 9c40 18b8 70f9 9e37
000003f0: ee69 7b39 d84b 6037 8335 713d 37e4 383d
-1.4109448e-06 -6.009229e-07 -5.017254e-07 7.581046e-05 -4.8204555e-07 -4.3727033e-07 -1.6192401e-09 -1.3320583e-07
-1.3965935e-07 -9.300026e-11 -3.9411336e-07 -1.1931773e-07 -3.3487794e-07 3.3397207e-09 -9.770731e-07 -9.698489e-07
2.2957213e-06 -2.9639747e-07 -4.714545e-08 -1.1931775e-07 4.40839e-06 -7.9025955e-07 -1.3107166e-07 -3.8007082e-07
4.3109515e-07 -1.0969625e-07 -1.8998826e-06 -2.9235636e-09 -1.6622631e-07 7.769991e-07 -6.827038e-07 1.2993398e-06
-2.9939267e-07 0.00015243575 -5.8557316e-07 -7.847432e-07 -4.806028e-06 5.0660724e-06 0.00023430774 -9.988764e-06
-9.1929905e-07 -0.00011648935 3.6859434e-05 -2.3296992e-05 1.5696463e-05 2.1188329e-05 3.0304414e-05 1.886492e-05
0.00016918861 6.29509e-06 4.7252643e-06 -2.5617957e-05 1.707986e-05 -2.0076299e-05 0.00014690305 1.6310534e-05
-2.8664217e-05 4.649314e-05 -5.1091583e-06 8.910163e-06 -3.573917e-06 6.103018e-06 6.5280574e-06 -4.7944823e-06
-7.750809e-06 3.846403e-05 -9.19825e-06 1.1635847e-05 1.3179482e-06 2.9867495e-06 1.6487973e-06 1.6289781e-05
-8.537925e-07 1.9063478e-06 2.0117806e-05 -2.353788e-06 -5.2065637e-08 0.000108093904 2.464434e-06 2.9441815e-05
-3.3436531e-06 1.619191e-05 1.7873457e-05 8.201719e-07 3.13648e-06 -3.980222e-07 -2.1405192e-06 1.0181106e-05
-2.5373447e-06 8.8223163e-07 -1.2791324e-06 -2.8774134e-06 4.0218565e-06 3.3832328e-07 8.1521375e-06 -1.3028412e-05
-2.744332e-06 -4.3630575e-06 -9.74489e-05 -5.5888268e-06 -9.2652845e-06 -4.4544945e-06 -3.5030248e-06 1.6710826e-05
-5.1936263e-06 3.2398544e-05 0.0 -3.4529328e-06 -3.031184e-06 -5.85436e-06 -9.996824e-06 1.1302074e-37
-1.9391118e-09 1.5182776e-05 0.00014770853 -1.0461227e-05 0.0 0.00011828867 3.4139455e-05 -1.758929e-05
7.0357666e-05 0.00018020897 -8.054921e-05 0.013213286 0.008693645 0.011513246 0.01554778 0.016718904
0.01526301 0.011795119 0.17283751 4.051579e-05 0.00040303543 0.00015089179 -0.00014570059 1.5611451e-05
2.2095977e-05 -5.863404e-06 1.8272016e-05 3.1538675e-05 -2.9293225e-05 3.0615156e-05 2.1392772e-05 2.2513756e-05
3.646907e-05 -1.3210844e-05 1.906502e-05 8.698031e-06 6.072666e-06 1.9873638e-05 9.607968e-06 3.4053824e-05
1.5414216e-05 2.1990028e-05 7.2055495e-06 0.00010945462 2.100674e-05 1.4034904e-06 1.3636305e-05 1.793212e-05
1.2821103e-05 1.5091646e-05 4.049364e-05 6.7736573e-06 0.00021846301 0.00016588323 0.00017240776 0.00017647754
5.6482902e-05 0.0003776421 0.0002272333 0.00015901162 0.0001381566 -0.00028379908 -0.00025807827 -5.45473e-06
-9.45426e-05 -1.0538465e-05 0.00012403229 4.2986685e-05 -3.5776516e-06 0.00020035786 0.00078346685 0.00011422588
0.00047412823 -7.697545e-05 -0.00043191298 -0.000914908 0.00028776322 0.00013275076 2.7340615e-05 -9.311647e-06
0.00012619239 -2.949462e-05 -0.000101679936 0.0002055756 -0.00014137564 -8.8207365e-05 5.0733273e-05 -8.288252e-05
0.00010187461 2.0985195e-05 4.4981698e-05 -3.918245e-06 1.1524225e-05 -0.00010522913 0.00024235251 -8.820498e-05
0.00010618899 0.00015395734 -7.415944e-05 -8.4025014e-05 5.7013614e-05 -0.00018606056 0.00012657406 -0.000114397626
-8.3045255e-05 0.00014960625 5.949748e-05 6.854534e-05 -3.99467e-05 8.155503e-05 9.150775e-05 2.8894057e-05
-9.04619e-05 7.555062e-05 7.540868e-05 3.2565316e-05 0.000120226956 7.636604e-05 -2.312932e-05 8.639543e-07
6.368528e-05 -0.0001644714 -0.00014010553 -3.791034e-05 -0.00019405148 0.0 -6.948986e-05 -8.040461e-05
2.3871935e-05 -8.84389e-05 -0.00029161636 0.00035667125 0.00043796768 -0.00015128005 -0.00011595526 0.0
0.0012948456 -0.001059058 -3.6299796e-05 1.8951221e-05 0.00023976687 1.3369099e-05 0.058888923 0.045139518

exp_avg_sq f4 [128, 131]
00000000: 355d a72e e0ba e131 2662 2c31 c6a2 c333
00000010: 2888 842f 4ed3 242e 89af 412e dca1 1a2f
00000020: 1df3 7d2f a56d 5d2e 5ee6 942f 50cb 4b2f
00000030: 94c1 2e30 8a42 1d30 b177 fd2f 516b c82e
00000040: 5476 5730 3640 0c2e fb02 622f 59c2 0d2f
00000050: 24b2 0a30 563d bc2f 8317 4a2e 2d36 912f
00000060: 5cde 802e c826 f52e 89f6 632f 9322 fa2f
00000070: 1aa8 5030 e4eb 8230 75ab 6430 d60f e92f
00000080: e0d0 ff2d 9200 b734 a6b6 f530 139c 7b31
00000090: 1fa4 1b31 1227 d730 c7de 6a35 22ec 7732
000000a0: f103 3632 35bb 9a32 22d1 9132 9cf9 7c32
000000b0: d2bb 9b32 1ab3 9e32 ab46 4e32 f084 2032
000000c0: 9103 b332 ad3d 6a32 d391 6032 89da 6b32
000000d0: 780a 8332 75d7 ba32 2fa1 c932 80fa d032
000000e0: 3152 8533 f123 3333 2ab4 cf30 9a3f 0a32
000000f0: 0a13 1f31 e069 6a31 4383 1f31 c4c8 7931
00000100: c6e8 ec30 c092 9131 a232 cd31 e212 b731
00000110: 2ec3 2131 e21f 4731 0d6d 2d31 b218 aa30
00000120: 6d33 f430 76ed 0531 c9c3 4731 ea61 a330
00000130: 5dc7 0731 03ce 2432 5aa2 b830 4aed 6531
00000140: e472 8c31 d3da bd31 d4f8 7231 0b75 0f31
00000150: 1344 3531 098a 7831 7c01 e130 81c9 0f31
00000160: 212d 0731 4e4d 9331 9b03 8e31 43e8 3a31
00000170: 05f9 5331 4d1f 3931 af0b b730 79b8 0c31
00000180: f382 1331 d95e b331 2a58 9a31 a1c1 fb30
00000190: 9e51 a731 9984 8c31 bc45 a131 99b8 ab30
000001a0: 5087 c531 ff32 3d31 0000 0000 5451 3a31
000001b0: 2538 b931 8db3 e330 7e32 6131 dc48 5c30
000001c0: c471 f332 d891 b533 9e1d ae33 2e27 a332
000001d0: 0000 0000 0ddf 0934 9970 2c34 a2b1 7233
000001e0: 0695 4333 df8a 5e33 a70f 6a33 dd69 f73a
000001f0: 3aba e73a 5334 eb3a 42c2 e43a 910a f23a
00000200: 1625 033b 9464 fe3a 8939 b93e e679 d331
00000210: b7ff 4c35 9cd2 8734 0e8e aa36 b6e1 6d32
00000220: d453 3931 3e3d 2032 7cf4 c531 69c7 1c33
00000230: f0c4 be32 3b88 8132 abff 2c33 7fbb ec33
00000240: 34db 2433 b91a 2434 9aae 0232 1167 bf32
00000250: ea60 d832 d605 c732 42eb c331 a7a5 dd32
00000260: 91b3 1f32 c991 4933 8bcf fe33 3e74 ac31
00000270: 8b25 9a31 f156 b332 26ae 8533 966c 4432
00000280: 2963 9d33 577f d833 bdd7 2433 b1f9 2231
00000290: 3d5f 7837 36bc 3534 fbcd aa34 122a 0335
000002a0: e262 d633 bdfe 1738 8692 f934 402d 4135
000002b0: a74d 7035 62d2 9335 a83f a135 d356 4735
000002c0: f657 9c35 1e0e 5635 94b0 5435 44fc 9d35
000002d0: 339c 7335 320a 6535 8b89 9935 d587 7d35
000002e0: 2b9b d135 4ef9 ae35 4503 df35 df1e 6236
000002f0: 4c5f 1436 b32c 0534 882c 0e34 13b4 2f34
00000300: 39f3 3a34 73d6 0f34 ee2f 6d34 c3a2 5f34
00000310: 3830 c534 e73f 7d34 a07c 9834 3324 5534
00000320: 020e ab33 8d6e ec33 387b ed33 cc8a 8b34
00000330: a1af 4734 fca7 9434 5591 a133 30e0 2a34
00000340: 97e1 b434 6633 8334 3e39 8b34 9f7f 2334
00000350: b40e 6934 061e b734 7ab2 1834 eaf6 6b34
00000360: 8618 8734 d13c b633 b072 5434 5f86 8b34
00000370: 031c 6834 94ca d433 8c91 9433 ad98 6a34
00000380: a1bd 8734 fb87 cb33 ac8b ef33 5999 3b34
00000390: 2a12 f933 df4a 2b34 cd00 9934 0c1c 3134
000003a0: 8e02 1734 b288 a734 7b29 0434 77b9 0035
000003b0: 2e90 be34 0000 0000 58b4 2d34 43f5 0635
000003c0: 2121 9434 fc83 5634 33a1 4b36 68ec 8036
000003d0: 2cae 6536 a214 cc35 7bd9 aa34 0000 0000
000003e0: 5f73 cb36 9688 0e37 ce24 2a36 9a31 4636
000003f0: ff07 4136 91d1 4336 1a6b e03d 707c d73d
7.610838e-11 6.569607e-09 2.5085085e-09 9.1100034e-08 2.4107405e-10 3.747696e-11 4.4039026e-11 1.4063722e-10
2.3096587e-10 5.0346966e-11 2.708473e-10 1.8534974e-10 6.357592e-10 5.7210825e-10 4.6105478e-10 9.11401e-11
7.83847e-10 3.1889345e-11 2.0555639e-10 1.2892921e-10 5.045726e-10 3.4240583e-10 4.5950365e-11 2.641384e-10
5.860265e-11 1.1148199e-10 2.0733117e-10 4.5499302e-10 7.5908846e-10 9.525789e-10 8.318957e-10 4.2393705e-10
2.9082903e-11 3.408682e-07 1.7878008e-09 3.6614025e-09 2.264876e-09 1.5654413e-09 8.7495977e-07 1.4430983e-08
1.05946905e-08 1.8013091e-08 1.6975324e-08 1.4725085e-08 1.8129786e-08 1.8475067e-08 1.2006846e-08 9.343452e-09
2.0839964e-08 1.3634616e-08 1.3071673e-08 1.37284895e-08 1.5255168e-08 2.1751228e-08 2.3472777e-08 2.4328301e-08
6.208246e-08 4.1709374e-08 1.5112438e-09 8.0471185e-09 2.3148368e-09 3.4111665e-09 2.3212159e-09 3.634839e-09
1.7237418e-09 4.236739e-09 5.9720415e-09 5.3281477e-09 2.353953e-09 2.8976435e-09 2.5236802e-09 1.2376147e-09
1.7767953e-09 1.9489028e-09 2.9069602e-09 1.188764e-09 1.975841e-09 9.592898e-09 1.3433905e-09 3.345877e-09
4.087598e-09 5.5255014e-09 3.5357077e-09 2.087577e-09 2.6377662e-09 3.6167214e-09 1.6371327e-09 2.092378e-09
1.9670738e-09 4.2870516e-09 4.133154e-09 2.7198588e-09 3.0846092e-09 2.6938836e-09 1.3318323e-09 2.0477542e-09
2.1465751e-09 5.2203686e-09 4.492013e-09 1.8317686e-09 4.8696185e-09 4.089611e-09 4.6936446e-09 1.2494353e-09
5.748838e-09 2.7532108e-09 0.0 2.7112792e-09 5.3905915e-09 1.6567455e-09 3.277051e-09 8.0139073e-10
2.8340658e-08 8.454998e-08 8.107894e-08 1.8993514e-08 0.0 1.2840265e-07 1.6059711e-07 5.6506572e-08
4.553751e-08 5.1814705e-08 5.4496606e-08 0.0018876154 0.0017679401 0.0017944671 0.0017452913 0.0018466284
0.0020011119 0.0019408637 0.36176708 6.1547665e-09 7.6368036e-07 2.5298948e-07 5.082932e-06 1.3846536e-08
2.6968694e-09 9.327151e-09 5.7612493e-09 3.6502943e-08 2.2208468e-08 1.5079527e-08 4.02794e-08 1.1023712e-07
3.838359e-08 1.5283412e-07 7.606696e-09 2.2282196e-08 2.5189781e-08 2.3169303e-08 5.7019927e-09 2.5803116e-08
9.295847e-09 4.693155e-08 1.18655485e-07 5.019074e-09 4.486258e-09 2.0877879e-08 6.2249725e-08 1.1433391e-08
7.328919e-08 1.0081447e-07 3.838044e-08 2.3716036e-09 1.4804126e-05 1.692541e-07 3.1814838e-07 4.8862523e-07
9.983138e-08 3.623845e-05 4.6486474e-07 7.196395e-07 8.9519966e-07 1.1013583e-06 1.2013961e-06 7.425962e-07
1.1648506e-06 7.9741756e-07 7.923311e-07 1.177083e-06 9.0751854e-07 8.5323984e-07 1.1439419e-06 9.4447506e-07
1.5616873e-06 1.3036567e-06 1.6615746e-06 3.3694594e-06 2.2109189e-06 1.2402852e-07 1.3240981e-07 1.6363656e-07
1.7411084e-07 1.3395929e-07 2.2089782e-07 2.0827706e-07 3.6729193e-07 2.3585709e-07 2.8402883e-07 1.985034e-07
7.965356e-08 1.10097155e-07 1.1058586e-07 2.5991756e-07 1.8597213e-07 2.7689373e-07 7.5235825e-08 1.5914043e-07
3.369175e-07 2.443805e-07 2.5932417e-07 1.5226986e-07 2.1705165e-07 3.410825e-07 1.4221033e-07 2.1975907e-07
2.5163553e-07 8.486098e-08 1.9785762e-07 2.5988535e-07 2.1616874e-07 9.908868e-08 6.918262e-08 2.1848491e-07
2.5283683e-07 9.477659e-08 1.1154711e-07 1.747152e-07 1.159827e-07 1.5952854e-07 2.8499053e-07 1.6494613e-07
1.40639e-07 3.1205633e-07 1.2308548e-07 4.79536e-07 3.5495162e-07 0.0 1.6177489e-07 5.027579e-07
2.7591253e-07 1.9978319e-07 3.0343188e-06 3.8422186e-06 3.422504e-06 1.5205189e-06 3.1823205e-07 0.0
6.0633024e-06 8.495661e-06 2.5353397e-06 2.953317e-06 2.8763895e-06 2.9179248e-06 0.10957928 0.105217814

exp_avg f4 [128]
00000000: 1cd5 1f39 b43d 7739 f7b7 81b9 e018 44b9
00000010: 1e2a 93b9 bde7 1cba fabe d138 2808 b628
00000020: 4673 9cb9 3475 59b9 aeb6 18bb 4861 7b39
00000030: 3e6c 3b39 e7ef 1c02 995a 1f02 1e74 1502
00000040: 0ac6 70ba 9c75 83b9 0a44 9cb9 4cb3 baba
00000050: f1af f5b9 e5eb a1ba f1ef 61ba 0000 0000
00000060: 0000 0000 8dc5 bab9 5fdb 59ba 0000 0000
00000070: d1e2 dbb9 da03 503a ce91 91b9 3014 64b8
00000080: 1e3b 17ba 0000 0000 c678 b5b9 0000 0000
00000090: d49c aeb9 8c53 263a 20d8 47b8 662d 1802
000000a0: e663 c638 6414 2538 497b 94ba e86e bf39
000000b0: 0000 0000 0000 0000 a6e5 90ba a9b7 4aba
000000c0: 0000 0000 0000 0000 89b5 4bba acda 1fba
000000d0: b64d df39 8250 f539 d6e2 1002 362b e738
000000e0: 2e3b 77b9 0000 0000 0000 0000 e48e 0aba
000000f0: 54f3 c5b8 a615 9fb9 3903 69b9 eead 9e39
00000100: bc73 40b8 b5bf 3436 516e 32ba 0000 0000
00000110: 0a76 2b39 0fc8 03ba 6c9a 0bba 0000 0000
00000120: 3752 a138 6a67 c3b9 0a07 90b9 a7d4 a5ba
00000130: 701b f7b7 0000 0000 7099 bfb8 0000 0000
00000140: bf2c 48bb 36b1 1d02 d085 9338 50cd a5b9
00000150: f20c 21ba b925 663a c003 4eb9 f7b5 76b8
00000160: 3199 5037 88f1 3eb9 0000 0000 0000 0000
00000170: 7035 9cba 4a1d cab6 8a35 ac39 0000 0000
00000180: 302a 65ba f997 68ba c746 8ab7 0000 0000
00000190: 1754 5dbb 7e3e 1b02 d795 82b9 3567 bb38
000001a0: efbf a6b9 b044 6bb9 5f0d 2ab9 4964 7538
000001b0: 131f 49ba 60b6 903a 5e86 e1ba f094 1402
000001c0: 6b68 80ba 14d8 c3ba f05e 85ba 0000 0000
000001d0: 5cdb 1e02 cba0 1b02 9a37 1002 6225 d1b9
000001e0: 10c0 31ba ed33 68b8 0000 0000 7a41 9b38
000001f0: bcae 30b6 3cb0 1a02 545a cdb8 b281 0739
0.00015242811 0.00023578742 -0.00024741862 -0.00018701283 -0.00028069405 -0.00059854594 0.00010001469 2.0209596e-14
-0.00029840524 -0.00020738394 -0.0023302245 0.00023973465 0.00017874033 1.1529919e-37 1.1707475e-37 1.0980115e-37
-0.00091847836 -0.00025073893 -0.00029805332 -0.0014244108 -0.00046861128 -0.0012353627 -0.0008618823 0.0
0.0 -0.0003562387 -0.0008310582 0.0 -0.00041939926 0.0007935144 -0.00027765188 -5.4378237e-05
-0.0005769002 0.0 -0.00034612993 0.0 -0.00033304712 0.0006344847 -4.764658e-05 1.1180225e-37
9.459983e-05 3.9358056e-05 -0.0011328246 0.0003651299 0.0 0.0 -0.0011054769 -0.0007733056
0.0 0.0 -0.00077708863 -0.00060979533 0.00042591774 0.00046790024 1.0644548e-37 0.00011022987
-0.00023577802 0.0 0.0 -0.00052855746 -9.4390154e-05 -0.00030342973 -0.00022221812 0.00030265696
-4.5884153e-05 2.6933678e-06 -0.00068065996 0.0 0.00016351804 -0.00050270645 -0.000532544 0.0
7.692392e-05 -0.00037270348 -0.00027471065 -0.0012651876 -2.9457471e-05 0.0 -9.13617e-05 0.0
-0.003054425 1.1585395e-37 7.034431e-05 -0.00031624222 -0.00061435916 0.0008779425 -0.00019647088 -5.882044e-05
1.2433434e-05 -0.0001820979 0.0 0.0 -0.0011917781 -6.023479e-06 0.00032846286 0.0
-0.0008741943 -0.00088727433 -1.648384e-05 0.0 -0.0033772045 1.1405536e-37 -0.00024907172 8.936079e-05
-0.0003180499 -0.00022436935 -0.00016217444 5.850595e-05 -0.0007672172 0.001104068 -0.0017206182 1.0916066e-37
-0.0009796744 -0.0014941716 -0.0010175388 0.0 1.167096e-37 1.1433747e-37 1.0595406e-37 -0.0003989144
-0.00067806337 -5.536147e-05 0.0 7.403172e-05 -2.6327752e-06 1.136471e-37 -9.791987e-05 0.00012922919

exp_avg_sq f4 [128]
00000000: c506 b734 bbbf 7837 09f9 5336 ca3d 8d36
00000010: fbe5 3337 3f95 f735 eb38 c034 6b91 b434
00000020: 73a0 c636 2521 9d36 718d 0c38 fcde 9136
00000030: 6931 e435 8921 7b2e 18e6 9c30 307b d631
00000040: d535 9137 868c a336 80e3 5b36 2aa0 2038
00000050: 9173 1636 b197 d037 2b24 ae36 0000 0000
00000060: 0000 0000 5121 1937 f0ff e937 0000 0000
00000070: e805 ae36 1785 da37 357c 0c37 f6c0 6935
00000080: 594e 1c36 0000 0000 958f 9136 0000 0000
00000090: 68ad 1f38 91cd b637 e2bc 4037 242f 492f
000000a0: 2688 3936 b99a c636 fee9 3137 4d80 8b37
000000b0: 0000 0000 0000 0000 6e8a 6137 f603 5c37
000000c0: 0000 0000 0000 0000 b6f7 9c36 c4df b936
000000d0: 60fa c437 b306 4337 bbd8 4f30 87d3 ab34
000000e0: d7bb a837 0000 0000 0000 0000 914f 1d36
000000f0: 1997 e337 7be3 de35 9249 c735 6c42 bf37
00000100: 7bf3 af36 f1fa 8735 283c 3a38 0000 0000
00000110: b3c5 3835 f4e9 9b35 109b 1a37 0000 0000
00000120: df00 e334 3dba b435 ffac e835 7f8b f236
00000130: b88f da35 0000 0000 824a b437 0000 0000
00000140: 8c24 9038 12ba e02e 3394 1637 b071 a236
00000150: 506f 8e36 7183 ea36 d33f cc35 2ca1 8b35
00000160: a119 7836 acdd 8e36 0000 0000 0000 0000
00000170: 8b6a 1e37 7d62 8433 164e 3c35 0000 0000
00000180: 61e8 1a37 dfd0 c237 8852 c335 0000 0000
00000190: ee92 6238 567b cd30 9659 2336 da60 9635
000001a0: 32f2 0b36 92ac 7837 06f6 9c35 636f 0535
000001b0: 7534 9d37 62fa db37 06fb 3b38 769e 7734
000001c0: 748f 6937 1440 b536 75a1 9437 0000 0000
000001d0: 7f7e 1f30 05fc 702f 7fbc 1e2e 56bf a036
000001e0: be70 9e36 9ddd 5536 0000 0000 fe52 8f36
000001f0: 6f21 d033 e211 0830 334a 8d36 857a d137
3.4091332e-07 1.4826593e-05 3.1586408e-06 4.2093207e-06 1.0722778e-05 1.844637e-06 3.58042e-07 3.3633418e-07
5.9195386e-06 4.682823e-06 3.351033e-05 4.3472955e-06 1.7001704e-06 5.7100578e-11 1.141589e-09 6.2422245e-09
1.7310414e-05 4.8741376e-06 3.2765965e-06 3.8296137e-05 2.241901e-06 2.4866169e-05 5.1898146e-06 0.0
0.0 9.127268e-06 2.7894945e-05 0.0 5.1862917e-06 2.60496e-05 8.3735695e-06 8.708006e-07
2.3291416e-06 0.0 4.338052e-06 0.0 3.807005e-05 2.1791815e-05 1.14880695e-05 1.8297591e-10
2.7646397e-06 5.918872e-06 1.0604503e-05 1.6629836e-05 0.0 0.0 1.3443276e-05 1.3113944e-05
0.0 0.0 4.6779996e-06 5.5394794e-06 2.348161e-05 1.16244655e-05 7.5614154e-10 3.2005138e-07
2.011463e-05 0.0 0.0 2.3441137e-06 2.7130869e-05 1.6606494e-06 1.4848067e-06 2.2799904e-05
5.2437513e-06 1.0131317e-06 4.440188e-05 0.0 6.883303e-07 1.1616489e-06 9.215219e-06 0.0
4.228268e-07 1.3465248e-06 1.7335695e-06 7.2284015e-06 1.6284093e-06 0.0 2.1492368e-05 0.0
6.8732625e-05 1.02193934e-10 8.975202e-06 4.841211e-06 4.2448883e-06 6.9890452e-06 1.521776e-06 1.0403214e-06
3.6969798e-06 4.257736e-06 0.0 0.0 9.44234e-06 6.164644e-08 7.014909e-07 0.0
9.23322e-06 2.3223865e-05 1.4552652e-06 0.0 5.4019438e-05 1.4950767e-09 2.4341039e-06 1.1204058e-06
2.085359e-06 1.4822132e-05 1.1694508e-06 4.970845e-07 1.8740286e-05 2.6223428e-05 4.4818058e-05 2.3061315e-07
1.39212825e-05 5.40168e-06 1.771816e-05 0.0 5.8023625e-10 2.1917408e-10 3.609246e-11 4.790646e-06
4.721892e-06 3.186847e-06 0.0 4.2713937e-06 9.691836e-08 4.9501925e-10 4.2107654e-06 2.4971794e-05

exp_avg f4 [64, 128]
00000000: e93c 34bd 32f7 b4bb 2b06 a7bc f400 ecbc
00000010: 3439 e9bb 661c 46bb 5435 a4ba 53d5 0228
00000020: 2012 943c 007e c2ba 65bc 06bc ec51 9bbc
00000030: 90bb 633d 58a0 1382 83eb 1382 5298 1c82
00000040: 1a75 9ebc d139 e3bc a254 f53c 6ada 2e3b
00000050: 816a 1ebd 2cfa 263b 50de 51bb 0000 0000
00000060: 0000 0000 b6a6 d33b 6c97 25bb 0000 0000
00000070: 69b5 e5bc 9afd bb3b 0868 b03c c0ee fbb8
00000080: f2a0 1abd 0000 0000 f1fd 7dbd 0000 0000
00000090: 602a d83a 2c8a c4ba c2bf b4bb 0000 0000
000000a0: 92b1 83bd 6c6c 003c c5d3 b7bb a038 40ba
000000b0: 0000 0000 0000 0000 b7b4 afbc f819 10bb
000000c0: 0000 0000 0000 0000 60d4 b3b9 1822 22bc
000000d0: c818 9a3b 5222 ba3b b733 1f82 c020 07bc
000000e0: 1f32 e6bb 0000 0000 0000 0000 fe84 49bd
000000f0: 2488 5e3b 10c7 0cbd b811 79bc 410a 7e3c
00000100: 58f9 a13c 4958 6aba 0418 00bc 0000 0000
00000110: e2c9 bcbc 2916 6ebc 84a9 e2bc 0000 0000
00000120: fc99 4dbc 0024 2b39 cc8d e7bc 6e14 36bc
00000130: ecae a939 0000 0000 aa64 d53b 0000 0000
00000140: f1e5 2cbc 7624 1c82 80e4 21b9 da37 933b
00000150: a99d 9dbc 4824 103d 1019 10bc 36ce 45bd
00000160: 3618 52bd 8af0 48bc 0000 0000 0000 0000
00000170: fc84 7e3b d3a5 1839 c4bc c1bc 0000 0000
00000180: 7be2 b5bb bc71 da3b 0234 cebc 0000 0000
00000190: 00fe a6bb d0c3 1182 304e f23b 2ab1 14bd
000001a0: 6cec 4cbd e435 35bc 8cd1 b1bc 88df 07bc
000001b0: b825 633b 90d7 d93a bbed aabb 73e9 1c82
000001c0: 763d ba3b b564 a0bc 8c55 5cbb 0000 0000
000001d0: 302c 1902 affc 1082 df22 1782 bf88 debc
000001e0: 009b 34bc d84b a23c 0000 0000 de23 46bd
000001f0: 2d68 b036 a24c 1c82 f624 15bb 0e8f b1bb
00000200: 482e 6e39 3a51 0b34 ed63 3caf 15db 0cb8
00000210: 2269 0239 4a06 580f 2693 9109 4413 1482
00000220: a550 9439 b80d da34 18eb c41c 737b 1a39
00000230: 647e 51b8 7030 1f02 9b9c 1e02 cf72 1f02
00000240: bbea 8c34 86d6 fd39 3767 52b8 1654 fbb5
00000250: b33d 0997 4172 0d38 a2dc 9235 0000 0000
00000260: 0000 0000 c79e 0439 c8c4 aa37 0000 0000
00000270: 158d 7339 2b73 04b5 a4a0 e8ae 6c63 7d39
00000280: 344d 36b8 0000 0000 612f 4b3a 0000 0000
00000290: 88a2 c134 e83a 9db4 1e4d bc1d 0000 0000
000002a0: 9cd1 133a 6c54 9d0f a183 2ab7 e37e d4aa
000002b0: 0000 0000 0000 0000 0fe9 dd38 65fb 9638
000002c0: 0000 0000 0000 0000 fce5 5139 185d 4bb7
000002d0: 2c64 81aa f4b0 de38 9da1 1802 af51 6b38
000002e0: a907 891d 0000 0000 0000 0000 bee7 db39
000002f0: 7c51 3f38 b523 003a 98a7 203a 5508 80a8
00000300: 2906 fd38 a3a6 0e05 9304 0534 0000 0000
00000310: 53b9 2439 3d1b b739 491b 0a3a 0000 0000
00000320: b21f ce36 3ec9 8b39 7959 b739 8e31 1438
00000330: 51ef 9cad 0000 0000 b721 e934 0000 0000
00000340: 7dc0 6a34 52d0 1f02 c320 1835 8456 0cb8
00000350: 789e 8e39 eec6 6e39 4bc5 123a 2c37 8b39
00000360: 7f95 153a 47d1 6b36 0000 0000 0000 0000
00000370: 4113 d038 6fc3 37ac a887 9238 0000 0000
00000380: 321a 7839 f48e 3c37 ad81 7c39 0000 0000
00000390: 5e90 f734 0416 1802 df3d 9439 347e 013a
000003a0: f773 a436 a2e1 1734 f0b8 5bb7 8b5e 49b7
000003b0: 15d6 32ab ab66 9838 dd3b 5238 e8a3 1a02
000003c0: b642 2039 00dc 6a39 1b67 c337 0000 0000
000003d0: 4ee6 1602 f192 1602 0000 0000 8b45 1db8
000003e0: 7f51 b838 6896 34b8 0000 0000 7151 063a
000003f0: 25d2 1e02 3c21 1a02 1bef fd1d 25fa c537
-0.0440034 -0.005522632 -0.020388683 -0.028809048 -0.007117415 -0.003022933 -0.00125281 7.262707e-15
0.018075049 -0.0014838576 -0.008223628 -0.018959962 0.055598795 -1.0845871e-37 -1.0867443e-37 -1.1504784e-37
-0.019342948 -0.02773753 0.029947583 0.0026680478 -0.03867579 0.0025478704 -0.0032023378 0.0
0.0 0.0064590825 -0.0025267256 0.0 -0.028040605 0.005737019 0.021533981 -0.00012013083
-0.037751146 0.0 -0.062009756 0.0 0.0016492121 -0.0014994792 -0.0055160234 0.0
-0.06430353 0.00783835 -0.0056099617 -0.00073326565 0.0 0.0 -0.021448476 -0.0021988135
0.0 0.0 -0.00034299772 -0.009895824 0.004702661 0.005680361 -1.1696317e-37 -0.008247554
-0.007025018 0.0 0.0 -0.049199097 0.0033955658 -0.03436953 -0.015201978 0.015505374
0.019772217 -0.0008939547 -0.007818226 0.0 -0.023045484 -0.014531651 -0.027668722 0.0
-0.01254892 0.00016321242 -0.028265856 -0.011113269 0.0003236452 0.0 0.006512244 0.0
-0.010552869 -1.1471534e-37 -0.0001543928 0.004492742 -0.019240217 0.03519085 -0.008795038 -0.04829236
-0.05129262 -0.01226438 0.0 0.0 0.003883659 0.00014557624 -0.02364958 0.0
-0.00555068 0.00666639 -0.025171284 0.0 -0.005096197 -1.0709113e-37 0.0073945746 -0.03630177
-0.050030157 -0.011060212 -0.021706365 -0.00829304 0.0034659933 0.0016620029 -0.005216328 -1.1528067e-37
0.0056835962 -0.01957927 -0.0033620326 0.0 1.1253346e-37 -1.0651966e-37 -1.1103735e-37 -0.027164815
-0.011023283 0.019811556 0.0 -0.04837405 5.2573364e-06 -1.1483062e-37 -0.0022757626 -0.005418665
0.0002271469 1.2974934e-07 -1.7134001e-10 -3.3582637e-05 0.00012436931 1.06508334e-29 3.5045858e-33 -1.0878852e-37
0.00028288845 4.0615646e-07 1.3030962e-21 0.00014732573 -4.9947193e-05 1.1695376e-37 1.165295e-37 1.1714424e-37
2.624782e-07 0.00048415753 -5.0164028e-05 -1.872543e-06 -4.4344963e-25 3.3723427e-05 1.094206e-06 0.0
0.0 0.0001264765 2.0357213e-05 0.0 0.00023226843 -4.9341423e-07 -1.0578674e-10 0.00024164998
-4.3464082e-05 0.0 0.00077508955 0.0 3.6067308e-07 -2.928639e-07 4.9842923e-21 0.0
0.0005638839 1.5513913e-29 -1.0163437e-05 -3.774681e-13 0.0 0.0 0.00010581512 7.199383e-05
0.0 0.0 0.00020017469 -1.2121418e-05 -2.2984511e-13 0.00010618745 1.1213577e-37 5.610444e-05
3.627152e-21 0.0 0.0 0.00041943596 4.5613837e-05 0.0004888133 0.0006128489 -1.4214468e-14
0.000120651275 6.707414e-36 1.2388254e-07 0.0 0.00015709297 0.00034924774 0.0005268348 0.0
6.1429682e-06 0.00026662083 0.00034971142 3.53321e-05 -1.7841425e-11 0.0 4.3424163e-07 0.0
2.1862975e-07 1.174126e-37 5.6672087e-07 -3.3459175e-05 0.0002720242 0.00022771556 0.0005598857 0.00026553252
0.00057061756 3.5139544e-06 0.0 0.0 9.921799e-05 -2.6114352e-12 6.9870905e-05 0.0
0.00023660882 1.1238957e-05 0.00024080901 0.0 4.6112376e-07 1.1173515e-37 0.00028274857 0.0004939765
4.901081e-06 1.4145056e-07 -1.3096476e-05 -1.2002546e-05 -6.35354e-13 7.267048e-05 5.0123654e-05 1.1361172e-37
0.00015283641 0.00022397935 2.3293824e-05 0.0 1.1086354e-37 1.106243e-37 0.0 -3.7496484e-05
8.7889835e-05 -4.305542e-05 0.0 0.000512383 1.1668315e-37 1.1323671e-37 6.721577e-21 2.3600713e-05
