lightning_model_releases/lightning_quantile_test/model_params/0.9_81054_1334_lightning_quantile.ckpt (torch, 311310 bytes, 15 tensors)

model.0.weight f4 [128, 131]
000000 12 8a 07 3e 3e d3 dd bb c3 82 2e be 4e 53 8c bd
       0.13236263 -0.006769567 -0.17042069 -0.068518266
000010 36 41 2e be 71 03 2e 3e bf 6a 79 3d bd 93 10 3e
       -0.17017063 0.169935 0.060892817 0.14118858
000020 ee a6 3e 3c e0 43 3c 3d ec ae 36 3e 27 03 a0 bb
       0.011636479 0.04596317 0.17840165 -0.0048831883
000030 8f e4 90 bd 26 54 e8 bd fa 17 eb 3d 46 a3 9e 3d
       -0.07074844 -0.11344175 0.114791825 0.07745986
000040 77 0c 09 3e 47 da 85 3d 9b ff 84 bd df 19 b3 3b
       0.13383661 0.06535774 -0.064940654 0.0054657306
000050 68 e3 58 bd 78 cb 17 bd 1a 49 1b 3e 9f 6a e4 3c
       -0.052951247 -0.037059277 0.15164605 0.027882872
000060 89 d7 cd 3d 47 ea d2 3d d7 6f 03 be 09 be 27 bc
       0.10050876 0.10298591 -0.12835632 -0.010238179
000070 b6 5b a9 3d ab 5b fa bc 8d 61 fc bd 59 4a 89 bd
       0.082694456 -0.030561289 -0.12323294 -0.06703634
000080 1c a0 4c 3e 74 61 0b bd 3a 0c 4b bd 9a a2 0b be
       0.19982952 -0.034028485 -0.049572207 -0.13636246
000090 05 a6 7b bc e4 39 7b 3d ad cd 21 bd 46 39 a7 3d
       -0.015359406 0.061334506 -0.03950279 0.08165221
0000a0 91 a2 ea 3d 08 09 10 be 13 da 9d bd 8f f5 96 3d
       0.11456788 -0.14065945 -0.0770761 0.07371055
0000b0 0c 24 f3 bc 98 b4 0c 3c 0e 68 8c 3d 26 69 0f bd
       -0.029680274 0.008587979 0.06855784 -0.035012387
0000c0 a8 12 3f 3d fe 13 4c be 97 ef 1e be 46 6a 8d 3e
       0.04664865 -0.19929501 -0.15521084 0.27620143
0000d0 a5 af 5a 3e da d2 dc 3d b4 33 a8 3a 91 08 67 3d
       0.21356066 0.10782404 0.0012832792 0.056404654
0000e0 1a 4d 93 be 0a 06 5e be 85 7d c6 3d 97 c2 88 3b
       -0.2876976 -0.21681991 0.0969191 0.0041735875
0000f0 da 61 4c bd 62 90 a1 bc ee 98 14 be fa 78 85 bd
       -0.049898006 -0.019722167 -0.14511463 -0.06517215
000100 26 5e 86 3d 26 94 23 bd 86 6d 38 3e 9b 07 53 3c
       0.06560926 -0.039936207 0.1801053 0.012880231
000110 de 02 c8 bd d6 40 32 bd af 68 55 3e cf f2 86 3d
       -0.09766172 -0.043518864 0.20840715 0.06589281
000120 ad 9c 18 3e 4f 1d 2d be a5 54 f4 bd 4e 74 03 3a
       0.14903517 -0.16905712 -0.11930207 0.0005014584
000130 8a 35 82 bd 79 93 73 bd 8d 10 b4 3c a0 66 d1 3d
       -0.06357868 -0.059466813 0.021980548 0.10224652
000140 c1 5f 96 bd 33 ee 30 3c 1c d1 3d be 08 7e fa bd
       -0.07342482 0.010798979 -0.185368 -0.1223107
000150 c4 0c 04 3e d8 be 26 bd 6c c0 f9 3d d9 5f 2b be
       0.12895495 -0.040709347 0.12194905 -0.16735782
000160 ed ec 81 3c e5 b5 30 3e 31 ce 03 be 49 3c 36 3e
       0.015860045 0.17256887 -0.12871625 0.17796434
000170 e6 6e f5 3d bb 6f 17 3d a2 92 a6 3c 94 f9 3d 3c
       0.11984043 0.03697179 0.020333592 0.011595149
000180 06 26 b7 3d 4b 5b 9e bd a5 9a 94 bd b2 9d 8a 3c
       0.08942799 -0.077322565 -0.072560586 0.016920898
000190 ed 1f 6c be 1c b6 da 3c cf d0 38 3d f5 05 fa bd
       -0.23059054 0.026698165 0.04512101 -0.122081675
0001a0 a0 16 67 3c d1 c8 78 be b9 ce 97 bd 7a 92 09 be
       0.014104515 -0.24295355 -0.07412476 -0.13434783
0001b0 18 11 d7 bd 9a a3 45 3d ff 7f 4e 3e 60 2f 87 3c
       -0.10501307 0.048251726 0.20166014 0.016502082
0001c0 72 0e c8 3a b9 da 36 be aa db 07 be b1 5b e1 3d
       0.0015263094 -0.17856874 -0.13267389 0.11003817
0001d0 70 d7 5f 3c 27 c4 d6 3d 18 af 9c be 25 38 1c bd
       0.013662204 0.10486632 -0.30602336 -0.03813948
0001e0 ce 08 53 3c be 4a 17 be aa 22 a8 bd 7e 83 e8 bd
       0.012880517 -0.14774606 -0.08209737 -0.11353205
0001f0 a5 12 da bd e7 6f b3 bd 16 61 73 bd b7 24 d8 bd
       -0.106480874 -0.08761578 -0.05941876 -0.10553878
000200 44 b7 0f 3d 47 69 79 bd 49 18 14 3d f6 39 a0 be
       0.035086885 -0.060891416 0.036155973 -0.3129422
000210 e4 cd 69 bd 2d 6f cf 3e eb 01 a6 3e 99 6d b8 bd
       -0.05708112 0.40514508 0.32423338 -0.09005279
000220 a3 4f f0 be 3c 4e 1e be a2 a1 2a be c4 9a 9e bd
       -0.46935758 -0.15459532 -0.1666322 -0.07744363
000230 ae 6c 1c be 2f 88 d0 be b8 11 51 be d2 fa 5c 3e
       -0.15275833 -0.407289 -0.20416915 0.21580055
000240 82 db 9f 3d 25 95 db 3c dc 94 a6 be 30 be 9f 3d
       0.0780554 0.026804516 -0.32535446 0.07799947
000250 7c a2 47 3d 52 ec 5c 3e 15 3d e2 bd c5 60 d5 be
       0.04873894 0.21574524 -0.11046807 -0.41675392
000260 3e 05 74 bc 56 52 93 bc 05 a0 d7 3d ba d6 b7 be
       -0.014893828 -0.017983597 0.10528568 -0.3590601
000270 45 b3 cc be 58 ad 23 3e 3a 3c 1f bd 0a 02 23 be
       -0.39980522 0.15984094 -0.038875796 -0.15918747
000280 91 41 d5 3d 4c 92 d5 3e fb d8 92 be d5 32 66 be
       0.104128964 0.41713178 -0.28681168 -0.22480328
000290 8b 96 cb 3d d8 94 97 3d ff ee a0 3e e7 e8 ae 3c
       0.09940823 0.074014366 0.3143234 0.02135129
0002a0 c3 d3 69 bd 2f f4 09 3c ca 38 b3 be 3d 89 00 be
       -0.057086717 0.008420034 -0.35004264 -0.12552352
0002b0 30 29 2a 3e 9e 5d 1e 3e 9c a3 a4 3d 83 42 f7 bb
       0.16617274 0.154654 0.080390185 -0.0075457706
0002c0 25 44 5c be ee c5 10 3d ed 91 d0 bc 3d f3 f8 bc
       -0.2151037 0.03534501 -0.025460208 -0.030389423
0002d0 a5 33 db 3d ee 34 84 bd 31 6b 3d bf c3 44 d8 be
       0.1070321 -0.06455408 -0.73991686 -0.4223996
0002e0 35 c0 b0 be d6 85 8d be 92 89 2b be e3 18 33 3f
       -0.34521642 -0.2764117 -0.16751698 0.6995985
0002f0 83 b6 74 3e 14 29 64 be 10 3c 07 be 03 8f 33 3e
       0.23897748 -0.22281295 -0.13206506 0.17535023
000300 83 e1 2e be f9 9a 4d 3e 80 f3 24 bc df dc d7 bc
       -0.17078213 0.20078649 -0.010067821 -0.026350437
000310 60 6c b4 bd 27 60 ad be 34 42 d2 3c 77 0c 9f 3d
       -0.088097334 -0.3386242 0.025666334 0.07766049
000320 47 9d 42 be a5 be c3 bd 78 0c 40 bd 20 ca ed 3d
       -0.19005309 -0.09557847 -0.04688689 0.11610818
000330 b2 3b 24 be 70 ae 2a 3d 66 6a 0d bf f4 b1 dd bd
       -0.16038397 0.041670263 -0.55240476 -0.108249575
000340 a1 01 b9 3d 33 9e 2a be b8 14 9d 3d 6e b7 6d bd
       0.09033514 -0.1666191 0.076699674 -0.05803626
000350 d8 b3 88 bd 1f 2c fe 3d c8 82 21 3e b6 92 eb 3d
       -0.066749275 0.12410759 0.15772545 0.11502592
000360 e0 fc 46 be 4d 28 8a be c7 10 13 3e 10 d2 47 be
       -0.19432402 -0.26983872 0.14361869 -0.19513726
000370 6a 9e 83 be 62 0d 25 bd f0 21 f2 be 75 3a 94 bd
       -0.25706798 -0.040295966 -0.47291517 -0.07237712
000380 c7 d9 c2 bd 6a 84 d1 bc ba 8c eb bd 01 21 10 be
       -0.09514194 -0.025575835 -0.11501451 -0.1407509
000390 84 4b 24 be 00 0b 2a be c6 d1 64 3e 01 ae a6 3d
       -0.16044432 -0.16605759 0.22345647 0.08138657
0003a0 6a c5 9c 3d db 79 44 3e 07 82 34 3e 98 f9 67 3e
       0.07654841 0.19187109 0.17627726 0.22653806
0003b0 83 75 20 be b2 14 88 bd 07 eb c7 3d 70 ad ae 3d
       -0.15669827 -0.06644572 0.09761625 0.08529174
0003c0 72 de 26 be de 53 27 be f0 ec c5 3d 27 2b 1b be
       -0.16295794 -0.16340587 0.09664333 -0.1515318
0003d0 15 87 9a 3d 85 f2 ee bd 5e 88 53 be 0c 6b ed 3c
       0.07545296 -0.11667351 -0.20657489 0.028981708
0003e0 6b 4d 36 bf de f3 16 3f a9 ed e4 bc 34 80 27 be
       -0.7121188 0.5896586 -0.027945356 -0.163575
0003f0 df 5f d1 3c e2 5d d1 3d 6c 6d 77 3d 5e b5 e9 bd
       0.02555841 0.10222985 0.060407087 -0.11411546

model.0.bias f4 [128]
000000 fb 4f 07 be 33 54 10 3e 6a 70 e6 3d b9 9b c2 3d
       -0.13214104 0.1409462 0.1125191 0.09502358
000010 c1 c5 ff 3d 66 04 18 3e bb a5 38 bc 26 65 49 3a
       0.124888904 0.14845428 -0.011269982 0.0007682614
000020 8c 0f 89 bb 8a f1 82 3d c6 e3 3b 3a c0 7a e2 3c
       -0.0041827615 0.06393726 0.0007167425 0.027646422
000030 82 f3 9d bc e7 e5 49 bd 0d 57 7d 3d 9c 70 89 bd
       -0.019281153 -0.049291518 0.061850596 -0.06710932
000040 18 b8 a2 3d ce d4 16 bd c6 17 55 bc 77 d1 20 3e
       0.07945269 -0.03682404 -0.013006156 0.15704904
000050 88 4a b2 3d b3 15 89 3d 3d 33 5c bd 13 77 88 3d
       0.08705622 0.06693592 -0.053759802 0.066633366
000060 cd 6c a8 3d 7d 28 92 3d 28 42 e1 3c 00 42 45 3b
       0.08223877 0.07136629 0.027497366 0.0030099154
000070 0a 8e 03 3e 98 1e cd 3d 72 6d 00 3e 66 c8 98 3d
       0.12847152 0.10015601 0.1254175 0.07460098
000080 27 00 98 3d 4e e6 78 bd 1b 25 8b 3c f4 99 8a 3c
       0.07421904 -0.06076651 0.016985467 0.016919114
000090 72 3e 54 3d dd 0f ca 3d 3d 64 e0 3d 9e f2 59 bd
       0.051817365 0.09866307 0.10956619 -0.053209893
0000a0 81 90 d5 3b 11 7b 2a bd 6b 0f 6d 3d 5b 7c 01 3e
       0.0065174703 -0.04162127 0.05787603 0.12645094
0000b0 13 d7 a1 3d 60 1d 96 3b 1f dd e8 3d 2b 8c 77 3b
       0.0790235 0.0045811385 0.113703005 0.0037772756
0000c0 80 e3 f8 ba 64 08 87 bc 61 ca 99 3c cc c8 99 3d
       -0.0018988699 -0.016483493 0.01877326 0.07509002
0000d0 28 36 f0 3d 2c 5a 64 bc a0 d8 bc bd a3 96 93 bd
       0.117290795 -0.013937514 -0.092210054 -0.07206466
0000e0 25 ac c4 3d b2 c8 29 3d 9a 41 39 3d a0 19 f2 3d
       0.096031465 0.041451164 0.04522858 0.11821294
0000f0 26 69 88 3c b5 4f 7d 3d 16 ca ab bb 42 d9 23 3d
       0.016651701 0.061843593 -0.0052425964 0.040002115
000100 a8 ec 80 3d 4f 71 5a bc b5 ca 2b 3c c0 8e a6 ba
       0.062951386 -0.013332679 0.010485341 -0.0012707338
000110 56 7c 00 3c bb 68 c3 3d f1 b5 77 3c f2 00 72 3d
       0.007842144 0.0954146 0.015119062 0.059082933
000120 fe 2c 89 bd 32 08 d5 bc ba b6 2f 3d d9 ef f9 3c
       -0.06698035 -0.026004884 0.04289887 0.030509876
000130 29 b2 40 bd a5 57 86 bc 5d fd 22 3e cf d5 18 bd
       -0.047044907 -0.016399214 0.15916963 -0.03731328
000140 41 10 3b 3d 6a dd 13 bb 4c 00 26 3c bd dd 76 3d
       0.045669798 -0.0022562393 0.010131907 0.06027006
000150 cb be 06 3e 10 8e be 3d 2f 17 90 3c 7b 99 7b bd
       0.13158719 0.0930444 0.01758918 -0.061425667
000160 16 9f 3d bd c4 cb 9d bc 4c 36 c4 bc 1a 62 46 3d
       -0.046294294 -0.019262202 -0.023951672 0.0484334
000170 75 c5 0f 3e 62 9c 42 bd ff ae bd bc 32 da 74 3d
       0.14040168 -0.04751242 -0.023154734 0.0597784
000180 3f 0b ad 3c 40 be f0 3c f1 c9 61 3c 4e bb 1a bd
       0.021123527 0.029387593 0.013781057 -0.037776284
000190 74 8b 9f ba 42 90 81 3d 9e 81 1f bd 00 88 d0 bc
       -0.0012172298 0.06326343 -0.038941972 -0.025455475
0001a0 3e 5a ee 3b 9b 1a 93 3d 28 12 12 3d c9 71 07 bd
       0.0072739413 0.07182809 0.035661846 -0.0330675
0001b0 04 d4 a2 bc a8 45 69 3d d2 c6 2f 3e bc b0 ad ba
       -0.019876488 0.056951195 0.17165688 -0.0013251523
0001c0 5a e7 e8 bc ed e4 e9 3c 3b 57 11 3e 70 4e 64 3c
       -0.02843063 0.028551543 0.14193432 0.013934717
0001d0 77 6a 2b bd 59 ec 24 3e 5c 5b 21 bb e0 a5 7f 3d
       -0.04184958 0.16105784 -0.0024621105 0.06241405
0001e0 01 c6 04 3e 61 c7 27 3d 78 27 7c bc 15 42 91 3d
       0.12966157 0.040961627 -0.015390269 0.07092682
0001f0 43 12 41 bc 43 bb 2f 3d c8 72 0f 3e 5a 50 f6 3c
       -0.011784139 0.042903196 0.1400863 0.030067611

model.3.weight f4 [64, 128]
000000 96 83 88 bd e6 5b 14 3e 7f 1c 6e bd 88 73 bd bc
       -0.06665723 0.14488181 -0.058132645 -0.023126379
000010 25 ad 85 3c 4b dd 13 3d 5e d6 0f 3d d5 40 ad 3d
       0.016317913 0.036099713 0.035116546 0.08459631
000020 ce de 8f 3d d0 5c 70 bd d8 d4 5a bd ea 84 94 bd
       0.070249185 -0.058682263 -0.05342564 -0.07251914
000030 18 93 97 3d 4d 73 86 3c 1f 94 01 bd ee 66 31 bd
       0.07401103 0.016412402 -0.0316354 -0.043311052
000040 de 82 09 3d a1 d4 00 3d 3c 77 42 3d af df c0 3d
       0.03357207 0.03145278 0.047476992 0.09417664
000050 ef 47 a7 3d f6 86 d9 3d 99 c1 81 3c d9 2f 66 bd
       0.08168017 0.10621445 0.015839385 -0.056197975
000060 f5 a0 02 bd 7c 20 93 3c e5 d4 a3 3d bb 85 22 bd
       -0.03189178 0.017959826 0.07999591 -0.039678317
000070 74 c6 17 bd cc 63 3b bc ad 90 36 3d 45 86 2f 3c
       -0.037054494 -0.011437368 0.044571567 0.010713165
000080 8c ec 9d 3d 4b f0 a2 bd 4e aa bc 3c d3 18 89 3d
       0.07711133 -0.079559885 0.023030426 0.06694188
000090 f9 d7 c5 3d fa be 22 bd 8b e5 2d bd 6e a0 ef 3b
       0.09660334 -0.03973291 -0.042455237 0.007312826
0000a0 be 6a 2c 3a 4c e7 4d 3d a2 8b af 3d a4 72 58 3c
       0.0006577185 0.05026941 0.08571555 0.013210926
0000b0 e6 c0 d4 bc 52 62 45 3d 5d 9a 31 bd 5e 7a 5e 3c
       -0.025970887 0.04818947 -0.043360103 0.013578979
0000c0 58 31 32 3c 98 b4 73 bc c9 dc 82 3d f7 1b aa 3b
       0.010876022 -0.0148746 0.06389768 0.005191322
0000d0 c4 65 3a 3d 99 db 0e 3d 4b 2d 23 3b a4 70 09 bd
       0.045507208 0.034877393 0.0024898823 -0.033554688
0000e0 5c ca c4 3d 22 c2 49 3d 40 16 5d bc f6 3e 2e bd
       0.096089095 0.049257405 -0.013494074 -0.042540513
0000f0 97 3f 96 3c b8 0e 8c 3d 20 0e 65 3d 73 e2 4d bb
       0.018340869 0.06838745 0.055921674 -0.0031415492
000100 35 bc 7f 3d d4 dd 5c 39 72 cc 17 3d c6 47 2a bd
       0.062435348 0.00021063472 0.03706021 -0.041572355
000110 0d cc 0c 3c 24 d9 d5 bb 10 96 aa 3c 7b 2a ac bd
       0.008593571 -0.0065261293 0.020823509 -0.0840654
000120 76 e5 d7 3b 83 de 8f bd ae 4f 83 bd 69 dc ab bd
       0.006588633 -0.070248626 -0.06411682 -0.08391649
000130 f0 3e 81 bd b6 68 ba 3c d8 f8 fc 3c 70 74 aa 3c
       -0.063108325 0.022755008 0.030880377 0.020807475
000140 be 07 88 3c da 5f 4c bd 46 97 8b 3d d9 64 90 bd
       0.016605254 -0.0498961 0.068159625 -0.07050485
000150 fa df 99 bc db 12 9e 3b 08 5b 85 3c 5a e6 8f bd
       -0.018783558 0.004824025 0.016278759 -0.07026358
000160 f8 3a 98 3d 5e 26 9a 3d 0d 2c 22 bd 6c 2f 9a bd
       0.074331224 0.07526849 -0.03959279 -0.07528576
000170 a1 72 d0 3c 5f 4c 02 3d 47 9e 16 39 5d 51 26 bd
       0.025445284 0.031811114 0.00014364078 -0.040604938
000180 cb ca c6 3c a1 e4 13 bd cf 15 0f bd b0 a2 e7 3c
       0.024266621 -0.03610671 -0.034932908 0.028275818
000190 1c 2f 5e 3d 51 45 30 3e a9 92 94 3d b3 2b f8 3b
       0.054244146 0.17213942 0.07254536 0.0075735687
0001a0 41 59 af 3c 93 0f b0 3d 54 65 1d bd ee ad 84 3d
       0.021404864 0.085967205 -0.038426712 0.06478487
0001b0 70 97 b4 3d 85 a3 04 bd 2d e0 d7 3d c4 46 01 bd
       0.08817947 -0.032382507 0.10540805 -0.031561628
0001c0 3a 27 2c bd 0c 6d 8d 3d 70 44 90 3d e0 ae d0 bb
       -0.042029597 0.06905565 0.070443034 -0.006368503
0001d0 08 a8 99 bd ec a6 b4 3e 29 72 0f 3d 6d 52 55 bd
       -0.075027525 0.352836 0.03502098 -0.05208056
0001e0 33 91 97 3c 1c 68 86 3d 7e df 18 3d 27 54 c7 bc
       0.018501854 0.06562826 0.037322514 -0.02433212
0001f0 a2 08 fe bb 79 21 b7 3c d6 21 a1 3d b1 74 a3 3d
       -0.007752494 0.022354828 0.07867782 0.079812415
000200 4a 6e e8 bc c7 75 0a bd 05 50 a6 bd d2 70 19 bd
       -0.028372902 -0.033803727 -0.08120731 -0.03746111
000210 64 87 b2 3c e7 f9 e2 bd a7 13 9a bb ce 3d 8f 3d
       0.021793075 -0.11082821 -0.00470205 0.0699421
000220 ed 3f a8 3c 86 90 86 3c 4a 37 72 bd b0 a7 b9 bc
       0.020538295 0.016426336 -0.05913476 -0.022662967
000230 ab b1 bd bd 09 e8 72 bd 0a 23 2f 3c 01 e1 82 3c
       -0.09262403 -0.059303317 0.010689506 0.01597643
000240 de d9 aa 3c dd fa 8e bd 09 d8 e6 3b 09 f8 aa bd
       0.02085584 -0.06981442 0.0070447964 -0.0834809
000250 9a a7 ab bd b2 a5 7b bd e2 5e 8f bd 68 4e 89 3c
       -0.08381577 -0.061437316 -0.07000519 0.01676102
000260 d8 0b 64 3c f3 29 22 3d 09 44 4d 3a 24 28 8d 3c
       0.013918839 0.039590787 0.00078302674 0.017231055
000270 55 0d 5a 3c 70 31 03 bc ec cc d1 bd 0b 67 6a bd
       0.013308843 -0.008007392 -0.10244164 -0.057227176
000280 be 3f b3 bd 7b ea 51 bd a8 80 b1 ba 55 b3 aa 3d
       -0.08752392 -0.05124901 -0.0013542371 0.08334986
000290 5d ab 8c 3c d2 73 7f bd f7 6a b0 ba a6 29 79 3d
       0.017171556 -0.062366314 -0.0013459612 0.060830735
0002a0 a2 75 f5 b9 d2 43 b6 bd 76 01 da bb 2e 64 66 3b
       -0.00046817685 -0.088996544 -0.006653006 0.0035154927
0002b0 e0 16 6d 3c a3 57 a5 3d 09 e1 63 3d b2 d0 a7 bd
       0.014470786 0.08073356 0.055634532 -0.08194102
0002c0 a3 a0 89 3d dc 01 a2 bd 32 3f 8f bd cc 6d b3 3c
       0.06720092 -0.07910511 -0.069944754 0.021902941
0002d0 cf 43 9b bc e3 43 58 3d 63 dc 2c 3d 34 a9 08 bd
       -0.018953232 0.052799117 0.042202365 -0.03336449
0002e0 15 14 6c 3d 40 e9 81 bd 14 f1 86 3c d1 3f 25 3c
       0.05763634 -0.06343317 0.016472377 0.010086016
0002f0 0e 87 a1 3c 5d 61 8a 3d 72 7c c4 3c 3c 47 8c bd
       0.01971772 0.06756852 0.023985121 -0.068495244
000300 a9 da 53 3d 7e 5e 59 3d 24 21 26 bd b1 f3 81 3d
       0.051722202 0.05306863 -0.04055895 0.063453086
000310 d4 3b 50 b9 04 85 c3 bc b6 2c ec 3b 00 86 81 39
       -0.00019858713 -0.023867138 0.0072074784 0.00024704635
000320 f3 eb 29 bd b2 ae 7e bb 6b 95 87 bc be d0 a0 bd
       -0.041484784 -0.003886145 -0.01655074 -0.078523144
000330 12 fa ab bd 60 ed ed 3c 97 5c 8a bd e0 ab 0d 3b
       -0.083973065 0.029043853 -0.06755941 0.0021617338
000340 a7 cd 31 3d 4a 30 69 3d 33 b8 0a 3d 34 31 ec 3c
       0.043409016 0.056930818 0.033867072 0.028832056
000350 81 a0 20 3d b6 ce a0 bd 72 29 82 3d 86 c5 a7 bd
       0.03921557 -0.07851927 0.06355561 -0.081919715
000360 a6 22 98 bd 56 b4 63 bd f1 eb b0 3d 2a a9 4a 3d
       -0.07428484 -0.055591904 0.08638752 0.049477734
000370 f2 4b a9 3b 26 59 13 3d 5e bf cb bd 41 a7 ac bd
       0.005166524 0.03597369 -0.0994861 -0.08430339
000380 19 f3 16 3c 29 78 81 bd 78 91 de 3c 42 79 80 bd
       0.009213232 -0.06321747 0.027168974 -0.06273128
000390 ea 4f 60 3d b3 f7 ca bd d8 f3 d6 3c 23 34 e6 3c
       0.054763712 -0.09910526 0.02623932 0.028101033
0003a0 7a 85 82 bd 6f 3b 33 3d 53 9c f6 3c e9 7d 6e bd
       -0.06373115 0.043757852 0.030103838 -0.058225546
0003b0 16 52 88 bd 5c 45 53 3c d4 46 83 bd 97 db d5 bb
       -0.06656282 0.0128949545 -0.06409994 -0.0065264213
0003c0 30 05 b1 3c d4 d9 9a 3c 3b 77 8b bd 33 44 88 3d
       0.021608919 0.018902697 -0.06809851 0.06653633
0003d0 2a cb 9f 3c 2a 33 4b 3d c1 39 28 bd d4 e3 ac 3c
       0.019506056 0.04960934 -0.041070703 0.02110473
0003e0 f5 74 e3 bc e9 a2 30 3d 3e a3 39 3d 28 92 41 3d
       -0.02776573 0.043124113 0.045321696 0.047258526
0003f0 d6 56 d6 bc 1a 35 bb 3c 79 de 41 3d 20 e5 50 bc
       -0.026164453 0.02285247 0.047331307 -0.01274994

model.3.bias f4 [64]
000000 da ec d7 3d b2 ce 74 bd 2e 06 12 3e f3 7c 89 3b
       0.10543223 -0.059767433 0.1426017 0.0041958033
000010 b0 41 f1 bd 18 00 17 3e 04 f4 76 bc c0 05 38 bd
       -0.11780107 0.1474613 -0.015072826 -0.04492736
000020 e2 e1 e7 39 e9 67 f4 bb 79 da e4 bc 2d 5c 35 3e
       0.0004422805 -0.007458676 -0.027936207 0.17710944
000030 4f 81 06 3e 8c 5f 5c 3e 89 82 07 3e d0 2f 6f bd
       0.13135265 0.21520823 0.13233389 -0.058395207
000040 4d b9 be bd fd 0e 12 bd bc 7f 45 3e 25 dd 57 3d
       -0.09312687 -0.035658825 0.19287008 0.052701134
000050 1c ea 8b 3d 7d a7 f3 bc 10 30 32 3e ba 1c af 3d
       0.06831762 -0.02974295 0.17401147 0.08550401
000060 67 a8 1f 3e cb 5c 19 3e 73 c8 d9 3d 93 df 4c 3e
       0.15591584 0.14976804 0.10633936 0.20007162
000070 71 95 d4 3d c0 c3 85 bd 09 1c 8c 3d 64 ac bb bc
       0.10380066 -0.06531477 0.06841285 -0.02290935
000080 09 ee 50 bd 10 1e 20 3e 7a db c1 3d 76 13 73 bd
       -0.051008258 0.15636468 0.0946569 -0.05934473
000090 39 30 96 3a 5e 8b 19 3d 29 1d 8b 3d 84 34 08 3e
       0.0011458463 0.037486427 0.06792671 0.13301283
0000a0 e2 88 cf 3c 39 80 7e 3c 5f a3 a3 bc d4 d6 15 3e
       0.025333825 0.0155335 -0.019975362 0.14632732
0000b0 0e c3 00 bc c4 a0 d8 bd 6b cf ab 3c e2 d4 33 bc
       -0.007859005 -0.105775386 0.020972928 -0.010976048
0000c0 eb 7e 43 3d d5 fd fa 3d c9 69 51 3d c9 23 27 3d
       0.04772846 0.12255446 0.051126275 0.04080561
0000d0 9f 86 29 3e 76 70 97 3d 80 6f d5 3c 37 64 02 3c
       0.1655526 0.07394497 0.026054144 0.007958463
0000e0 0b 8e af bd f6 1c d2 3d 98 d7 e3 3d ec 64 24 3e
       -0.085720144 0.1025943 0.111251056 0.16054124
0000f0 e3 f7 01 3e 0e d7 02 bd 82 b1 67 bd 3a 67 f5 3d
       0.12692218 -0.031943373 -0.05656577 0.119825795

model.6.weight f4 [1, 64]
000000 8c bc d2 3d df 59 39 bd 5c b7 4d 3d 5a 95 f3 bb
       0.10289869 -0.045251723 0.050223693 -0.0074335756
000010 b5 60 43 bd af 1e 48 3d ff 7a b4 3d ea f9 ca bd
       -0.04769965 0.048857387 0.08812522 -0.099109486
000020 d4 98 25 bd 69 27 b3 3d 13 6c 3a bd a4 be 6b 3d
       -0.04042895 0.08747751 -0.045513224 0.057554856
000030 d2 db 8e 3d 05 8b 50 3d a9 6a 56 3d 4a 48 ca bd
       0.06975521 0.05091383 0.052347813 -0.09877069
000040 a2 c3 d5 ba 0b 47 63 bc 34 8a 5f 3d 60 2e b5 39
       -0.0016308913 -0.013871918 0.05457516 0.00034557562
000050 27 ba 90 bc 00 25 78 bd 25 d1 b5 3d 2d f6 36 3d
       -0.01766689 -0.06058216 0.08877782 0.044668365
000060 7d 6a 80 3d 65 02 a0 3d 4a bd 3c 3d dd 99 b0 3d
       0.06270311 0.07812957 0.046078958 0.08623097
000070 84 85 58 3d f9 49 c2 bc 1c 8d 22 3d c4 df b7 bd
       0.052861705 -0.023716914 0.039685354 -0.08978227
000080 9b 79 47 bd 2c d4 ca 3d 9c 34 ea 3d 13 3e 9b bd
       -0.048699956 0.0990375 0.11435816 -0.07580199
000090 a3 6f 1c bd 88 b9 a3 3d 83 58 d3 bd f6 67 0a 3d
       -0.038192403 0.07994372 -0.10319617 0.03379055
0000a0 e7 5e cc bd 7d c7 24 bd 72 28 66 bd a6 29 1f 3d
       -0.09979039 -0.04022931 -0.056190915 0.03885808
0000b0 95 ea 98 bc 06 8d 5f bd 5c d3 8b 3d f9 ef 1b bd
       -0.018666545 -0.05457785 0.06827423 -0.038070653
0000c0 ab ac d9 bd 0c 8b a9 3d aa 2a a8 3d 30 60 23 bc
       -0.10628637 0.08278474 0.082112625 -0.009971663
0000d0 ee cf 24 3d 35 30 57 3d 28 e9 e9 3b 75 5e 5c bc
       0.04023736 0.05253621 0.00713839 -0.013450255
0000e0 1a 49 ba bd fb 0c 85 3d 83 aa 46 3d 88 69 a3 3d
       -0.09095974 0.064966165 0.048502456 0.07979113
0000f0 8b 0b 6e 3d fc 39 12 bd 27 d6 3d bd 4d 0e 2c 3d
       0.058116477 -0.03569983 -0.04634681 0.042005826

exp_avg f4 [128, 131]
000000 86 11 89 b5 2a 3c 0f b6 91 df 06 34 0c 59 86 b8
       -1.0212395e-06 -2.134368e-06 1.2561055e-07 -6.406204e-05
000010 c1 a5 dc 32 1a 42 18 b0 64 e1 b0 30 0d a4 95 30
       2.5686747e-08 -5.5391214e-10 1.2869745e-09 1.0887803e-09
000020 02 79 05 b4 de 60 67 b5 55 fd 66 32 74 6f fd 31
       -1.2430613e-07 -8.6195166e-07 1.3445363e-08 7.37594e-09
000030 62 2c d2 32 80 e1 b3 b3 58 04 44 34 cf 64 a6 b4
       2.44674e-08 -8.376355e-08 1.8255503e-07 -3.0993257e-07
000040 aa e6 45 b6 18 49 67 b4 0a c8 c6 32 72 6f fd 31
       -2.9489552e-06 -2.1540143e-07 2.3141201e-08 7.375939e-09
000050 32 8f 70 36 6d 39 de b4 09 37 ec b0 5d 0e 0b b5
       3.5846138e-06 -4.1392505e-07 -1.7186902e-09 -5.1802436e-07
000060 41 d8 0a b2 9a 52 10 33 74 f7 0e b5 48 ee c1 b0
       -8.081828e-09 3.360274e-08 -5.3259214e-07 -1.4110322e-09
000070 5c c5 16 34 02 cc a2 b4 fa e7 5e b5 30 86 17 36
       1.4041638e-07 -3.0323287e-07 -8.3039015e-07 2.257886e-06
000080 90 32 0c b4 16 31 a3 b8 2c 69 ac 35 e4 27 99 b6
       -1.305691e-07 -7.781589e-05 1.2845608e-06 -4.564399e-06
000090 54 06 07 b6 67 b4 5c 36 24 c8 07 b9 46 f7 7b b7
       -2.012025e-06 3.2887563e-06 -0.00012949161 -1.5018339e-05
0000a0 64 e7 39 b7 ba 53 ed b8 22 37 95 37 dc ca 93 37
       -1.1080734e-05 -0.00011316636 1.7787857e-05 1.761823e-05
0000b0 8b 30 99 37 09 3f df 36 c1 c8 09 36 6c ca 54 b6
       1.8261626e-05 6.653256e-06 2.0531445e-06 -3.1708287e-06
0000c0 5c 4c f1 35 64 1f 3d b5 81 82 9b 35 5a bd 75 b7
       1.7978123e-06 -7.0453666e-07 1.1586382e-06 -1.4647225e-05
0000d0 e3 b4 c7 35 c7 40 2c 37 64 72 c8 b7 f0 05 c6 37
       1.48793e-06 1.0267081e-05 -2.3895125e-05 2.3606204e-05
0000e0 d6 77 87 b8 dd 52 28 b7 64 2f 93 b6 18 88 27 37
       -6.459623e-05 -1.0032873e-05 -4.3864584e-06 9.9856625e-06
0000f0 02 ff f8 b4 b5 a2 48 36 60 0d 28 37 fd da 96 b6
       -4.6379142e-07 2.989703e-06 1.0016694e-05 -4.495842e-06
000100 55 b1 22 b6 cf c4 a6 b6 89 8e 6f 37 64 a2 de 35
       -2.4243102e-06 -4.970097e-06 1.4278697e-05 1.6587551e-06
000110 3e 30 08 35 86 88 4e 36 0d 7e c2 35 7e ab e8 b5
       5.073415e-07 3.077586e-06 1.4490812e-06 -1.7335258e-06
000120 f8 cc d2 b5 de 96 dc 35 eb a6 ff b4 08 23 46 b5
       -1.5705873e-06 1.6435185e-06 -4.76189e-07 -7.3811725e-07
000130 78 35 dc b5 9e 1c 72 34 9c 2e 89 b2 99 e7 37 b2
       -1.6406839e-06 2.2548417e-07 -1.5970095e-08 -1.0704661e-08
000140 f0 c1 b8 b5 51 c3 fd 31 85 85 e0 35 79 f1 79 30
       -1.3765512e-06 7.385474e-09 1.672816e-06 9.0928826e-10
000150 07 0e 97 2f 08 cc 60 b5 ea a8 58 33 e4 b0 c2 b3
       2.7476707e-10 -8.374341e-07 5.0445045e-08 -9.066005e-08
000160 c3 55 7d b3 42 a4 84 b5 58 25 1f 36 f2 e0 a3 b6
       -5.8984153e-08 -9.882572e-07 2.3714583e-06 -4.8839656e-06
000170 88 c5 a4 b4 58 c4 de b5 68 89 09 b6 52 11 c3 b6
       -3.0691103e-07 -1.6597432e-06 -2.0494572e-06 -5.813469e-06
000180 0d 38 ba b5 7e 07 8f b5 e3 35 e0 b8 ab 1a 34 b6
       -1.3874393e-06 -1.0656511e-06 -0.000106911895 -2.6837613e-06
000190 2c fe 23 b6 fc 27 b0 b5 16 68 39 b7 29 f0 ba 37
       -2.443684e-06 -1.3124659e-06 -1.1051094e-05 2.2284761e-05
0001a0 6c ee 03 32 ef e7 a7 34 00 00 00 00 82 8c 84 37
       7.679414e-09 3.1274928e-07 0.0 1.5801055e-05
0001b0 fe 7c e4 35 c8 36 20 35 ba 15 22 b5 00 00 00 00
       1.7023701e-06 5.968436e-07 -6.038132e-07 0.0
0001c0 5d f3 1b 02 85 f4 01 36 fb e1 fc b8 97 48 2b 38
       1.1457443e-37 1.9364827e-06 -0.000120583885 4.083718e-05
0001d0 00 00 00 00 60 b5 e0 b7 6a 01 56 b8 c6 ff ae 37
       0.0 -2.678734e-05 -5.1022893e-05 2.086152e-05
0001e0 31 be b9 36 94 1f 17 36 dd 42 df b8 42 58 08 bc
       5.535571e-06 2.2519134e-06 -0.00010645923 -0.008321824
0001f0 d0 b6 d1 bb 28 d0 85 bb 9f 46 e5 bb 1b ae 99 bb
       -0.006399967 -0.004083652 -0.006996944 -0.0046899444
000200 1c d3 0e bc e1 64 11 bc 73 c5 cb bd 19 ab cf 37
       -0.008717325 -0.008874149 -0.0994977 2.4755996e-05
000210 c2 20 65 39 ee f7 98 b9 a1 fa 2f 3a a8 5b 10 37
       0.00021851345 -0.0002917642 0.0006713067 8.604409e-06
000220 23 76 14 38 ea 61 3a b7 6c 9a bd 33 ef 3e 81 38
       3.5395973e-05 -1.1109261e-05 8.8290875e-08 6.1629216e-05
000230 bf cd f8 b8 4d da 65 38 27 08 9e 37 bb a7 84 b7
       -0.00011863885 5.4801163e-05 1.8838864e-05 -1.5813732e-05
000240 2f fa 01 36 c3 85 c7 32 10 bd 33 34 e0 82 dd 9a
       1.9368124e-06 2.3227477e-08 1.6739455e-07 -9.16149e-23
000250 4b be 17 38 9a 9f 72 b9 77 e4 01 b9 68 d9 c0 36
       3.617843e-05 -0.00023138375 -0.00012387508 5.7473553e-06
000260 fb 53 02 13 f8 b2 74 38 00 c4 22 38 ab db 6b 39
       1.6449712e-27 5.834081e-05 3.880635e-05 0.00022493179
000270 39 b3 88 37 7b 77 e6 b5 83 81 02 b8 64 f4 3c 37
       1.629592e-05 -1.7171109e-06 -3.1115032e-05 1.1262575e-05
000280 cc 38 f3 37 ee 7b 4d b9 aa c6 42 38 6c 30 84 37
       2.8994305e-05 -0.00019596491 4.6438225e-05 1.5758174e-05
000290 d6 2a e3 3a d9 dd a6 b8 71 8f de b8 b3 94 75 39
       0.0017331492 -7.956819e-05 -0.00010612503 0.00023420416
0002a0 24 ed ba b8 ef b1 33 3b 90 aa 30 39 f4 3a 21 3a
       -8.913342e-05 0.002741929 0.00016848207 0.00061504473
0002b0 19 8f 26 39 40 18 1a 39 df bf 5c b9 e3 46 0b 39
       0.00015884302 0.00014695618 -0.00021052313 0.0001328248
0002c0 5d 62 1a 3a 90 81 d5 b6 4a 8e 04 39 45 3f 65 38
       0.0005889291 -6.3629777e-06 0.00012641508 5.465678e-05
0002d0 6c f1 62 b9 63 fe 58 39 d7 2f f3 39 ee f8 6c 38
       -0.00021642976 0.00020694132 0.00046384215 5.649862e-05
0002e0 3f 2c 89 38 2d 8e 8a 39 2f d3 69 3a 28 e9 2c ba
       6.5409105e-05 0.0002642734 0.00089197134 -0.0006596022
0002f0 2e 25 33 3a 22 b4 18 39 69 8e 7a b8 0e 72 ba b8
       0.00068338483 0.00014562954 -5.9737275e-05 -8.8904155e-05
000300 bd 03 27 39 f0 67 bb b8 a6 a6 42 38 fe f3 d1 39
       0.00015927754 -8.936215e-05 4.6408408e-05 0.00040045375
000310 cc 4d f9 38 fc e7 6c 38 f5 63 07 38 19 cc 30 b9
       0.00011887736 5.6482837e-05 3.22796e-05 -0.000168607
000320 72 62 12 39 7e ad 96 b7 16 21 c8 38 88 93 7d 38
       0.00013960319 -1.7962182e-05 9.542906e-05 6.04573e-05
000330 88 59 b7 b7 4a 38 bb 37 0b a1 06 39 99 8b fd b8
       -2.1856991e-05 2.2318349e-05 0.00012839229 -0.00012089982
000340 6a 76 86 36 7f c1 43 39 66 c6 b0 b6 18 18 69 b9
       4.0072964e-06 0.00018668732 -5.2683054e-06 -0.00022229587
000350 e8 06 c2 38 8d fc 28 b8 79 fe cb b8 41 84 e7 b9
       9.251927e-05 -4.0289528e-05 -9.7271935e-05 -0.0004415829
000360 ee b1 3f 39 ec 45 19 39 f2 56 0a b8 1a f4 96 38
       0.00018281463 0.00014617265 -3.2982738e-05 7.198025e-05
000370 ca 48 0a 38 75 1e aa 38 0d 39 fc 38 5e 07 81 39
       3.2969554e-05 8.111905e-05 0.00012026923 0.00024610286
000380 64 02 93 37 59 37 e8 38 c3 4d 43 39 0b 24 a5 38
       1.7524879e-05 0.000110729314 0.00018625618 7.874527e-05
000390 3b 97 e6 38 9b 08 7d 38 ca 65 0d b9 c7 ff 83 38
       0.000109954235 6.0327915e-05 -0.00013484727 6.294209e-05
0003a0 ea d7 03 39 89 71 32 b9 7d 47 d1 b8 6d ca 17 38
       0.00012573568 -0.00017017698 -9.979212e-05 3.618973e-05
0003b0 38 94 74 38 00 00 00 00 86 52 2f 39 c5 ae c2 b8
       5.8312173e-05 0.0 0.00016720043 -9.283194e-05
0003c0 06 f1 ce b8 60 f0 41 39 e2 c4 be 39 5a cc 7c 3a
       -9.8677396e-05 0.00018495461 0.00036386313 0.0009643488
0003d0 9b 2c b3 39 4e 90 c2 38 ed 2d 4c 36 00 00 00 00
       0.00034174774 9.27752e-05 3.0425101e-06 0.0
0003e0 19 d4 5e 3a 36 0f 70 3a 28 63 be 38 ed da 39 3a
       0.0008500233 0.000915754 9.078375e-05 0.00070898124
0003f0 0c 73 3d 38 ca 64 71 3a 8a cd 3c 3e bb d9 3e 3e
       4.5168257e-05 0.0009208439 0.18437782 0.18637745

exp_avg_sq f4 [128, 131]
000000 cc b8 b9 2f 80 2e 7a 32 1a 1d dc 31 e1 4e 04 34
       3.378261e-10 1.4562488e-08 6.406151e-09 1.2322154e-07
000010 43 d0 02 31 e4 67 f9 2d ba da 50 2e 45 5c e4 2e
       1.9035873e-09 2.835416e-11 4.7487993e-11 1.038463e-10
000020 eb 95 d2 30 24 3c ab 2e 7b e4 c2 2e f8 80 ca 2f
       1.532212e-09 7.786863e-11 8.862685e-11 3.6835224e-10
000030 88 f9 a7 30 0e 8f f8 30 44 4e 40 2f 0b 74 7a 2f
       1.222177e-09 1.8085033e-09 1.7490104e-10 2.2778594e-10
000040 69 72 38 2f f5 81 f4 2e b8 33 40 30 70 4f b2 2f
       1.6775349e-10 1.11189204e-10 6.992269e-10 3.2434455e-10
000050 09 23 d3 2f bf 50 97 30 71 00 d0 2e ae 3f 57 30
       3.840557e-10 1.1009645e-09 9.458823e-11 7.830704e-10
000060 f3 97 a7 2e 4a 13 78 2e 43 7f cd 30 eb 6c 73 31
       7.6212724e-11 5.6405804e-11 1.4951883e-09 3.5423067e-09
000070 d8 81 3f 2f 10 6a 44 2f 63 b7 a3 31 b7 34 2f 30
       1.7417479e-10 1.7863777e-10 4.764773e-09 6.373954e-10
000080 16 fe b0 2e bd e9 e3 34 aa 49 82 31 61 05 2d 32
       8.048688e-11 4.2452112e-07 3.7918726e-09 1.0071148e-08
000090 c2 b5 10 32 a9 f1 6d 30 f9 7e 95 35 b4 c8 a2 32
       8.42323e-09 8.656352e-10 1.1138319e-06 1.8950551e-08
0000a0 5f c1 87 32 2e b3 be 32 5c ce c1 32 3e a2 99 32
       1.5804003e-08 2.2200393e-08 2.2561998e-08 1.7885323e-08
0000b0 5b 85 e6 32 21 96 c4 32 96 ab 6a 32 0d 91 9b 32
       2.6836167e-08 2.2885674e-08 1.3659607e-08 1.8110336e-08
0000c0 89 4c 26 32 4a cb b3 32 44 3e f6 32 39 c7 83 32
       9.679874e-09 2.0930788e-08 2.8666484e-08 1.5341003e-08
0000d0 0c b8 9e 32 a9 56 1a 33 55 0c 0e 33 7a f0 0e 33
       1.8477316e-08 3.5934736e-08 3.3073167e-08 3.3280664e-08
0000e0 68 c3 af 33 b3 d0 49 33 0b 1a 76 31 0c 56 81 31
       8.184617e-08 4.698877e-08 3.5812515e-09 3.7641765e-09
0000f0 2a 1e bf 31 66 87 86 31 0e 36 45 32 2c 98 d3 31
       5.562261e-09 3.9153063e-09 1.14792e-08 6.158208e-09
000100 c4 68 94 31 a5 7a e6 31 cc 9e 44 31 73 62 64 31
       4.3192774e-09 6.707824e-09 2.861202e-09 3.3234329e-09
000110 95 c4 c5 31 13 83 a2 31 11 fc 98 30 35 c6 1f 31
       5.7558034e-09 4.729722e-09 1.1131097e-09 2.3250213e-09
000120 fd 8f f4 30 16 73 fb 31 c9 10 3f 31 75 e7 05 31
       1.779426e-09 7.318145e-09 2.78037e-09 1.9485615e-09
000130 36 14 ad 31 45 b2 31 31 b3 c1 44 31 a7 9b c7 30
       5.0372604e-09 2.5858224e-09 2.863186e-09 1.4523395e-09
000140 3b 70 c8 31 21 a7 cb 30 6b 77 4c 32 59 fd 5a 31
       5.833525e-09 1.4817695e-09 1.1901515e-08 3.1867187e-09
000150 a0 3f bf 2f 78 ac 19 31 ec 72 0b 31 d9 c6 f3 31
       3.4787906e-10 2.2362467e-09 2.0292488e-09 7.094837e-09
000160 8c 5a 23 32 2e 27 d2 30 af 87 2d 32 9b 41 e9 30
       9.508437e-09 1.5290647e-09 1.0100776e-08 1.6971627e-09
000170 71 97 4b 31 6b e6 b3 31 f9 08 26 31 1c ad 6f 31
       2.9626472e-09 5.235781e-09 2.416128e-09 3.4877479e-09
000180 4a c0 72 31 55 cf b1 31 f2 86 ba 31 e5 c9 11 31
       3.5324939e-09 5.174949e-09 5.428654e-09 2.121504e-09
000190 6b 47 1e 32 1c 65 6e 31 e0 00 ac 31 9b a5 a7 31
       9.213049e-09 3.4691032e-09 5.0059583e-09 4.879167e-09
0001a0 7d bf 8f 31 59 69 f9 31 00 00 00 00 76 19 e6 31
       4.1836175e-09 7.2588304e-09 0.0 6.6967756e-09
0001b0 5e e1 a5 31 c9 65 1f 31 4e 22 22 31 00 00 00 00
       4.8277533e-09 2.3195403e-09 2.3593603e-09 0.0
0001c0 6d 0c 30 32 b6 5e a0 33 ab 2e 28 34 4b 79 30 33
       1.0247374e-08 7.4678084e-08 1.5663197e-07 4.108851e-08
0001d0 00 00 00 00 d5 54 29 34 f9 cc 54 34 a8 8f 9c 33
       0.0 1.5770213e-07 1.9818607e-07 7.290447e-08
0001e0 28 6b 82 33 a3 ce 8a 33 fb e6 96 33 cb 9c 80 3b
       6.073088e-08 6.463713e-08 7.0269344e-08 0.003924941
0001f0 39 97 7a 3b 96 0b 82 3b 17 c3 83 3b 2e 85 82 3b
       0.0038237108 0.0039686663 0.0040210593 0.0039831614
000200 3e 4c 86 3b 65 32 83 3b a6 78 10 3f ef 2b c4 32
       0.0040984442 0.00400381 0.56434095 2.2837382e-08
000210 b5 b9 4e 36 bf 00 b7 35 1f 09 86 37 ed 27 d8 33
       3.0804488e-06 1.363478e-06 1.5978292e-05 1.0065546e-07
000220 4d a8 0a 32 ea eb db 33 56 50 df 31 70 4c ae 33
       8.070924e-09 1.0240895e-07 6.4992873e-09 8.11641e-08
000230 94 82 8e 33 12 02 d7 32 d1 20 fd 32 e5 cf 99 35
       6.636142e-08 2.5030236e-08 2.9468e-08 1.1459894e-06
000240 2a cc 72 34 9f ac 1c 33 65 8d 13 32 64 5a b3 32
       2.2612281e-07 3.647858e-08 8.5886755e-09 2.0879448e-08
000250 ec 36 a1 33 5a 7c 06 35 22 05 8c 33 c2 46 ea 31
       7.507137e-08 5.0099845e-07 6.520192e-08 6.8183406e-09
000260 8d e1 83 32 ba 3e ca 33 31 ef ce 34 8c 12 85 32
       1.5352976e-08 9.417768e-08 3.8544525e-07 1.5491672e-08
000270 b6 0f 89 32 69 48 82 34 d5 06 5d 34 2d e8 64 33
       1.5956044e-08 2.4267072e-07 2.0584714e-07 5.329655e-08
000280 40 18 24 34 b9 8f 25 35 54 89 67 33 f3 7c 07 33
       1.5282512e-07 6.1676434e-07 5.3908778e-08 3.1545778e-08
000290 aa 87 42 38 c7 6d 6c 35 d8 e5 19 36 fe 49 a2 35
       4.637955e-05 8.80766e-07 2.2932563e-06 1.2091475e-06
0002a0 f2 0f 70 34 b4 f9 eb 38 44 4e c0 35 bf 4f 0a 36
       2.2357543e-07 0.00011252184 1.4327893e-06 2.061002e-06
0002b0 e6 db 20 36 31 f1 93 36 c2 e0 50 36 96 94 79 36
       2.3969856e-06 4.4090198e-06 3.1125242e-06 3.719038e-06
0002c0 d7 23 37 36 cf f2 2f 36 85 d8 30 36 0d c9 85 36
       2.7289987e-06 2.6218365e-06 2.6352075e-06 3.9871143e-06
0002d0 eb cd 50 36 b8 74 2e 36 93 4a 19 36 d9 e2 1a 36
       3.1114275e-06 2.599596e-06 2.2842185e-06 2.307983e-06
0002e0 23 9f 6d 36 6b 8f 82 36 5b 61 ca 36 84 6e 70 37
       3.5408382e-06 3.890998e-06 6.031403e-06 1.4330846e-05
0002f0 69 e0 dd 36 5b 95 ad 34 ec b0 0b 35 2a 9e 7b 35
       6.612438e-06 3.2332431e-07 5.203899e-07 9.3734945e-07
000300 af 25 14 35 64 aa 62 35 4b 6a 21 35 e9 14 a5 35
       5.5189133e-07 8.443951e-07 6.013185e-07 1.2299544e-06
000310 cd a6 07 35 fa 37 a8 34 eb 9e 27 35 f0 c7 6f 35
       5.0534146e-07 3.1333167e-07 6.2443604e-07 8.9325385e-07
000320 f9 58 05 35 b5 d5 f4 34 64 b1 1c 35 9c 94 88 35
       4.9675833e-07 4.5604034e-07 5.8372666e-07 1.0176041e-06
000330 32 08 fa 34 57 64 53 35 0b 90 79 34 2e 0a 31 35
       4.6572092e-07 7.874964e-07 2.3242335e-07 6.595245e-07
000340 9b 8e cd 35 27 03 00 35 6d 9b a0 35 3d e4 c8 34
       1.5315194e-06 4.7688303e-07 1.1966164e-06 3.7418968e-07
000350 3f e5 0c 35 8a 3d 6b 35 ff 55 8f 35 68 82 41 35
       5.248766e-07 8.7633873e-07 1.0679358e-06 7.208787e-07
000360 2b 4c e2 34 f9 60 ba 34 19 df 4a 35 f7 fe 96 35
       4.21512e-07 3.4715757e-07 7.5575514e-07 1.1250075e-06
000370 92 9b be 34 4f 69 c4 34 a0 4c 10 34 33 33 1a 35
       3.550345e-07 3.6584467e-07 1.3438921e-07 5.7443975e-07
000380 c6 1b 0c 35 f6 c6 d3 34 c3 83 c1 34 6a 79 9d 34
       5.219448e-07 3.9446576e-07 3.604492e-07 2.933187e-07
000390 b3 a9 fa 34 ac 09 1a 35 50 f5 80 35 e4 77 13 35
       4.66896e-07 5.7383545e-07 9.608138e-07 5.493623e-07
0003a0 3e fc 9a 35 30 50 1f 35 4b ad 4c 35 e8 22 b7 35
       1.1547306e-06 5.9348804e-07 7.6248097e-07 1.3644722e-06
0003b0 93 56 fe 34 00 00 00 00 66 51 5e 35 21 ac a1 35
       4.7374178e-07 0.0 8.2819895e-07 1.2045531e-06
0003c0 db 39 0e 35 0b 2f 5b 35 6c cc 4c 37 ec 10 41 37
       5.2983313e-07 8.1652314e-07 1.2206943e-05 1.1507636e-05
0003d0 92 17 1a 37 b4 58 98 36 a7 68 ee 34 00 00 00 00
       9.184603e-06 4.5402794e-06 4.44071e-07 0.0
0003e0 ea 91 87 37 67 05 f4 37 21 a4 11 37 cb 90 0e 37
       1.61612e-05 2.9089582e-05 8.680888e-06 8.497572e-06
0003f0 07 05 26 37 69 19 1d 37 a5 6b 11 3f 36 bd fb 3e
       9.895542e-06 9.3638455e-06 0.5680488 0.49167794

exp_avg f4 [128]
000000 0c 2e a3 b8 a7 71 e7 3a 28 9b 50 ba d4 fd 3d ba
       -7.7810226e-05 0.0017657772 -0.00079576904 -0.0007247601
000010 e8 44 5f 3a bb 06 e0 ba 28 c4 cb 38 c8 bb f0 b8
       0.0008517043 -0.001709185 9.716331e-05 -0.00011479069
000020 92 f6 26 ba 04 94 85 ba 2c 4f bf 39 60 c2 fd 39
       -0.00063691393 -0.0010191207 0.00036489347 0.0004840074
000030 60 0f c5 b7 08 e8 97 32 51 48 12 02 3b 68 11 02
       -2.349139e-05 1.768423e-08 1.074714e-37 1.068283e-37
000040 c2 d1 e8 b9 c4 f9 34 b9 b2 19 86 39 80 57 af ba
       -0.0004440677 -0.00017259183 0.00025577616 -0.0013377517
000050 26 81 71 b9 33 58 41 bb e5 29 1f 02 00 00 00 00
       -0.00023031663 -0.0029502034 1.1693498e-37 0.0
000060 00 00 00 00 b0 d2 ba 38 43 51 4d bb 00 00 00 00
       0.0 8.908415e-05 -0.0031328953 0.0
000070 82 53 b9 39 64 d3 c9 ba a3 04 ef b9 da 09 81 38
       0.00035348168 -0.0015398082 -0.00045589087 6.153034e-05
000080 49 65 50 ba 00 00 00 00 6a 2e cd 38 00 00 00 00
       -0.0007949663 0.0 9.783807e-05 0.0
000090 08 00 f3 39 50 97 12 b9 ec 69 aa ba a4 a8 1a 02
       0.00046348595 -0.00013980013 -0.0013001538 1.1362531e-37
0000a0 6f 6e c9 b9 b4 f3 f6 b8 d6 97 c0 ba 1c 0d 19 bb
       -0.00038419987 -0.00011775587 -0.0014693688 -0.002335376
0000b0 00 00 00 00 00 00 00 00 9f 8c ef b9 c3 6d 02 bb
       0.0 0.0 -0.00045690403 -0.001990185
0000c0 00 00 00 00 00 00 00 00 a9 cb 59 ba 54 c9 51 b9
       0.0 0.0 -0.0008308241 -0.00020006794
0000d0 94 04 40 39 e2 fa cc 39 f0 a9 1b 02 14 d5 37 38
       0.00018312252 0.00039096834 1.1436371e-37 4.3829044e-05
0000e0 88 64 a7 b9 00 00 00 00 00 00 00 00 3c 5b bc b9
       -0.00031927624 0.0 0.0 -0.0003592613
0000f0 72 bf d3 ba 5c 67 0d ba 86 98 a4 b9 d4 bb 07 bb
       -0.0016155078 -0.0005394125 -0.00031394156 -0.002071132
000100 d8 9b 3f ba 39 94 11 02 65 26 9e 3a 00 00 00 00
       -0.00073092943 1.0695455e-37 0.0012065886 0.0
000110 22 69 ef 38 e9 cf 1f ba 48 c7 38 ba 00 00 00 00
       0.000114159906 -0.00060963497 -0.0007048738 0.0
000120 3e 73 7b 39 e3 71 06 b9 a8 c4 05 b9 38 9a 09 b9
       0.00023980156 -0.00012821662 -0.00012757129 -0.00013122789
000130 58 c8 ac 39 ce 88 19 02 6f c0 3f bb 00 00 00 00
       0.00032955664 1.1279926e-37 -0.0029258986 0.0
000140 7c ed a0 bb de 0a 17 02 fc 34 fd ba 44 bb 27 ba
       -0.004911123 1.1096847e-37 -0.0019318159 -0.0006398449
000150 e3 59 c3 ba 38 3a 1c 38 8d 89 ca b9 d0 96 d0 37
       -0.0014904108 3.724752e-05 -0.00038630926 2.486576e-05
000160 51 34 dc b9 b0 1e 48 b8 00 00 00 00 00 00 00 00
       -0.0004200065 -4.7712296e-05 0.0 0.0
000170 48 15 b1 ba 97 af 8b 0f d1 45 c0 38 00 00 00 00
       -0.0013510371 1.3774093e-29 9.168278e-05 0.0
000180 04 6e bf ba c2 f5 e3 ba b8 31 6c b9 00 00 00 00
       -0.0014604931 -0.0017391967 -0.00022525236 0.0
000190 d1 33 90 bb 5b d9 1e bc 18 8d a9 b8 c0 80 63 b8
       -0.0044007082 -0.009695376 -8.084829e-05 -5.4240925e-05
0001a0 e5 f3 d4 b9 b3 82 09 ba 8f e0 8f b9 f6 6b e7 38
       -0.00040617507 -0.0005245611 -0.00027442395 0.00011035048
0001b0 d0 87 20 ba 10 6c eb 39 90 cd f3 ba 8c 40 c6 b9
       -0.0006123753 0.00044903206 -0.0018600691 -0.00037813594
0001c0 bd 0e a3 ba 72 e1 a1 ba 57 d3 1e bb 00 00 00 00
       -0.0012440305 -0.0012350513 -0.0024234855 0.0
0001d0 7e 9d 59 2a e8 f2 8c 3a 4e cd 11 02 0c f0 14 ba
       1.9328113e-13 0.0010753544 1.0711837e-37 -0.0005681522
0001e0 1e a3 21 ba 20 f9 4d b7 00 00 00 00 98 48 70 38
       -0.0006165969 -1.2276956e-05 0.0 5.7288067e-05
0001f0 0c f0 b0 3a 88 eb b0 38 de 43 82 ba 66 16 04 ba
       0.0013499274 8.436205e-05 -0.0009938439 -0.0005038738

exp_avg_sq f4 [128]
000000 54 c1 e4 34 25 6b 43 38 49 53 b6 36 a2 e9 a7 36
       4.2608974e-07 4.659141e-05 5.4337183e-06 5.0041863e-06
000010 25 af 5d 37 98 0f 49 37 6d fd 39 35 f1 0d bc 34
       1.32134055e-05 1.1984164e-05 6.9286654e-07 3.5027873e-07
000020 6e b1 f9 36 bb a4 fe 36 3f 0c 4d 38 17 97 8e 36
       7.441434e-06 7.588967e-06 4.8887214e-05 4.249519e-06
000030 15 88 56 36 a3 1a d3 30 4e 4c 03 30 0e d2 0a 32
       3.1967695e-06 1.5359841e-09 4.776596e-10 8.080418e-09
000040 43 d0 c8 37 11 ae 0a 37 7b 28 5e 36 eb 3e 3b 38
       2.3938837e-05 8.265969e-06 3.310414e-06 4.464287e-05
000050 a4 61 53 36 02 15 48 36 62 2a bb 2f 00 00 00 00
       3.1498284e-06 2.981455e-06 3.4045217e-10 0.0
000060 00 00 00 00 06 86 2e 37 57 79 2b 38 00 00 00 00
       0.0 1.0402413e-05 4.0882584e-05 0.0
000070 30 8e 95 36 bd a9 21 38 a5 c8 19 37 51 e3 ea 35
       4.457099e-06 3.8543472e-05 9.166227e-06 1.7500516e-06
000080 b2 3c 43 36 00 00 00 00 fe 0e a1 36 00 00 00 00
       2.9092594e-06 0.0 4.799919e-06 0.0
000090 21 e4 06 38 59 df af 37 e5 35 8b 37 11 26 28 2f
       3.216055e-05 2.096563e-05 1.6595188e-05 1.5293035e-10
0000a0 87 36 67 36 f9 56 00 37 80 2c 33 37 a9 1d c1 37
       3.4453421e-06 7.649644e-06 1.0679592e-05 2.3021204e-05
0000b0 00 00 00 00 00 00 00 00 10 8f 3c 37 67 3c c0 37
       0.0 0.0 1.1238983e-05 2.291631e-05
0000c0 00 00 00 00 00 00 00 00 bc d9 f3 36 2f ce 05 36
       0.0 0.0 7.267312e-06 1.993856e-06
0000d0 01 ba cb 37 e9 b1 75 37 43 9a 1f 31 51 fb 1b 35
       2.42861e-05 1.4644561e-05 2.3225233e-09 5.8107713e-07
0000e0 b3 51 14 38 00 00 00 00 00 00 00 00 a7 ef 8c 36
       3.5362038e-05 0.0 0.0 4.2002243e-06
0000f0 63 43 1d 38 a3 d4 0f 36 9c 30 f6 35 47 9b c0 37
       3.7494476e-05 2.1432431e-06 1.8342575e-06 2.296049e-05
000100 9b 7f dc 36 4f ed aa 2f 81 48 82 38 00 00 00 00
       6.571366e-06 3.1091438e-10 6.212388e-05 0.0
000110 7c 0e 43 35 ea 31 95 35 cb 45 33 37 00 00 00 00
       7.266424e-07 1.1115892e-06 1.0685481e-05 0.0
000120 a8 54 f9 34 14 07 a3 35 ff 3e fb 35 29 b3 d3 36
       4.644146e-07 1.2146506e-06 1.8719292e-06 6.309147e-06
000130 1a 98 54 36 29 1f b0 2b d0 c9 02 38 00 00 00 00
       3.1678996e-06 1.2514201e-12 3.1182368e-05 0.0
000140 0f 9f 99 38 13 10 9f 2f ee e7 01 36 b8 b4 b8 36
       7.3252355e-05 2.8933353e-10 1.9357499e-06 5.5046658e-06
000150 29 14 c0 36 4a 11 06 37 92 02 3f 36 bf 5b b3 35
       5.724393e-06 7.991048e-06 2.8462714e-06 1.3363241e-06
000160 3c d2 b5 36 58 85 c7 36 00 00 00 00 00 00 00 00
       5.418695e-06 5.9461854e-06 0.0 0.0
000170 43 5f 6b 37 0d ca 84 33 18 27 51 35 00 00 00 00
       1.4029271e-05 6.183482e-08 7.7915456e-07 0.0
000180 c0 26 0a 37 db cf 02 38 5f 26 b5 35 00 00 00 00
       8.234463e-06 3.1187996e-05 1.3496718e-06 0.0
000190 c2 cf 4d 38 30 eb 04 39 5b 8d 43 36 50 cd 03 36
       4.90693e-05 0.00012676115 2.9139544e-06 1.9640029e-06
0001a0 1a 04 6b 36 7a 33 70 37 6c 97 f6 35 fd 8c 00 35
       3.5020116e-06 1.43171e-05 1.8372498e-06 4.788888e-07
0001b0 ce 8a 98 37 75 dd 6c 37 1b d0 29 38 ed 19 9e 35
       1.8184448e-05 1.4118258e-05 4.0486553e-05 1.1779463e-06
0001c0 1c c8 8f 37 d3 2a 85 36 59 c2 8d 37 00 00 00 00
       1.7140112e-05 3.9686943e-06 1.689901e-05 0.0
0001d0 60 1a 94 31 55 8d 6a 38 9b f0 1c 2f 63 75 f3 36
       4.3103654e-09 5.5921573e-05 1.4273598e-10 7.25563e-06
0001e0 a4 fd 05 37 4a eb a7 36 00 00 00 00 7e e8 b1 36
       7.986473e-06 5.004379e-06 0.0 5.3020767e-06
0001f0 1a b8 aa 36 6b 55 83 36 11 85 22 37 bc 89 c5 37
       5.087827e-06 3.914048e-06 9.686934e-06 2.3548368e-05
