lightning_model_releases/lightning_quantile_test/model_params/0.9_80558_1331_lightning_quantile.ckpt (torch, 311310 bytes, 15 tensors)

model.0.weight f4 [128, 131]
0.008367446 0.20576166 -0.10849037 0.071549416 0.21703376 0.36416775 0.10875975 0.114542335
0.0010709731 0.13572857 -0.041785568 0.09825063 0.17731047 0.04216091 0.18690538 0.17554116
0.19990046 0.29277256 0.029471105 0.093248546 0.17785417 0.2130685 0.19367929 0.057738952
0.07563452 0.2015884 0.1668478 0.12689924 0.19350223 -0.22935022 0.08185651 0.23024333
-0.11877606 0.12442119 -0.033769686 0.0825206 0.1644849 -0.013648512 0.04145859 -0.2714179
-0.1427909 -0.009302482 0.1617848 0.4360101 0.118268624 -0.0177714 0.33090025 0.07906531
0.2254469 0.00040231537 -0.037172206 0.20481701 0.15921615 0.35213828 0.028022485 -0.1815943
-0.06180013 0.21440512 0.10418583 -0.07228388 -0.18258579 0.11998069 0.26270363 -0.0041602063
0.13737684 -0.050159737 0.073092185 -0.04648652 0.015837057 -0.46406883 0.46083254 0.2109039
0.4748575 0.44950962 -0.3007525 0.0005741325 0.12800597 0.067696445 0.3676581 0.02702597
-0.1230757 0.15451923 0.15975514 -0.06251005 0.25517184 -0.06297711 0.18126471 0.07338763
0.0147275925 -0.0570231 -0.035671704 0.058318224 -0.031199612 -0.0024245067 -0.14212619 -0.026318872
0.0012956464 0.010080263 -0.12759767 0.24967113 -0.11323179 -0.034626205 -0.031096771 0.437253
0.6536559 -0.19667386 -0.07412476 0.10069499 0.27358264 0.36134428 0.48176658 0.8285173
-0.0741133 -0.259933 -0.04443932 -0.04721647 0.013662204 0.18962188 -0.13262619 -0.014892011
0.14362878 0.11702344 -0.04780697 -0.23584041 -0.062398896 -0.09798293 -0.07176718 -0.1242275
-0.029581321 -0.1013014 0.027734144 0.058130994 -0.12001921 0.3910966 0.043100607 -0.039684977
-0.072523594 -0.08686022 0.0249976 -0.019085526 0.03401532 0.054990098 0.06486633 -0.06413457
-0.015086539 0.03481172 0.16893825 0.07053503 0.07959088 -0.06927793 0.038957123 -0.037580278
-0.009574465 0.22844857 0.07958209 -0.06412555 0.063371 0.118004665 -0.029829253 -0.086108714
0.15038903 0.22054306 0.23811197 -0.17495887 0.016415944 0.06544941 -0.05703811 0.11326146
0.07283147 -0.07737571 0.078794435 -0.007195595 -0.06912846 -0.14820038 0.25724468 0.023328455
0.07415729 -0.051864225 0.015996438 -0.084322765 0.025229853 0.31413105 0.28476077 0.16767058
0.47819924 0.23248479 -0.10560328 -0.20255242 0.25188348 0.3259957 0.13757196 -0.011993145
0.19677842 0.039601285 0.028537966 0.083357334 0.04021962 0.16395752 0.04102265 -0.040821258
-0.039967656 -0.0023681894 0.07357719 -0.01131784 -0.0043455884 -0.005290166 -0.09827282 -0.078263514
-0.03919366 0.14243993 -0.013871152 0.021348229 0.09641426 -0.0942175 -0.04007807 0.1213851
0.051014986 0.10225311 0.24995264 0.09274622 0.21296379 0.0051179146 -0.039734013 -0.027824795
-0.038271666 0.17974529 0.19747868 0.024496602 -0.0818471 -0.20150967 -0.107718185 0.2081891
-0.041417684 0.107696466 0.08852996 -0.121106714 0.05744717 -0.06644572 0.43266803 0.20676635
-0.0022687 -0.005874815 -0.11223694 0.009562328 0.22195894 -0.03840028 -0.05708919 0.028981708
0.38278505 -0.16393013 0.25050312 -0.09705537 0.07539989 -0.20528802 -0.085806504 -0.116171174
00000000: 9d17 093c 2fb3 523e 3330 debd 8088 923d
00000010: 193e 5e3e 3274 ba3e 6fbd de3d 2c95 ea3d
00000020: e55f 8c3a 6efc 0a3e 5827 2bbd a037 c93d
00000030: e090 353e ebb0 2c3d 2064 3f3e 10c1 333e
00000040: b5b2 4c3e 49e6 953e 636d f13c 18f9 be3d
00000050: 671f 363e a12e 5a3e dd53 463e ae7f 6c3d
00000060: 45e6 9a3d 316d 4e3e 26da 2a3e e0f1 013e
00000070: 7325 463e c9da 6abe 63a4 a73d e8c4 6b3e
00000080: dd40 f3bd 89d0 fe3d 1552 0abd 8f00 a93d
00000090: bb6e 283e 029e 5fbc 7cd0 293d 49f7 8abe
000000a0: c737 12be 7069 18bc eaaa 253e b73c df3e
000000b0: d236 f23d 5495 91bc c26b a93e feec a13d
000000c0: 8ddb 663e dbed d239 e241 18bd 8dbb 513e
000000d0: 8f09 233e 784b b43e 698f e53c dbf3 39be
000000e0: 2222 7dbd 048d 5b3e 615f d53d 9209 94bd
000000f0: c5f7 3abe 70b8 f53d 1781 863e 5752 88bb
00000100: 84ac 0c3e 4c74 4dbd 5bb1 953d a668 3ebd
00000110: b7bc 813c 6e9a edbe 3ef2 eb3e 31f7 573e
00000120: 8620 f33e 2026 e63e 3bfc 99be 6181 163a
00000130: ff13 033e 6fa4 8a3d af3d bc3e 9165 dd3c
00000140: 1d0f fcbd 4a3a 1e3e da96 233e 4505 80bd
00000150: e2a5 823e 25fa 80bd 759d 393e 414c 963d
00000160: 004c 713c 0e91 69bd 7e1c 12bd 17df 6e3d
00000170: 5496 ffbc 79e4 1ebb 8789 11be ad9a d7bc
00000180: aed2 a93a b027 253c f7a8 02be caa9 7f3e
00000190: 12e6 e7bd 35d4 0dbd a8be febc a0df df3e
000001a0: fe55 273f df64 49be b9ce 97bd 2d39 ce3d
000001b0: 0613 8c3e 1e02 b93e 1caa f63e b619 543f
000001c0: b7c8 97bd f015 85be 0106 36bd 0f66 41bd
000001d0: 70d7 5f3c 3d2c 423e 29cf 07be 9ffd 73bc
000001e0: 6c13 133e fca9 ef3d 3ed1 43bd 2680 71be
000001f0: fc95 7fbd 46ab c8bd acfa 92bd fd6a febd
00000200: 8754 f2bc 1c77 cfbd b732 e33c c41a 6e3d
00000210: a2cc f5bd d03d c83e 438a 303d b78c 22bd
00000220: 4087 94bd c5e3 b1bd c4c7 cc3c 4059 9cbc
00000230: a653 0b3d 4c3d 613d a3d8 843d fc58 83bd
00000240: 882d 77bc bc96 0e3d 26fe 2c3e ab74 903d
00000250: 8b00 a33d 96e1 8dbd 8191 1f3d c7ed 19bd
00000260: 38de 1cbc 6cee 693e effb a23d 4254 83bd
00000270: a8c8 813d 6eac f13d 7a5c f4bc c459 b0bd
00000280: 95ff 193e 0ad6 613e a0d3 733e 6b28 33be
00000290: bb7a 863c 570a 863d cba0 69bd a0f5 e73d
000002a0: aa28 953d 2877 9ebd fa5e a13d 07c9 ebbb
000002b0: 3993 8dbd d7c1 17be 93b5 833e 511b bf3c
000002c0: c7df 973d 956f 54bd f60a 833c 6ab1 acbd
000002d0: d6ae ce3c c9d5 a03e 2acc 913e d6b1 2b3e
000002e0: 88d6 f43e 7e10 6e3e 8846 d8bd e769 4fbe
000002f0: dff6 803e e9e8 a63e aadf 0c3e e57e 44bc
00000300: 4880 493e f534 223d 74c8 e93c 40b7 aa3d
00000310: 54bd 243d 7be4 273e 5e07 283d 3134 27bd
00000320: 20b5 23bd a033 1bbb a3af 963d 766e 39bc
00000330: 7065 8ebb 2159 adbb 4343 c9bd 9f48 a0bd
00000340: 8889 20bd c6db 113e d443 63bc 7be2 ae3c
00000350: d774 c53d 1bf5 c0bd e728 24bd c098 f83d
00000360: 17f5 503d 146a d13d 96f3 7f3e bbf1 bd3d
00000370: 2e13 5a3e 2eb4 a73b 22c0 22bd d3f0 e3bc
00000380: c0c2 1cbd 260f 383e da37 4a3e 19ad c83c
00000390: 749f a7bd 8d58 4ebe 5a9b dcbd 862f 553e
000003a0: 97a5 29bd f78f dc3d 324f b53d cc06 f8bd
000003b0: b94d 6b3d b214 88bd aa86 dd3e 8fba 533e
000003c0: 78ae 14bb 8581 c0bb 7bdc e5bd 50ab 1c3c
000003d0: 3449 633e 9d49 1dbd 5bd6 69bd 0c6b ed3c
000003e0: 67fc c33e 4ddd 27be f241 803e f7c4 c6bd
000003f0: 426b 9a3d 0637 52be 52bb afbd 27eb edbd

model.0.bias f4 [128]
0.02629263 0.06166882 -0.0030703158 -0.0038872568 0.06709493 0.08086938 -0.05642894 0.18755662
-0.07278042 -0.026712857 -0.0031279568 0.12988828 -0.10782945 -0.03407111 0.057625435 -0.012368401
0.026516102 -0.108321376 -0.080000885 0.18684496 -0.0132126035 -0.0027427978 -0.05568345 0.05838878
0.06559059 -0.009052874 0.0008477665 -0.03691174 0.01953644 0.057172492 0.048679784 -0.008682442
-0.030916631 -0.08886487 -0.03213998 0.01136036 0.05865446 0.092265315 0.06690332 -0.063474566
-0.05385469 -0.10603209 -0.016894706 0.11200558 0.17659402 0.0045811385 0.058097262 0.0019908648
-0.12890837 -0.016483493 -0.058906104 0.033474464 0.08999419 -0.089769945 -0.08458402 0.108700775
0.078810744 0.041451164 0.09696875 0.026915746 -0.0020294357 -0.043805756 -0.06900749 0.037752412
-0.033356667 -0.04028107 0.04680627 0.46653047 0.14161593 0.025106113 -0.06185583 0.03151033
-0.056336764 0.015251105 0.04668739 -0.074573755 0.0926704 -0.016536037 0.17576565 -0.03731328
0.057995033 0.007074484 -0.032717407 -0.018747868 0.055924892 0.012474869 -0.06522919 -0.008351256
-0.121906765 -0.08112744 0.080452465 0.049755342 0.064000346 0.04784561 -0.10520181 0.14702868
-0.048624918 0.038380515 0.08359507 -0.07926138 -0.051327262 0.046961118 -0.10976334 -0.114643216
-0.07135889 0.07507204 -0.011339894 -0.07773095 -0.025437657 0.06517325 0.15380195 -0.0046583763
-0.09946314 -0.026092283 0.09872867 -0.04103654 0.010207511 0.0651986 0.10341433 0.00028345943
0.047000714 -0.03026561 0.14613798 0.01111285 0.15290344 -0.071487606 0.084672205 -0.014782432
00000000: a463 d73c 7298 7c3d 5a37 49bb 59c1 7ebb
00000010: 1169 893d d89e a53d 0822 67bd d80e 403e
00000020: e70d 95bd ecd4 dabc 68fe 4cbb 6f01 053e
00000030: b0d5 dcbd 268e 0bbd a608 6c3d d5a4 4abc
00000040: 4c38 d93c 99d7 ddbd 81d7 a3bd 4954 3f3e
00000050: ad79 58bc 83c0 33bb 5414 64bd 1329 6f3d
00000060: 5c54 863d 8152 14bc a63c 5e3a c430 17bd
00000070: e20a a03c b42d 6a3d 7464 473d cd40 0ebc
00000080: e044 fdbc c9fe b5bd 36a5 03bd ce20 3a3c
00000090: a93f 703d 99f5 bc3d 9c04 893d f4fe 81bd
000000a0: bc96 5cbd 5a27 d9bd c466 8abc 2e63 e53d
000000b0: 10d5 343e 601d 963b 65f7 6d3d 2b79 023b
000000c0: 8e00 04be 6408 87bc 8747 71bd 851c 093d
000000d0: e04e b83d 4ed9 b7bd 633a adbd 839e de3d
000000e0: 8767 a13d b2c8 293d 8d97 c63d 697e dc3c
000000f0: 4800 05bb aa6d 33bd cd53 8dbd 46a2 1a3d
00000100: 00a1 08bd c3fd 24bd eeb7 3f3d 15dd ee3e
00000110: c403 113e 56ab cd3c 8a5c 7dbd fa10 013d
00000120: 61c1 66bd c5df 793c 473b 3f3d 20ba 98bd
00000130: fbc9 bd3d 9576 87bc e9fb 333e cfd5 18bd
00000140: 338c 6d3d 13d1 e73b b002 06bd 2195 99bc
00000150: 8011 653d 6563 4c3c e296 85bd b5d3 08bc
00000160: 41aa f9bd 2526 a6bd 43c4 a43d 42cc 4b3d
00000170: 9d12 833d c2f9 433d 0c74 d7bd b08e 163e
00000180: ec2a 47bd e334 1d3d e433 ab3d ca53 a2bd
00000190: 893c 52bd 4d5a 403d 9acb e0bd 10ca eabd
000001a0: 9c24 92bd 5fbf 993d f6ca 39bc 6831 9fbd
000001b0: a262 d0bc 8e79 853d 427e 1d3e 4ba5 98bb
000001c0: 55b3 cbbd 7cbf d5bc 4232 ca3d ee15 28bd
000001d0: 673d 273c d886 853d e4ca d33d 489d 9439
000001e0: d283 403d 96ef f7bc 32a5 153e ac12 363c
000001f0: b892 1c3e 1868 92bd 9f68 ad3d 0332 72bc

model.3.weight f4 [64, 128]
-0.0924 0.019194195 -0.06445547 -0.022910198 0.013928957 -0.0005211234 -0.0054426882 0.039218694
0.069758795 -0.06434004 -0.029700773 -0.09284413 0.06869991 0.039903447 -0.028937899 0.05688881
0.026013546 0.028193267 0.05013975 0.112171724 0.093295135 -0.051774405 0.056607313 -0.050286964
0.11213247 0.018314168 0.10394127 0.017215962 -0.026647922 0.0015983358 0.051009886 0.009387938
0.07269094 -0.037250742 0.02453172 0.0725007 0.111201465 -0.048934683 -0.047088936 -0.08335195
-0.010667153 0.043858375 0.077961415 0.0011597405 -0.105854735 0.04818947 -0.048340183 -0.010845409
0.16282941 -0.0148746 0.055525195 0.03811741 0.037036676 0.047437232 0.068738885 -0.106849834
0.070716485 0.049257405 0.059355296 -0.053051017 0.029568221 0.06736856 0.05284635 -0.0020129567
0.065237544 -0.0716458 0.06437518 -0.28226689 -0.028015725 -0.006998317 0.015505769 0.019664004
0.000762327 -0.10486696 -0.0692652 -0.06987343 -0.1262155 0.023403598 0.028876651 0.020807475
0.031356767 0.05598941 0.023586811 -0.06105035 -0.043047022 0.009537378 0.013777804 -0.07727986
0.07119547 0.065014996 -0.13988526 -0.13418502 0.021234103 0.010716321 0.011275633 -0.102108404
0.020304294 -0.0057249963 -0.0514379 -0.122061044 0.056305226 0.13225257 0.07758667 0.017028742
0.0130778765 0.084958486 -0.052891504 0.06567374 0.07614606 0.0038412022 0.083540015 -0.04744496
-0.04160807 0.06866676 0.06507032 -0.12079126 0.063625254 0.2674345 -0.10587597 -0.06010595
0.024955621 0.06774602 -0.18544059 -0.027705288 -0.03269724 -0.05622772 0.08339912 0.052888688
-0.027905948 0.1598849 -0.085833915 -0.040271845 0.01197819 -0.079656415 -0.0024840098 0.0699098
0.019169843 -0.0018039452 -0.017437007 -0.022114147 -0.095850326 -0.0713462 0.012851876 0.05963616
0.017082462 -0.07293985 -0.00012389252 -0.08467984 -0.084710956 -0.039255787 -0.07202427 0.01676102
0.10593566 0.0401236 0.055053633 0.08739167 0.0072140256 0.022425627 -0.10209446 -0.05786962
-0.08854235 -0.0023412858 -0.0030031628 0.07779107 0.038977753 -0.066444755 -0.0014629755 0.20170552
-0.0016093664 -0.0915155 -0.010384351 0.00584856 0.038746905 0.08073356 0.051131193 -0.06565776
0.10330704 -0.07910511 -0.07924401 0.023197059 -0.022228995 0.053475544 0.029465001 -0.03289453
0.057499688 -0.06343317 0.018851548 0.00801857 0.059374407 0.06461257 0.021071978 -0.057904713
0.046939634 0.09760873 -0.02280583 -0.020685615 -0.00012040033 -0.022094788 0.0057210894 0.0041439338
-0.04079657 -0.0013030003 -0.017677246 -0.07916345 -0.08616777 0.06265507 -0.017857885 0.0021617338
0.12469416 0.12884495 0.070405886 0.024963252 0.033242226 -0.09113334 0.06134585 -0.08089784
-0.07766712 -0.05695453 0.06669949 0.08875322 0.0022152122 0.036156837 -0.09710449 0.17250903
0.0063138404 0.013874517 0.027611095 0.053816367 0.0627432 -0.058686078 0.02262046 0.026907858
-0.07015928 0.07501811 0.029967837 -0.06000718 -0.068066046 0.041418787 -0.022284336 -0.006387238
0.017584555 0.009955414 -0.07274281 0.110663995 0.008243473 0.043148603 0.079198964 0.014875739
-0.030758306 0.036991794 0.3429835 0.04784605 -0.027880067 0.1404249 0.043780424 -0.011461625
00000000: 363c bdbd 253d 9d3c 3b01 84bd 2bae bbbc
00000010: 4836 643c 009c 08ba 9458 b2bb c8a3 203d
00000020: b3dd 8e3d b6c4 83bd 094f f3bc 1025 bebd
00000030: 8ab2 8c3d cc71 233d 2c0f edbc 3e04 693d
00000040: 5c1a d53c 91f5 e63c 575f 4d3d 4aba e53d
00000050: 8511 bf3d 6611 54bd 12dd 673d b4f9 4dbd
00000060: b5a5 e53d 9807 963c 29df d43d 7d08 8d3c
00000070: be4c dabc 407f d13a beef 503d decf 193c
00000080: fdde 943d 3c94 18bd bff6 c83c 3f7b 943d
00000090: 98bd e33d bc6f 48bd 54e0 40bd 6db4 aabd
000000a0: 48c5 2ebc d7a4 333d 3caa 9f3d 6f02 983a
000000b0: 5eca d8bd 5262 453d 5b00 46bd f1b0 31bc
000000c0: c1bc 263e 98b4 73bc 636e 633d 0021 1c3d
000000d0: c5b3 173d 8b4d 423d f9c6 8c3d 16d4 dabd
000000e0: ced3 903d 22c2 493d 8a1e 733d 064c 59bd
000000f0: 0e39 f23c 87f8 893d 6a75 583d cfeb 03bb
00000100: 439b 853d 08bb 92bd 22d7 833d 4985 90be
00000110: 3c81 e5bc 2352 e5bb e90b 7e3c 6816 a13c
00000120: e6d6 473a 7dc4 d6bd eada 8dbd cd19 8fbd
00000130: a33e 01be e7b8 bf3c ba8e ec3c 7074 aa3c
00000140: f46f 003d 2755 653d 2139 c13c ef0f 7abd
00000150: 1352 30bd aa42 1c3c 4cbc 613c e744 9ebd
00000160: eece 913d 9526 853d 153e 0fbe cc67 09be
00000170: 24f3 ad3c 8293 2f3c 6fbd 383c 361e d1bd
00000180: 3155 a63c c098 bbbb 8cb0 52bd 24fb f9bd
00000190: 4fa0 663d 386d 073e c3e5 9e3d dc7f 8b3c
000001a0: 9744 563c b7fe ad3d c3a4 58bd f47f 863d
000001b0: 77f2 9b3d aebc 7b3b 0717 ab3d a555 42bd
000001c0: 396d 2abd 29a1 8c3d 9743 853d 6861 f7bd
000001d0: f54d 823d 2ded 883e 80d5 d8bd a831 76bd
000001e0: bb6f cc3c 6dbe 8a3d 23e4 3dbe 33f6 e2bc
000001f0: 8bed 05bd 0a4f 66bd 28cd aa3d cfa1 583d
00000200: 049b e4bc deb8 233e b1c9 afbd 17f4 24bd
00000210: 2c40 443c e722 a3bd c5ca 22bb df2c 8f3d
00000220: 130a 9d3c 5b72 ecba 0ed8 8ebc ba28 b5bc
00000230: 2d4d c4bd f51d 92bd ad90 523c 0c45 743d
00000240: 85f0 8b3c 7d61 95bd 25e9 01b9 a06c adbd
00000250: f07c adbd adca 20bd 7681 93bd 684e 893c
00000260: ccf4 d83d a558 243d eb7f 613d 67fa b23d
00000270: a263 ec3b f3b5 b73c e616 d1bd b208 6dbd
00000280: b155 b5bd 4270 19bb b6d0 44bb ed50 9f3d
00000290: 23a7 1f3d 3014 88bd 50c1 bfba e48b 4e3e
000002a0: 60f1 d2ba 7a6c bbbd 2023 2abc 47a5 bf3b
000002b0: 13b5 1e3d a357 a53d f16e 513d 9377 86bd
000002c0: a492 d33d dc01 a2bd af4a a2bd c207 be3c
000002d0: 9519 b6bc 2c09 5b3d 9660 f13c 6abc 06bd
000002e0: cb84 6b3d 40e9 81bd 906e 9a3c 5260 033c
000002f0: 9432 733d 9853 843d 249f ac3c 7e2d 6dbd
00000300: c643 403d 16e7 c73d 4bd3 babc e174 a9bc
00000310: 6f7f fcb8 2100 b5bc fa77 bb3b d6c9 873b
00000320: 4e1a 27bd 6fc9 aaba dfcf 90bc 7220 a2bd
00000330: ba78 b0bd 4d51 803d b34a 92bc e0ab 0d3b
00000340: a75f ff3d eeef 033e f630 903d bc7f cc3c
00000350: 0029 083d 1ea4 babd c945 7b3d c4ad a5bd
00000360: f00f 9fbd 2749 69bd be99 883d 40c4 b53d
00000370: 182d 113b 3119 143d b8de c6bd 35a6 303e
00000380: 55e4 ce3b f151 633c aa30 e23c 8d6e 5c3d
00000390: 827f 803d d060 70bd 8b4e b93c de6d dc3c
000003a0: abaf 8fbd 18a3 993d 1c7f f53c 17ca 75bd
000003b0: 3666 8bbd bfa6 293d a48d b6bc 094c d1bb
000003c0: 7c0d 903c 081c 233c 2ffa 94bd cea3 e23d
000003d0: a20f 073c 97bc 303d 1133 a23d 5fb9 733c
000003e0: d8f8 fbbc b584 173d 899b af3e 38fa 433d
000003f0: bd64 e4bc 8ccb 0f3e 1a53 333d 8ac9 3bbc

model.3.bias f4 [64]
0.05405866 -0.06621025 0.0916613 0.079582594 -0.15007234 0.028827598 -0.059165675 -0.118656024
-0.027017377 -0.058832835 -0.025374062 0.09136075 0.08776285 0.10634387 0.024005547 -0.13187616
-0.092756525 -0.08547334 0.039718885 0.053815044 0.059286315 -0.032627568 0.10134334 0.007995198
0.062409457 0.06624568 -0.07999199 0.13556911 0.011451168 -0.071517274 -0.071264856 -0.017857388
-0.05294886 0.097202435 0.05157157 -0.0663534 -0.014161641 -0.00474483 0.03869799 0.061077625
0.025627721 0.012743183 -0.03792905 -0.04192251 -0.017600488 -0.11044959 -0.03481703 0.016615752
0.05099052 0.03212289 0.008273281 0.040544976 0.02394581 -0.058482274 -0.004513662 -0.018574324
-0.11655313 0.03316242 -0.013219318 0.09494424 0.020294359 -0.038387544 -0.0566888 0.0017002241
00000000: 9d6c 5d3d 3d99 87bd ebb8 bb3d 33fc a23d
00000010: 90ac 19be db27 ec3c b557 72bd ee01 f3bd
00000020: 8c53 ddbc b3fa 70bd 44dd cfbc 581b bb3d
00000030: 02bd b33d d1ca d93d 48a7 c43c 8b0a 07be
00000040: 22f7 bdbd a50c afbd 45b0 223d 2a6d 5c3d
00000050: 35d6 723d 7ca4 05bd 198d cf3d 4afe 023c
00000060: 0fa1 7f3d d1ab 873d d7d2 a3bd a1d2 0a3e
00000070: ae9d 3b3c a677 92bd 4ff3 91bd a849 92bc
00000080: e7e0 58bd 1212 c73d b63c 533d 4be4 87bd
00000090: 3a06 68bc 857a 9bbb c981 1e3d 882c 7a3d
000000a0: 3af1 d13c c9c8 503c 7e5b 1bbd f0b6 2bbd
000000b0: e62e 90bc 6533 e2bd 4d9c 0ebd c21d 883c
000000c0: 6fdb 503d 4b93 033d a88c 073c 7d12 263d
000000d0: 012a c43c 1c8b 6fbd 57e7 93bb 2e29 98bc
000000e0: 68b3 eebd 51d5 073d d795 58bc 2072 c23d
000000f0: 5b40 a63c 423c 1dbd 8432 68bd 0eda de3a

model.6.weight f4 [1, 64]
0.112286 -0.04480921 0.06684231 0.042876773 -0.09120136 0.062122747 0.104940444 -0.11261096
-0.07104733 0.10199966 -0.046679944 0.059916068 0.07889828 0.06026308 0.07447993 -0.07128751
-0.0015352154 -0.007625838 0.060275953 -0.0017363155 -0.017094776 -0.060130488 0.102246396 0.04967955
0.07417394 0.0879486 0.045471177 0.10305548 0.059375558 -0.004117498 0.049207386 -0.09687046
-0.048919234 0.11962339 0.12083121 -0.075108975 -0.042617932 0.08415376 -0.099706754 0.03582045
-0.1001435 -0.040784657 -0.07669577 0.047737427 -0.005087379 -0.055542935 0.072250836 -0.030873578
-0.108018 0.08955681 0.103251204 -0.008414459 0.055817857 0.062292024 0.0101143895 -0.03618143
-0.093415074 0.08093966 0.051214375 0.08556932 0.068892166 -0.036057465 -0.047197178 0.050207604
00000000: 34f6 e53d dd89 37bd 9fe4 883d 8e9f 2f3d
00000010: c7c7 babd 6c74 7e3d 04eb d63d 93a0 e6bd
00000020: 4381 91bd 33e5 d03d 7833 3fbd 8d6a 753d
00000030: 6c95 a13d 6bd6 763d ef88 983d 30ff 91bd
00000040: 4839 c9ba 2ae2 f9bb ebe3 763d 1595 e3ba
00000050: 580a 8cbc 634b 76bd 8f66 d13d c97c 4b3d
00000060: 82e8 973d 651e b43d fc3f 3a3d c00e d33d
00000070: c933 733d 14ec 86bb af8d 493d 0564 c6bd
00000080: 895f 48bd 1cfd f43d 5a76 f73d bcd2 99bd
00000090: 2490 2ebd ce58 ac3d 0e33 ccbd 77b8 123d
000000a0: 0918 cdbd d00d 27bd ac12 9dbd 5288 433d
000000b0: 07b4 a6bb fd80 63bd 3ff8 933d 96ea fcbc
000000c0: 8b38 ddbd 9069 b73d 5e75 d33d cddc 09bc
000000d0: 44a1 643d ec25 7f3d d3b6 253c fb32 14bd
000000e0: 6750 bfbd b1c3 a53d 2ac6 513d f83e af3d
000000f0: 5617 8d3d feb0 13bd d451 41bd 7da6 4d3d

exp_avg f4 [128, 131]
3.728546e-28 -4.1758743e-05 -6.41248e-06 0.0001498727 -4.35926e-06 -1.7385458e-06 -4.9756237e-11 -1.4850285e-36
-7.9521425e-07 -5.6945872e-08 1.220874e-35 -1.6510225e-07 6.553676e-08 -2.3740868e-06 -9.93823e-06 -4.2207057e-06
-3.8037598e-28 -2.3314587e-06 1.01595665e-08 3.0466e-08 -9.570776e-07 -1.0169977e-06 -9.736784e-09 -7.9521425e-07
1.1413157e-08 -1.2843908e-05 -2.93368e-06 7.578123e-08 6.051525e-08 3.1890694e-26 -2.0781988e-06 -2.6058954e-06
5.2722643e-26 -0.00015881844 -3.4955863e-06 -2.2317658e-05 -2.2226577e-05 -9.2661185e-07 -0.00013997173 0.00012722146
1.0449071e-17 -5.247803e-05 7.862308e-05 -6.821654e-05 -2.4897752e-06 -2.3333421e-05 -4.2763433e-05 -7.67161e-05
-2.4227196e-05 -4.3686283e-05 -3.154742e-05 0.00019386964 -8.3929335e-06 -4.9363396e-05 3.610937e-05 -9.160272e-05
-0.00016765627 -7.2577306e-05 -2.1819837e-05 -2.5045982e-05 2.960054e-05 -8.605676e-07 1.789265e-07 -2.0574032e-06
-5.089204e-07 -3.3053338e-06 -1.7715804e-05 -6.102215e-06 -1.2207964e-05 0.00013149886 -6.2402087e-06 -7.96528e-06
-2.3835451e-05 -4.849016e-05 -1.0627217e-05 -3.2607584e-06 -4.521811e-06 -5.0280673e-06 -4.194718e-06 -2.2414627e-06
-2.4082762e-18 -8.926002e-06 -8.2174865e-06 -1.186267e-05 -2.8270194e-06 -1.9181232e-05 -1.1737977e-05 -1.6319682e-05
-5.4316583e-06 3.4402157e-07 5.6630285e-33 5.6601583e-27 -1.8258758e-29 -1.36464e-35 1.0450077e-17 -1.0145946e-21
-6.6490935e-28 -2.9604374e-28 3.2614218e-26 -3.5016103e-05 -1.747346e-05 0.00019210961 3.776711e-27 -2.5007814e-05
-6.425013e-05 -6.6746e-06 0.0 9.857862e-29 -2.3461736e-05 -3.3468816e-05 -1.746004e-05 -0.00018213574
1.1129562e-37 0.00014138667 -0.00020036452 8.149995e-05 0.0 0.00017222264 -0.0003318363 5.651514e-05
-0.00014281293 -9.94609e-05 2.6145068e-05 0.0041803285 0.0013691174 0.003750646 0.00056221854 -0.00075276784
-0.00408586 -0.0043612067 -0.03159559 -1.1198649e-37 -8.550554e-05 -2.027346e-05 -0.00028999036 -3.3729972e-15
0.0 0.0 0.0 0.0 0.0 -4.593132e-05 0.0 0.0
0.0 -1.1143387e-37 -3.3143072e-15 0.0 0.0 0.0 3.4797602e-27 0.0
0.0 -3.957422e-05 0.0 0.0 -1.0873259e-37 -5.7728165e-16 5.407959e-13 5.977418e-29
-4.8880015e-28 -3.3934562e-15 -2.027346e-05 5.679258e-13 -0.00015273786 -2.027346e-05 5.6453274e-13 -8.550554e-05
2.990962e-27 -0.00018788473 0.00016741411 -0.00011702279 0.00014839655 0.00025608443 -0.0005557193 -2.8420903e-14
-3.5898574e-05 6.0985566e-14 -5.342416e-06 -1.2510046e-11 4.118195e-14 -1.0649828e-05 -0.00031086942 1.1567961e-05
-0.00012488813 0.00018417703 6.572828e-05 4.7655147e-05 -2.6108743e-05 -0.00015349039 -1.6906317e-13 -1.2982673e-17
-5.9933735e-15 1.5136236e-13 -7.5883175e-15 -1.7588219e-14 -5.8823986e-28 -3.5898574e-05 -1.0957926e-37 3.366447e-27
0.00034641186 -1.1289429e-37 0.0 6.0985566e-14 0.0 7.004025e-14 -5.342416e-06 0.0
-4.602923e-15 -1.2929646e-11 5.378443e-13 -2.1864194e-05 -1.1363608e-13 1.494176e-13 -2.0896052e-14 -1.0354835e-14
-6.005129e-14 -1.6933437e-14 -2.6115115e-09 -1.722629e-14 -1.0647211e-05 -8.712658e-12 -3.643141e-06 -9.3810355e-05
6.526899e-05 -1.0303164e-05 -7.817827e-05 4.6397966e-13 0.00014383756 -7.2457085e-05 0.00013919242 -6.21763e-05
0.00018055552 -1.6208482e-05 0.00015070545 -2.4066844e-09 -7.517414e-05 0.0 -0.00047059215 -6.891871e-05
-2.2150549e-14 -8.028105e-15 -1.5326077e-06 -6.0987037e-05 -9.021822e-05 -2.5488017e-28 0.0 0.0
-0.00024001252 8.727468e-05 -0.00038830523 -4.1240994e-05 -1.0649842e-05 0.00028745816 0.04202484 0.015127867
00000000: 1e53 ec11 1c26 2fb8 c92a d7b6 2627 1d39
00000010: c245 92b6 fb57 e9b5 8bd4 5aae 1daa fc83
00000020: b576 55b5 a694 74b3 5ad3 8105 f646 31b4
00000030: 37bd 8c33 8052 1fb6 5fbc 26b7 969f 8db6
00000040: 8817 f191 2876 1cb6 3f8a 2e32 b9d9 0233
00000050: f074 80b5 c67f 88b5 d446 27b2 b576 55b5
00000060: 9813 4432 2a7c 57b7 3de0 44b6 2cbd a233
00000070: 9cf4 8133 42ea 1d15 2f77 0bb6 f1e0 2eb6
00000080: f288 8215 8088 26b9 b795 6ab6 ce36 bbb7
00000090: 3673 bab7 48bc 78b5 60c5 12b9 c066 0539
000000a0: 58c0 4023 db1b 5cb8 72e2 a438 7a0f 8fb8
000000b0: 0316 27b6 24bc c3b7 e35c 33b8 a4e2 a0b8
000000c0: 823b cbb7 ca3b 37b8 c951 04b8 7c49 4b39
000000d0: 60cf 0cb7 8b0b 4fb8 2474 1738 d61a c0b8
000000e0: e3cc 2fb9 a534 98b8 be09 b7b7 d619 d2b7
000000f0: ad4e f837 c101 67b5 f11e 4034 eb11 0ab6
00000100: be9c 08b5 34d1 5db6 669c 94b7 a1c1 ccb6
00000110: ced0 4cb7 f5e2 0939 fc62 d1b6 9ea2 05b7
00000120: 3ef2 c7b7 ea61 4bb8 8d4b 32b7 67d3 5ab6
00000130: 10ba 97b6 c5b6 a8b6 5ac0 8cb6 096c 16b6
00000140: 0db3 31a2 e3c0 15b7 d6dd 09b7 c805 47b7
00000150: d3b7 3db6 62e7 a0b7 3aee 44b7 40e6 88b7
00000160: 9741 b6b6 f7b1 b834 a63b eb09 d338 e013
00000170: 722a b98f 091d 9185 18c5 4023 3a52 999c
00000180: dbb7 5292 d8a3 bb91 6f7f 2115 41de 12b8
00000190: f893 92b7 0871 4939 669c 9513 dfc7 d1b7
000001a0: 07be 86b8 61f6 dfb6 0000 0000 2fed f910
000001b0: b2cf c4b7 de60 0cb8 2777 92b7 b1fb 3eb9
000001c0: dd7c 1702 3241 1439 f118 52b9 f4ea aa38
000001d0: 0000 0000 aa96 3439 50fa adb9 ab0a 6d38
000001e0: 0ec0 15b9 aa95 d0b8 1b52 db37 23fb 883b
000001f0: f573 b33a 66cd 753b d961 133a 6555 45ba
00000200: aee2 85bb 74e8 8ebb 616a 01bd 996d 1882
00000210: 7051 b3b8 ed10 aab7 d909 98b9 d10c 73a7
00000220: 0000 0000 0000 0000 0000 0000 0000 0000
00000230: 0000 0000 61a6 40b8 0000 0000 0000 0000
00000240: 0000 0000 09ad 1782 2dd2 6ea7 0000 0000
00000250: 0000 0000 0000 0000 f6d8 8913 0000 0000
00000260: 0000 0000 7ffc 25b8 0000 0000 0000 0000
00000270: c7ff 1382 de63 26a6 7438 182b a98b 9710
00000280: 2ee8 1a92 3886 74a7 ed10 aab7 5edb 1f2b
00000290: 4228 20b9 ed10 aab7 dfe6 1e2b 7051 b3b8
000002a0: ebf7 6c13 ec02 45b9 e28b 2f39 226a f5b8
000002b0: e59a 1b39 1243 8639 b1ad 11ba 24fe ffa8
000002c0: cd91 16b8 c953 8929 0143 b3b6 3d14 5cad
000002d0: 8e77 3929 aaac 32b7 30fc a2b9 0414 4237
000002e0: 67f4 02b9 a51f 4139 9ad7 8938 53e1 4738
000002f0: 1904 dbb7 43f2 20b9 2459 3eaa f17c 6fa3
00000300: 1def d7a7 3b6b 2a2a f0b2 08a8 ac6b 9ea8
00000310: b06b 3a92 cd91 16b8 cd26 1582 d45b 8513
00000320: 9d9e b539 eba9 1982 0000 0000 c953 8929
00000330: 0000 0000 75b7 9d29 0143 b3b6 0000 0000
00000340: 79d6 a5a7 f375 63ad c463 172b 0069 b7b7
00000350: bde2 ffa9 b13a 282a 0437 bca8 3f89 3aa8
00000360: 3639 87a9 d985 98a8 3276 33b1 1f29 9ba8
00000370: 6ca1 32b7 5346 19ad b07c 74b6 0dbc c4b8
00000380: 06e1 8838 c1db 2cb7 a4f3 a3b8 4299 022b
00000390: 1ad3 1639 1af4 97b8 2ef4 1139 a664 82b8
000003a0: 8153 3d39 73f7 87b7 b006 1e39 d762 25b1
000003b0: cfa6 9db8 0000 0000 cfb9 f6b9 7388 90b8
000003c0: b083 c7a8 199f 10a8 00b4 cdb5 55cc 7fb8
000003d0: 8a33 bdb8 ac8c a191 0000 0000 0000 0000
000003e0: dfab 7bb9 3d07 b738 7295 cbb9 2efa 2cb8
000003f0: b9ac 32b7 fbb5 9639 3d22 2c3d e0da 773c

exp_avg_sq f4 [128, 131]
4.3748294e-08 5.2797446e-08 6.5413516e-08 4.72426e-07 1.1638651e-09 5.849765e-10 1.4968418e-10 1.28683e-10
7.677849e-09 3.167064e-10 7.743962e-09 5.6382593e-10 3.4735403e-10 9.653048e-10 1.2384443e-09 4.807386e-10
7.550719e-10 7.545275e-10 2.1451298e-10 7.1429995e-10 3.5946685e-10 2.3092328e-10 9.337598e-10 2.5886044e-09
6.472175e-10 2.5357405e-09 2.6399216e-10 3.8862524e-10 3.0115552e-10 1.8443021e-08 2.5057454e-09 7.4299167e-10
2.1660858e-08 1.7820356e-06 5.4007852e-08 3.0632656e-08 1.6066384e-08 1.9543446e-08 3.3985375e-06 2.5088767e-07
1.2857875e-07 1.03228274e-07 1.1255179e-07 8.6328036e-08 1.7516055e-07 1.396951e-07 6.4825564e-08 9.778174e-08
5.131143e-08 9.442148e-08 8.003057e-08 1.2823341e-07 1.446281e-07 1.3200794e-07 2.1157156e-07 3.85013e-07
2.40388e-07 1.8127007e-07 1.3432582e-08 6.192661e-08 6.9814604e-08 1.303634e-08 2.1587665e-08 3.390622e-08
1.7703297e-08 4.324981e-08 2.9243937e-08 3.15054e-08 1.05806786e-08 1.9884322e-07 3.4435235e-09 2.9383493e-08
8.936022e-09 5.650272e-09 7.3455844e-08 8.541911e-09 6.7174395e-09 2.0842474e-08 2.8030922e-09 1.9559412e-08
3.901088e-08 3.9742316e-09 1.1304386e-08 3.2292412e-08 8.39269e-09 3.4060783e-08 1.151961e-08 9.713568e-09
2.9233252e-08 2.2262055e-08 1.2786516e-08 1.4335858e-08 1.522502e-08 1.1608909e-08 3.2798688e-08 1.3257099e-08
5.6182987e-08 1.4508307e-08 3.7707963e-08 1.6079081e-08 3.4143135e-08 2.8149136e-08 2.7100166e-08 1.4533141e-08
9.40928e-09 4.9425566e-08 0.0 1.3577867e-08 1.3051563e-08 1.735619e-08 1.9137634e-08 1.08050465e-07
7.350447e-09 2.0125285e-07 8.9211983e-07 3.7449024e-07 0.0 7.0585094e-07 9.1339246e-07 5.1926594e-07
3.3863626e-07 2.3719663e-07 3.4680025e-07 0.02153787 0.014643896 0.015756013 0.01621758 0.016874257
0.021153875 0.01990251 2.710691 5.3474076e-11 2.1999095e-07 6.107406e-08 1.177064e-06 3.0069955e-08
0.0 0.0 0.0 0.0 0.0 4.406163e-09 0.0 0.0
0.0 8.485579e-12 9.324176e-10 0.0 0.0 0.0 8.036919e-09 0.0
0.0 2.7698692e-09 0.0 0.0 1.23756465e-11 2.9970981e-09 8.291076e-08 6.965453e-09
2.1917795e-10 1.3559884e-09 5.9445433e-08 5.541738e-08 3.6579681e-06 6.6464345e-08 5.678579e-08 1.221634e-07
8.25609e-09 6.1911765e-06 3.4978697e-07 5.344673e-07 6.5053723e-07 6.4783035e-07 5.980701e-07 5.9279138e-08
1.5010057e-08 3.1600287e-08 5.3189037e-08 1.1309265e-07 6.1302394e-08 5.6264025e-08 1.518108e-07 3.2601966e-07
1.5990696e-07 7.2878566e-07 8.9523036e-07 1.0445242e-06 6.307745e-08 1.022476e-07 2.8007006e-08 7.7434725e-09
8.01576e-10 1.534652e-08 5.8361587e-09 1.4256976e-09 1.5999417e-10 7.137445e-09 2.302953e-11 1.7827919e-08
6.548447e-08 3.78679e-11 0.0 1.3669408e-08 0.0 2.9241313e-08 2.6589943e-08 0.0
2.664503e-09 2.9187593e-08 8.478647e-08 5.2184745e-08 2.8252776e-09 2.7912018e-08 2.3377709e-08 2.6216949e-09
7.918829e-09 3.020227e-09 1.3269796e-08 5.6997307e-10 1.2933523e-08 6.674114e-08 1.03368194e-07 2.2888383e-07
1.3823298e-07 4.1849603e-08 6.8909536e-08 9.653209e-08 1.0488224e-07 2.4850644e-07 1.8081276e-07 2.6983635e-08
6.807126e-08 3.1150827e-07 9.230427e-08 3.5095826e-07 1.12501006e-07 0.0 1.3635086e-07 1.1604197e-07
4.1773184e-08 1.0269549e-08 1.7731192e-06 1.5277267e-06 9.400084e-08 7.9321834e-11 0.0 0.0
1.4392737e-06 2.0411387e-06 9.444466e-07 1.294142e-07 2.2714498e-07 1.8366189e-06 0.17998978 0.15359256
00000000: c2e5 3b33 68c3 6233 7679 8c33 bca1 fd34
00000010: ddf5 9f30 10cc 2030 5a94 242f 0b7d 0d2f
00000020: 89e7 0332 771c ae2f 4e0a 0532 b9fb 1a30
00000030: bcf5 be2f a5ab 8430 e335 aa30 f924 0430
00000040: 768d 4f30 2767 4f30 09dc 6b2f 6458 4430
00000050: 769e c52f 20e7 7d2f c155 8030 36e3 3131
00000060: e2e7 3130 3841 2e31 9821 912f 24a6 d52f
00000070: df8f a52f a26c 9e32 8a31 2c31 643b 4c30
00000080: bb10 ba32 472e ef35 43f6 6733 f690 0333
00000090: 5a02 8a32 7ee0 a732 6e12 6436 bdb1 8634
000000a0: 750f 0a34 58ae dd33 00b4 f133 5763 b933
000000b0: c413 3c34 19ff 1534 3b36 8b33 14fc d133
000000c0: 8461 5c33 c2c4 ca33 45dd ab33 88b0 0934
000000d0: 124b 1b34 11be 0d34 592c 6334 c9b3 ce34
000000e0: ad0e 8134 23a3 4234 1fc5 6632 84fc 8433
000000f0: fcec 9533 6ef6 5f32 c76f b932 48a0 1133
00000100: f611 9832 abc1 3933 1934 fb32 8e50 0733
00000110: 51c6 3532 9c81 5534 1ba3 6c31 fc66 fc32
00000120: 0a85 1932 5124 c231 c7be 9d33 b9bf 1232
00000130: 39cf e631 1609 b332 85a0 4031 9a03 a832
00000140: eb8c 2733 b68d 8831 3735 4232 e2b1 0a33
00000150: 712f 1032 3a4a 1233 c8e7 4532 b9e0 2632
00000160: 9a1c fb32 c73a bf32 b1ab 5b32 c549 7632
00000170: 2cc8 8232 8670 4732 8ade 0c33 57c1 6332
00000180: d94d 7133 3540 7932 58f4 2133 461e 8a32
00000190: c6a4 1233 9bcc f132 e5c9 e832 6ead 7932
000001a0: 73a6 2132 fc47 5433 0000 0000 1744 6932
000001b0: 6239 6032 aa16 9532 1a64 a432 5f09 e833
000001c0: 378f fc31 f617 5834 027a 6f35 8c0d c934
000001d0: 0000 0000 b579 3d35 da2f 7535 af63 0b35
000001e0: d0cd b534 1db0 7e34 dd2f ba34 3070 b03c
000001f0: f4ec 6f3c c112 813c bbda 843c e23b 8a3c
00000200: e44a ad3c 970a a33c f67b 2d40 752e 6b2e
00000210: a736 6c34 d227 8333 9cfb 9d35 4426 0133
00000220: 0000 0000 0000 0000 0000 0000 0000 0000
00000230: 0000 0000 0565 9731 0000 0000 0000 0000
00000240: 0000 0000 a747 152d 8726 8030 0000 0000
00000250: 0000 0000 0000 0000 be12 0a32 0000 0000
00000260: 0000 0000 0e58 3e31 0000 0000 0000 0000
00000270: f5b6 592d 82f5 4d31 ac0c b233 c654 ef31
00000280: 1cfd 702f 9a5d ba30 f250 7f33 0e04 6e33
00000290: 6a7b 7536 29bb 8e33 a3e4 7333 052c 0334
000002a0: abd6 0d32 cdbd cf36 5bca bb34 5078 0f35
000002b0: 94a0 2e35 90e6 2d35 108b 2035 1a9a 7e33
000002c0: 77ef 8032 e2b8 0733 f771 6433 58dd f233
000002d0: 59a5 8333 f3a6 7133 6f01 2334 cd07 af34
000002e0: e4b2 2b34 c5a1 4335 c34f 7035 9431 8c35
000002f0: 3275 8733 3693 db33 0f94 f032 2708 0532
00000300: e555 5c30 5bd3 8332 6587 c831 46f2 c330
00000310: 5bea 2f2f a13d f531 e491 ca2d 0224 9932
00000320: 78a0 8c33 778b 262e 0000 0000 b1d6 6a32
00000330: 0000 0000 542e fb32 e767 e432 0000 0000
00000340: 6f1a 3731 32b8 fa32 db13 b633 bc21 6033
00000350: cf26 4231 2dc3 ef32 20d0 c832 5829 3431
00000360: 610b 0832 658c 4f31 2ef9 6332 4aac 1c30
00000370: 3c32 5e32 5453 8f33 44fb dd33 1cc3 7534
00000380: 316d 1434 20be 3333 6bfb 9333 144d cf33
00000390: 9f3b e133 776a 8534 6f25 4234 a4c9 e732
000003a0: 922e 9233 5f3d a734 cf38 c633 566b bc34
000003b0: 1598 f133 0000 0000 d767 1234 bf32 f933
000003c0: 1a6a 3333 f46d 3032 e9fb ed35 4a0c cd35
000003d0: 82dd c933 396e ae2e 0000 0000 0000 0000
000003e0: 112d c135 7ffa 0836 e085 7d35 1bf5 0a34
000003f0: 23e5 7334 bf81 f635 3e4f 383e 5e47 1d3e

exp_avg f4 [128]
-0.00015961364 -0.00015273786 -0.00039255724 0.0005000557 0.0012702533 1.1606373e-37 0.0003431792 -0.00030932642
-9.875841e-05 -0.00039954763 -0.0007607394 -0.0004273092 3.8527716e-05 0.0015477929 1.1638657e-37 -0.00050588825
-0.00065548596 0.00037877844 -9.8347635e-05 -0.0013514427 -0.00023937383 1.083753e-37 3.70302e-05 1.1061751e-37
0.0029300835 -3.7940335e-06 -0.00081998546 -0.00022690685 0.00045815832 -0.0010244431 -6.9035086e-05 0.00011894892
-1.2700213e-05 9.399803e-07 -2.1715488e-05 1.0870541e-37 -0.0011606241 -0.0009575603 -0.0013793093 -0.00040035142
0.000120394194 0.00011761153 -0.0003430684 -5.4654123e-05 7.938387e-05 0.0 -6.6263965e-05 -0.00094215694
0.0016437845 0.0 -0.00038142395 0.00081978686 0.0003194085 0.0012780156 -0.00093802053 -0.0020208445
-0.00032830954 0.0 0.0007317153 -0.00041336622 -0.0010456988 -0.00019018273 1.491305e-05 -0.00025053363
-0.0005832589 0.00089485454 0.0010251965 -0.00052739575 0.00019234128 0.0003478644 8.6491695e-05 0.00066121895
7.7602555e-05 -0.0004471354 8.929236e-05 -0.0010547944 -0.0013183481 5.8465943e-08 -0.0008657883 0.0
-0.00074184913 -0.0021528963 0.00024626515 1.0355279e-05 -0.00034555103 0.00021085289 -0.0002420909 -3.7566922e-05
0.0005936682 0.00039443924 -7.144294e-05 9.826648e-05 0.00016416308 -0.00020949218 0.00031620043 -0.00026585947
-0.0003084279 -0.00036981906 0.000101415964 0.002264848 0.00080849 -0.0011482129 -0.00018301801 0.00040580245
-9.6729214e-05 8.23508e-05 3.369168e-05 0.000555553 -0.00018189513 -0.001351695 -0.00097115897 -0.00010653792
-0.0006567712 -5.9953236e-05 -0.0013042267 0.00041226036 0.00094566005 0.0017205914 0.00101734 2.0853557e-05
-8.606876e-05 -8.832875e-05 0.0034856622 0.0011209309 -0.0002491207 -0.00013078071 -0.0002746284 0.0019518118
00000000: f65d 27b9 4228 20b9 24d0 cdb9 2c16 033a
00000010: a17e a63a 4ffa 1d02 bcec b339 172d a2b9
00000020: 851c cfb8 607a d1b9 5b6c 47ba 7808 e0b9
00000030: d298 2138 50df ca3a cd6a 1e02 969d 04ba
00000040: ebd4 2bba c896 c639 fc3f ceb8 e422 b1ba
00000050: 6c00 7bb9 4883 1302 e050 1b38 9490 1602
00000060: a506 403b 009d 7eb6 4bf4 56ba d8ed 6db9
00000070: f834 f039 9b46 86ba eec6 90b8 3774 f938
00000080: 0013 55b7 f452 7c35 a829 b6b7 4ff6 1302
00000090: 1520 98ba c904 7bba f1c9 b4ba 42e6 d1b9
000000a0: 247c fc38 36a6 f638 dcdd b3b9 6b3c 65b8
000000b0: e47a a638 0000 0000 32f7 8ab8 15fb 76ba
000000c0: 4174 d73a 0000 0000 dbf9 c7b9 f7e6 563a
000000d0: 4876 a739 1683 a73a 7ee5 75ba 2570 04bb
000000e0: f620 acb9 0000 0000 95d0 3f3a 13b9 d8b9
000000f0: d40f 89ba ca6b 47b9 1033 7a37 0e5a 83b9
00000100: d8e5 18ba ac94 6a3a e35f 863a ee40 0aba
00000110: 38af 4939 9261 b639 e062 b538 a755 2d3a
00000120: 8ebe a238 7f6d eab9 7942 bb38 0741 8aba
00000130: 6ccc acba fc1b 7b33 12f6 62ba 0000 0000
00000140: a778 42ba 9b17 0dbb 261d 8139 96bb 2d37
00000150: 132b b5b9 6418 5d39 c8d9 7db9 2d91 1db8
00000160: 66a0 1b3a bdcc ce39 a3d3 95b8 6a14 ce38
00000170: 3123 2c39 21ab 5bb9 b4c7 a539 0e63 8bb9
00000180: 7eb4 a1b9 46e4 c1b9 48af d438 d86d 143b
00000190: d8f0 533a a27f 96ba 86e8 3fb9 e2c1 d439
000001a0: 1adb cab8 c0b3 ac38 2a50 0d38 88a2 113a
000001b0: 1abb 3eb9 5c2b b1ba 6095 7eba 1c6d dfb8
000001c0: 2b2b 2cba 4c76 7bb8 96f2 aaba a624 d839
000001d0: 2ce6 773a 7885 e13a 4458 853a acee ae37
000001e0: d07f b4b8 233d b9b8 b56f 643b 33ec 923a
000001f0: 6a9c 82b9 2e22 09b9 00fc 8fb9 f0d3 ff3a

exp_avg_sq f4 [128]
1.7926707e-06 3.6579681e-06 9.364944e-06 6.401643e-06 7.2074913e-06 3.564871e-13 3.039227e-07 2.870288e-06
6.7869773e-06 1.0644222e-05 3.6221136e-05 4.395555e-06 2.3892076e-06 3.6456437e-05 7.038865e-10 5.0009394e-06
1.55892e-05 6.661495e-06 6.6993634e-06 2.8888193e-05 4.839298e-06 4.927825e-11 1.1987557e-06 1.4784096e-10
3.2448093e-05 1.1534405e-05 7.1709073e-06 5.1277548e-05 6.9842054e-06 2.92474e-05 1.1288461e-05 1.5117342e-06
2.2431816e-06 3.1086023e-09 5.726257e-06 4.018413e-10 1.4874729e-05 1.3793899e-05 1.6619835e-05 5.334441e-07
2.898168e-06 7.918455e-06 8.750448e-06 9.918953e-06 7.2520775e-06 0.0 1.2909745e-05 1.6395266e-05
1.6840091e-05 0.0 7.897355e-06 1.225195e-05 1.5812871e-05 1.8179157e-05 5.2411327e-05 8.4818785e-06
1.9582983e-05 0.0 5.208782e-05 4.13345e-06 4.620334e-05 1.942626e-06 3.0707852e-06 1.5116681e-05
6.7265755e-06 5.9927465e-06 4.9685117e-05 1.1119403e-05 5.243085e-06 2.8738484e-06 1.011328e-05 7.032571e-06
5.332364e-07 3.0787921e-06 1.2673037e-06 9.854933e-06 1.854272e-05 2.2621038e-09 1.7397484e-05 0.0
4.5128447e-05 0.00012500772 5.975192e-07 1.02523145e-05 1.6944442e-06 3.7981263e-06 1.8967635e-06 1.2743511e-06
6.0713983e-06 3.3967315e-06 1.833003e-07 5.949467e-07 1.3832714e-05 1.1919657e-06 1.9851361e-06 2.8231997e-07
1.0440012e-05 2.4078996e-05 2.3748864e-06 1.6666147e-05 4.4444914e-05 4.4405922e-05 4.1516355e-06 1.8253895e-06
3.5895425e-06 1.4722839e-05 1.0659697e-06 2.6835435e-06 1.20560535e-05 2.537686e-05 2.6729826e-05 3.731271e-07
1.9724144e-05 3.905269e-06 1.1234204e-05 6.8477834e-06 1.6098238e-05 0.00012683436 1.2645891e-06 6.0053526e-06
1.1112514e-05 3.3017818e-06 5.5704227e-06 5.086227e-06 2.0705859e-06 1.7734808e-06 4.001594e-06 2.5567935e-05
00000000: b29b f035 6a7b 7536 211e 1d37 b2cd d636
00000010: e1d7 f136 35af c82a d12a a334 2c9f 4036
00000020: b1bb e336 9694 3237 26ec 1738 887d 9336
00000030: 4656 2036 cde8 1838 9c7b 4130 becd a736
00000040: 8dc5 8237 ce85 df36 18cb e036 ec54 f237
00000050: 4161 a236 61ba 582e efe4 a035 888d 222f
00000060: e018 0838 e483 4137 a09d f036 d912 5738
00000070: de59 ea36 5058 f537 9263 3d37 cbe6 ca35
00000080: 9189 1636 1c9f 5531 2c24 c036 23ea dc2f
00000090: 798e 7937 586c 6737 d36a 8b37 0032 0f35
000000a0: 267e 4236 81d9 0437 e3ce 1237 9469 2637
000000b0: df56 f336 0000 0000 ef96 5837 9188 8937
000000c0: d243 8d37 0000 0000 e27e 0437 b98d 4d37
000000d0: e2a5 8437 717f 9837 3cd4 5b38 644d 0e37
000000e0: 2346 a437 0000 0000 df78 5a38 11b2 8a36
000000f0: 75ca 4138 105e 0236 b013 4e36 a79d 7d37
00000100: d8b4 e136 4d15 c936 fd64 5038 798d 3a37
00000110: c2ed af36 57dc 4036 35ac 2937 53f9 eb36
00000120: ba23 0f35 3f9d 4e36 3918 aa35 9d56 2537
00000130: 308c 9b37 5a73 1b31 d0f0 9137 0000 0000
00000140: 4d48 3d38 8114 0339 3565 2035 5b01 2c37
00000150: a96c e335 50e3 7e36 4c94 fe35 5f0a ab35
00000160: eab8 cb36 67f3 6336 34d1 4434 6db4 1f35
00000170: 0e13 6837 a1fb 9f35 6138 0536 c391 9734
00000180: 8327 2f37 40fd c937 3d60 1f36 47ce 8b37
00000190: 5d6a 3a38 7f40 3a38 474e 8b36 e8ff f435
000001a0: dfe3 7036 1d02 7737 7112 8f35 ed16 3436
000001b0: 5b44 4a37 64e0 d437 dd39 e037 3352 c834
000001c0: 4775 a537 010a 8336 8a7a 3c37 03c6 e536
000001d0: b40a 8737 d7fe 0439 f3ba a935 9681 c936
000001e0: e26f 3a37 2e94 5d36 91e9 ba36 5baa aa36
000001f0: 65f4 0a36 5608 ee35 6e45 8636 b97a d637

exp_avg f4 [64, 128]
0.0012537714 0.0037901823 0.047253527 0.062803395 0.049216986 0.0 -0.0065299002 0.0026580335
0.04483126 0.010606613 0.01854313 0.0017508282 0.03256748 0.020620428 -1.0866345e-37 -0.004549697
0.042880382 0.034302358 0.011361793 0.020999638 0.052515123 -1.090754e-37 0.004248824 -1.1288689e-37
0.0109314 0.040965993 0.000589042 0.034994744 0.031967107 0.0152032785 0.062078927 0.00911327
0.03699026 2.0258496e-05 0.05882632 -1.0795148e-37 -0.0007681884 -0.00655137 -0.015490413 0.0014050335
0.02900299 0.05385177 0.0142132975 0.019088954 0.008779274 0.0 0.045368355 -0.012899537
0.0072815185 0.0 0.002815351 0.00022501963 0.013866502 0.039443187 -0.0023301633 0.03310916
0.027697725 0.0 0.036433816 0.020552203 0.019102123 0.010231163 0.0062791556 -0.0061017163
0.011150613 -0.0027514715 0.034986902 0.0011414208 0.0019847194 0.07975186 0.04458418 0.0015112351
0.013262488 0.0050199237 -0.00243808 -0.022690043 0.016884668 1.2683037e-06 0.031126145 0.0
0.016951457 0.006860819 0.0031547295 0.078115776 -0.003880797 0.011255734 0.014666455 0.0012769892
0.039913952 0.058382038 0.00033018645 0.001860633 0.03656835 0.003962045 -9.590144e-05 0.001193044
0.024175417 0.015440007 0.0072807614 0.0060478365 0.04119032 0.02086297 0.019087128 0.08811354
-0.008061625 -0.043121595 0.0033884975 -0.008740528 0.03636036 -0.017579647 0.018604744 0.00050213805
0.02531612 0.015251983 -0.029245123 -0.0026818863 0.008641751 0.0005639236 -0.0024391518 0.022736859
0.042865492 -0.007631045 -0.0047674635 0.03628 0.0052867923 0.0017148484 -0.003532514 0.04190147
8.433601e-07 -0.00032736894 0.0026717498 0.003747486 0.004467535 -1.1223367e-37 0.0006918833 -7.0939336e-06
0.0038129948 -0.0013931504 0.00047648515 -7.2048596e-07 -0.0013624862 0.0016422225 1.1726338e-37 0.00017690072
-0.0014363787 0.0034865106 0.002879615 -0.0021872525 0.00053552445 1.1260854e-37 -0.0001360276 0.0
-0.0015011672 0.0025531976 0.0003286323 0.0007363901 0.0032081672 -0.00046229202 0.0028624104 0.00047656725
0.00090300327 -8.132114e-06 0.00277033 1.0790725e-37 -0.00021313064 0.00019228311 0.004839034 -0.00039081468
0.0004460716 0.0027975512 0.004148922 -0.0008018122 7.218038e-07 0.0 0.0035852585 0.0017307925
-0.00024852846 0.0 -0.0011236602 -0.0008055826 0.0025305464 0.00076020585 -0.00039763047 2.247076e-07
0.0030995035 0.0 -0.0009870805 0.0033270372 -0.00055025646 0.0040639853 -0.002776088 0.00384792
0.0029731453 0.00015184999 0.0015715545 -8.6633634e-05 9.019378e-07 0.001834737 0.0013785358 -0.00031653582
-4.3824566e-05 -1.4491087e-06 -8.462161e-05 0.0048266994 -2.0534051e-05 -1.0598122e-37 0.0016918769 0.0
0.0010559604 0.00044478758 -0.0004658502 0.0050564352 0.000746989 0.0021168266 0.0023037712 -2.8823268e-07
-0.00054183346 0.00016272307 -3.9451017e-05 -0.00029447602 -0.0027605693 5.4669493e-07 -0.00019086649 -0.00024351897
-0.0007870095 -0.00019092398 7.0914473e-07 -0.00027660455 -0.00018272731 0.0006640629 0.0027176477 0.0020774172
-0.0002562987 0.0052436558 -5.313735e-05 -0.0014508822 0.0024119935 0.0016491485 0.0022864365 -3.870547e-05
0.0018466435 0.002112165 0.004949011 0.0011189487 -0.0007825516 -0.001828495 -0.00071221334 0.0046706945
-0.0018690879 0.0039569684 -0.00026287948 -0.0005875706 -2.641628e-05 -0.00021426786 0.00082701497 -0.0014223199
00000000: 9655 a43a b564 783b ea8c 413d 119f 803d
00000010: c097 493d 0000 0000 c6f8 d5bb 6732 2e3b
00000020: fca0 373d 5cc7 2d3c c3e7 973c 0c7c e53a
00000030: 7a65 053d 2cec a83c b0e7 1382 a015 95bb
00000040: 57a3 2f3d a180 0c3d d026 3a3c 6f07 ac3c
00000050: 191a 573d 3b77 1482 b839 8b3b 57a7 1982
00000060: 9d19 333c f5cb 273d f169 1a3a a656 0f3d
00000070: f1ef 023d 2c17 793c 7946 7e3d d34f 153c
00000080: 1983 173d caf0 a937 def3 703d 9aef 1282
00000090: 4060 49ba e0ac d6bb 80cb 7dbc 1a29 b83a
000000a0: ae97 ed3c ac93 5c3d e4de 683c 7060 9c3c
000000b0: f2d6 0f3c 0000 0000 2bd4 393d 9458 53bc
000000c0: ce99 ee3b 0000 0000 c081 383b 3ff3 6b39
000000d0: 5330 633c 2e8f 213d a7b5 18bb 789d 073d
000000e0: 57e6 e23c 0000 0000 a03b 153d 185d a83c
000000f0: 0e7c 9c3c 9ca0 273c 60c1 cd3b e8f0 c7bb
00000100: 10b1 363c 0852 34bb 6d4e 0f3d ba9b 953a
00000110: 1112 023b f154 a33d e79d 363d a314 c63a
00000120: e84a 593c 2c7e a43b 32c8 1fbb 78e0 b9bc
00000130: b751 8a3c 953a aa35 42fc fe3c 0000 0000
00000140: c8dd 8a3c b9d0 e03b 94bf 4e3b 2afb 9f3d
00000150: f854 7ebb f869 383c 924b 703c a660 a73a
00000160: d07c 233d 0122 6f3d e01c ad39 7ce0 f33a
00000170: b2c8 153d 0bd4 813b b21e c9b8 ea5f 9c3a
00000180: 860b c63c 15f8 7c3c 7493 ee3b ee2c c63b
00000190: 2eb7 283d d2e8 aa3c 9c5c 9c3c df74 b43d
000001a0: e814 04bc 45a0 30bd 8e11 5e3b 6e34 0fbc
000001b0: 9aee 143d 3103 90bc fa68 983c eaa1 033a
000001c0: c063 cf3c 74e3 793c 7893 efbc 96c2 2fbb
000001d0: 2196 0d3c 46d4 133a 2dda 1fbb a642 ba3c
000001e0: ba93 2f3d d80d fabb 6238 9cbb 569a 143d
000001f0: d43c ad3b c4c4 e03a c081 67bb e0a0 2b3d
00000200: 4463 6235 b7a2 abb9 8618 2f3b 6298 753b
00000210: 6664 923b bac3 1882 815f 353a 6d08 eeb6
00000220: 70e3 793b 5f9a b6ba c1d0 f939 6b67 41b5
00000230: 7395 b2ba d83f d73a 539c 1f02 6d7e 3939
00000240: df44 bcba f17d 643b ecb7 3c3b 0258 0fbb
00000250: 7062 0c3a 5946 1902 a1a2 0eb9 0000 0000
00000260: d0c2 c4ba 8c53 273b 484c ac39 4e0a 413a
00000270: 1d40 523b c95f f2b9 4797 3b3b c6db f939
00000280: 86b7 6c3a 2a6f 08b7 6d8e 353b 30e0 1202
00000290: d27b 5fb9 9b9f 4939 c290 9e3b 42e6 ccb9
000002a0: b7de e939 1f57 373b aef3 873b b530 52ba
000002b0: fbc1 4135 0000 0000 a8f6 6a3b c2db e23a
000002c0: ed4c 82b9 0000 0000 c847 93ba bc2d 53ba
000002d0: 86d7 253b 8d48 473a 0f79 d0b9 2847 7134
000002e0: 0a21 4b3b 0000 0000 ed60 81ba 6c0a 5a3b
000002f0: 163f 10ba 2e2b 853b 07ef 35bb 632d 7c3b
00000300: 1ad9 423b ec39 1f39 9efc cd3a 14af b5b8
00000310: b21c 7235 8f7b f03a fcaf b43a b8f4 a5b9
00000320: 45d0 37b8 ff7e c2b5 e276 b1b8 4a29 9e3b
00000330: 8a40 acb7 1141 1082 f8c1 dd3a 0000 0000
00000340: 2768 8a3a 6132 e939 5b3d f4b9 74b0 a53b
00000350: 95d1 433a 75ba 0a3b defa 163b 66be 9ab4
00000360: d409 0eba a4a0 2a39 3578 25b8 e763 9ab9
00000370: abea 34bb 97c0 1235 5523 48b9 2059 7fb9
00000380: 504f 4eba c432 48b9 0e5c 3e35 3c05 91b9
00000390: 7d9a 3fb9 8214 2e3a 901a 323b 4725 083b
000003a0: d45f 86b9 f9d2 ab3b ccdf 5eb8 872b beba
000003b0: 8912 1e3b 3e28 d83a 0ad8 153b af57 22b8
000003c0: 130b f23a 406c 0a3b 502b a23b b0a9 923a
000003d0: 2624 4dba 1caa efba d4b3 3aba a00c 993b
000003e0: 2ffc f4ba 75a9 813b 16d3 89b9 3207 1aba
000003f0: 8898 ddb7 17ad 60b9 09cc 583a 236d baba
