lightning_model_releases/lightning_standard_test/model_params/standard_80558_1331_lightning_standard.ckpt (torch, 311246 bytes, 15 tensors)

model.0.weight f4 [128, 131]
0	0xbcee7226	-0.029107165
1	0x3dbe5d75	0.09295169
2	0xbe4f5d36	-0.20250401
3	0xbd910712	-0.07081427
4	0xbdf60edf	-0.12014555
5	0x3de389f9	0.111103006
6	0xbe585c0d	-0.21128865
7	0x3e306696	0.17226633
8	0xbd2f8c77	-0.042858567
9	0x3d685c64	0.056728736
10	0x3d110bd7	0.035411682
11	0x39ce542b	0.00039354092
12	0xbdf00093	-0.117188595
13	0xbe0b85d7	-0.13625275
14	0xbd968bdc	-0.07350895
15	0x3ca82f58	0.020530388
16	0x3e7bcf29	0.24590744
17	0x3acb7aca	0.0015524265
18	0xbdb361d9	-0.08758897
19	0x3dbec406	0.09314732
20	0xbe0b05b0	-0.13576388
21	0x3d891ea5	0.06695298
22	0x3e36c707	0.1784936
23	0xbd4e8b08	-0.05042556
24	0x3de74b1a	0.11293621
25	0x3dfbfbc2	0.12303878
26	0xbd8e0b4e	-0.0693575
27	0x3de5d909	0.11223037
28	0x3da2a3b7	0.079413824
29	0xbeb2a857	-0.34894058
30	0xbdb1bd71	-0.08678711
31	0x3e179a59	0.14804973
32	0xbd3fafd5	-0.046798546
33	0xbd97272f	-0.073805206
34	0xbe133510	-0.1437571
35	0x3c4cfaef	0.012510999
36	0x3df65bdc	0.120292395
37	0xbd6699c0	-0.05629897
38	0xbdf49274	-0.11941996
39	0x3b3e432d	0.002903174
40	0x3d47390a	0.04863838
41	0x3c1e362f	0.009656473
42	0x3cb0c54e	0.021578457
43	0x3e671d42	0.22569755
44	0xbcec41a9	-0.028839903
45	0xbe03b3d2	-0.12861565
46	0x3cc972e9	0.024590926
47	0xbe1964e1	-0.14979888
48	0x3cc85189	0.024452941
49	0xbe89ebc9	-0.26937702
50	0xbdacdfa8	-0.084410965
51	0x3ec3e99a	0.3826416
52	0x3e2daa14	0.16959411
53	0x3ea712d9	0.32631567
54	0xbc918dc5	-0.017767796
55	0xbeeb88d3	-0.46002826
56	0xbee7284d	-0.45147935
57	0x3e5365f5	0.20644362
58	0xbc6f6323	-0.014611038
59	0xbe34e896	-0.1766685
60	0xbe1d9abb	-0.15391056
61	0x3e302529	0.17201675
62	0xbd90a8f1	-0.07063473
63	0xbe26375f	-0.1623206
64	0x3dad1cab	0.084527336
65	0xbe24e4b2	-0.16102865
66	0x3de69826	0.11259489
67	0xbe80578a	-0.25066787
68	0xbe50a2fa	-0.2037467
69	0xbce7c8b6	-0.028293949
70	0x3ec8b6cc	0.39201963
71	0x3c317fd8	0.010833703
72	0x3d8e3445	0.06943563
73	0xbe0cc21a	-0.13745919
74	0xbec63802	-0.38714606
75	0xbcd1da04	-0.025616653
76	0xbd7e9478	-0.06215331
77	0xbe11da20	-0.14243364
78	0x3e1f5fb5	0.15563853
79	0x3d02c72c	0.031928226
80	0xbe827ef6	-0.25487489
81	0xbb49363d	-0.0030702495
82	0xbdc99f87	-0.098448806
83	0xbdb155ab	-0.08658918
84	0x3e8119a6	0.2521488
85	0xbe9a9f28	-0.30199552
86	0xbcd5f58c	-0.026118062
87	0xbe3c4680	-0.18386269
88	0xbe005dff	-0.12535857
89	0x3d61e266	0.05514755
90	0x3e11e5f4	0.14247876
91	0x3d9bbede	0.076047644
92	0x3b70aef8	0.0036725383
93	0x3cfab8b6	0.030605655
94	0xbd062f7f	-0.03276014
95	0x3e0566b6	0.13027462
96	0xbe3cc4a6	-0.1843439
97	0x3de2d66b	0.11076053
98	0x3d9c6e31	0.07638205
99	0xbdca7da2	-0.09887244
100	0xbe1c1dd8	-0.1524576
101	0x3da62dc3	0.08114197
102	0xbe36e92c	-0.17862386
103	0x3e62b00c	0.22137469
104	0x3d4ae5db	0.049535614
105	0xbe97deeb	-0.2966226
106	0xbd97ceb9	-0.07412476
107	0x3e34c915	0.17654832
108	0x3d77dde4	0.060514346
109	0x3d3786ed	0.04480641
110	0x3e4493e8	0.19197047
111	0x3e2bdf5e	0.16784427
112	0xbeb2873c	-0.348688
113	0xbe1791fb	-0.14801781
114	0x3d4717f9	0.048606846
115	0x3d1c0d40	0.038098574
116	0x3c5fd770	0.013662204
117	0x3e8eb653	0.27873477
118	0xbef65fac	-0.48119867
119	0xba70eb90	-0.0009190375
120	0xbe27cee2	-0.16387513
121	0xbe340edd	-0.17583795
122	0x3c8a5572	0.016886447
123	0xbe2606ec	-0.16213578
124	0xbd1ada70	-0.037805974
125	0xbd2d14df	-0.042256232
126	0x3d13e07c	0.036102757
127	0xbc305342	-0.010762038
128	0x3dafd46e	0.085854396
129	0x3c86b7ca	0.01644506
130	0x3d6e0b93	0.058116507
131	0x3cdf02e0	0.02722305
132	0xbd072ec0	-0.03300357
133	0x3e5ff2ed	0.21870013
134	0xbe5a8ade	-0.21342036
135	0xbd6768e5	-0.05649652
136	0xbd948740	-0.072523594
137	0xbdb1e3c5	-0.08686022
138	0x3cccc7c4	0.0249976
139	0xbc9c5940	-0.019085526
140	0x3d0b53a6	0.03401532
141	0x3dfcc128	0.12341529
142	0x3d84d8a3	0.06486633
143	0xbd8358fc	-0.06413457
144	0xbc772d88	-0.015086539
145	0x3c957efc	0.018249027
146	0x3ca43b24	0.020047732
147	0x3d9074ab	0.07053503
148	0x3da3008b	0.07959088
149	0xbd8de196	-0.06927793
150	0x3d4092ef	0.047015127
151	0xbd19edc7	-0.037580278
152	0xbc1cde38	-0.009574465
153	0xbe28566f	-0.16439222
154	0x3da2fbef	0.07958209
155	0xbd835442	-0.06412555
156	0x3d3f437e	0.046695225
157	0x3cfb89f0	0.030705422
158	0xbd3fad70	-0.046796262
159	0xbd417b09	-0.047236476
160	0x3da2a493	0.07941546
161	0x3c9d48a8	0.019199684
162	0x3e2d8b1d	0.16947599
163	0xbe41934e	-0.18903849
164	0xbda88fd2	-0.082305565
165	0x3e149ccc	0.14512938
166	0xbe1bb818	-0.15206945
167	0x3e2b03aa	0.16700616
168	0x3d364be7	0.04450598
169	0xbe5a2d20	-0.21306276
170	0xbe379401	-0.17927553
171	0xbe7e92be	-0.24860665
172	0x3db21129	0.08694679
173	0xbe18fd6b	-0.14940421
174	0x3d83c405	0.06433872
175	0xbdf94731	-0.12171782
176	0x3cbabd84	0.022795446
177	0xbdd58779	-0.1042623
178	0xbd310bc6	-0.04322412
179	0xbd5d7955	-0.05407079
180	0xbe079e13	-0.13243894
181	0x3e9f7bb7	0.31149074
182	0x3e6b1d0e	0.22960302
183	0x3e6c298e	0.23062727
184	0x3eb786bb	0.3584498
185	0x3d9ad73f	0.07560586
186	0xbb45b0a1	-0.0030165093
187	0xbef99927	-0.48749658
188	0x3ea28952	0.31745392
189	0x3d29199d	0.041284192
190	0xbe4c8a91	-0.19974734
191	0x3df6df60	0.12054324
192	0x3cfb3f51	0.03066984
193	0x3d99c6bb	0.07508608
194	0xbd1bed73	-0.038068246
195	0x3d9edc74	0.07756892
196	0x3aa71bc0	0.0012749359
197	0x3d2829ec	0.041055605
198	0x3cac1254	0.021004833
199	0xbcdec48f	-0.027193336
200	0xbe9b0638	-0.30278182
201	0xbda55790	-0.08073342
202	0x3d96afa3	0.07357719
203	0xbd8feab8	-0.07027191
204	0xbb8e6570	-0.0043455884
205	0xbe100db4	-0.14067727
206	0xbe1c010c	-0.15234774
207	0xbda0489f	-0.078263514
208	0xbce94dc6	-0.028479468
209	0x3e49c466	0.19703826
210	0xbcafce61	-0.021460714
211	0xbd3556ce	-0.044272237
212	0xbe149475	-0.14509757
213	0xbd89f895	-0.067368664
214	0xbe305921	-0.172215
215	0x3de070e0	0.10959029
216	0x3c9069c2	0.017628554
217	0xbd18443b	-0.037174445
218	0x3d1089ac	0.035287544
219	0xbd084e47	-0.033277776
220	0x3e94b89d	0.290471
221	0x3d849204	0.06473163
222	0xbe3147c4	-0.17312533
223	0xbe6ecd49	-0.23320498
224	0xbeb07f67	-0.344722
225	0xbda13b41	-0.0787263
226	0x3c821e2e	0.015883531
227	0x3d3ce21d	0.046114076
228	0xbe55e4ba	-0.20888034
229	0xbed881dc	-0.42286575
230	0xbdc85e3c	-0.09783599
231	0x3eff0da7	0.49815103
232	0xbe48fd50	-0.19627881
233	0xbdb4ad5a	-0.08822127
234	0xbbb895cc	-0.0056330916
235	0xbe0cb9e2	-0.13742784
236	0x3e1248f0	0.14285636
237	0xbd8814b2	-0.06644572
238	0x3c939c20	0.018018782
239	0x3dca2e22	0.098720804
240	0xbdb20ac9	-0.08693463
241	0xbe00ec11	-0.12590052
242	0xbe833008	-0.25622582
243	0xbe111abe	-0.14170358
244	0x3e515887	0.20443927
245	0xbd8c4679	-0.06849379
246	0xbd69d65b	-0.05708919
247	0x3ced6b0c	0.028981708
248	0x3e80bd6d	0.2514452
249	0xbe8ed7cc	-0.27899015
250	0xbd8ba40a	-0.06818397
251	0xbe29c8fe	-0.16580579
252	0x3e5981a0	0.21240854
253	0xbe855a35	-0.26045385
254	0xbdc8c426	-0.09803037
255	0xbe190b06	-0.14945611

model.0.bias f4 [128]
0	0xbe31cfb4	-0.17364389
1	0xbd17c465	-0.03705253
2	0x3e1bfa6c	0.15232247
3	0x3df8e4ce	0.12153016
4	0x3e259bf0	0.16172767
5	0x3da59bc1	0.08086348
6	0xbe499bd7	-0.19688354
7	0xbdb337aa	-0.087508515
8	0x3d20d2a4	0.039263383
9	0x3dec469f	0.115369074
10	0x3daadd6a	0.08343013
11	0xbd219ade	-0.039454333
12	0xbc0d32b0	-0.008618042
13	0x3dfac372	0.122443095
14	0x3dd494b5	0.10379926
15	0x3b0c67e4	0.0021424228
16	0x3df33f4d	0.11877308
17	0xbcb2ad29	-0.021811085
18	0x3d0a9614	0.033834532
19	0x3e6cb41f	0.23115586
20	0x3deb9bcd	0.11504326
21	0xbb1c888f	-0.0023885106
22	0xbce21265	-0.027596662
23	0x3d6e8902	0.05823613
24	0x3e1d0d79	0.1533717
25	0x3e0045ad	0.12526579
26	0x3db41a6a	0.087941006
27	0x3e24f671	0.16109635
28	0x3e38ca5e	0.18045947
29	0x3e295ed2	0.16540077
30	0x3e2ff2d4	0.17182475
31	0xbbd46a86	-0.006482425
32	0x3cb021c1	0.02150047
33	0xbd0755ee	-0.033040933
34	0x3da12f24	0.078703195
35	0x3c3a203a	0.0113602225
36	0x3e0e339a	0.13886872
37	0x3e16b30e	0.14716741
38	0x3e1ad047	0.15118514
39	0xbe5e334a	-0.21699253
40	0x3c40082b	0.011720697
41	0xbd255bdb	-0.040370803
42	0x3db20afd	0.08693502
43	0x3e419d60	0.1890769
44	0xbdd4af48	-0.10384995
45	0x3b961d60	0.0045811385
46	0x3e23415a	0.15942898
47	0x3da77ca0	0.08178067
48	0x3e147638	0.14498222
49	0xbc870864	-0.016483493
50	0x3d50b572	0.05095429
51	0x3d8be67a	0.06831069
52	0x3e394075	0.18090995
53	0x3d0bc074	0.034119084
54	0x3d7541ba	0.059877135
55	0xbddd83b8	-0.10816139
56	0x3e20a4e8	0.15687907
57	0x3d29c8b2	0.041451164
58	0x3daaecf4	0.083459765
59	0x3e1fc35a	0.15601864
60	0x3dbfc243	0.09363224
61	0x3d3335f7	0.043752637
62	0x3d2a9352	0.0416444
63	0x3dcb6aef	0.09932505
64	0x3dd2ab45	0.10286573
65	0xbdbb6ac3	-0.091512226
66	0x3dd7b2b3	0.10532131
67	0x3de18995	0.1101257
68	0xbdcc85e4	-0.09986475
69	0xbb1bfbd9	-0.0023801236
70	0x3d560120	0.052247167
71	0x3deec557	0.11658733
72	0xbda15001	-0.07876588
73	0xbe75de5f	-0.24010609
74	0xbc05ff04	-0.008178476
75	0x3dba814a	0.09106691
76	0xbdef81f6	-0.1169471
77	0x3d87c2fb	0.066289864
78	0x3e673e96	0.22582468
79	0xbd18d5cf	-0.03731328
80	0x3e08734e	0.13325235
81	0x3e35f7f4	0.17770368
82	0xbd31833f	-0.043338057
83	0x3dd9b6bb	0.10630556
84	0x3d693b0d	0.05694108
85	0x3cd49da3	0.025954073
86	0x3d35db02	0.044398315
87	0xbe14b044	-0.14520365
88	0x3bbe5bf9	0.005809304
89	0x3c79c7af	0.015245362
90	0x3d909b0f	0.07060825
91	0x3db7730c	0.0895749
92	0x3e3682a1	0.17823268
93	0xbdd3579b	-0.10319444
94	0xbd1bcfc7	-0.03803995
95	0x3e0aaf35	0.13543399
96	0x3d6b2d5a	0.057416297
97	0x3df09d7c	0.11748788
98	0xbca05857	-0.019573374
99	0xbe04ecf3	-0.12981014
100	0x3d7089b2	0.058725066
101	0xbce305f1	-0.027712794
102	0xbc0d7522	-0.008633884
103	0xbdf1d5d9	-0.11808366
104	0x3cd68f99	0.02619152
105	0x3e17ec32	0.14836195
106	0xbe310360	-0.17286444
107	0x3d505ec9	0.050871644
108	0x3d200561	0.03906763
109	0x3e017ca5	0.12645204
110	0x3e0fa86d	0.14029093
111	0xbe344ebd	-0.17608161
112	0x3c6548c2	0.013994398
113	0x3d98b28d	0.07455931
114	0x3e471432	0.19441298
115	0xbe372588	-0.17885411
116	0x3d100c6d	0.0351681
117	0x3df7f523	0.12107303
118	0x3d97ab3e	0.07405709
119	0x3dcae523	0.099069856
120	0x3e482725	0.19546182
121	0x3d9ea782	0.07746793
122	0x3ddf9c7d	0.1091852
123	0x3dd24eec	0.102689594
124	0x3cbd8ad1	0.023137482
125	0xbe83b2ba	-0.25722295
126	0x3d77bd54	0.06048329
127	0x3db6b2e3	0.08920839

model.3.weight f4 [64, 128]
0	0xbdb15f90	-0.08660805
1	0xbdabdb69	-0.083914585
2	0xbd6ba017	-0.05752572
3	0xbcdc4eda	-0.026893068
4	0x3b93d454	0.0045113955
5	0xba089c00	-0.0005211234
6	0xbd467018	-0.048446745
7	0x3cb8a0a2	0.022537533
8	0x3d8e8ea2	0.06960799
9	0xbd76f0be	-0.060288183
10	0xbd1c0296	-0.038088404
11	0xbdc7f49a	-0.09763451
12	0x3d8fe19b	0.07025453
13	0x3c5d6bc8	0.013514467
14	0x3d08f8ab	0.033440273
15	0xbbe2106f	-0.0068989317
16	0x3ca7a14a	0.02046265
17	0x3c9153e8	0.017740205
18	0x3d526a9b	0.0513712
19	0x3df25900	0.11833382
20	0x3db1d783	0.08683684
21	0xbd591ece	-0.053007893
22	0x3e1af3dd	0.15132089
23	0xbd4df994	-0.050286844
24	0x3e13c833	0.14431839
25	0x3c27ec4f	0.010249211
26	0x3d95175b	0.07279845
27	0xbbc76237	-0.006084706
28	0xbcd6a5c2	-0.026202086
29	0xbc65d0da	-0.014026845
30	0x3d56eb39	0.05247042
31	0x3a2ee124	0.0006671122
32	0x3d84f9df	0.06492972
33	0x3d9c68e7	0.07637196
34	0x3cca42b7	0.024690015
35	0x3d947b40	0.072500706
36	0x3de5f3d4	0.11228147
37	0xbd916c4c	-0.07100734
38	0xbd586a6e	-0.052835874
39	0xbe0ae36a	-0.13563314
40	0xbbf4fb3b	-0.007476238
41	0x3d2f0062	0.042724974
42	0x3d9c418e	0.07629691
43	0x3bc3a47a	0.005970535
44	0xbe95f92f	-0.29291674
45	0x3d456252	0.04818947
46	0xbd630a40	-0.055429697
47	0xbc535c88	-0.012900479
48	0x3d4ed872	0.050499387
49	0xbc73b498	-0.0148746
50	0x3d742704	0.05960752
51	0x3d35893c	0.04432033
52	0x3d0025a0	0.031285882
53	0x3d820f46	0.063505694
54	0x3cc504f0	0.024050206
55	0xbdceed62	-0.10103871
56	0x3d932480	0.07184696
57	0x3d49c222	0.049257405
58	0x3e0158ea	0.12631574
59	0xbd67cac5	-0.05658986
60	0xbbe44afa	-0.0069669457
61	0x3d835699	0.064130016
62	0x3d6e0647	0.058111455
63	0xbc38d811	-0.011281983
64	0x3d8afd5c	0.06786606
65	0xbd547474	-0.05186887
66	0x3d18dd9d	0.037320722
67	0xbe85c53f	-0.2612705
68	0xbd095d88	-0.033536464
69	0xbcb5b3db	-0.022180488
70	0x3cc49604	0.023997314
71	0x3e1b4b0a	0.15165344
72	0xbc03b3d3	-0.008038479
73	0xbdfe1b9d	-0.124076106
74	0xbd923209	-0.0713845
75	0xbd92c644	-0.071667224
76	0xbda3692e	-0.07979046
77	0x3e18bdce	0.14916155
78	0x3c892be7	0.016744567
79	0x3caa7470	0.020807475
80	0x3d090652	0.033453293
81	0x3c06abac	0.008219641
82	0xbd289f71	-0.04116768
83	0xbd8820b9	-0.06646866
84	0xbd0ba332	-0.034091182
85	0x3c78231c	0.0151450895
86	0x3c72e7fd	0.014825818
87	0xbdbd2d0d	-0.092371084
88	0x3d92dfbc	0.0717158
89	0x3d8ea51c	0.06965086
90	0xbe98ba96	-0.29829854
91	0xbe9d8ba0	-0.30770588
92	0x3c5b3ef6	0.01338171
93	0x3aebe13b	0.0017996201
94	0xbb571e6f	-0.0032824536
95	0xbdad195b	-0.08452102
96	0x3c6a91b5	0.014316966
97	0xbd2be132	-0.04196281
98	0xbd649e9c	-0.055815324
99	0xbd696eb3	-0.056990337
100	0x3d4ddbf1	0.05025858
101	0x3e4d345e	0.20039508
102	0x3da0e7f5	0.07856742
103	0xb7dfa9da	-2.6662765e-05
104	0x3c9b54ef	0.018961398
105	0x3d9c4b58	0.07631558
106	0xbdc947ee	-0.098281726
107	0x3da9ed60	0.08297229
108	0x3d9cedb1	0.076625235
109	0xbc78e8a6	-0.015192186
110	0x3e373b31	0.17893673
111	0xbe05d1c4	-0.130683
112	0xbd2df173	-0.042466592
113	0x3d91723a	0.07101865
114	0x3d6322d6	0.055453144
115	0xbe4d4b89	-0.20048346
116	0x3cf99fc5	0.030471692
117	0x3e724445	0.23658855
118	0xbe55dab8	-0.20884216
119	0xbd6f2b98	-0.058391184
120	0x3ca42ad2	0.02003995
121	0x3d8a1bd5	0.0674359
122	0xbe7f56da	-0.24935475
123	0xbcd34535	-0.025789836
124	0xbd5f6071	-0.054535333
125	0xbe43bf82	-0.19116023
126	0x3d8c288a	0.0684367
127	0x3d3e911e	0.046525113
128	0xbd06d79d	-0.03292047
129	0xbc517e3d	-0.012786445
130	0xbdaac022	-0.08337428
131	0xbd1cf954	-0.038323715
132	0x3c861428	0.016367033
133	0xbda32251	-0.0796553
134	0xbac5aeab	-0.0015081962
135	0x3d8df4b8	0.06931442
136	0x3ca39be4	0.019971795
137	0x3bce1f94	0.0062903855
138	0xbd672a1b	-0.05643664
139	0xbcb0b3af	-0.021570055
140	0xbdc39e74	-0.09551707
141	0xbda06681	-0.07832051
142	0x3c285fb6	0.0102767255
143	0x3c9cd618	0.019145057
144	0x3ca61b20	0.020276606
145	0xbd9196ce	-0.07108842
146	0x3b1dd633	0.0024083972
147	0xbdb25998	-0.08708495
148	0xbdaf8d95	-0.085719265
149	0xbd214661	-0.03937376
150	0xbd89dd84	-0.06731704
151	0x3c894e68	0.01676102
152	0xbc45aebb	-0.012065585
153	0x3d1cb3c9	0.038257394
154	0x3b78052e	0.0037844884
155	0xbcc752a7	-0.024331404
156	0x3b81b37a	0.003958163
157	0xbbd142b4	-0.0063861255
158	0xbdd4daa7	-0.10393267
159	0xbd67c741	-0.056586508
160	0xbdb2b41c	-0.087257594
161	0xbd51ea7b	-0.05124901
162	0xbb8cbba9	-0.004294832
163	0x3d9f50e8	0.077791035
164	0x3d08eb5f	0.033427592
165	0xbd7541d6	-0.05987724
166	0xba52016a	-0.0008011075
167	0x3d3b43cf	0.045718964
168	0x3a075e84	0.0005163925
169	0xbdb7fcfd	-0.089838006
170	0xbc1d032f	-0.009583279
171	0x3b7a7cfc	0.003822147
172	0xbc18392d	-0.0092909755
173	0x3da557a3	0.08073356
174	0x3d53dbf5	0.05172344
175	0xbd9605aa	-0.07325299
176	0x3d3b493b	0.045724135
177	0xbda201dc	-0.07910511
178	0xbd906590	-0.070506215
179	0x3cb80578	0.022463545
180	0xbcad9f17	-0.021194024
181	0x3d2ba36f	0.04190391
182	0x3c8bf098	0.017082497
183	0xbd09e1ae	-0.03366249
184	0x3d6b7458	0.057484
185	0xbd81e940	-0.06343317
186	0xbc003aec	-0.007826548
187	0x3c109c87	0.0088263815
188	0x3c69a613	0.014260787
189	0x3d8cf7c7	0.06883197
190	0x3caadcde	0.02085727
191	0xbd874b91	-0.0660621
192	0x3d4b7075	0.049667794
193	0x3d526b47	0.05137184
194	0xbd4ac994	-0.049508646
195	0x3da1a5a3	0.07892921
196	0xb94b99b1	-0.00019416843
197	0xbcb84648	-0.02249445
198	0x3bd42f09	0.0064753336
199	0xbb9ebd1c	-0.004844321
200	0xbd23e5b5	-0.040013988
201	0xbb1e2997	-0.0024133676
202	0xbc8f7e5a	-0.017516304
203	0xbda47d5f	-0.08031725
204	0xbdb44933	-0.08803024
205	0x3ba5c140	0.0050584376
206	0xbd954e0b	-0.07290276
207	0x3b0dabe0	0.0021617338
208	0x3cee557b	0.029093495
209	0x3bd4a991	0.0064899405
210	0x3d3d5d6b	0.04623167
211	0x3cd81d8a	0.026381273
212	0x3d4311d4	0.047624424
213	0xbd94ca64	-0.072651654
214	0x3d800037	0.06250041
215	0xbda4ab94	-0.080405384
216	0xbd9d12e2	-0.07669617
217	0xbd6c0373	-0.057620477
218	0x3dae9113	0.085237645
219	0x3d4cfe23	0.05004705
220	0x3b88c537	0.0041739005
221	0x3d1864d7	0.037205543
222	0xbdc8d351	-0.098059304
223	0xbd2abe23	-0.041685235
224	0x3c1ed1a6	0.009693539
225	0xbd9ddfc2	-0.07708694
226	0x3cde4abb	0.027135244
227	0xbd618949	-0.055062566
228	0x3d412a76	0.047159635
229	0xbdb4dc9b	-0.0883114
230	0x3cc332e3	0.023827976
231	0x3ce02403	0.027360922
232	0xbd8aa6b0	-0.06770074
233	0x3d4281de	0.047487132
234	0x3cfd740b	0.030939123
235	0xbd6fb701	-0.058524136
236	0xbd85ebe4	-0.06539133
237	0x3ba31a14	0.004977474
238	0xbd1f68f1	-0.03891844
239	0xbc0b7eed	-0.008514148
240	0x3c9afff4	0.018920876
241	0x3c35a9cc	0.011087846
242	0xbd903f7c	-0.07043359
243	0x3d881d06	0.06646161
244	0x3c0b6168	0.00850711
245	0x3ca2b25a	0.019860435
246	0xbd403268	-0.04692307
247	0x3c8e19a7	0.017346216
248	0xbce8a5b8	-0.028399333
249	0x3d295dd8	0.041349262
250	0x3dc529f0	0.096271396
251	0x3d40f411	0.04710776
252	0xbcdbba48	-0.026822224
253	0x3cb94e0c	0.022620223
254	0x3d3ef9f1	0.04662508
255	0xbc4bdbf6	-0.0124425795

model.3.bias f4 [64]
0	0x3e113004	0.14178473
1	0xbd73a142	-0.05947996
2	0x3e48c641	0.19606878
3	0xbb90460a	-0.0044028806
4	0xbdbd8e5e	-0.0925567
5	0x3e5b6037	0.21423422
6	0x3cc67a75	0.024228314
7	0xbd60a983	-0.05484916
8	0x3a2ca91e	0.000658648
9	0x3d59ebaa	0.053203262
10	0xbcdb869e	-0.026797589
11	0x3e6f10ba	0.23346224
12	0x3e4d0904	0.2002297
13	0x3e8828cb	0.26593623
14	0x3e5e9091	0.21734835
15	0xbcb85c76	-0.022505026
16	0xbdbc2e54	-0.09188524
17	0xbd6d0418	-0.057865232
18	0x3e752849	0.23941149
19	0x3d5dc527	0.054143097
20	0x3d88ed16	0.066858456
21	0xbcfa3dc8	-0.030547038
22	0x3e781cfd	0.24229808
23	0x3e07700a	0.13226333
24	0x3e505262	0.20343927
25	0x3e4855ec	0.19564027
26	0x3e2399ae	0.15976593
27	0x3e858508	0.26078057
28	0x3e1a4d99	0.15068664
29	0xbd8aa217	-0.067691974
30	0x3e0f7000	0.14007568
31	0xbc54b3f0	-0.012982354
32	0xbd568738	-0.05237505
33	0x3e542e77	0.2072085
34	0x3e14f035	0.14544757
35	0xbd7af38d	-0.061267424
36	0x3aabb1f4	0.0013099299
37	0x3db00bfe	0.08596037
38	0x3d840f52	0.064482346
39	0x3e57adea	0.21062437
40	0x3cd91502	0.026499275
41	0x3c89c9a2	0.016819779
42	0xbca27853	-0.019832766
43	0xbd14f16d	-0.036363054
44	0xbbef1751	-0.0072964807
45	0xbdd5ba58	-0.10435933
46	0x3d7d9347	0.061908033
47	0xbc5ffab5	-0.013670613
48	0x3d4f850e	0.050664
49	0x3e412088	0.18860066
50	0x3ddce6f9	0.10786242
51	0x3d263ed8	0.040587276
52	0x3e596902	0.21231464
53	0x3e11a263	0.14222102
54	0x3d3d571c	0.046225652
55	0x3ba577cc	0.0050496813
56	0xbdfea4cb	-0.124337755
57	0x3e1c6cdd	0.15275903
58	0x3e134c24	0.14384514
59	0x3e57f7a1	0.21090557
60	0x3e29dbc9	0.16587748
61	0xbcf02c9a	-0.029318143
62	0xbd5f8203	-0.05456735
63	0x3e3bcafc	0.18339151

model.6.weight f4 [1, 64]
0	0x3df37558	0.11887616
1	0xbd3ada4c	-0.04561834
2	0x3d8da994	0.0691711
3	0xbc7440cf	-0.01490803
4	0xbd2b6c63	-0.041851413
5	0x3d806881	0.062699325
6	0x3de23a82	0.11046316
7	0xbda2884b	-0.07936152
8	0xbd2e213a	-0.042512156
9	0x3dd09531	0.10184706
10	0xbd3b0bfe	-0.045665734
11	0x3d8ad6c8	0.067792475
12	0x3dafcef0	0.08584392
13	0x3d781522	0.06056703
14	0x3d937809	0.07200629
15	0xbdc7cdb6	-0.09756033
16	0xbb198c7e	-0.0023429687
17	0xbd8f1fd7	-0.06988495
18	0x3d52cf8f	0.051467475
19	0xbae07ea1	-0.0017127582
20	0xbc902aa9	-0.017598467
21	0xbd769a75	-0.060205895
22	0x3dd3d44f	0.10343229
23	0x3d54ab3b	0.05192111
24	0x3d8d56ab	0.06901296
25	0x3db20d64	0.0869396
26	0x3d45ce59	0.04829249
27	0x3ddbbc19	0.10729236
28	0x3d772b49	0.060344014
29	0xbca39690	-0.019969255
30	0x3d3b54cb	0.04573516
31	0xbdc7a692	-0.09748568
32	0xbd49cc1c	-0.04926692
33	0x3e094e31	0.13408734
34	0x3e03fc2d	0.12889166
35	0xbd948031	-0.07251013
36	0xbd24cd36	-0.040234767
37	0x3daa179c	0.083052844
38	0xbdca5d5f	-0.098810904
39	0x3d4d7be9	0.050166998
40	0xbdcd5488	-0.10025889
41	0xbd286c03	-0.041118633
42	0xbdc91bf5	-0.098197855
43	0x3bb7c673	0.005608374
44	0xbca0757c	-0.01958727
45	0xbd6a820a	-0.05725292
46	0x3d93b1e4	0.07211664
47	0xbd19b3c0	-0.03752494
48	0xbdd27eaa	-0.102780655
49	0x3dbdec8d	0.09273634
50	0x3dcb7c53	0.09935822
51	0xbc00721d	-0.007839707
52	0x3d58c3f5	0.052921254
53	0x3d5ba5fc	0.053625092
54	0x3d08f84a	0.033439912
55	0xbb251e5d	-0.00251951
56	0xbdbc5ac9	-0.091970034
57	0x3d9d5709	0.07682616
58	0x3d42d724	0.047568455
59	0x3da68ab7	0.081319265
60	0x3d8973e3	0.06711557
61	0xbd1e2043	-0.038604986
62	0xbd3ff624	-0.046865597
63	0x3d4312d6	0.047625385

exp_avg f4 [128, 131]
0	0xbb210507	-0.0024569647
1	0xbccddf44	-0.025130875
2	0x3c007c54	0.007842142
3	0x3e59f5a2	0.21285108
4	0xbabd03fd	-0.0014420744
5	0x37d505e6	2.5394325e-05
6	0xbb02993b	-0.0019927758
7	0xb9410b75	-0.00018410182
8	0x39ba3406	0.00035515445
9	0x3aee5ed0	0.0018186215
10	0x3b121e83	0.0022296018
11	0x3b9c0d3a	0.004762319
12	0x3bc6b22d	0.0060637207
13	0x3cb75ea7	0.022384001
14	0xbb3b404b	-0.0028572257
15	0x38b8c614	8.810699e-05
16	0xbbf41d6f	-0.007449798
17	0x39f11b97	0.00045987658
18	0x3ac95395	0.0015359992
19	0xbb03b3a9	-0.00200961
20	0xbba02c52	-0.004888096
21	0x392bd32a	0.00016386496
22	0xbb2da772	-0.002649751
23	0xbb3799b8	-0.0028015207
24	0xbd2b59b5	-0.0418336
25	0xb998bab7	-0.00029130813
26	0x3a9e7cb8	0.0012091612
27	0x3ba40b58	0.005006235
28	0xbb181e24	-0.0023211325
29	0x3c8a837d	0.016908402
30	0x39ddc9f0	0.0004230286
31	0xbc0cccaa	-0.008593718
32	0xb92b54ee	-0.0001633947
33	0x3e78a59f	0.2428193
34	0xbc0eb912	-0.008711116
35	0x3caf90a9	0.021431284
36	0xbd28e35a	-0.041232444
37	0x3c2403e6	0.010010695
38	0x3eb6432e	0.3559813
39	0xba24f1dd	-0.0006292144
40	0x3c889613	0.016673123
41	0x3bc4e83e	0.0060091307
42	0x3cc5d448	0.024149075
43	0x3d3ee370	0.04660362
44	0xbbb2d1a7	-0.0054571214
45	0xbcb96109	-0.022629278
46	0xbc08a2ee	-0.008339627
47	0x3cf5e388	0.030015722
48	0x3e0d2372	0.13783053
49	0x3be4c598	0.006981563
50	0x3c2a6057	0.010398946
51	0xbcb5683c	-0.02214443
52	0x3b23f976	0.0025020516
53	0xbbbc3ce9	-0.0057445657
54	0x3e1508ea	0.14554182
55	0x3df4487b	0.11927887
56	0x3d358c3d	0.044323195
57	0xbd2ca5f9	-0.04215047
58	0x3c9b312e	0.01894435
59	0x3b9199b8	0.0044433735
60	0xbc74cdc5	-0.014941637
61	0xba973438	-0.0011535948
62	0xbb5a67d1	-0.003332604
63	0x3d040c09	0.03223804
64	0xbd66f3a8	-0.056384712
65	0x3c83b26a	0.016076285
66	0xbc6326af	-0.013864203
67	0x3bf1377d	0.007361351
68	0x3bbc6977	0.005749877
69	0x3c639360	0.013890117
70	0xbc8e7a22	-0.017392222
71	0x3ae47d8c	0.0017432435
72	0xbb70cd0d	-0.0036743314
73	0x3c24d6d8	0.010060988
74	0x3c7ba2b9	0.01535862
75	0x3bc1cfb8	0.0059146546
76	0x3861cd3b	5.3835316e-05
77	0x3de9e124	0.11419895
78	0xbc18759e	-0.009305386
79	0x3d062df9	0.032758687
80	0xbb146b0a	-0.0022646808
81	0xbbfeba5f	-0.007773682
82	0xbac2a333	-0.0014849663
83	0xbb9d1fb7	-0.0047950405
84	0xbc167d8c	-0.009185206
85	0x3d0dc6c0	0.03461337
86	0x3a69782c	0.00089061516
87	0x3cd071c0	0.025444865
88	0x3c1b93f3	0.009495723
89	0x39f51fc3	0.00046753706
90	0xbce9bd48	-0.02853264
91	0xbcb05218	-0.02152352
92	0x3cbcd89d	0.023052508
93	0xbb84bf6d	-0.00405114
94	0x3b8538d5	0.004065613
95	0xbc4481c4	-0.011993829
96	0x3c577bcd	0.013152075
97	0xbbb146d4	-0.0054100547
98	0x3b0af634	0.0021203877
99	0x3b67b9eb	0.0035358618
100	0xba6734d5	-0.0008819823
101	0x3cd3b766	0.025844287
102	0x3d280ea8	0.041029602
103	0xbd316a0c	-0.043314025
104	0x3b4e82ba	0.0031511025
105	0x3cc4c179	0.024018036
106	0x00000000	0.0
107	0xbc006df3	-0.007838714
108	0xbafdf1f2	-0.0019374473
109	0x3c6710dc	0.014103141
110	0x3c113e5e	0.008864967
111	0x3d3a57b1	0.045493785
112	0x3df02ad0	0.11726916
113	0x3cb979fa	0.02264117
114	0x3d5e99a5	0.054345746
115	0x3af35965	0.001856607
116	0x00000000	0.0
117	0x3df613c0	0.12015486
118	0x3df8bba0	0.12145162
119	0x3d25f573	0.04051728
120	0xba79df00	-0.0009531826
121	0x3e1eefa4	0.15521103
122	0x3d3fd236	0.046831332
123	0x41cc3ed0	25.53067
124	0x42209aee	40.1513
125	0x424b5a5d	50.838245
126	0x422a2867	42.539455
127	0x4243a82c	48.91423
128	0x4212b30b	36.674847
129	0x41b33f43	22.40589
130	0x43229d92	162.61551
131	0x00000000	0.0
132	0xbd4a3a32	-0.049371906
133	0x38e28663	0.00010801551
134	0x3e962ddd	0.29331866
135	0x1742f0bf	6.2988645e-25
136	0x00000000	0.0
137	0x00000000	0.0
138	0x00000000	0.0
139	0x00000000	0.0
140	0x00000000	0.0
141	0xbd3285d2	-0.043584652
142	0x00000000	0.0
143	0x00000000	0.0
144	0x00000000	0.0
145	0x00000000	0.0
146	0x27d0558d	5.782435e-15
147	0x00000000	0.0
148	0x00000000	0.0
149	0x00000000	0.0
150	0xa7b559ce	-5.033496e-15
151	0x00000000	0.0
152	0x00000000	0.0
153	0xbc995847	-0.018718852
154	0x00000000	0.0
155	0x00000000	0.0
156	0x00000000	0.0
157	0x00000000	0.0
158	0x3af5c452	0.0018750525
159	0x00000000	0.0
160	0x00000000	0.0
161	0x00000000	0.0
162	0x38e28663	0.00010801551
163	0x3c352686	0.011056548
164	0x3f20c3fb	0.6279904
165	0x38e28663	0.00010801551
166	0x3c352686	0.011056548
167	0xbd7783d3	-0.06042845
168	0xa7b559ce	-5.033496e-15
169	0x3f53fc8d	0.82807237
170	0x3e36b102	0.1784096
171	0x3e025d3c	0.12730879
172	0x3e22060e	0.15822622
173	0x3e405c69	0.18785252
174	0x3d6d6fc9	0.057967935
175	0x3c1cf44e	0.009579731
176	0xbd97114d	-0.07376347
177	0x3c499d20	0.012305528
178	0xbbdea781	-0.0067948704
179	0x3d2a52c5	0.04158284
180	0x3b7c40b5	0.0038490717
181	0xbd8c5b4c	-0.06853351
182	0xbd600cd6	-0.05469974
183	0x3ce27bf5	0.027646998
184	0xbd172995	-0.03690489
185	0x3e11be5e	0.14232776
186	0x3e6ef796	0.23336634
187	0x3ebfc7e8	0.37457204
188	0xbd6edef5	-0.058318097
189	0x3d948557	0.07251995
190	0x3bf0c681	0.0073478823
191	0xb7bff01b	-2.2880782e-05
192	0x28de3f02	2.4674276e-14
193	0x00000000	0.0
194	0x280b7ce6	7.743133e-15
195	0xbd91463c	-0.07093474
196	0x00000000	0.0
197	0xbb39624e	-0.0028287354
198	0x00000000	0.0
199	0x3a59d84b	0.0008310123
200	0x3dac4eae	0.084134445
201	0x3a16fca6	0.00057596934
202	0x00000000	0.0
203	0x3c328fd2	0.010898547
204	0x00000000	0.0
205	0x3a983506	0.0011612482
206	0xbc025a5e	-0.0079561155
207	0x00000000	0.0
208	0x00000000	0.0
209	0xbb78780e	-0.0037913355
210	0x3af5c452	0.0018750525
211	0xbc00926a	-0.007847408
212	0x3d322c25	0.04349913
213	0x2915f7d6	3.329961e-14
214	0x3b7c40b5	0.0038490717
215	0xa79d8772	-4.3723104e-15
216	0x26a8730a	1.1688523e-15
217	0x298983f0	6.10691e-14
218	0xbb14bef8	-0.0022696834
219	0x00000000	0.0
220	0xbd88a249	-0.066715784
221	0xb8daeca1	-0.000104391256
222	0x3cf2812a	0.029602606
223	0xbc8031c5	-0.015648732
224	0x3cc6d58f	0.024271755
225	0xbc487992	-0.012236016
226	0x3e06a234	0.13147813
227	0x3b3fa158	0.0029240455
228	0x3d41cde4	0.047315493
229	0x3e3a6035	0.18200763
230	0xbbb82a84	-0.0056203026
231	0xbd8c15a5	-0.06840066
232	0x3e0c73fb	0.13716118
233	0x3d6be428	0.057590634
234	0x3d9d1d25	0.076715745
235	0x3c646797	0.013940713
236	0xbd23b275	-0.03996511
237	0x00000000	0.0
238	0x3900d69a	0.00012286977
239	0xbd592a69	-0.05301896
240	0x3d5a3531	0.053273384
241	0x3b13c410	0.0022547282
242	0x3edd0733	0.43169555
243	0x3e2aae2d	0.16668005
244	0x3cf29aa5	0.029614756
245	0x2556af37	1.8620906e-16
246	0x00000000	0.0
247	0x00000000	0.0
248	0x3da08085	0.07837013
249	0x3f0cb3ea	0.5496203
250	0x3e7bdc3a	0.24595729
251	0xbd8bc820	-0.0682528
252	0xbcbd3f8f	-0.023101596
253	0x3ef25fd9	0.4733875
254	0x42c39664	97.79373
255	0x4296b5fa	75.35542

exp_avg_sq f4 [128, 131]
0	0x3a4b5066	0.0007755816
1	0x3c9b7402	0.018976215
2	0x3b36d696	0.00278989
3	0x3def31f1	0.116794474
4	0x3a8184f1	0.0009881539
5	0x37fe3fe8	3.0308918e-05
6	0x3aada70d	0.0013248638
7	0x39ba52a2	0.0003553825
8	0x3a4daa96	0.00078455487
9	0x3880946e	6.131163e-05
10	0x3ab8393c	0.0014055143
11	0x38d0a4fa	9.948942e-05
12	0x39a61078	0.00031674257
13	0x3a1dd8b4	0.0006021366
14	0x3a62f8ab	0.000865827
15	0x39820f97	0.00024807148
16	0x3a56b500	0.0008190423
17	0x3927b19e	0.00015992529
18	0x38bb8b86	8.942843e-05
19	0x3a944ad5	0.0011313806
20	0x39554af8	0.00020341191
21	0x3a4b19a3	0.00077476556
22	0x3b0c6879	0.0021424575
23	0x39f8abb9	0.0004743019
24	0x39d3c8a6	0.0004039455
25	0x39236b11	0.00015584777
26	0x3920d243	0.00015337118
27	0x3a270b54	0.00063722325
28	0x39fd3a0f	0.00048299177
29	0x3a91cbb1	0.0011123327
30	0x39fbc075	0.00048017842
31	0x39cbe6d2	0.00038891152
32	0x3b9a18a1	0.004702643
33	0x3ecd35b6	0.4008004
34	0x3b8429a3	0.004033284
35	0x3c0eff5f	0.008727877
36	0x3be74f60	0.007059023
37	0x3b1c3e99	0.0023841022
38	0x3f2fe21b	0.68704385
39	0x3cc1fc68	0.023679927
40	0x3d057906	0.03258612
41	0x3cc00b74	0.023442961
42	0x3cfcbfce	0.030853178
43	0x3c619447	0.013768262
44	0x3c988be8	0.0186214
45	0x3c9ef349	0.019403117
46	0x3c396f84	0.011318091
47	0x3c7e6a52	0.015528278
48	0x3c9311a7	0.017952753
49	0x3d343504	0.043995872
50	0x3d380d1d	0.04493438
51	0x3d2cd11b	0.042191606
52	0x3cf512d2	0.0299162
53	0x3d1b513d	0.03791927
54	0x3d0d6245	0.034517545
55	0x3da60108	0.081056654
56	0x3da93dfa	0.08263774
57	0x3d2f29f2	0.04276461
58	0x3c070c81	0.008242727
59	0x3c0b8ee6	0.008517956
60	0x3b8d1143	0.0043050363
61	0x3b8f4351	0.0043720384
62	0x3b142677	0.0022605935
63	0x3b6ffdcd	0.0036619783
64	0x3b4f31d7	0.00316154
65	0x3b88877e	0.0041665426
66	0x3bb11728	0.005404372
67	0x3ba334e8	0.004980672
68	0x3b5c3810	0.0033602752
69	0x3c089361	0.008335919
70	0x3b37ed55	0.0028065045
71	0x3a398f30	0.00070785265
72	0x3acff6ab	0.001586636
73	0x3b227b30	0.0024792664
74	0x3b5458fa	0.0032401667
75	0x3bdb86b3	0.006699407
76	0x3b16e311	0.0023023526
77	0x3ba4a189	0.0050241393
78	0x3b5aa69c	0.0033363467
79	0x3bb183eb	0.005417337
80	0x3b8c5dab	0.004283627
81	0x3b48868a	0.003059777
82	0x3b3bb92b	0.0028644304
83	0x3b603112	0.0034208936
84	0x3be208cf	0.0068980227
85	0x3cb1b046	0.021690499
86	0x3bfeb3f5	0.0077729174
87	0x3b8166e4	0.003949033
88	0x3bdfe7eb	0.0068330667
89	0x3c6b9ab4	0.014380146
90	0x3c673951	0.014112786
91	0x3b9febfb	0.004880426
92	0x3c376db4	0.011195589
93	0x3b930bcc	0.0044874903
94	0x3b72bced	0.0037038878
95	0x3bf2440c	0.0073933657
96	0x3bae9ce2	0.0053287605
97	0x3b8e40a6	0.004341203
98	0x3c201e09	0.009772786
99	0x3b31f570	0.0027154349
100	0x3bb5efed	0.005552283
101	0x3c60b4b4	0.013714958
102	0x3b891f19	0.0041846153
103	0x3bb1926b	0.0054190657
104	0x3ab6aef4	0.0013937638
105	0x3bc707dd	0.0060739354
106	0x00000000	0.0
107	0x3b9753e1	0.0046181534
108	0x3b894557	0.004189174
109	0x3aa5b108	0.001264126
110	0x3aa71fc9	0.0012750562
111	0x3c1afaf5	0.009459247
112	0x3d8ab437	0.067726545
113	0x3e1d845b	0.15382521
114	0x3da527b1	0.08064211
115	0x3c8d6c45	0.017263541
116	0x00000000	0.0
117	0x3e3ca4ec	0.18422288
118	0x3e757c78	0.23973262
119	0x3d64b6b0	0.055838287
120	0x3d4a9d74	0.049466565
121	0x3de7c250	0.11316359
122	0x3dbd6270	0.09247291
123	0x4654c232	13616.549
124	0x46588b04	13858.754
125	0x46519a71	13414.61
126	0x46753751	15693.829
127	0x468ea75a	18259.676
128	0x46aa1f44	21775.633
129	0x46908089	18496.268
130	0x48bea953	390474.6
131	0x00000000	0.0
132	0x3d68412f	0.05670279
133	0x391889e1	0.00014547214
134	0x3f590f3a	0.8478886
135	0x3b81454d	0.003945029
136	0x00000000	0.0
137	0x00000000	0.0
138	0x00000000	0.0
139	0x00000000	0.0
140	0x00000000	0.0
141	0x3cfd2f44	0.030906327
142	0x00000000	0.0
143	0x00000000	0.0
144	0x00000000	0.0
145	0x00000000	0.0
146	0x39c43f9f	0.00037431435
147	0x00000000	0.0
148	0x00000000	0.0
149	0x00000000	0.0
150	0x3a2c0904	0.0006562623
151	0x00000000	0.0
152	0x00000000	0.0
153	0x3c25b76b	0.010114531
154	0x00000000	0.0
155	0x00000000	0.0
156	0x00000000	0.0
157	0x00000000	0.0
158	0x3b99c509	0.004692678
159	0x00000000	0.0
160	0x00000000	0.0
161	0x00000000	0.0
162	0x391889e1	0.00014547214
163	0x3c17b168	0.009258606
164	0x401d945f	2.4621809
165	0x391889e1	0.00014547214
166	0x3c17b168	0.009258606
167	0x3d3fa4b2	0.046787925
168	0x3a2c0904	0.0006562623
169	0x407c844c	3.9455748
170	0x3e6c0d3b	0.23051922
171	0x3f0cf6ec	0.5506427
172	0x3ef6a748	0.481745
173	0x3e6318cb	0.22177427
174	0x3e2f12ea	0.17097059
175	0x3bff1f11	0.007785686
176	0x3c289791	0.0102900425
177	0x3b6e0bf6	0.0036323047
178	0x3ded8d70	0.11599243
179	0x3d2aaf86	0.0416713
180	0x3cf1beab	0.029509863
181	0x3ea6eae4	0.32601082
182	0x3dcbb651	0.099468835
183	0x3ddb1555	0.10697428
184	0x3d16e3b2	0.03683824
185	0x3ee9de3a	0.45677358
186	0x3f60c7d5	0.8780492
187	0x3f41a652	0.7564441
188	0x3cbc30fe	0.02297258
189	0x3dd2153a	0.10257955
190	0x3b5fc2d3	0.0034143224
191	0x3b18aded	0.0023297027
192	0x39795ac8	0.00023780309
193	0x00000000	0.0
194	0x39a2b230	0.00031031808
195	0x3b5507de	0.003250591
196	0x00000000	0.0
197	0x3bdc8014	0.0067291353
198	0x00000000	0.0
199	0x3a27d97c	0.0006402952
200	0x3c557bc1	0.0130299935
201	0x3979db42	0.0002382817
202	0x00000000	0.0
203	0x3b2f73a4	0.0026771808
204	0x00000000	0.0
205	0x3b85b700	0.004080653
206	0x3de531ff	0.111911766
207	0x00000000	0.0
208	0x00000000	0.0
209	0x3c28dd53	0.010306674
210	0x3b9a4a11	0.0047085364
211	0x3d04a093	0.032379698
212	0x3d061e31	0.032743637
213	0x3a0d4510	0.0005389014
214	0x3c97885e	0.018497642
215	0x3913875c	0.00014069438
216	0x3981e6ad	0.00024776664
217	0x3bbe2d28	0.005803723
218	0x3d3d5c4e	0.046230607
219	0x00000000	0.0
220	0x3e83654c	0.2566322
221	0x3aa48006	0.0012550361
222	0x3d9a7143	0.07541134
223	0x3ea5ad66	0.32358855
224	0x3d56dce7	0.052456763
225	0x3c1fd6b5	0.00975578
226	0x3e302b05	0.1720391
227	0x3e801340	0.25014687
228	0x3c822160	0.015885055
229	0x3d945e5e	0.072445616
230	0x3d19eb0a	0.037577666
231	0x3db7615f	0.08954119
232	0x3caf9e08	0.02143766
233	0x3c206ab5	0.009791066
234	0x3d5854fc	0.052815422
235	0x3df8fae3	0.12157228
236	0x3d2c931d	0.042132486
237	0x00000000	0.0
238	0x3d340743	0.043952238
239	0x3db38a17	0.08766573
240	0x3cde1012	0.027107272
241	0x3aef9cd6	0.0018280994
242	0x3f70088c	0.9376304
243	0x3f754f68	0.9582429
244	0x3ed93084	0.42419827
245	0x3adbda5e	0.0016773453
246	0x00000000	0.0
247	0x00000000	0.0
248	0x3f3689fd	0.71304303
249	0x3fd4b114	1.661654
250	0x3ed61b3f	0.41817662
251	0x3e01e100	0.12683487
252	0x3ecb1fc1	0.39672664
253	0x3fa61e38	1.2977972
254	0x47e400fe	116737.984
255	0x47ac6cb1	88281.38

exp_avg f4 [128]
0	0x3e7767b0	0.24160647
1	0x3f20c3fa	0.62799037
2	0xbe94c8df	-0.29059502
3	0x3d852478	0.065010965
4	0x3e0bf9ec	0.13669556
5	0x02116e50	1.0684576e-37
6	0x3f129acf	0.5726747
7	0x3f1f3760	0.6219387
8	0xbdc1ea18	-0.09468478
9	0xbd32762c	-0.04356973
10	0xbed0567a	-0.40690976
11	0x3ed864bc	0.42264354
12	0xbd86c4b9	-0.065804906
13	0xbc694900	-0.014238596
14	0xbde056bb	-0.109540425
15	0xbe4270aa	-0.1898829
16	0xbec19882	-0.37811667
17	0xbd175a0e	-0.036951117
18	0x3c911600	0.017710686
19	0xbec235fb	-0.3793181
20	0xbe32e60f	-0.17470573
21	0x02198ad1	1.1280503e-37
22	0x3f3a6a3a	0.7281834
23	0x021d8d7d	1.1575143e-37
24	0x3bf73c0d	0.0075450004
25	0xbe83b356	-0.2572276
26	0x3dec46d0	0.11536944
27	0xbea16ef8	-0.31529975
28	0x3cfcbe78	0.030852541
29	0xbdd0aa02	-0.101886764
30	0xbd9102ca	-0.0708061
31	0xbd9b6c8d	-0.07589064
32	0xbd092c50	-0.033489525
33	0x3d227264	0.039659873
34	0xbdc78a6e	-0.097432
35	0x021fddb9	1.1745106e-37
36	0xbe200f8e	-0.15630934
37	0xbe1c097b	-0.15237992
38	0xbeabe68a	-0.33574325
39	0x3fb10cd6	1.3832042
40	0xbde0f1fa	-0.10983653
41	0xbcfc46cb	-0.030795475
42	0x3c9b7ab4	0.018979408
43	0xbdc3f2de	-0.095678076
44	0x3fd29080	1.6450348
45	0x00000000	0.0
46	0xbda63d52	-0.08117165
47	0xbef0039f	-0.46877763
48	0xbea711ab	-0.32630667
49	0x00000000	0.0
50	0xbe9936c2	-0.2992459
51	0xbf38df20	-0.7221546
52	0xbd69d590	-0.057088435
53	0xbeab9ab5	-0.3351647
54	0xbe431d16	-0.19054064
55	0x3d84e997	0.06489866
56	0xbe0bfcae	-0.13670608
57	0x00000000	0.0
58	0x3e9d6231	0.30738977
59	0xbe18b5f5	-0.14913161
60	0xbeba3c16	-0.36373967
61	0xbcdf2735	-0.027240375
62	0xbc692238	-0.01422935
63	0xbe26a544	-0.16273981
64	0xbe5df4a6	-0.21675357
65	0x3dfdf3e2	0.124000326
66	0x3decaf48	0.1155687
67	0xbea998dd	-0.33124438
68	0x3f163350	0.58672047
69	0x3ca684ad	0.020326937
70	0xbd4e8868	-0.050423056
71	0x3e826e4a	0.2547477
72	0xbd825a36	-0.063648626
73	0x3f5f127d	0.87137586
74	0x3d9e0619	0.07716007
75	0xbed9d1d6	-0.42542905
76	0x3e9dacf7	0.30796024
77	0xbf178534	-0.59187627
78	0x3e1584e8	0.14601481
79	0x00000000	0.0
80	0xbe2f0006	-0.17089853
81	0xbf27a0d5	-0.65479785
82	0x3d769586	0.06020119
83	0xbdb23ba1	-0.087027796
84	0xbc3ab24d	-0.011395049
85	0xbdbe1ccc	-0.09282836
86	0xbe127275	-0.14301474
87	0x3e5781cd	0.21045609
88	0xbdcb9466	-0.09940414
89	0xbd809484	-0.06278327
90	0xbf815eb6	-1.0107028
91	0x3edca02e	0.43090957
92	0xbcc18488	-0.023622766
93	0xbde476ec	-0.11155495
94	0x3c807173	0.015679097
95	0xb9cf58d3	-0.00039548296
96	0xbe181088	-0.14850056
97	0xbe69311c	-0.2277264
98	0x3e0c5613	0.1370471
99	0x3f9f1d9e	1.2430913
100	0x3e9e298f	0.30891082
101	0xbc66a434	-0.014077235
102	0xbe0cdb0b	-0.13755433
103	0x3ba9a7aa	0.005177458
104	0xbd6fc713	-0.05853946
105	0xbde3e6e8	-0.11128026
106	0x3fa9ced3	1.3266243
107	0xbe38c2e7	-0.180431
108	0xbe3b6484	-0.18300062
109	0xbe35d39d	-0.17756505
110	0xbe3b9852	-0.18319824
111	0x3f8c8774	1.0978837
112	0xbee14e0a	-0.44004852
113	0xbe557fa0	-0.20849466
114	0xbef073f8	-0.46963477
115	0x3fe10086	1.7578285
116	0x3ef8392e	0.48481125
117	0x3e343560	0.17598486
118	0xbda122b1	-0.07867945
119	0xbddc1c14	-0.10747543
120	0xbe3b4b8b	-0.18290536
121	0xbea2f8ff	-0.31830594
122	0xbe5903bf	-0.21192835
123	0x3e0b225c	0.13587326
124	0xbf30448b	-0.6885459
125	0x3fb035aa	1.3766377
126	0x3cf80a92	0.030278478
127	0x3dedc7c2	0.116103664

exp_avg_sq f4 [128]
0	0x3ecdd381	0.40200427
1	0x401d945f	2.4621809
2	0x3fc9fd35	1.5780398
3	0x3fa89e1a	1.3173249
4	0x3f868c39	1.0511543
5	0x3294e9eb	1.7335841e-08
6	0x3f31e80a	0.6949469
7	0x4008e21e	2.138801
8	0x3fa6d343	1.3033222
9	0x4029dc88	2.6540852
10	0x40da46cb	6.8211417
11	0x3fbc1ca7	1.4696244
12	0x3e8e09fa	0.27741987
13	0x40963158	4.6935234
14	0x3dfcd524	0.12345341
15	0x3f7671b4	0.9626725
16	0x3ff37dca	1.9022763
17	0x3f27baaa	0.655192
18	0x3f232c6f	0.63739675
19	0x40a9a1d6	5.3010054
20	0x3f5b8c1c	0.85760665
21	0x376f2705	1.4254595e-05
22	0x40a90245	5.281527
23	0x37ca0d7c	2.4086556e-05
24	0x40be870d	5.9539857
25	0x40139b77	2.3063638
26	0x40ab3648	5.350376
27	0x40ed3d4b	7.413732
28	0x3fb07778	1.3786459
29	0x40838b3f	4.110748
30	0x3fee9d6c	1.8641791
31	0x3d9c19bd	0.07622097
32	0x3e0c86d7	0.13723312
33	0x3e2da36c	0.16956872
34	0x3f4da075	0.80322963
35	0x38f6c35e	0.00011766584
36	0x3ffbe5b4	1.9679475
37	0x4012d7bd	2.2944176
38	0x401afabd	2.4215539
39	0x409fb6c1	4.991059
40	0x3e73cee5	0.23809393
41	0x3f39d6cf	0.72593397
42	0x3f9e5ed7	1.2372693
43	0x40222f51	2.534138
44	0x41131ede	9.195036
45	0x00000000	0.0
46	0x40316a2b	2.772105
47	0x40285e22	2.6307454
48	0x40912566	4.5358152
49	0x00000000	0.0
50	0x3f5c1f92	0.8598567
51	0x402ac184	2.6680613
52	0x406f2b62	3.7370229
53	0x40c8021b	6.250257
54	0x405b1fdc	3.4238195
55	0x3f8ed5e5	1.1159025
56	0x407a38cf	3.9097173
57	0x00000000	0.0
58	0x4085a76b	4.176687
59	0x3f41b783	0.7567064
60	0x40a74b2e	5.227927
61	0x3de5050c	0.11182603
62	0x3f117d5a	0.56831896
63	0x4029267b	2.6429737
64	0x3f2a2581	0.66463476
65	0x3f8d7536	1.1051395
66	0x40ed21e3	7.4103866
67	0x3fab700c	1.3393569
68	0x3fd6be2d	1.6776787
69	0x3daa87c5	0.08326677
70	0x3ff5a351	1.9190465
71	0x40af48b9	5.4776273
72	0x3e16f902	0.14743426
73	0x40022c0e	2.033939
74	0x3e49df55	0.197141
75	0x40055753	2.0834548
76	0x3fd9c353	1.7012733
77	0x40edca95	7.4309793
78	0x4029b729	2.6518042
79	0x00000000	0.0
80	0x414784c0	12.46991
81	0x415a1ace	13.631544
82	0x3c60d986	0.013723737
83	0x3f9543e1	1.166134
84	0x3d65c138	0.05609247
85	0x3e9753a2	0.29555994
86	0x3eb3d935	0.35126653
87	0x3f3ff078	0.749763
88	0x3f7d5265	0.9895385
89	0x3ef737db	0.48284802
90	0x404f3730	3.2377434
91	0x3fc21c1a	1.5164826
92	0x3ff3f887	1.906022
93	0x3e7a1b59	0.24424495
94	0x3e047e26	0.12938747
95	0x3a5f84f0	0.0008526584
96	0x3fa03dad	1.2518822
97	0x4062c502	3.5432744
98	0x3ee982f7	0.4560773
99	0x400b8d61	2.180504
100	0x4128c1cf	10.547317
101	0x3e08d4fc	0.13362497
102	0x3ef7e273	0.48414955
103	0x3d1da6f0	0.038489282
104	0x3eeb4a07	0.45954916
105	0x401afa75	2.4215367
106	0x3fd7df11	1.686495
107	0x3f6c8fb2	0.9240676
108	0x4029597d	2.646087
109	0x400b58e1	2.1772997
110	0x3ead433d	0.3384036
111	0x40c9c81a	6.3056765
112	0x401f8dba	2.4930253
113	0x3f31f9da	0.6952187
114	0x4037f55c	2.8743505
115	0x40b274db	5.5767646
116	0x409ea575	4.9576974
117	0x40cb32b0	6.3499374
118	0x3e947f12	0.29003197
119	0x3f35bf02	0.7099458
120	0x40001507	2.0012834
121	0x3f1a0fe3	0.6018049
122	0x3f682aea	0.9069048
123	0x3f830e0d	1.0238663
124	0x3f1bf0c7	0.6091427
125	0x40deead5	6.966166
126	0x3d993938	0.07481617
127	0x409566b6	4.668788

exp_avg f4 [64, 128]
0	0x407da74c	3.963336
1	0x3e5a1722	0.21297887
2	0x417c367f	15.763305
3	0xc0af3e80	-5.4763794
4	0x41af6824	21.92585
5	0x00000000	0.0
6	0xc04cd667	-3.200586
7	0xc06fa45f	-3.7444074
8	0x41a0107c	20.008049
9	0x42204c21	40.074345
10	0x3fd2ca58	1.6468
11	0x3f641dc8	0.8910794
12	0x40af1130	5.470848
13	0x3f848cd0	1.0355473
14	0xbfc6fcf5	-1.5545946
15	0xbe836942	-0.25666243
16	0xc0073442	-2.1125646
17	0x41273092	10.449358
18	0x419ae028	19.359451
19	0x40af14b7	5.4712787
20	0x40cdda08	6.432865
21	0x8211f424	-1.0722982e-37
22	0xbf95a553	-1.1691078
23	0x8215fee8	-1.1019946e-37
24	0xbfa10af8	-1.2581472
25	0x410bbc88	8.733528
26	0x40a01da5	5.0036187
27	0x4149a422	12.6025715
28	0x41aa358d	21.276148
29	0xc0bb0be6	-5.8452024
30	0x41ee7226	29.805737
31	0x401ecccd	2.48125
32	0xbe4d4690	-0.20046449
33	0x3e3aac1a	0.18229714
34	0x41af8e23	21.944403
35	0x821ec1d9	-1.1663638e-37
36	0x41565be9	13.397439
37	0xbf9a7518	-1.2066984
38	0x40489448	3.1340504
39	0xc00d61a5	-2.2090847
40	0x40b2e4e8	5.5904427
41	0x414507ee	12.314436
42	0x41680858	14.502037
43	0xc01d6700	-2.4594116
44	0x405dc229	3.4649756
45	0x00000000	0.0
46	0x41c88d50	25.069
47	0xc01bb064	-2.432641
48	0xc0cde40c	-6.4340878
49	0x00000000	0.0
50	0xc1eea56e	-29.830776
51	0xc0be55b6	-5.9479628
52	0x40013174	2.0186434
53	0x40d93c30	6.788597
54	0xc01ee370	-2.4826317
55	0xbff44054	-1.9082131
56	0x4118c93c	9.5491295
57	0x00000000	0.0
58	0xbf05d8f6	-0.5228418
59	0x41675c88	14.460091
60	0x410d5843	8.834048
61	0xc05caed8	-3.4481716
62	0x4187d68f	16.979765
63	0x4096b81b	4.709974
64	0xc16437b8	-14.263603
65	0xc10ce38b	-8.8055525
66	0x416bd57e	14.739622
67	0x40a1214e	5.0353155
68	0xc0ffd7b0	-7.995079
69	0x40083bf7	2.12866
70	0x41792073	15.570422
71	0x3f32ecd5	0.69892627
72	0x3fea2149	1.8291408
73	0xc067b316	-3.6203055
74	0xbf83adf8	-1.0287466
75	0xc15eb49d	-13.919095
76	0xc078f29b	-3.8898075
77	0xc06e6db2	-3.7254453
78	0x41be5425	23.791086
79	0x00000000	0.0
80	0x4128b715	10.544698
81	0xbf96b2bc	-1.1773295
82	0x3ee1651f	0.44022462
83	0x417c016c	15.750347
84	0xbf20ad50	-0.62764454
85	0xbfe10744	-1.7580342
86	0x41aacc72	21.349827
87	0x40ed50fb	7.4161353
88	0x3e667040	0.22503757
89	0x410c7dbc	8.780697
90	0x402b43f5	2.6760228
91	0x3e9ba74a	0.3040107
92	0xbf93c080	-1.1543121
93	0x40326f3a	2.7880387
94	0x3e0b263f	0.13588808
95	0x1d64dfc3	3.029123e-21
96	0xc011e990	-2.2798805
97	0x41019f38	8.101372
98	0x3ed3c00c	0.41357458
99	0xc11a2a7e	-9.635374
100	0x41b8a722	23.081608
101	0xbd70dede	-0.058806293
102	0x4000af46	2.0106978
103	0xbbc31b80	-0.005954206
104	0xc11cd942	-9.803041
105	0xc13043bc	-11.016537
106	0x3f079664	0.5296385
107	0xc2042194	-33.03279
108	0x40fe98e0	7.9561615
109	0xc1386cd7	-11.526572
110	0x3f52955e	0.82259166
111	0xc0ded132	-6.9630365
112	0xc145974c	-12.349438
113	0xc0fe2564	-7.9420643
114	0xc1872b7d	-16.896235
115	0xc0a40e15	-5.126719
116	0xc0565510	-3.3489418
117	0xc009e84e	-2.1548038
118	0x3eca5d47	0.3952429
119	0xbd878900	-0.066179276
120	0x418cfd42	17.623661
121	0xc1ef1d32	-29.889256
122	0x3fc866bd	1.5656353
123	0x41a12f6e	20.148159
124	0x40822292	4.06672
125	0xc18743de	-16.908138
126	0x3f4044d2	0.7510501
127	0x42002855	32.039387
128	0x3f31f844	0.6951945
129	0x392b1426	0.00016315337
130	0x3e82c8e9	0.25543907
131	0x3dc838b9	0.09776444
132	0x3c1c1537	0.009526542
133	0x821c1564	-1.1467209e-37
134	0x9a71529a	-4.9904357e-23
135	0x3e3b3f40	0.18285847
136	0x3e3309ab	0.17484157
137	0x3c7438a3	0.014906081
138	0x3c8467a6	0.016162705
139	0x3e35bf35	0.17748721
140	0x38c4ff92	9.393612e-05
141	0x3dd0de06	0.101985976
142	0x1f45bf25	4.1874484e-20
143	0x82134e45	-1.0822317e-37
144	0x3c56d97c	0.013113376
145	0x3cd7c2e3	0.026338046
146	0x3ebf7cec	0.37399995
147	0x1e8da987	1.499907e-20
148	0x3e8b5f7d	0.2722129
149	0x021be6de	1.1453857e-37
150	0xb11c82c3	-2.2775317e-09
151	0x00000000	0.0
152	0x3c88b3db	0.016687324
153	0x3dd548bc	0.104142636
154	0x39293d36	0.00016139899
155	0x3af2469a	0.0018484176
156	0x3d277420	0.04088223
157	0x3c2c4e94	0.010516781
158	0x3e9686f3	0.29399833
159	0x3e125f06	0.14294061
160	0x3a6ccc46	0.00090331247
161	0x00000000	0.0
162	0x3f3838ab	0.7196147
163	0x021eb147	1.1658883e-37
164	0x3969703b	0.0002226242
165	0xb4242a9c	-1.5289191e-07
166	0x39c81e91	0.00038169746
167	0x3cc54411	0.024080308
168	0x3f08643b	0.5327794
169	0x3f135e6f	0.5756597
170	0x3c914b4d	0.017736102
171	0x3c2110c2	0.0098306555
172	0x37098723	8.1973e-06
173	0x00000000	0.0
174	0xb6002544	-1.9095178e-06
175	0x3955fd0b	0.00020407529
176	0x39a80e1f	0.00032053978
177	0x00000000	0.0
178	0x3dd02de8	0.10165006
179	0xa100c9ad	-4.3635e-19
180	0x3bd17e67	0.006393242
181	0x3e14efe6	0.14544639
182	0x3ca88b40	0.020574212
183	0x3b99b4fe	0.0046907654
184	0x3c4e952b	0.012608807
185	0x00000000	0.0
186	0xb8aed08e	-8.335813e-05
187	0x3e6a6c65	0.22892912
188	0x3c348be8	0.011019684
189	0x3f094287	0.5361714
190	0x3f053266	0.52030027
191	0x38abe9d3	8.1974686e-05
192	0x3e1b8d35	0.15190585
193	0x18647e32	2.9532022e-24
194	0x3aebabbd	0.0017980259
195	0x3ec6c670	0.3882327
196	0x3e1ef1b8	0.15521896
197	0x3e5ee806	0.21768197
198	0x3e82ed65	0.25571743
199	0xb8a815e2	-8.01494e-05
200	0x3c066eb0	0.008205101
201	0x3b8edfe8	0.004360188
202	0x3e6fd57d	0.23421283
203	0x3c6bfb59	0.014403188
204	0x3b5fd77d	0.003415554
205	0x9bae9618	-2.888288e-22
206	0x39b4f142	0.00034512026
207	0x00000000	0.0
208	0x38ada958	8.2808256e-05
209	0x3dc1e2bc	0.09467074
210	0x8213750d	-1.0833446e-37
211	0x3eed1981	0.4630852
212	0xb99386e7	-0.00028138535
213	0x3db8ca01	0.09022904
214	0x3efe1569	0.4962571
215	0x3ec68f05	0.3878099
216	0x3ec5cf6e	0.3863482
217	0x3d026aad	0.031840015
218	0x3ecb3f9b	0.39696965
219	0x99c697fa	-2.0534103e-23
220	0x3d236929	0.03989521
221	0xb8f21b14	-0.00011544503
222	0x3e0d4912	0.13797405
223	0x23a0dce2	1.7440782e-17
224	0x3d1dc119	0.03851423
225	0x3c0f2646	0.008737152
226	0x3ee92e76	0.4554326
227	0x388074a9	6.125245e-05
228	0x3d2ff1e3	0.04295529
229	0x395b8bbc	0.00020937523
230	0x3e8d69c6	0.2761976
231	0x3e8c528d	0.2740673
232	0xbac43863	-0.0014970418
233	0x38f17c14	0.00011514887
234	0x3cdf37e7	0.027248336
235	0x3d6827e5	0.05667867
236	0x3c6ed707	0.014577634
237	0x3c0118ca	0.007879445
238	0x3857aa20	5.1418436e-05
239	0x3cf34cad	0.029699648
240	0x3e2a67cc	0.16641158
241	0x3de96a8f	0.113972776
242	0x3a363474	0.0006950565
243	0x394a09e5	0.00019267907
244	0x3787c025	1.6182728e-05
245	0x9c145e0d	-4.909065e-22
246	0x389afa04	7.389861e-05
247	0x3eeb44e5	0.45951
248	0x3d957eeb	0.07299598
249	0x3ee7b861	0.45257857
250	0x392b18ed	0.00016317116
251	0x3ef3d1d0	0.47621012
252	0xb93f1971	-0.00018224657
253	0x3980f412	0.0002459591
254	0x398da955	0.00027019778
255	0x3c6baa14	0.0143838115
