lightning_model_releases/lightning_standard_test/model_params/standard_81054_1335_lightning_standard.ckpt (torch, 311246 bytes, 15 tensors)

model.0.weight f4 [128, 131]
0.041503854 0.07546885 0.056168504 -0.0981838 0.019741079 0.17957197 -0.0059789433 0.067313895
0.1079601 -0.00071368006 0.065361574 -0.013337618 -0.008216539 -0.115931705 -0.009164123 0.059520148
0.023156434 0.042249832 -0.048444185 0.08638278 -0.14581183 -0.024677228 0.05348447 0.018006133
-0.05707966 -0.0045557856 -0.056306437 -0.12760931 0.0033849105 -0.16783886 -0.06522305 -0.14511399
0.11906978 -0.036939364 -0.05486856 0.13689505 0.038516156 0.012599789 -0.040763665 -0.0031697724
0.017046878 -0.055961378 0.083905846 0.039701812 0.043239355 -0.09915855 -0.043092124 -0.014545851
-0.01296721 -0.14495993 -0.08775462 0.14988382 0.114568315 0.14197823 0.05451206 0.042644393
-0.23396358 -0.22474886 0.1657341 -0.05383839 -0.0100957425 -0.053271785 0.06882297 -0.072663955
0.03981663 -0.049781505 -0.0090386635 -0.14430276 -0.101793356 -0.0060802726 0.012849927 0.09313853
0.040578414 -0.11929196 -0.17065455 -0.00055235607 -0.048286255 -0.13027433 0.08293633 0.091378205
-0.108950146 -0.08676077 -0.07704681 -0.06135941 -0.044239335 -0.16581275 0.16014382 -0.09168531
-0.036132112 0.036458407 -0.008418601 0.004465708 -0.042357087 0.05493802 -0.07043877 0.021828616
-0.0015765023 0.0590141 -0.060745887 -0.14622852 -0.12333001 -0.011618565 -0.062189497 0.027517248
-0.13174848 0.094120294 -0.07412476 -0.07560413 -0.16798615 0.019412264 0.08428443 0.005974934
-0.054143295 -0.16461082 -0.033921815 -0.018904664 0.013662204 0.07437336 -0.26833326 -0.06938892
-0.090989634 -0.110082835 0.0082350345 -0.11745377 -0.09958361 -0.0747348 -0.04596383 -0.09595281
0.022983786 -0.065103084 0.050430767 -0.14678076 0.040161405 -0.011655947 0.72498643 -0.23287217
-0.46774182 -0.18229625 0.008943683 0.1605575 0.011899514 -0.063815914 0.3246323 -0.097829044
0.2406559 -0.0179969 0.085580535 0.20916012 0.33316806 -0.022153238 -0.18748765 0.060479116
-0.0075435014 0.025493307 0.31508017 -0.24364808 -0.2656884 0.22918396 0.24193445 -0.035426456
0.38736635 0.3688988 0.3245922 -0.26265675 0.16720769 0.23254374 -0.35378048 0.21794057
0.17825104 0.08495108 -0.03631447 0.036735054 0.11218517 -0.14912078 0.05807054 0.057849627
-0.10527161 0.18538962 0.10035634 -0.05942937 0.23478356 -0.021583848 -0.78011656 -0.5656906
-0.02909414 -0.23500754 0.062125456 0.8731136 0.5266939 -0.14854589 -0.15621926 0.024757579
0.13949828 -0.023631904 0.028044183 0.17460571 0.25701344 -0.35465813 0.30946568 -0.0067037046
-0.23556152 -0.10246616 0.05230537 0.31355807 -0.13716042 0.2445911 -0.50553745 0.14245053
0.15012404 -0.20040348 -0.12093152 0.35457665 -0.041739065 0.5202578 0.14007474 0.47201017
-0.12893951 -0.44485468 -0.014063221 -0.034874775 -0.07100879 -0.014265534 -0.2848545 0.13037156
0.08907089 -0.06655927 0.11573971 0.2522672 -0.2582829 0.023449693 -0.03510728 0.04012717
0.07896487 0.59688187 0.127644 0.1884456 -0.4214814 -0.06644572 -0.05615121 0.00925377
-0.12470845 0.097894885 0.10630653 0.07096049 0.058969405 -0.15659058 -0.058162 0.028981708
-0.7741015 0.8485905 0.095844604 0.010052692 0.11732626 -0.07896792 0.065194644 -0.07311118
00000000: f2ff 293d 6a8f 9a3d f210 663d 9714 c9bd
00000010: 0bb8 a13c b7e1 373e 03eb c3bb dedb 893d
00000020: 2f1a dd3d 4216 3bba 4adc 853d 0686 5abc
00000030: aa9e 06bc 9a6d edbd 1e25 16bc 66cb 733d
00000040: 90b2 bd3c 290e 2d3d 696d 46bd 74e9 b03d
00000050: b24f 15be e627 cabc 8812 5b3d 9981 933c
00000060: 5dcc 69bd b348 95bb 94a1 66bd 04ac 02be
00000070: 60d5 5d3b f3dd 2bbe aa93 85bd c398 14be
00000080: dbda f33d bb4d 17bd dbbd 60bd 372e 0c3e
00000090: 1ec3 1d3d 586f 4e3c cdf7 26bd f5bb 4fbb
000000a0: e5a5 8b3c c237 65bd d4d6 ab3d 5e9e 223d
000000b0: c01b 313d a313 cbbd 5e81 30bd b951 6ebc
000000c0: 6c74 54bc 6070 14be b2b8 b3bd 257b 193e
000000d0: cba2 ea3d be62 113e 0a48 5f3d e3ab 2e3d
000000e0: 2694 6fbe 9124 66be 33b6 293e a585 5cbd
000000f0: 9d68 25bc 8433 5abd 0ff3 8c3d d7d0 94bd
00000100: c316 233d b1e7 4bbd e716 14bc 1ac4 13be
00000110: 0979 d0bd 063d c7bb 8088 523c 6abf be3d
00000120: 8d35 263d 584f f4bd 11c0 2ebe fdcb 10ba
00000130: cfc7 45bd a266 05be 86da a93d 7f24 bb3d
00000140: 4121 dfbd a1af b1bd b8ca 9dbd 0154 7bbd
00000150: 4e34 35bd d1ca 29be befc 233e 82c5 bbbd
00000160: 44ff 13bd 6955 153d 2cee 09bc 1355 923b
00000170: a07e 2dbd b006 613d 3442 90bd edd1 b23c
00000180: a4a2 ceba c5b8 713d aed0 78bd eebc 15be
00000190: 7294 fcbd cb5b 3ebc 6aba 7ebd da6b e13c
000001a0: 13e9 06be 24c2 c03d b9ce 97bd 57d6 9abd
000001b0: 9004 2cbe 7806 9f3c 519d ac3d 61c9 c33b
000001c0: 5cc5 5dbd bd8f 28be 9af1 0abd f4dd 9abc
000001d0: 70d7 5f3c 0f51 983d fa62 89be c71b 8ebd
000001e0: c658 babd 1c73 e1bd 3dec 063c 9a8b f0bd
000001f0: 7ef2 cbbd 8f0e 99bd 9244 3cbd e882 c4bd
00000200: 7e48 bc3c c454 85bd 7e90 4e3d b24d 16be
00000210: 4980 243d 96f8 3ebc b698 393f 0b76 6ebe
00000220: db7b efbe deab 3abe 8688 123c 2f69 243e
00000230: 2ef6 423c ebb1 82bd 3436 a63e 985a c8bd
00000240: 806e 763e 3c6e 93bc d944 af3d 122e 563e
00000250: 0195 aa3e b57a b5bc c3fc 3fbe f3b8 773d
00000260: 7a2f f7bb 57d7 d03c 3052 a13e e27e 79be
00000270: 4f08 88be 33af 6a3e aabd 773e 551b 11bd
00000280: e254 c63e 4ee0 bc3e f330 a63e f27a 86be
00000290: 7e38 2b3e f21f 6e3e b722 b5be d02b 5f3e
000002a0: 7187 363e d5fa ad3d 7bbe 14bd 7f77 163d
000002b0: 57c1 e53d 1eb3 18be 60db 6d3d bbf3 6c3d
000002c0: a498 d7bd c7d6 3d3e a087 cd3d 366c 73bd
000002d0: 1a6b 703e 9cd0 b0bc b8b5 47bf 19d1 10bf
000002e0: d556 eebc d1a5 70be 4377 7e3d 5f84 5f3f
000002f0: 69d5 063f 6a1c 18be f1f7 1fbe 68d0 ca3c
00000300: a3d8 0e3e b297 c1bc eabc e53c d7cb 323e
00000310: 4497 833e c095 b5be 4972 9e3e c0aa dbbb
00000320: 0a37 71be c7d9 d1bd 283e 563d af8a a03e
00000330: c873 0cbe 1776 7a3e e76a 01bf 8dde 113e
00000340: 1eba 193e 9236 4dbe f2aa f7bd 128b b53e
00000350: 95f6 2abd 9d2f 053f c16f 0f3e 51ab f13e
00000360: b808 04be fec3 e3be 6d69 66bc dad8 0ebd
00000370: 0e6d 91bd fcb9 69bc 73d8 91be 1f80 053e
00000380: cc6a b63d 3a50 88bd f108 ed3d 2b29 813e
00000390: a83d 84be 9219 c03c a7cc 0fbd 635c 243d
000003a0: 55b8 a13d 40cd 183f 1cb5 023e e2f7 403e
000003b0: 69cc d7be b214 88bd d0fe 65bd 209d 173c
000003c0: 2567 ffbd 1d7d c83d 3db7 d93d bc53 913d
000003d0: e789 713d 4859 20be 473b 6ebd 0c6b ed3c
000003e0: 842b 46bf 3a3d 593f 2d4a c43d 0cb4 243c
000003f0: c048 f03d efb9 a1bd c584 853d 50bb 95bd

model.0.bias f4 [128]
-0.13290736 0.21505344 0.13036044 0.12083378 0.1627618 0.23220433 -0.05237263 -0.0109802
0.01165705 0.087707415 0.036848802 0.019624364 -0.017854892 -0.048184156 0.06515535 -0.06800976
0.12451655 -0.037288554 -0.0024305608 0.1833789 0.09696695 -0.002040896 -0.13540839 0.066633366
0.08223877 0.11027383 0.0485736 0.0030099154 0.16941556 0.14355512 0.13939291 0.10724655
0.078755826 -0.06076651 0.038592897 0.016919114 0.09325384 0.13442849 0.12884665 -0.05276349
0.033337265 -0.040102776 0.09460354 0.15758947 0.0790235 0.0045811385 0.16260585 0.016057564
-0.0018988699 -0.016483493 0.0444394 0.049814872 0.15318744 0.02554709 -0.09361328 -0.09174778
0.113436 0.041451164 0.04522858 0.11834481 0.05753765 0.0725897 0.02313721 0.061779525
0.10331375 0.011592976 0.035905097 -0.0012707338 0.011072478 0.13485302 0.021251008 0.059082933
-0.07810077 -0.07228081 0.049737073 0.07145206 -0.056409474 -0.014781892 0.19271424 -0.03731328
0.084268235 -0.0011486328 -0.08800706 0.08875642 0.16221575 0.02221211 0.013421579 -0.076776944
-0.025764316 0.007816778 -0.023951672 0.0484334 0.17503914 -0.07238485 -0.060568985 0.0597784
0.053679038 0.017992973 0.0038927458 -0.037776284 0.05313789 -0.016623754 -0.017809564 -0.04725577
0.040032547 0.092960216 0.018075174 -0.1006922 0.016717326 0.04770317 0.21082634 -0.03465099
-0.0033888072 0.07439832 0.1778449 0.013934717 -0.030561656 0.22695503 0.0007484254 0.081205815
0.16842005 0.06018568 -0.015390269 0.06812732 -0.007876241 -0.07252806 0.13705884 0.060691725
00000000: de18 08be f836 5c3e 357d 053e b377 f73d
00000010: 08ab 263e f9c6 6d3e af84 56bd 4ce6 33bc
00000020: 36fd 3e3c f29f b33d c5ee 163d 46c3 a03c
00000030: 6c44 92bc c05c 45bd 2b70 853d b348 8bbd
00000040: 8802 ff3d e2bb 18bd 0b4a 1fbb aec7 3b3e
00000050: 9c96 c63d 8ec0 05bb 7fa8 0abe 1377 883d
00000060: cd6c a83d 3fd7 e13d 1cf5 463d 0042 453b
00000070: 467b 2d3e 1d00 133e 04bd 0e3e 14a4 db3d
00000080: bc4a a13d 4ee6 78bd 9613 1e3d f499 8a3c
00000090: dffb be3d 9fa7 093e 60f0 033e 871e 58bd
000000a0: a88c 083d cf42 24bd 80bf c13d 225f 213e
000000b0: 13d7 a13d 601d 963b 2682 263e 278b 833c
000000c0: 80e3 f8ba 6408 87bc 1706 363d ae0a 4c3d
000000d0: 2bdd 1c3e 2248 d13c 52b8 bfbd 43e6 bbbd
000000e0: 2251 e83d b2c8 293d 9a41 393d c45e f23d
000000f0: 99ac 6b3d e9a9 943d 3f8a bd3c 870c 7d3d
00000100: 2996 d33d 77f0 3d3c 3911 133d c08e a6ba
00000110: 5769 353c e916 0a3e 9816 ae3c f200 723d
00000120: 4cf3 9fbd f607 94bd 1ab9 4b3d 7555 923d
00000130: 9f0d 67bd c02f 72bc e256 453e cfd5 18bd
00000140: d394 ac3d b98d 96ba 0c3d b4bd edc5 b53d
00000150: e31b 263e 2cf6 b53c 2fe6 5b3c 3b3d 9dbd
00000160: b00f d3bc f111 003c 4c36 c4bc 1a62 463d
00000170: 763d 333e 823e 94bd 2f17 78bd 32da 743d
00000180: 8dde 5b3d 0066 933c 701d 7f3b 4ebb 1abd
00000190: 1ea7 593d 8a2e 88bc 5de5 91bc 448f 41bd
000001a0: 2bf9 233d ed61 be3d 6312 943c b637 cebd
000001b0: c6f2 883c 6664 433d dce2 573e 32ee 0dbd
000001c0: c016 5ebb 255e 983d f91c 363e 704e 643c
000001d0: 705c fabc e666 683e fa31 443a 3c4f a63d
000001e0: 4e76 2c3e 4285 763d 7827 7cbc 5686 8b3d
000001f0: 590b 01bc 9789 94bd 2759 0c3e e397 783d

model.3.weight f4 [64, 128]
-0.07601544 0.12540469 -0.0808402 -0.04043458 0.00851021 0.04916486 0.008651673 0.06737191
0.06166899 -0.08357121 -0.042794216 -0.084809326 0.058757994 -0.004714722 -0.030849649 -0.043008808
0.040381502 0.016935151 0.037964188 0.100094385 0.07047004 -0.053088535 -0.03621245 -0.056197975
-0.03189178 0.015427048 0.07373326 -0.039678317 -0.055021834 -0.00345785 0.026521543 0.0044829366
0.066903464 -0.079559885 0.01656418 0.06694188 0.09819936 -0.043368027 -0.054801516 0.0013073757
-0.0065805526 0.0370003 0.0780778 0.018085686 -0.025970887 0.04818947 -0.044985324 -0.0142539255
0.010876022 -0.0148746 0.048704285 -0.010071746 0.042554654 0.026711933 0.0018644105 -0.0348214
0.0875198 0.049257405 -0.013494074 -0.057854064 0.0093066 0.059945576 0.044587344 -0.0073826886
0.06443356 0.12426237 0.038503204 -0.041572355 0.00066284527 -0.011752411 0.008168649 -0.0840654
-0.0007208997 -0.071866244 -0.07275855 -0.08620771 -0.03578308 0.016515568 0.02813939 0.020807475
0.04393934 -0.052534886 -0.05775525 -0.07809349 -0.017250476 0.01637247 0.01125864 -0.0730481
0.0638565 0.059962258 -0.03959279 -0.07528576 0.014959476 0.022874292 -0.024961937 -0.040604938
0.018050468 -0.033355266 -0.043937463 0.028275818 0.04904 0.055595756 0.07152302 0.0027048215
0.016211377 0.075519934 -0.053882096 0.054760102 0.08779383 -0.019084452 0.10788783 -0.02824459
-0.048907276 0.064256355 0.059289973 -0.006368503 -0.036733277 0.096892655 0.027707297 -0.070561305
0.008917087 0.052118678 0.037322514 -0.030474959 0.0022499044 -0.020567376 0.065886885 0.06037115
-0.02590784 -0.061820775 -0.07900831 -0.036786616 0.024312321 -0.12515995 -0.0049353493 0.07188756
0.022171292 0.015499687 -0.04975863 -0.02053679 -0.09060606 -0.04789131 0.01003381 0.015241819
0.021337872 -0.06680243 0.0080038775 -0.09282601 -0.08163209 -0.042101763 -0.0796225 0.01676102
0.013918839 0.041594915 0.0025464362 0.017231055 0.01679571 0.0005225508 -0.09996302 -0.054555543
-0.08577575 -0.05124901 0.001826465 0.08334986 0.011444194 -0.06485942 -0.00031410882 0.060830735
0.003005321 -0.08709692 -0.004231321 0.00021319892 0.014470786 0.08073356 0.057415176 -0.08001415
0.06720092 -0.07910511 -0.06714756 0.023264201 -0.018092701 0.0573774 0.041467603 -0.030976279
0.05889285 -0.06343317 0.016472377 0.0125462655 0.019041592 0.07022532 0.027363895 -0.068763
0.055809103 0.053418227 -0.04563015 0.063453086 0.0013413262 -0.02182372 0.010100143 0.00024704635
-0.039054427 -0.00074569066 -0.015273452 -0.07604763 -0.07674861 0.029043853 -0.06719153 0.0021617338
0.026173245 0.0598604 0.02895473 0.0306576 0.04572588 -0.07144255 0.06629912 -0.07938847
-0.07207605 -0.05113792 0.08638752 0.049477734 0.008233107 0.03845047 -0.097219445 -0.08430339
0.011252403 -0.0574014 0.029200869 -0.06273128 0.055474013 -0.092790715 0.027970769 0.030267596
-0.061757654 0.04494484 0.031941216 -0.05516032 -0.06892097 0.03127437 -0.06589706 -0.005204358
0.02365201 0.023193888 -0.06895875 0.06653633 0.010627575 0.003505075 -0.041070703 0.024067
-0.026234213 0.045373254 0.045321696 0.04925355 -0.023872769 0.04833131 0.052414853 -0.017248048
00000000: fcad 9bbd 166a 003e 8c8f a5bd bb9e 25bd
00000010: 686e 0b3c 1861 493d bfbf 0d3c 49fa 893d
00000020: 9f98 7c3d 6227 abbd fd48 2fbd 83b0 adbd
00000030: 39ac 703d f47d 9abb 67b8 fcbc 012a 30bd
00000040: 1367 253d 96bb 8a3c 5680 1b3d 49fe cc3d
00000050: 9952 903d 5d73 59bd 8253 14bd d92f 66bd
00000060: f5a0 02bd bbc1 7c3c 7701 973d bb85 22bd
00000070: 935e 61bd 199d 62bb b543 d93c 99e5 923b
00000080: af04 893d 4bf0 a2bd 9ab1 873c d318 893d
00000090: bf1c c93d aca2 31bd 8e77 60bd 405c ab3a
000000a0: ada1 d7bb a08d 173d 41e7 9f3d 6f28 943c
000000b0: e6c0 d4bc 5262 453d 8842 38bd 4c89 69bc
000000c0: 5831 323c 98b4 73bc 257e 473d f703 25bc
000000d0: ca4d 2e3d fcd2 da3c 3c5f f43a e2a0 0ebd
000000e0: 953d b33d 22c2 493d 4016 5dbc 62f8 6cbd
000000f0: b67a 183c 7e89 753d 38a1 363d 7bea f1bb
00000100: bef5 833d 457d fe3d 89b5 1d3d c647 2abd
00000110: cbc2 2d3a 2f8d 40bc ccd5 053c 7b2a acbd
00000120: c3fa 3cba 9c2e 93bd 6f02 95bd ab8d b0bd
00000130: 4791 12bd a84b 873c 9484 e63c 7074 aa3c
00000140: bdf9 333d d22e 57bd c590 6cbd 7bef 9fbd
00000150: df50 8dbc 8f1f 863c 2976 383c 3e9a 95bd
00000160: 32c7 823d fc9a 753d 0d2c 22bd 6c2f 9abd
00000170: 9718 753c de62 bb3c fa7c ccbc 5d51 26bd
00000180: 93de 933c 889f 08bd c5f7 33bd b0a2 e73c
00000190: 2bde 483d 60b8 633d a97a 923d 6043 313b
000001a0: b9cd 843c 32aa 9a3d 79b3 5cbd 214c 603d
000001b0: 40cd b33d ff56 9cbc 4bf4 dc3d 3361 e7bc
000001c0: ff52 48bd d698 833d 0bda 723d e0ae d0bb
000001d0: a275 16bd a86f c63d 6afa e23c 7282 90bd
000001e0: f918 123c 657a 553d 7edf 183d 9fa6 f9bc
000001f0: 2273 133b ea7c a8bc b4ef 863d bd47 773d
00000200: ae3c d4bc c837 7dbd 1ccf a1bd 90ad 16bd
00000210: a22a c73c ee29 00be b6b8 a1bb c939 933d
00000220: 92a0 b53c 66f2 7d3c b5cf 4bbd c53c a8bc
00000230: ac8f b9bd ae29 44bd d964 243c d3b8 793c
00000240: c3cc ae3c b6cf 88bd b222 033c 901b bebd
00000250: ba2e a7bd e672 2cbd 1f11 a3bd 684e 893c
00000260: d80b 643c 6e5f 2a3d 1ce2 263b 2428 8d3c
00000270: 2897 893c cafb 083a 69b9 ccbd a275 5fbd
00000280: 32ab afbd 7bea 51bd ff65 ef3a 55b3 aa3d
00000290: 6e80 3b3c 04d5 84bd f9ae a4b9 a629 793d
000002a0: ebf4 443b df5f b2bd e5a6 8abb 268e 5f39
000002b0: e016 6d3c a357 a53d 2d2c 6b3d 75de a3bd
000002c0: a3a0 893d dc01 a2bd a984 89bd 9194 be3c
000002d0: 2537 94bc 9104 6b3d efd9 293d f7c1 fdbc
000002e0: a139 713d 40e9 81bd 14f1 863c da8e 4d3c
000002f0: 1dfd 9b3c 4bd2 8f3d 3f2a e03c 9ed3 8cbd
00000300: 1698 643d 12cd 5a3d aee6 3abd b1f3 813d
00000310: 70cf af3a a8c7 b2bc 127b 253c 0086 8139
00000320: 89f7 1fbd 747a 43ba 803d 7abc dcbe 9bbd
00000330: 602e 9dbd 60ed ed3c b69b 89bd e0ab 0d3b
00000340: 4669 d63c 2e30 753d 7832 ed3c a625 fb3c
00000350: 0f4b 3b3d 7950 92bd d5c7 873d 6c96 a2bd
00000360: 9c9c 93bd ff75 51bd f1eb b03d 2aa9 4a3d
00000370: 27e4 063c 3d7e 1d3d fd1a c7bd 41a7 acbd
00000380: 005c 383c bb1d 6bbd a936 ef3c 4279 80bd
00000390: b838 633d 0f09 bebd f422 e53c c0f3 f73c
000003a0: 98f5 7cbd 1518 383d cbd4 023d caef 61bd
000003b0: 7026 8dbd 8e19 003d 0af5 86bd 5289 aabb
000003c0: dcc1 c13c 1c01 be3c 3f3a 8dbd 3344 883d
000003d0: 481f 2e3c 66b5 653b c139 28bd 2828 c53c
000003e0: 22e9 d6bc 4ed9 393d 3ea3 393d 17be 493d
000003f0: d390 c3bc 0df7 453d f5b0 563d c74b 8dbc

model.3.bias f4 [64]
0.123396374 -0.058381777 0.18657848 0.0065032747 -0.101330586 0.23641399 0.012742427 -0.04502745
-0.00041722896 0.031608533 -0.02678279 0.25884327 0.20513463 0.28708637 0.22229974 -0.021675043
-0.0916462 -0.03579714 0.2600881 0.053428426 0.06801278 -0.02839914 0.24660166 0.12368127
0.19238143 0.21448734 0.183984 0.2692881 0.14139372 -0.064042956 0.1459731 -0.010983902
-0.050874237 0.20966026 0.12522751 -0.05953826 0.0023846878 0.08267825 0.06811762 0.1778088
0.026279267 0.017258944 -0.019018788 0.18230136 -0.0048040138 -0.10242094 0.051293 -0.010771715
0.05071993 0.18707128 0.09307766 0.041191615 0.2384116 0.13746636 0.026874937 0.004761109
-0.084293865 0.1327513 0.18763484 0.19921947 0.22318287 -0.030721037 -0.054513887 0.18304572
00000000: 3db7 fc3d bb21 6fbd 6e0e 3f3e 6c19 d53b
00000010: 6986 cfbd 8216 723e 9dc5 503c b46e 38bd
00000020: 86bf dab9 f377 013d 9567 dbbc 1b87 843e
00000030: d00e 523e fcfc 923e 8ba2 633e dc8f b1bc
00000040: 01b1 bbbd 06a0 12bd 442a 853e c4d7 5a3d
00000050: 494a 8b3d 50a5 e8bc 2585 7c3e 9b4c fd3d
00000060: a3ff 443e 92a2 5b3e 4d66 3c3e 21e0 893e
00000070: 84c9 103e f428 83bd f979 153e d3f5 33bc
00000080: 8161 50bd 2eb1 563e a43b 003e 64de 73bd
00000090: 6c48 1c3b 3753 a93d 4081 8b3d 8313 363e
000000a0: 9e47 d73c a162 8d3c 4acd 9bbc 35ad 3a3e
000000b0: fd6a 9dbb 12c2 d1bd 9c18 523d d97b 30bc
000000c0: b4bf 4f3d 9d8f 3f3e 809f be3d 8ab8 283d
000000d0: 2c22 743e fbc3 0c3e d428 dc3c 1403 9c3b
000000e0: 43a2 acbd f5ef 073e 5923 403e 3000 4c3e
000000f0: 0d8a 643e afaa fbbc f449 5fbd 5670 3b3e

model.6.weight f4 [1, 64]
0.088700734 -0.046530396 0.054079965 -0.013883137 -0.02895066 0.043359652 0.087372676 -0.101236396
-0.03979052 0.07889634 -0.046755645 0.06380527 0.08187054 0.044476416 0.052800965 -0.07642162
-0.0038602373 -0.012766048 0.046474405 0.0011708279 -0.018030997 -0.061590362 0.0845179 0.04907463
0.05380179 0.08499649 0.036428034 0.08490194 0.04950062 -0.026731517 0.03606351 -0.097197466
-0.05025123 0.09987861 0.11155333 -0.075551465 -0.04005739 0.06944296 -0.10314986 0.035977244
-0.10056413 -0.04235098 -0.056628365 0.032735135 -0.021106925 -0.057288732 0.065578096 -0.040343046
-0.10922052 0.07532194 0.074574 -0.011142244 0.038883552 0.04531266 0.0033057372 -0.010912969
-0.09218707 0.057629522 0.04393403 0.07341257 0.052840218 -0.037060127 -0.048177067 0.04388324
00000000: bba8 b53d a896 3ebd f482 5d3d 1976 63bc
00000010: ef29 edbc e499 313d 72f0 b23d 0755 cfbd
00000020: 62fb 22bd 6894 a13d d982 3fbd 56ac 823d
00000030: beab a73d e72c 363d d345 583d f082 9cbd
00000040: 09fc 7cbb b028 51bc f25b 3e3d 7776 993a
00000050: beb5 93bc 2d46 7cbd b917 ad3d 7b02 493d
00000060: 445f 5c3d a412 ae3d 9035 153d 11e1 ad3d
00000070: 2ac1 4a3d 0efc dabc 55b7 133d 770f c7bd
00000080: 3cd4 4dbd 288d cc3d 1376 e43d baba 9abd
00000090: 3813 24bd 1c38 8e3d 3c40 d3bd e05c 133d
000000a0: 91f4 cdbd 3978 2dbd 25f3 67bd 4715 063d
000000b0: 6ee8 acbc 97a7 6abd cf4d 863d c03e 25bd
000000c0: 02af dfbd 6442 9a3d 41ba 983d f58d 36bc
000000d0: 5c44 1f3d c599 393d 11a5 583b 4fcc 32bc
000000e0: 93cc bcbd ef0c 6c3d 2bf4 333d 5459 963d
000000f0: fc6e 583d 5ccc 17bd 5155 45bd eabe 333d

exp_avg f4 [128, 131]
5.5060016e-05 0.00068066013 -4.5711895e-05 -0.016375633 0.0005461539 -0.000637085 -0.00015966712 1.2788859e-05
-0.00010115261 -0.00021678049 0.00026437556 4.1777745e-05 0.00010478443 1.08452405e-05 -0.0004182542 9.940271e-05
-0.0001525825 -4.861201e-05 -0.0006682267 -1.2121831e-05 0.00015786769 -3.1825584e-05 0.00037659137 -0.00013042345
0.00012915648 6.13079e-05 0.0001312538 -9.0436835e-05 -2.9129225e-05 0.00090980635 0.00021756228 7.717107e-05
-2.2059523e-05 -0.0036941245 -0.00078416686 -0.00048487587 0.0006910388 0.0010555523 -0.007761227 0.00062791293
-0.0032149116 -0.021063404 0.00627522 5.1740703e-06 0.0011533638 0.00036797771 6.5607135e-05 9.5986936e-05
0.008546695 0.0061033964 -0.0028145434 -0.0038597118 0.00055444514 -0.0013688625 0.004756669 0.00369018
-0.012058249 0.004434006 1.5674683e-05 0.00019492104 -0.00019172535 0.0005805738 0.00033055773 -3.5680714e-06
-0.001049223 0.0018033688 -0.00048021745 0.0013606478 -0.0007601345 0.00049011584 -0.0014792915 0.0008856012
0.00073755847 -0.00061779737 0.001283862 -0.00041586574 -0.00028233422 0.0063003316 -0.00012587762 0.001000628
-0.00050843164 0.00062828703 0.0010340122 -0.00023819284 0.00062421465 0.006357268 -0.00049803883 0.00029973447
-0.0008540275 -0.0011723025 -0.0013012601 -0.00019813691 -0.0009202215 -0.001233518 0.0013193794 -0.0029068477
-6.959972e-05 0.0001573446 -0.021692911 0.001170043 -0.00032127192 1.063674e-05 0.0018468774 -0.00044306676
0.0015341981 0.005374169 0.0 -0.0004450972 -7.4402145e-05 -0.00027406676 -0.00063410227 -1.1725896e-37
-2.1240066e-05 0.0031216268 -0.008419455 0.0014675434 0.0 8.253986e-05 -0.0039340667 0.0017864502
0.00052957213 0.011835548 -0.018003095 0.48784757 0.33961874 0.8150337 1.0267371 1.1409886
0.9981271 0.45212203 -7.591852 0.0011832357 -0.06404099 0.033828635 -0.0030105412 0.0024583866
0.04534959 0.0050822147 -0.0006387683 -0.0065043494 -0.0057055713 0.0042497707 -0.010725751 -0.005349221
-0.005550901 -0.00096971367 0.00030991473 -0.0017243151 -0.011533647 0.0042806542 -0.0015633282 -0.006848067
0.005975351 -0.010476063 -0.0017336928 -0.010556873 0.004421321 -1.9519168e-05 -0.004627617 -0.0034370027
-0.0032295624 -0.004435597 -0.009319687 0.0009850354 0.039930314 -0.019440683 0.027498845 -0.027070977
-0.011640957 0.06139967 -0.015568459 0.029385813 0.0012438443 0.045780234 0.03228285 0.0153022
-0.010095619 0.00057611166 -0.016544025 0.0102525065 -0.04720468 -0.0059218677 0.1402815 -0.0035383417
-0.032716297 0.026483722 0.011941813 -0.14366531 0.040701814 0.0035269891 0.0047106305 0.014069293
-0.0032591028 0.01173228 -0.018055148 0.002264685 -0.016907964 0.014284746 0.009906141 -0.0029852283
-0.0035845996 0.005153087 0.0026849252 -0.015377267 -0.0022567306 -0.020694679 0.020213401 -0.017448112
0.005011271 0.019227358 -0.0043875393 -0.017773528 -0.0011732512 -0.013391689 -0.019696191 -0.009251112
-0.031043883 0.025996262 -0.004036248 0.007309474 -0.0063580363 -0.0026989938 -0.0025903184 0.04748394
-0.01780445 0.0020133657 -0.0064318976 -0.010676635 -0.014813956 0.010486284 0.003107114 0.013833346
0.0051968386 -0.031238465 -0.013388725 0.029202022 0.030518698 0.0 0.047179904 0.011556275
0.0050101513 -0.0048658215 -0.0032352656 0.06511304 -0.029678307 0.007521679 -0.000232244 0.0
0.1305106 -0.09102167 0.03201659 -0.02606354 -0.04287405 0.076409884 12.485779 11.15605
00000000: 3ef0 6638 546e 323a c6ba 3fb8 3126 86bc
00000010: c52b 0f3a 0d02 27ba 516c 27b9 bb8f 5637
00000020: e521 d4b8 924f 63b9 e39b 8a39 833a 2f38
00000030: b6bf db38 f4f3 3537 2149 dbb9 6c76 d038
00000040: 8efe 1fb9 c0e4 4bb8 ef2b 2fba de5e 4bb7
00000050: 4989 2539 767c 05b8 3d71 c539 47c2 08b9
00000060: 2e6e 0739 6e92 8038 2ca1 0939 e8a8 bdb8
00000070: 895a f4b7 1280 6e3a 6e21 6439 e7d6 a138
00000080: 770c b9b7 2019 72bb 8c90 4dba f036 feb9
00000090: d426 353a 755a 8a3a e451 febb 869a 243a
000000a0: 44b1 52bb 298d acbc 5ca0 cd3b ed9c ad36
000000b0: 782c 973a 22ed c039 9096 8938 984c c938
000000c0: 7007 0c3c 00ff c73b 3474 38bb 38f3 7cbb
000000d0: 2f58 113a 676b b3ba d5dd 9b3b f2d6 713b
000000e0: f68f 45bc 234b 913b 207d 8337 b863 4c39
000000f0: e209 49b9 a631 183a b54e ad39 0073 6fb6
00000100: 1586 89ba 045f ec3a b2c5 fbb9 c457 b23a
00000110: c343 47ba 1e7b 003a c9e4 c1ba b127 683a
00000120: b658 413a aef3 21ba 4347 a83a 8e08 dab9
00000130: 4206 94b9 0373 ce3b 04fe 03b9 8127 833a
00000140: 4548 05ba a1b3 243a b187 873a 67c3 79b9
00000150: 56a2 233a a150 d03b d28e 02ba ae25 9d39
00000160: d1e0 5fba f2a7 99ba 0b8f aaba f9c2 4fb9
00000170: 053b 71ba ffad a1ba 07ef ac3a d080 3ebb
00000180: 11f6 91b8 dffc 2439 55b5 b1bc 215c 993a
00000190: 6370 a8b9 7374 3237 ec12 f23a 6a4b e8b9
000001a0: 2517 c93a cc19 b03b 0000 0000 ef5b e9b9
000001b0: 5908 9cb8 9eb0 8fb9 e239 26ba c99a 1f82
000001c0: b22c b2b7 3594 4c3b c1f1 09bc 965a c03a
000001d0: 0000 0000 4019 ad38 58e9 80bb 5227 ea3a
000001e0: fcd2 0a3a e3e9 413c 3a7b 93bc 28c7 f93e
000001f0: 82e2 ad3e 0ca6 503f 1f6c 833f ea0b 923f
00000200: 4285 7f3f 8a7c e73e 74f0 f2c0 cd16 9b3a
00000210: ec27 83bd e58f 0a3d 804c 45bb e21c 213b
00000220: 7ec0 393d b588 a63b 0473 27ba 7022 d5bb
00000230: cdf5 babb a941 8b3b 0fbb 2fbc 8548 afbb
00000240: 55e4 b5bb 6234 7eba 0d7c a239 6a02 e2ba
00000250: 9ff7 3cbc bb44 8c3b 97e8 ccba c065 e0bb
00000260: e1cc c33b cba3 2bbc 143d e3ba bcf6 2cbc
00000270: bbe0 903b 18bd a3b7 44a3 97bb 563f 61bb
00000280: 11a7 53bb 7c58 91bb 9ab1 18bc 4e1c 813a
00000290: f88d 233d 1142 9fbc 4245 e13c f4c3 ddbc
000002a0: b6b9 3ebc 387e 7b3d da12 7fbc 84ba f03c
000002b0: 7d08 a33a 0e84 3b3d 063b 043d 14b6 7a3c
000002c0: 1868 25bc 3306 173a 5687 87bc 21fa 273c
000002d0: b259 41bd 3a0c c2bb f4a5 0f3e 86e3 67bb
000002e0: 8601 06bd 64f4 d83c 98a7 433c 001d 13be
000002f0: f2b6 263d 0f25 673b a25b 9a3b e482 663c
00000300: ac96 55bb c038 403c 64e8 93bc 1c6b 143b
00000310: 9282 8abc 910a 6a3c 5e4d 223c d2a3 43bb
00000320: 9aeb 6abb 3adb a83b 92f5 2f3b eff0 7bbc
00000330: a8e5 13bb e387 a9bc 9396 a53c 58ef 8ebc
00000340: 9735 a43b b182 9d3c 59c5 8fbb ca99 91bc
00000350: c7c7 99ba d168 5bbc e859 a1bc fa91 17bc
00000360: be4f febc 1df6 d43c 8142 84bb 5084 ef3b
00000370: 1357 d0bb 9ae1 30bb 55c2 29bb 857e 423d
00000380: a3da 91bc acf2 033b abc2 d2bb 0eed 2ebc
00000390: 3cb6 72bc aace 2b3c b9a0 4b3b 42a5 623c
000003a0: 3e4a aa3b cfe7 ffbc 625c 5bbc 1439 ef3c
000003b0: 5902 fa3c 0000 0000 b73f 413d 8856 3d3c
000003c0: 322c a43b 7871 9fbb c006 54bb fc59 853d
000003d0: ec1f f3bc 6b78 f63b 8686 73b9 0000 0000
000003e0: 92a4 053e 9269 babd d423 033d 3483 d5bc
000003f0: b39c 2fbd c97c 9c3d c0c5 4741 2e7f 3241

exp_avg_sq f4 [128, 131]
1.395592e-06 0.00018541733 0.00018873498 0.0017919247 9.0653175e-06 0.00015195154 1.9642212e-06 4.636089e-06
4.871793e-06 1.1623429e-05 8.171813e-06 6.26997e-06 3.836215e-06 9.991134e-06 1.3470201e-05 1.0093678e-05
6.4026935e-06 3.8284115e-06 1.2027009e-05 4.8475604e-06 2.366786e-06 3.5607175e-06 9.021014e-06 4.9870487e-06
3.6779077e-06 9.3853405e-06 4.7383423e-06 7.974247e-06 9.249114e-06 1.3279796e-05 8.644753e-06 4.6284636e-06
1.1150968e-05 0.007581224 4.2299765e-05 0.00021530133 9.389644e-05 2.0897714e-05 0.019531487 0.00016584477
0.000244098 0.00032475026 0.0005161042 0.00040150195 0.0004128336 0.0002844179 0.00020208514 0.00021953847
0.00035384312 0.00046410985 0.00023293788 0.0005028707 0.0005029789 0.0006100023 0.0004966938 0.00062524225
0.0014110827 0.0008068734 4.6256755e-05 0.000111281246 3.5450164e-05 5.9419588e-05 7.574533e-05 4.718615e-05
3.6261696e-05 6.9897615e-05 6.7419576e-05 8.203757e-05 5.7353387e-05 3.6554666e-05 3.3017237e-05 2.8385139e-05
4.4358727e-05 3.3209366e-05 5.8674534e-05 3.2895703e-05 6.008876e-05 7.417641e-05 3.8632817e-05 0.00010781447
3.9039267e-05 0.000117913565 0.00011942471 4.906877e-05 6.2233936e-05 0.00013633359 9.500984e-05 4.9525843e-05
5.8309248e-05 5.8005633e-05 3.6564088e-05 3.0704832e-05 4.036653e-05 4.958222e-05 2.9636205e-05 8.076802e-05
3.2047894e-05 7.956147e-05 0.0001335566 3.7880487e-05 5.7175614e-05 7.257907e-05 6.1524624e-05 6.1031667e-05
0.00010559826 0.00023371872 0.0 5.6538473e-05 0.00016132234 7.4866e-05 5.3906846e-05 3.95349e-05
0.0013639495 0.0012818769 0.0018684473 0.00042587987 0.0 0.0038402323 0.0041455664 0.0011734501
0.0008265576 0.0012034036 0.0012807734 49.334755 43.241226 46.07248 45.016502 46.27793
49.40774 48.931076 7896.661 0.0008353686 0.0099971285 0.014933627 0.091061674 0.0008377132
0.01151411 0.00024398738 6.874623e-05 0.00043169066 0.0005729394 0.00036901282 0.00040796254 0.0004940745
0.00039946975 0.00082106533 0.00019681468 0.00012869998 0.00027552314 0.0009321113 0.0002338876 0.000244378
5.0805585e-05 0.00050011586 0.0012899622 0.00023345466 0.0010729643 0.00027193647 0.0005640363 0.00019744995
0.00076824584 0.0010371858 0.0005313797 0.00020931376 0.33486444 0.0036566646 0.01503391 0.005892995
0.0010767449 0.823148 0.0055616605 0.010818418 0.018243117 0.037094444 0.020400077 0.012604203
0.018483587 0.013083667 0.015037082 0.017539414 0.024640335 0.011993074 0.040820513 0.021684794
0.02600336 0.022790324 0.03855594 0.057601597 0.045911983 0.00199923 0.0028585235 0.002367292
0.0029440618 0.0035550324 0.0033289432 0.0030552908 0.004309074 0.0042954306 0.0039030677 0.0052688825
0.0012915195 0.0015831619 0.0025788492 0.0036929233 0.0030162423 0.004013328 0.0027819464 0.0032339322
0.0031816007 0.004529807 0.004147704 0.001269221 0.0055710003 0.006250237 0.0031689482 0.0052596573
0.0074472986 0.0053690947 0.002663359 0.003880007 0.002687074 0.0015555696 0.00095358805 0.002918694
0.0027801932 0.0019097171 0.0020677226 0.0036022617 0.0033727163 0.0030788567 0.006600832 0.0034261963
0.0023441173 0.00309739 0.0029199945 0.013851686 0.017501842 0.0 0.0034870948 0.008437916
0.005309285 0.0029739612 0.07911707 0.07675449 0.036878146 0.037252992 0.007882441 0.0
0.15665138 0.17039323 0.041294426 0.05127459 0.058774743 0.073027976 2979.5125 2793.8564
00000000: 2d50 bb35 966c 4239 29e7 4539 04df ea3a
00000010: 3e17 1837 2e55 1f39 10d1 0336 b48f 9b36
00000020: 6278 a336 3f02 4337 ab19 0937 a262 d236
00000030: d6b8 8036 989f 2737 13fe 6137 0458 2937
00000040: b8d6 d636 ce75 8036 9cc7 4937 3aa8 a236
00000050: 13d5 1e36 a9f4 6e36 f658 1737 6c56 a736
00000060: f9d1 7636 bb75 1d37 0dfe 9e36 21c9 0537
00000070: a42c 1b37 4acc 5e37 ee08 1137 334e 9b36
00000080: 0b15 3b37 eb6b f83b 076b 3138 83c2 6139
00000090: 44ea c438 804d af37 7f00 a03c 9ee6 2d39
000000a0: 8ff4 7f39 3e43 aa39 2b4b 073a ae80 d239
000000b0: 9671 d839 ed1d 9539 d1e6 5339 e933 6639
000000c0: 0584 b939 c553 f339 c940 7439 15d3 033a
000000d0: 58da 033a 90e8 1f3a 8f34 023a 4ce7 233a
000000e0: 14f4 b83a 5b84 533a d003 4238 aa5f e938
000000f0: 53b0 1438 4c39 7938 77d9 9e38 bee9 4538
00000100: b317 1838 ff95 9238 9c63 8d38 960b ac38
00000110: bb8e 7038 4652 1938 fd7b 0a38 9f1c ee37
00000120: d20d 3a38 494a 0b38 4d19 7638 7ef9 0938
00000130: d107 7c38 288f 9b38 ac09 2238 741a e238
00000140: 18be 2338 5d48 f738 a773 fa38 31cf 4d38
00000150: 9783 8238 c5f4 0e39 0540 c738 f8b9 4f38
00000160: 1491 7438 134b 7338 645c 1938 10c9 0038
00000170: 3b4f 2938 81f6 4f38 449b f837 0062 a938
00000180: 2a6b 0638 3dda a638 540b 0c39 dde1 1e38
00000190: d9cf 6f38 9735 9838 c806 8138 41fc 7f38
000001a0: a274 dd38 6412 7539 0000 0000 b923 6d38
000001b0: a328 2939 6101 9d38 091a 6238 47d2 2538
000001c0: 8dc6 b23a a704 a83a b0e6 f43a a148 df39
000001d0: 0000 0000 68ac 7b3b 88d7 873b 74ce 993a
000001e0: 57ad 583a 86bb 9d3a a0df a73a ca56 4542
000001f0: 04f7 2c42 384a 3842 e610 3442 9a1c 3942
00000200: 87a1 4542 6cb9 4342 4ac5 f645 a3fc 5a3a
00000210: ffca 233c 2cac 743c 8b7e ba3d fb99 5b3a
00000220: ada5 3c3c ddd6 7f39 da2b 9038 8a54 e239
00000230: 5031 163a 1078 c139 cee3 d539 c784 013a
00000240: ec6f d139 c33c 573a 0a60 4e39 a3f3 0639
00000250: 1774 9039 ee58 743a b93f 7539 dc1f 8039
00000260: 1518 5538 351a 033a f313 a93a 82cb 7439
00000270: b5a2 8c3a b292 8e39 d6db 133a 910a 4f39
00000280: 1b64 493a 2ef2 873a 4a4c 0b3a 3c7b 5b39
00000290: 5a73 ab3e a7a4 6f3b ca50 763c 061a c13b
000002a0: 9021 8d3a d4b9 523f 973e b63b bc3f 313c
000002b0: 9772 953c 58f0 173d 101e a73c dc81 4e3c
000002c0: e46a 973c e05c 563c 185e 763c d1ae 8f3c
000002d0: 87da c93c 997e 443c 6933 273d 4fa4 b13c
000002e0: 0005 d53c c6b2 ba3c d5ec 1d3d a7ef 6b3d
000002f0: 340e 3c3d 8305 033b 1156 3b3b 9224 1b3b
00000300: 29f1 403b 8cfb 683b 662a 5a3b 463b 483b
00000310: 2233 8d3b afc0 8c3b 9cca 7f3b 97a6 ac3b
00000320: 3448 a93a 1982 cf3a e901 293b f904 723b
00000330: 26ac 453b 3c82 833b 5151 363b 61f0 533b
00000340: 6782 503b c66e 943b 77e9 873b fd5b a63a
00000350: f08c b63b cace cc3b 21ae 4f3b 3459 ac3b
00000360: 7808 f43b 3bef af3b c08b 2e3b b747 7e3b
00000370: 9f19 303b 41e4 cb3a 36fa 793a 8f47 3f3b
00000380: e733 363b 794f fa3a a182 073b ec13 6c3b
00000390: ca08 5d3b a5c6 493b cb4b d83b 098a 603b
000003a0: c39f 193b 95fd 4a3b 615d 3f3b 2ff2 623c
000003b0: 0660 8f3c 0000 0000 be87 643b 2f3f 0a3c
000003c0: 83f9 ad3b cae6 423b 2108 a23d 7531 9d3d
000003d0: 8a0d 173d 9896 183d 5b25 013c 0000 0000
000003e0: 3869 203e 907b 2e3e 5824 293d 4e05 523d
000003f0: c9bd 703d b18f 953d 3338 3a45 b49d 2e45

exp_avg f4 [128]
-0.0038515255 0.03948888 -0.06179844 -0.02907084 -0.005008623 -0.3256764 0.0071380814 0.017136637
-0.05981949 -0.029625092 -0.23644426 0.0771254 -0.032595076 1.1214107e-37 1.1538981e-37 1.1196787e-37
-0.2862083 -0.037775606 -0.011723582 -0.13684177 -0.05342333 1.0590737e-37 -0.0027962574 0.0
0.0 -0.06917391 -0.045873888 0.0 -0.09942426 -0.24848484 -0.03978966 -0.010570141
-0.058593784 0.0 -0.009826409 0.0 -0.22411376 0.01650618 0.031441644 1.1175134e-37
-0.0013468908 -0.012707688 -0.17309003 0.009284079 0.0 0.0 -0.22851409 0.0013283193
0.0 0.0 -0.13130255 0.046931393 0.04009606 -0.016900897 1.1211315e-37 0.015183298
-0.04711522 0.0 0.0 -0.055672456 -0.118502975 -0.072635844 -0.035540506 -0.12730786
-0.054794636 0.025485385 -0.03439703 0.0 -0.013380343 -0.08318993 -0.08994164 0.0
0.010457882 -0.004268732 -0.03830073 -0.14454591 0.034727998 0.0 -0.17438334 0.0
-0.61311793 1.0598284e-37 0.0039030574 -0.045315962 -0.09383745 0.0003016205 -0.017852718 0.01169612
-0.013106963 -0.03075408 0.0 0.0 -0.14999297 0.0045199036 0.05672893 0.0
-0.16409445 -0.02086116 -0.0013523954 0.0 -0.20661062 1.0684835e-37 -0.042978775 0.000111754984
-0.09666443 -0.048653014 -0.03580994 0.015945418 -0.06849599 0.01591862 -0.30109352 0.019814959
-0.10445088 -0.1760837 -0.282075 0.0 4.3307566e-21 -0.16332807 1.1584996e-37 -0.040271476
-0.083320834 -0.004553972 0.0 -0.020773726 1.3059702e-15 1.0939338e-37 -0.029241402 -0.017287038
00000000: e069 7cbb 18bf 213d 5c20 7dbd f825 eebc
00000010: 601f a4bb 0fbf a6be 91e6 e93b 2262 8c3c
00000020: 4805 75bd 52b0 f2bc 721e 72be ecf3 9d3d
00000030: 6a82 05bd 76a3 1802 7b0f 1d02 1c67 1802
00000040: e589 92be 98ba 1abd 4414 40bc 4020 0cbe
00000050: 6cd2 5abd 5527 1002 6a41 37bb 0000 0000
00000060: 0000 0000 0dab 8dbd 42e6 3bbd 0000 0000
00000070: f29e cbbd cf72 7ebe 7cfa 22bd 622e 2dbc
00000080: 0900 70bd 0000 0000 f2fe 20bc 0000 0000
00000090: 147e 65be f837 873c f4c8 003d a91b 1802
000000a0: 288a b0ba e833 50bc 833e 31be 401c 183c
000000b0: 0000 0000 0000 0000 99ff 69be 001b ae3a
000000c0: 0000 0000 0000 0000 2d74 06be 223b 403d
000000d0: c43b 243d c073 8abc bb99 1802 5ec3 783c
000000e0: e4fb 40bd 0000 0000 0000 0000 cd08 64bd
000000f0: b0b1 f2bd 1ac2 94bd ec92 11bd fe5c 02be
00000100: 5770 60bd bac6 d03c e6e3 0cbd 0000 0000
00000110: 3a39 5bbc 7b5f aabd 5333 b8bd 0000 0000
00000120: 8957 2b3c b8e0 8bbb 3ae1 1cbd d803 14be
00000130: f23e 0e3d 0000 0000 8c91 32be 0000 0000
00000140: 4cf5 1cbf a141 1002 70ca 7f3b 3b9d 39bd
00000150: d92d c0bd d122 9e39 dd3f 92bc 15a1 3f3c
00000160: 96be 56bc fbef fbbc 0000 0000 0000 0000
00000170: c297 19be b31b 943b 985c 683d 0000 0000
00000180: 6008 28be 06e5 aabc dc42 b1ba 0000 0000
00000190: bc91 53be 376f 1102 830a 30bd 005e ea38
000001a0: 00f8 c5bd 6248 47bd 72ad 12bd f79f 823c
000001b0: a047 8cbd c467 823c ee28 9abe fb52 a23c
000001c0: 58ea d5bd 494f 34be 226c 90be 0000 0000
000001d0: 829c a31d 793f 27be d2af 1d02 b4f3 24bd
000001e0: 1da4 aabd 7c39 95bb 0000 0000 a92d aabc
000001f0: cc35 bc26 08e6 1402 aa8b efbc 8c9d 8dbc

exp_avg_sq f4 [128]
0.0075993612 0.33684236 0.036331158 0.046618477 0.21559265 0.28084022 0.004262187 0.013567517
0.08011726 0.11757835 0.5976024 0.11438352 0.016322274 5.757648e-07 5.282119e-05 0.00031084777
0.5610948 0.07190506 0.041088425 0.6980432 0.035303377 1.1014974e-05 0.02777342 0.0
0.0 0.22668512 0.45562774 0.0 0.070240304 0.5608186 0.12952049 0.019576803
0.038348585 0.0 0.048185587 0.0 0.628287 0.58189595 0.25268194 4.51561e-06
0.024080204 0.08345265 0.1554465 0.42040858 0.0 0.0 0.25903475 0.2962019
0.0 0.0 0.078874834 0.043424167 0.45826346 0.2992343 5.693107e-05 0.007799374
0.41798696 0.0 0.0 0.02909747 0.5772147 0.028662471 0.01948933 0.37902462
0.16105472 0.0037200563 0.8594535 0.0 0.016823327 0.01603441 0.13646571 0.0
0.008605134 0.0038139662 0.026122171 0.08729356 0.014493823 0.0 0.37142548 0.0
1.522388 6.877547e-06 0.007665135 0.046704646 0.08018623 0.006837313 0.020189008 0.01720863
0.040221076 0.06725322 0.0 0.0 0.1765161 0.0059114904 0.027806034 0.0
0.15887472 0.014058557 0.029366937 0.0 1.080656 8.501589e-05 0.031073818 0.009149175
0.030645413 0.2593496 0.030404111 0.016814338 0.3529624 0.026192937 0.77276516 0.0054418524
0.22335055 0.11548467 0.3434708 0.0 0.0010905585 0.3746512 9.916738e-07 0.05176424
0.06606069 0.03754149 0.0 0.0890211 0.0035864376 2.3866776e-05 0.027962413 0.6166213
00000000: 1004 f93b 9a76 ac3e fbcf 143d 04f3 3e3d
00000010: 52c4 5c3e 4aca 8f3e d1a9 8b3b 4a4a 5e3c
00000020: 8514 a43d ebcc f03d 79fc 183f e841 ea3d
00000030: 4ab6 853c 418e 1a35 528c 5d38 48f9 a239
00000040: e9a3 0f3f f642 933d 564c 283d f6b2 323f
00000050: 469a 103d f4cc 3837 1585 e33c 0000 0000
00000060: 0000 0000 2520 683e 0a48 e93e 0000 0000
00000070: 26da 8f3d cf91 0f3f 05a1 043e 885f a03c
00000080: 6813 1d3d 0000 0000 405e 453d 0000 0000
00000090: 6bd7 203f 22f7 143f 875f 813e cb84 9736
000000a0: d943 c53c 39e9 aa3d 5e2d 1f3e cb3f d73e
000000b0: 0000 0000 0000 0000 34a0 843e c7a7 973e
000000c0: 0000 0000 0000 0000 2189 a13d 8add 313d
000000d0: 82a1 ea3e 3d35 993e 45c9 6e38 e491 ff3b
000000e0: 6302 d63e 0000 0000 0000 0000 d15d ee3c
000000f0: 58c4 133f 8fcd ea3c 16a8 9f3c 840f c23e
00000100: 87eb 243e 30cc 733b 2505 5c3f 0000 0000
00000110: 13d1 893c 985a 833c abbd 0b3e 0000 0000
00000120: 8cfc 0c3c bcf3 793b 2afe d53c f7c6 b23d
00000130: 8077 6d3c 0000 0000 7b2b be3e 0000 0000
00000140: 9cdd c23f aec5 e636 d02b fb3b 5f4d 3f3d
00000150: ae38 a43d 8a0b e03b 6b63 a53c 1df9 8c3c
00000160: dbbe 243d 0ebc 893d 0000 0000 0000 0000
00000170: a3c0 343e 2db5 c13b 7bc9 e33c 0000 0000
00000180: 0eb0 223e dd55 663c ee92 f03c 0000 0000
00000190: f052 8a3f 8f4a b238 858e fe3c 6ce6 153c
000001a0: 170c fb3c 79c9 843e 0b12 f93c 39be 893c
000001b0: 7db7 b43e 9292 d63c f0d3 453f 9151 b23b
000001c0: 02b6 643e 3a83 ec3d 68db af3e 0000 0000
000001d0: 12f1 8e3a 48d2 bf3e a719 8535 bd06 543d
000001e0: d44a 873d 1bc5 193d 0000 0000 b250 b63d
000001f0: 700a 6b3b 8335 c837 6e11 e53c e5da 1d3f

exp_avg f4 [64, 128]
-2.672054 -0.62829554 -1.5322003 -1.6160003 -0.6702614 -1.6070606 0.013238252 -0.15542234
0.2907704 1.3890172 -0.9993744 -0.51329774 -2.7082882 -1.0742981e-37 -1.1414003e-37 -1.1641747e-37
-1.6291609 -2.7730024 -0.45875752 -0.31124935 -2.193471 1.1741499e-37 -0.0016279567 0.0
0.0 -0.5968337 0.66376996 0.0 -1.8228527 -0.7711084 -0.29546142 -0.95736253
-2.4639738 0.0 -4.478312 0.0 -0.6480378 -1.4242579 0.68430567 0.0
-3.6346757 -7.6751328 -2.2993093 -0.62142384 0.0 0.0 -1.8265333 -1.0161068
0.0 0.0 -3.0223722 -0.18834846 0.26318038 -0.93913686 -1.105067e-37 0.095468834
-1.1606146 0.0 0.0 -2.722694 -0.54878086 -2.180641 -5.4617643 0.9085208
0.13482857 -0.012759125 -0.859764 0.0 -1.2926741 -1.6916615 -3.562352 0.0
0.04828273 -0.8335497 1.8502562 -3.156067 -0.6248133 0.0 -0.8914014 0.0
-1.037706 -1.0823849e-37 0.58185756 -0.98638463 -1.5382861 -0.002804519 -1.1784549 -1.3273962
-4.073944 -0.06643 0.0 0.0 -0.29169893 0.025774073 -0.039507195 0.0
0.67312676 0.13681304 -1.068597 0.0 -0.14278096 -1.112635e-37 -1.6718179 1.0895195
-5.4190164 0.62274194 -3.0529528 -0.50993586 -0.04443693 0.26568776 -0.55675095 -0.0022557976
0.2646385 -1.4755495 -0.786761 0.0 5.4508476e-21 -0.505577 -1.0998399e-37 -0.097850084
-1.228192 -2.5081232 0.0 -1.7945981 -9.053931e-16 -1.1749224e-37 0.03580022 -0.017634869
0.008039616 5.765083e-06 -0.20182353 0.0024412137 -0.0055227345 -0.008289982 1.2260358e-21 -0.028655209
-0.14899231 -0.018096022 -0.0021435749 -0.05424969 0.0034188307 1.0659299e-37 1.1750428e-37 1.122714e-37
-0.011652893 -0.2478386 0.0035766403 -0.016551698 -0.31311756 1.1507283e-37 2.6308958e-11 0.0
0.0 -0.06616216 -0.006918078 0.0 0.0051804003 -0.06521694 7.152358e-05 -0.18062498
-0.28622237 0.0 -0.4340511 0.0 -0.036175825 -0.023704154 0.00029282828 0.0
0.016214825 4.3419946e-06 -0.07415581 1.1059893e-05 0.0 0.0 0.001088949 2.1932363e-05
0.0 0.0 0.004960589 -0.014973191 -0.022114735 -0.08378373 1.0746585e-37 5.520394e-09
-1.0740418e-15 0.0 0.0 -0.22816592 -0.018987328 -0.28386477 -0.39016983 -0.003654722
-0.02027624 1.1728179e-37 2.7946951e-05 0.0 -0.10517147 -0.25398013 -0.26270434 0.0
2.7100049e-09 -0.07215959 -0.25106978 -0.07933441 -0.05455976 0.0 3.7946367e-05 0.0
-0.043236278 1.1004843e-37 6.8370137e-28 -0.2769146 0.0041982294 1.1633185e-37 -0.33234417 0.0042481995
0.016751893 -0.2467389 0.0 0.0 -0.03969316 -0.012291529 -0.016231067 0.0
-0.04904912 1.3130044e-21 -0.13502058 0.0 -0.0115891015 1.0982448e-37 -0.23464388 -0.29653263
0.00030943722 -0.021839818 0.001420619 -0.0049649784 6.188057e-05 8.8822816e-20 -0.045160927 1.0914447e-37
0.00313226 0.0036201011 0.0003208142 0.0 4.6394526e-28 -0.04037243 0.0 -0.23120175
-0.0736557 -0.2493584 0.0 -0.3107186 2.7118134e-18 1.102808e-37 -0.0472425 -0.011562387
00000000: ef02 2bc0 fad7 20bf 241f c4bf 19d9 cebf
00000010: 4096 2bbf 29b4 cdbf 41e5 583c 0927 1fbe
00000020: dcdf 943e 51cb b13f 00d7 7fbf 7b67 03bf
00000030: 9854 2dc0 d339 1282 ff5b 1b82 9175 1e82
00000040: 5888 d0bf df78 31c0 44e2 eabe 135c 9fbe
00000050: d461 0cc0 27d1 1f02 2a61 d5ba 0000 0000
00000060: 0000 0000 18ca 18bf d4ec 293f 0000 0000
00000070: 3d53 e9bf 5c67 45bf b846 97be b615 75bf
00000080: bfb1 1dc0 0000 0000 554e 8fc0 0000 0000
00000090: cee5 25bf 154e b6bf a82e 2f3f 0000 0000
000000a0: 879e 68c0 b09a f5c0 e227 13c0 a215 1fbf
000000b0: 0000 0000 0000 0000 d8cb e9bf ca0f 82bf
000000c0: 0000 0000 0000 0000 8c6e 41c0 6bde 40be
000000d0: 94bf 863e 466b 70bf f769 1682 2a85 c33d
000000e0: 058f 94bf 0000 0000 0000 0000 9e40 2ec0
000000f0: e77c 0cbf 9f8f 0bc0 c6c6 aec0 d294 683f
00000100: 8010 0a3e a60b 51bc 7e19 5cbf 0000 0000
00000110: 5876 a5bf 5d88 d8bf 93fd 63c0 0000 0000
00000120: 1dc4 453d 8363 55bf 32d5 ec3f 00fd 49c0
00000130: c4f3 1fbf 0000 0000 e232 64bf 0000 0000
00000140: 8dd3 84bf 9c53 1382 9ef4 143f b483 7cbf
00000150: 8fe6 c4bf 05cc 37bb 9cd7 96bf 1ee8 a9bf
00000160: c05d 82c0 740c 88bd 0000 0000 0000 0000
00000170: 9059 95be 2624 d33c 4cd2 21bd 0000 0000
00000180: 0952 2c3f b818 0c3e c9c7 88bf 0000 0000
00000190: 2c35 12be ac71 1782 21fe d5bf 6075 8b3f
000001a0: 9568 adc0 046c 1f3f 9463 43c0 288b 02bf
000001b0: 8003 36bd 3a08 883e 3b87 0ebf 01d6 13bb
000001c0: b37e 873e cede bcbf 2b69 49bf 0000 0000
000001d0: 5ded cd1d 7f6d 01bf d4b3 1582 a065 c8bd
000001e0: 6535 9dbf 1785 20c0 0000 0000 64b5 e5bf
000001f0: 1c7b 82a6 12ec 1f82 40a3 123d 0077 90bc
00000200: 98b8 033c b071 c136 d4aa 4ebe c5fc 1f3b
00000210: 0ef8 b4bb b4d2 07bc f645 b91c 54be eabc
00000220: 7191 18be 1c3e 94bc 387b 0cbb ec34 5ebd
00000230: 760e 603b 3c16 1102 44f0 1f02 e0d0 1802
00000240: c7eb 3ebc 67c9 7dbe 1166 6a3b 6d97 87bc
00000250: f250 a0be 07a1 1c02 826a e72d 0000 0000
00000260: 0000 0000 0780 87bd 0bb1 e2bb 0000 0000
00000270: 59c0 a93b 7690 85bd eefe 9538 c1f5 38be
00000280: bd8b 92be 0000 0000 f23b debe 0000 0000
00000290: 1a2d 14bd 372f c2bc bf86 9939 0000 0000
000002a0: f4d4 843c 73b1 9136 00df 97bd e18d 3937
000002b0: 0000 0000 0000 0000 11bb 8e3a 64fb b737
000002c0: 0000 0000 0000 0000 708c a23b 1d52 75bc
000002d0: f629 b5bc ce96 abbd 6246 1202 e6ad bd31
000002e0: 26c9 9aa6 0000 0000 0000 0000 54a4 69be
000002f0: 508b 9bbc b956 91be 57c4 c7be 0f84 6fbb
00000300: 5b1a a6bc bda2 1f02 9f6f ea37 0000 0000
00000310: 2464 d7bd af09 82be 2f81 86be 0000 0000
00000320: e93a 3a31 68c8 93bd 388c 80be 147a a2bd
00000330: 0e7a 5fbd 0000 0000 9a28 1f38 0000 0000
00000340: 8618 31bd 48ca 1502 72ac 5812 c0c7 8dbe
00000350: 4d91 893b bc57 1e02 0429 aabe 7b34 8b3b
00000360: 443b 893c 1fa9 7cbe 0000 0000 0000 0000
00000370: 4c95 22bd 6962 49bc 04f7 84bc 0000 0000
00000380: bbe7 48bd 666a c61c d642 0abe 0000 0000
00000390: 37e0 3dbc 3f7c 1502 7c46 70be 20d3 97be
000003a0: f63b a239 6be9 b2bc 1034 ba3a 42b1 a2bb
000003b0: e1c5 8138 19ba d11f aafa 38bd 4c8f 1402
000003c0: 9a46 4d3b 383f 6d3b f432 a839 0000 0000
000003d0: b607 1312 905d 25bd 0000 0000 27c0 6cbe
000003e0: cdd8 96bd cf57 7fbe 0000 0000 8216 9fbe
000003f0: b518 4822 401b 1602 5a81 41bd 2b70 3dbc

exp_avg_sq f4 [64, 128]
1383.7664 71.421074 2694.0361 2689.0366 475.49606 52.26738 3.001613 211.96399
3408.49 359.55856 113.3116 267.60284 4582.2554 0.00022846088 0.028172053 0.035912395
160.23613 1992.1956 2446.4053 129.11665 5134.5005 0.0011749119 12.15476 0.0
0.0 778.98303 149.93283 0.0 711.3403 108.05747 1512.6017 2385.2327
2965.0881 0.0 4946.3086 0.0 112.68065 189.94199 674.9578 0.0
2986.1704 5616.771 958.74915 195.0676 0.0 0.0 606.3337 207.28752
0.0 0.0 602.66565 102.477905 222.81953 267.86612 0.009425109 426.87253
325.08438 0.0 0.0 3698.4841 178.31172 3541.5178 4738.269 263.47403
374.34622 0.035650805 98.96501 0.0 672.1913 1936.1063 2381.2773 0.0
1679.2904 488.9417 2172.5288 1524.1088 101.13931 0.0 231.38383 0.0
54.971886 2.7342935e-07 1.5439264 4017.504 360.03217 63.54621 3531.1687 1688.5569
2826.011 1256.2689 0.0 0.0 521.9843 1167.6471 522.2366 0.0
1362.0372 4.3747478 1356.3251 0.0 130.96349 0.09222736 3845.8513 3323.2664
2548.569 288.37582 822.71136 441.25995 361.43066 21.5424 97.071365 29.54652
1772.8728 436.94293 284.86166 0.0 0.0061038453 33.48804 0.00045057436 1603.2051
1358.0226 2567.1304 0.0 1879.097 106.715515 0.002772149 142.09682 180.80544
111.454575 0.0038950604 146.58786 177.79468 20.952448 0.0041737338 0.49241707 33.79821
336.76968 2.0199416 0.050132997 35.84863 178.62602 7.777155e-06 0.010831153 0.013930348
0.7720083 99.79967 88.923485 0.089496054 320.87656 5.3333144e-05 0.020972272 0.0
0.0 77.72613 0.17775469 0.0 15.414742 0.1403712 55.638294 272.0564
252.00742 0.0 258.4679 0.0 0.011318456 0.60212606 41.887077 0.0
200.40143 307.46216 92.78879 0.5571183 0.0 0.0 61.75884 0.42329767
0.0 0.0 26.733814 20.31648 6.2088413 6.5300465 0.001992422 45.629673
5.196115 0.0 0.0 305.23148 0.10490733 275.71652 293.57166 0.63445914
23.332966 5.6101435e-05 0.05030907 0.0 83.29107 158.43893 127.31164 0.0
189.77899 41.5687 266.22598 113.10603 3.1934779 0.0 0.16178408 0.0
0.011327244 3.6054815e-05 0.020607237 306.58255 11.349748 5.274658 268.04456 154.6044
102.01192 33.864758 0.0 0.0 36.1569 161.2152 66.19309 0.0
139.97429 0.0026445487 156.65517 0.0 0.896733 0.0077310875 292.62228 200.37679
113.28691 0.90087914 98.22099 34.103535 2.284744 0.015108011 0.015290578 6.5255337
139.59395 10.3944235 5.9413466 0.0 0.0008614519 0.0024379417 0.0 71.44121
153.549 110.917336 0.0 171.17035 14.613134 0.0029921732 8.52504 0.43565747
00000000: 86f8 ac44 97d7 8e42 9460 2845 9610 2845
00000010: 7fbf ed43 cc11 5142 6d1a 4040 c8f6 5343
00000020: d707 5545 7fc7 b343 8a9f e242 2acd 8543
00000030: 0b32 8f45 008f 6f39 14c9 e63c e018 133d
00000040: 733c 2043 4206 f944 7ce6 1845 dd1d 0143
00000050: 0174 a045 80ff 993a e679 4241 0000 0000
00000060: 0000 0000 eabe 4244 ceee 1543 0000 0000
00000070: c7d5 3144 6d1d d842 4113 bd44 b913 1545
00000080: 6951 3945 0000 0000 7892 9a45 0000 0000
00000090: 7e5c e142 26f1 3d43 4dbd 2844 0000 0000
000000a0: baa2 3a45 2b86 af45 f2af 6f44 4e11 4343
000000b0: 0000 0000 0000 0000 5b95 1744 9b49 4f43
000000c0: 0000 0000 0000 0000 9aaa 1644 b0f4 cc42
000000d0: cdd1 5e43 ddee 8543 c66b 1a3c af6f d543
000000e0: cd8a a243 0000 0000 0000 0000 bf27 6745
000000f0: cd4f 3243 4958 5d45 2712 9445 adbc 8343
00000100: 512c bb43 9406 123d 16ee c542 0000 0000
00000110: 3e0c 2844 6703 f244 70d4 1445 0000 0000
00000120: 4be9 d144 8a78 f443 76c8 0745 7b83 be44
00000130: 5447 ca42 0000 0000 4362 6743 0000 0000
00000140: 36e3 5b42 d8cb 9234 619f c53f 1018 7b45
00000150: 1e04 b443 522f 7e42 b3b2 5c45 d211 d344
00000160: 2da0 3045 9b08 9d44 0000 0000 0000 0000
00000170: ff7e 0244 b5f4 9144 248f 0244 0000 0000
00000180: 3141 aa44 effd 8b40 678a a944 0000 0000
00000190: a7f6 0243 b3e1 bc3d 9f5d 7045 43b4 4f45
000001a0: 1b49 1f45 1b30 9043 87ad 4d44 46a1 dc43
000001b0: 20b7 b443 d656 ac41 8a24 c242 465f ec41
000001c0: ee9b dd44 b278 da43 4b6e 8e43 0000 0000
000001d0: c402 c83b c1f3 0542 113b ec39 9066 c844
000001e0: b9c0 a944 1672 2045 0000 0000 1be3 ea44
000001f0: 586e d542 f1ac 353b c918 0e43 31ce 3443
00000200: bee8 de42 4544 7f3b 7e96 1243 70cb 3143
00000210: 9d9e a741 d1c3 883b 171e fc3e 5e31 0742
00000220: 8562 a843 b946 0140 4258 4d3d ff64 0f42
00000230: 43a0 3243 a07a 0237 2675 313c 1d3c 643c
00000240: 56a2 453f 6e99 c742 d3d8 b142 b549 b73d
00000250: 3370 a043 07b2 5f38 0bce ab3c 0000 0000
00000260: 0000 0000 c773 9b42 5305 363e 0000 0000
00000270: c9a2 7641 78bd 0f3e 9d8d 5e42 3807 8843
00000280: e601 7c43 0000 0000 e43b 8143 0000 0000
00000290: 0c71 393c ef24 1a3f 5e8c 2742 0000 0000
000002a0: c466 4843 28bb 9943 dc93 b942 4e9f 0e3f
000002b0: 0000 0000 0000 0000 0d09 7742 79ba d83e
000002c0: 0000 0000 0000 0000 dade d541 2788 a241
000002d0: d4ae c640 24f6 d040 4b93 023b c984 3642
000002e0: 9346 a640 0000 0000 0000 0000 a19d 9843
000002f0: a7d9 d63d b7db 8943 2cc9 9243 ea6b 223f
00000300: eaa9 ba41 754e 6b38 e210 4e3d 0000 0000
00000310: 0795 a642 5e70 1e43 8f9f fe42 0000 0000
00000320: 6cc7 3d43 5946 2642 ed1c 8543 4a36 e242
00000330: f161 4c40 0000 0000 baaa 253e 0000 0000
00000340: e895 393c 9039 1738 82d0 a83c 914a 9943
00000350: 9198 3541 00ca a840 b405 8643 ba9a 1a43
00000360: 1a06 cc42 8375 0742 0000 0000 0000 0000
00000370: aaa0 1042 1737 2143 dd62 8442 0000 0000
00000380: 6bf9 0b43 2a50 2d3b b9a7 1c43 0000 0000
00000390: 4b90 653f 1055 fd3b a74f 9243 7560 4843
000003a0: e692 e242 04a0 663f 2671 c442 056a 0842
000003b0: 3f39 1240 9787 773c 5585 7a3c 2cd1 d040
000003c0: 0d98 0b43 8f4f 2641 831f be40 0000 0000
000003d0: 0fd3 613a e0c5 1f3b 0000 0000 e6e1 8e42
000003e0: 8b8c 1943 add5 dd42 0000 0000 9c2b 2b43
000003f0: 66cf 6941 5618 443b 9066 0841 7f0e df3e
