lightning_model_releases/lightning_standard_test/model_params/standard_81054_1334_lightning_standard.ckpt (torch, 311246 bytes, 15 tensors)

model.0.weight f4 [128, 131]
-0.0014077759 -0.0461067 0.0007042439 -0.15382299 -0.1600229 0.18566544 -0.04376195 0.16764553
-0.071077794 0.0004063991 0.06165926 -0.011887176 -0.11280272 -0.14311463 0.017346036 0.03751085
0.190098 -0.0214683 -0.088775955 0.0017121913 -0.11869225 -0.09233105 0.11794762 -0.05897261
0.014316697 0.022090442 -0.12487812 -0.21746439 0.035537116 -0.038414266 -0.111194864 -0.13799532
0.04054577 -0.04665881 -0.1416791 0.057193924 -0.057117164 0.064443186 -0.051023345 0.052810207
0.021424372 -0.10599221 0.0028905862 0.010874035 0.036195237 -0.019240525 0.01963316 -0.059289537
0.011615738 -0.1516762 -0.11826597 0.33365127 0.060993925 0.14461124 0.051982027 0.0019031467
-0.29223827 -0.22205712 0.22604033 -0.020896273 -0.0874347 0.010660467 0.0046980977 -0.0065876725
0.014273054 -0.02606398 0.07432278 -0.03298824 -0.14811862 0.0116903875 0.15932061 0.019617785
0.07479385 -0.18727 -0.12370304 -0.011996152 -0.09597523 -0.011198604 -0.018239954 0.0075770076
-0.13196193 -0.0050444813 -0.23870556 -0.18566664 0.14835902 0.014522922 0.1066387 -0.23231313
-0.01964172 0.19857669 -0.12344872 0.09820001 0.014805779 -0.03910193 0.0011912382 0.04164434
0.022277925 -0.0830261 -0.088822834 -0.104132615 -0.11366061 -0.025819963 -0.022740414 -0.19928408
-0.10008987 0.06156281 -0.07412476 -0.19292805 -0.18971191 0.0019476989 0.17136592 0.016502082
-0.056212515 -0.19026048 -0.09978477 0.1093513 0.013662204 0.11500081 -0.3175251 -0.06750596
-0.035370346 -0.11306286 -0.06304863 -0.12309266 -0.10019512 -0.07772302 -0.05477115 -0.11325254
0.027749058 -0.06824794 0.040857032 -0.119497046 0.03799644 -0.013749951 0.7085987 -0.23197746
-0.44604573 -0.041285146 -0.18881181 -0.024322562 -0.05472327 -0.27552858 -0.00848226 0.34049508
0.33260784 0.09745212 -0.09172554 0.26968294 0.19247985 0.31093106 0.14202873 -0.28782326
0.11291274 0.12020446 0.17879863 -0.21428935 -0.30048344 0.19603959 0.21262094 0.1364713
0.31982505 0.37038946 -0.0882628 -0.07855858 0.16785553 0.15116057 -0.12105203 0.04163964
0.053548645 0.07821402 -0.12141028 0.095771715 0.07914287 -0.11534911 0.03225631 0.059776444
-0.15627974 0.16281025 0.16561843 -0.04171432 0.25798926 0.00046383604 -0.7498724 -0.25471127
-0.27134684 -0.20530389 0.0658434 0.88946676 0.37958354 -0.21442883 0.031467166 0.52625203
-0.42360213 0.2554434 0.07307257 -0.048220802 -0.18464099 -0.066899106 0.3038712 -0.0077999104
-0.07026601 0.035193965 0.28232285 0.077126555 -0.07867835 0.36433014 -0.3838301 -0.039362673
0.11787651 -0.245505 0.13790616 0.20545012 0.032149777 0.43778765 0.28035557 0.21783376
-0.08643186 -0.3666065 0.22377376 -0.03644465 -0.26502976 0.13749447 -0.22166021 0.175006
0.17972642 -0.11069227 0.03806098 0.08174829 -0.02579623 -0.06681692 0.26705593 -0.3842741
0.2748957 0.35043845 0.24355604 0.13143842 -0.47895193 -0.06644572 0.16686511 -0.17331612
0.038032267 -0.06646327 0.109875254 -0.0017220823 0.10866385 -0.24269749 -0.07286218 0.028981708
-0.7350528 0.8100678 0.05835267 0.014652448 0.1269897 -0.04563717 0.07258423 -0.092995174
00000000: 1f85 b8ba 61da 3cbd 029d 383a c683 1dbe
00000010: 0bdd 23be 151f 3e3e bb3f 33bd 45ab 2b3e
00000020: 3c91 91bd f711 d539 6c8e 7c3d 6ec2 42bc
00000030: 1d05 e7bd a48c 12be 4619 8e3c faa4 193d
00000040: 0da9 423e 4ade afbc 2bd0 b5bd 9b6b e03a
00000050: ec14 f3bd 1018 bdbd 868e f13d 438d 71bd
00000060: 9490 6a3c 04f7 b43c 1ac0 ffbd fcae 5ebe
00000070: 5e8f 113d 4758 1dbd 22ba e3bd a54e 0dbe
00000080: 5213 263d 4f1d 3fbd 5314 11be 2d44 6a3d
00000090: b0f3 69bd cafa 833d dbfd 50bd 844f 583d
000000a0: 2a82 af3c 7212 d9bd fd6f 3d3b 0229 323c
000000b0: 7541 143d 4e9e 9dbc b9d5 a03c 96d9 72bd
000000c0: f04f 3e3c 0151 1bbe 6e35 f2bd 57d4 aa3e
000000d0: c4d4 793d f814 143e 1beb 543d 0273 f93a
000000e0: 41a0 95be f162 63be 1e77 673e a92e abbc
000000f0: f710 b3bd 3da9 2e3c 80f2 993b 67dd d7bb
00000100: 87d9 693c 2184 d5bc 8b36 983d ad1e 07bd
00000110: 68ac 17be 0a89 3f3c f124 233e 7ab5 a03c
00000120: 852d 993d b5c3 3fbe 0558 fdbd 828b 44bc
00000130: a98e c4bd 597a 37bc f56b 95bc 8c48 f83b
00000140: 0721 07be 2d4c a5bb 3b6f 74be 651f 3ebe
00000150: 6deb 173e 8df1 6d3c 6465 da3d 7ee3 6dbe
00000160: ace7 a0bc b057 4b3e afd2 fcbd 161d c93d
00000170: f093 723c 5829 20bd 5223 9c3a 4193 2a3d
00000180: 3280 b63c 9709 aabd bfe8 b5bd 7b43 d5bd
00000190: e5c6 e8bd 6384 d3bc 1b4a babc 2011 4cbe
000001a0: ebfb ccbd 4929 7c3d b9ce 97bd ee8e 45be
000001b0: d743 42be ee49 ff3a 8c7a 2f3e 602f 873c
000001c0: 183f 66bd a5d3 42be f55b ccbd 93f3 df3d
000001d0: 70d7 5f3c 8b85 eb3d a692 a2be 9140 8abd
000001e0: 7fe0 10bd 808d e7bd a41f 81bd 0118 fcbd
000001f0: 1933 cdbd 3f2d 9fbd b757 60bd f3f0 e7bd
00000200: fe51 e33c 93c5 8bbd b459 273d deba f4bd
00000210: 28a2 1b3d 7947 61bc b966 353f 808b 6dbe
00000220: 1b60 e4be 9d1a 29bd e257 41be 1c40 c7bc
00000230: 8225 60bd 1512 8dbe 2df9 0abc 5f55 ae3e
00000240: 934b aa3e fa94 c73d 9ada bbbd e213 8a3e
00000250: 7019 453e 5b32 9f3e fb6f 113e 925d 93be
00000260: cb3e e73d c22d f63d fd16 373e ab6e 5bbe
00000270: f7d8 99be 9abe 483e 4eb9 593e 22bf 0b3e
00000280: 1cc0 a33e b0a3 bd3e 20c3 b4bd 52e3 a0bd
00000290: 52e2 2b3e d6c9 1a3e 20ea f7bd 548e 2a3d
000002a0: d355 5b3d ac2e a03d f4a5 f8bd f623 c43d
000002b0: a815 a23d 273c ecbd 311f 043d 25d8 743d
000002c0: cc07 20be bbb7 263e e197 293e a3dc 2abd
000002d0: 2b17 843e 052f f339 a3f7 3fbf 8469 82be
000002e0: f9ed 8abe 2f3b 52be e8d8 863d 18b4 633f
000002f0: c658 c23e 3b93 5bbe b7e3 003d 74b8 063f
00000300: 61e2 d8be 7ac9 823e 12a7 953d 2d83 45bd
00000310: 8712 3dbe 6602 89bd 0295 9b3e 6496 ffbb
00000320: a0e7 8fbd 8c27 103d 9f8c 903e 87f4 9d3d
00000330: 1d22 a1bd 7b89 ba3e 6185 c4be c13a 21bd
00000340: 3d69 f13d aa65 7bbe 4637 0d3e 8461 523e
00000350: 7caf 033d b425 e03e c48a 8f3e d00f 5f3e
00000360: 3003 b1bd d9b3 bbbe f324 653e fc46 15bd
00000370: fbb1 87be 5acb 0c3e e5fa 62be c634 333e
00000380: 340a 383e a1b2 e2bd d5e5 1b3d a66b a73d
00000390: 9e52 d3bc 4fd7 88bd 8ebb 883e 93bf c4be
000003a0: 21bf 8c3e ab6c b33e c166 793e cb97 063e
000003b0: 3039 f5be b214 88bd b0de 2a3e c879 31be
000003c0: b9c7 1b3d e51d 88bd 4706 e13d 7eb7 e1ba
000003d0: 278b de3d b185 78be c438 95bd 0c6b ed3c
000003e0: 6c2c 3cbf 9a60 4f3f 3603 6f3d d210 703c
000003f0: 9709 023e 0bee 3abd 0aa7 943d 4174 bebd

model.0.bias f4 [128]
-0.14523242 0.20988707 0.13452703 0.11830536 0.16291879 0.20819923 -0.04855435 -0.014939313
0.015904624 0.09464669 0.04645073 0.016993856 -0.0026257718 -0.050663516 0.061622854 -0.06701937
0.12026263 -0.02686888 0.0045699636 0.18898442 0.094693564 0.06048709 0.09318839 0.066633366
0.08223877 0.10284342 0.056371413 0.0030099154 0.17047432 0.13920835 0.14089012 0.12366791
0.08821983 -0.06076651 0.04218105 0.016919114 0.10649878 0.14033729 0.13517447 -0.0532101
0.02518844 -0.03799322 0.08641256 0.16633675 0.0790235 0.0045811385 0.15787412 0.039044745
-0.0018988699 -0.016483493 0.043942027 0.063468285 0.152153 0.022143966 -0.091876924 -0.087660745
0.123491205 0.041451164 0.04522858 0.13270435 0.0592895 0.080332 0.018494673 0.06436656
0.10447411 -0.013517854 0.047547787 -0.0012707338 0.012896872 0.012472604 0.023499278 0.059082933
-0.06993472 0.017049605 0.036301997 0.058319308 -0.05144278 -0.015902316 0.19573942 -0.03731328
0.08189165 -0.002604336 -0.09354897 0.084248416 0.16484518 0.14276402 0.023602732 -0.06703393
-0.021694334 0.012438917 -0.023951672 0.0484334 0.16658106 -0.06869471 -0.055527166 0.0597784
0.05504648 0.06555818 0.0063072206 -0.037776284 0.050742675 0.109495215 -0.022000393 -0.01692102
0.027471976 0.09831731 0.006928773 -0.060333803 0.015980268 0.08952259 0.21087834 -0.02986233
-0.00068572053 0.062446795 0.1775346 0.013934717 -0.03597481 0.17781648 0.0022891534 0.07998209
0.16648956 0.052131634 -0.015390269 0.0740994 -0.04040618 -0.018886635 0.17363034 0.06801336
00000000: cfb7 14be a3ec 563e 74c1 093e 154a f23d
00000010: 2fd4 263e 2e32 553e ede0 46bd 05c4 74bc
00000020: 6a4a 823c 20d6 c13d 1f43 3e3d b336 8b3c
00000030: 2415 2cbb 8c84 4fbd 3f68 7c3d 7441 89bd
00000040: 414c f63d 201c dcbc a2bf 953b 2285 413e
00000050: b3ee c13d 50c1 773d 8ed9 be3d 1377 883d
00000060: cd6c a83d 929f d23d b6e5 663d 0042 453b
00000070: d290 2e3e a28c 0e3e 8045 103e 9a45 fd3d
00000080: 99ac b43d 4ee6 78bd 09c6 2c3d f499 8a3c
00000090: 081c da3d 94b4 0f3e 2d6b 0a3e d5f2 59bd
000000a0: fd57 ce3c c79e 1bbd 11f9 b03d 2e54 2a3e
000000b0: 13d7 a13d 601d 963b c1a9 213e 62ed 1f3d
000000c0: 80e3 f8ba 6408 87bc 8efc 333d a9fb 813d
000000d0: ffcd 1b3e 4367 b53c f829 bcbd 7a87 b3bd
000000e0: f5e8 fc3d b2c8 293d 9a41 393d a6e3 073e
000000f0: 8cd9 723d 1b85 a43d 2482 973c 9dd2 833d
00000100: 86f6 d53d fd79 5dbc 78c1 423d c08e a6ba
00000110: 674d 533c e559 4c3c 8f81 c03c f200 723d
00000120: ef39 8fbd 9dab 8b3c 67b1 143d 3ae0 6e3d
00000130: aab5 52bd 9345 82bc ea6f 483e cfd5 18bd
00000140: cfb6 a73d 82ad 2abb 9a96 bfbd 6f8a ac3d
00000150: 2dcd 283e bb30 123e 845a c13c 1649 89bd
00000160: 51b8 b1bc 99cc 4b3c 4c36 c4bc 1a62 463d
00000170: 3a94 2a3e d0af 8cbd 7470 63bd 32da 743d
00000180: 6b78 613d 5e43 863d cdac ce3b 4ebb 1abd
00000190: 8dd7 4f3d 073f e03d 2b3a b4bc f39d 8abc
000001a0: e90c e13c 965a c93d c30a e33b 9420 77bd
000001b0: 0de9 823c 9f57 b73d 7ef0 573e d8a1 f4bc
000001c0: edc1 33ba 36c8 7f3d a1cb 353e 704e 643c
000001d0: 535a 13bd 8615 363e 9f05 163b a6cd a33d
000001e0: 3d7c 2a3e fb87 553d 7827 7cbc 6dc1 973d
000001f0: f380 25bd 25b8 9abc 27cc 313e 974a 8b3d

model.3.weight f4 [64, 128]
-0.071560726 0.11484214 -0.070067234 -0.033489186 0.006472207 0.025079532 0.005587662 0.06566072
0.06297982 -0.07528687 -0.05075842 -0.08061735 0.06691791 -0.095342755 -0.031818066 -0.043020997
0.032269787 0.017187255 0.046852164 0.07961596 0.075643145 -0.0072299526 0.118412636 -0.056197975
-0.03189178 0.013887541 0.06661925 -0.039678317 -0.05051678 -0.011873106 0.037300788 0.0061299936
0.06871492 -0.079559885 0.026266 0.06694188 0.0895322 -0.047718324 -0.05247621 0.0073128836
-0.0047526564 0.041410275 0.078828864 0.017335074 -0.025970887 0.04818947 -0.04938957 -0.004105282
0.010876022 -0.0148746 0.052949432 -0.0013503383 0.03584633 0.0318795 0.0016823339 -0.038391247
0.08571694 0.049257405 -0.013494074 -0.050191257 0.009252487 0.06409475 0.048854414 -0.017237164
0.06017772 0.0036836562 0.028088296 -0.041572355 0.0054804496 -0.016386025 0.013467021 -0.0840654
0.002547286 -0.06965527 -0.06816752 -0.086657345 -0.043763027 0.014610429 0.018538097 0.020807475
0.039088517 -0.049278095 -0.0027820054 -0.075400904 -0.009467492 0.025521422 0.012663151 -0.07293377
0.071513824 0.069872804 -0.03959279 -0.07528576 0.0151049625 0.024825776 -0.019418066 -0.040604938
0.018895328 -0.03799385 -0.039132014 0.028275818 0.050307665 0.14744079 0.072662935 0.0028493197
0.018334497 0.069739826 -0.05243197 0.05742251 0.083524995 -0.024365002 0.088347465 -0.021653533
-0.04616274 0.063927665 0.059373286 -0.006368503 -0.07942497 0.26559833 0.03155307 -0.0657444
0.009774672 0.05811197 0.037322514 -0.027662115 -0.020650405 0.12546727 0.06780756 0.062727034
-0.026595157 -0.019572228 -0.07985312 -0.036386687 0.023699861 -0.09359996 -0.00307312 0.071162984
0.022100642 0.019323016 -0.043290086 -0.021377727 -0.0914773 -0.057747915 0.01091413 0.016139748
0.02596117 -0.06671785 0.008327499 -0.08497353 -0.08167869 -0.041784868 -0.08979513 0.01676102
0.013918839 0.041423153 0.009565632 0.017231055 0.015899766 0.0019082922 -0.10052958 -0.055527844
-0.08654366 -0.05124901 0.0014718443 0.08334986 -0.009035662 -0.06351451 0.00078471174 0.060830735
0.0022280514 -0.08780741 -0.0051540295 0.0046562064 0.014470786 0.08073356 0.057617407 -0.0748809
0.06720092 -0.07910511 -0.067445554 0.022951122 -0.016511098 0.056392875 0.04240891 -0.03161251
0.060748547 -0.06343317 0.016472377 0.011853664 0.026844839 0.069975145 0.026466748 -0.071527705
0.05501497 0.05391653 -0.04307178 0.063453086 0.0009997545 -0.022140332 0.009532685 0.00024704635
-0.03998564 -0.0018177573 -0.015568168 -0.07657571 -0.076747596 0.029043853 -0.06229587 0.0021617338
0.042528298 0.0576222 0.035171732 0.030545373 0.0445215 -0.07287218 0.06569339 -0.07992235
-0.07309279 -0.052378245 0.08638752 0.049477734 0.007975674 0.03761023 -0.09784338 -0.08430339
0.011196409 -0.07458831 0.028704554 -0.06273128 0.057121295 -0.10510589 0.02791543 0.02968969
-0.06289032 0.049998213 0.03149119 -0.05573284 -0.06718914 0.020642878 -0.060149014 -0.0053946706
0.023745228 0.022297587 -0.06575038 0.06653633 0.018212475 0.033757303 -0.041070703 0.023793431
-0.026420709 0.045464404 0.045321696 0.04889832 -0.02463009 0.043387074 0.049806125 -0.013859596
00000000: 6e8e 92bd 5b32 eb3d 697f 8fbd f52b 09bd
00000010: cf14 d43b 9773 cd3c b518 b73b 2179 863d
00000020: 90fb 803d 0130 9abd 10e8 4fbd b61a a5bd
00000030: 420c 893d 1043 c3bd a953 02bd c936 30bd
00000040: 532d 043d 49cc 8c3c 0ee8 3f3d b10d a33d
00000050: cbea 9a3d 3de9 ecbb 5382 f23d d92f 66bd
00000060: f5a0 02bd 9288 633c ac6f 883d bb85 22bd
00000070: afea 4ebd 6a87 42bc b6c8 183d 1dde c83b
00000080: 68ba 8c3d 4bf0 a2bd cb2b d73c d318 893d
00000090: a85c b73d 4a74 43bd 4bf1 56bd eaa0 ef3b
000000a0: 2cbc 9bbb d29d 293d 0771 a13d 4902 8e3c
000000b0: e6c0 d4bc 5262 453d b84c 4abd 9a85 86bb
000000c0: 5831 323c 98b4 73bc 81e1 583d d6fd b0ba
000000d0: 9ad3 123d 1494 023d c281 dc3a 2440 1dbd
000000e0: 5d8c af3d 22c2 493d 4016 5dbc 5995 4dbd
000000f0: be97 173c 1c44 833d 911b 483d f434 8dbc
00000100: ea7c 763d 7f69 713b 6d19 e63c c647 2abd
00000110: 5895 b33b fc3b 86bc c8a4 5c3c 7b2a acbd
00000120: 5ef0 263b 6ca7 8ebd 6a9b 8bbd 6879 b1bd
00000130: dc40 33bd 9560 6f3c 35dd 973c 7074 aa3c
00000140: 481b 203d d4d7 49bd 4e52 36bb ca6b 9abd
00000150: 8a1d 1bbc 4d12 d13c 1b79 4f3c 4d5e 95bd
00000160: d775 923d 7919 8f3d 0d2c 22bd 6c2f 9abd
00000170: ce7a 773c 6d5f cb3c a312 9fbc 5d51 26bd
00000180: 60ca 9a3c 709f 1bbd e448 20bd b0a2 e73c
00000190: 690f 4e3d b8fa 163e 4ed0 943d a7bb 3a3b
000001a0: 3a32 963c c1d3 8e3d e8c2 56bd de33 6b3d
000001b0: 270f ab3d 1d99 c7bc 84ef b43d c062 b1bc
000001c0: 2415 3dbd 82ec 823d 6731 733d e0ae d0bb
000001d0: 8fa9 a2bd 81fc 873e cb3d 013d 00a5 86bd
000001e0: f225 203c d106 6e3d 7edf 183d a99b e2bc
000001f0: 0a2b a9bc 7e7a 003e b1de 8a3d 0877 803d
00000200: 16de d9bc f055 a0bc 088a a3bd 350a 15bd
00000210: 3626 c23c 56b1 bfbd 6666 49bb e6bd 913d
00000220: 680c b53c 4d4b 9e3c f250 31bd 5820 afbc
00000230: 7358 bbbd 1489 6cbd 2ed1 323c 8137 843c
00000240: 85ac d43c 5ea3 88bd 1070 083c 9a06 aebd
00000250: 2847 a7bd 9c26 2bbd 82e6 b7bd 684e 893c
00000260: d80b 643c 53ab 293d 2bb9 1c3c 2428 8d3c
00000270: 3a40 823c a91f fa3a 74e2 cdbd 2a71 63bd
00000280: cd3d b1bd 7bea 51bd e6ea c03a 55b3 aa3d
00000290: 500a 14bc e513 82bd 1db5 4d3a a629 793d
000002a0: 8004 123b 5fd4 b3bd 22e3 a8bb 1793 983b
000002b0: e016 6d3c a357 a53d 3b00 6c3d 285b 99bd
000002c0: a3a0 893d dc01 a2bd e520 8abd fe03 bc3c
000002d0: 4842 87bc 37fc 663d f7b4 2d3d 1f7c 01bd
000002e0: 78d3 783d 40e9 81bd 14f1 863c df35 423c
000002f0: b5e9 db3c 214f 8f3d cbd0 d83c 1e7d 92bd
00000300: 6157 613d 94d7 5c3d 096c 30bd b1f3 813d
00000310: 320a 833a a45f b5bc fb2e 1c3c 0086 8139
00000320: fcc7 23bd d041 eeba a111 7fbc bad3 9cbd
00000330: d82d 9dbd 60ed ed3c f429 7fbd e0ab 0d3b
00000340: 2732 2e3d 4205 6c3d 3c10 103d 4a3a fa3c
00000350: 2d5c 363d 023e 95bd 428a 863d 54ae a3bd
00000360: acb1 95bd 928a 56bd f1eb b03d 2aa9 4a3d
00000370: 67ac 023c 2f0d 1a3d 1c62 c8bd 41a7 acbd
00000380: 2571 373c c2c1 98bd d025 eb3c 4279 80bd
00000390: 05f8 693d c241 d7bd e6ae e43c cb37 f33c
000003a0: a4cc 80bd edca 4c3d e8fc 003d 1e48 64bd
000003b0: 769a 89bd 411b a93c d05e 76bd c7c5 b0bb
000003c0: 5a85 c23c 6ea9 b63c 23a8 86bd 3344 883d
000003d0: 5432 953c 1945 0a3d c139 28bd 71ea c23c
000003e0: 3e70 d8bc e238 3a3d 3ea3 393d 9b49 483d
000003f0: 0bc5 c9bc a5b6 313d 8201 4c3d 5c13 63bc

model.3.bias f4 [64]
0.123853385 -0.057742186 0.17852058 0.006296371 -0.10173313 0.22224683 0.009171751 -0.043398913
0.00031286682 0.026390193 -0.025751859 0.23832956 0.20247652 0.28565508 0.20668785 -0.013225566
-0.09192422 -0.035671964 0.26424706 0.053288877 0.068568274 -0.02866405 0.22621836 0.11568538
0.18770133 0.19752234 0.17632994 0.26238433 0.13253403 -0.06430652 0.13387522 -0.01136787
-0.050426424 0.19976239 0.12150731 -0.05891883 0.0022455638 0.0762455 0.070062004 0.19029367
0.026316328 0.017152352 -0.019316662 0.1891558 -0.0054870774 -0.10400199 0.045754377 -0.0097478125
0.048779987 0.17972353 0.08878568 0.041822392 0.22779278 0.12330435 0.02717564 0.0065437625
-0.0846246 0.1316443 0.18174447 0.19271676 0.21099798 -0.030458838 -0.05451629 0.17106588
00000000: d8a6 fd3d 1283 6cbd 19ce 363e ca51 ce3b
00000010: 7659 d0bd ac94 633e 1d45 163c 0fc3 31bd
00000020: 4608 a439 3f30 d83c 90f5 d2bc aa0c 743e
00000030: 0156 4f3e 6241 923e fba5 533e 0bb0 58bc
00000040: c442 bcbd c41c 12bd 644b 873e 7045 5a3d
00000050: 866d 8c3d dfd0 eabc c9a5 673e 75ec ec3d
00000060: c734 403e 4c43 4a3e d68f 343e 3d57 863e
00000070: 00b7 073e 23b3 83bd 9616 093e 4d40 3abc
00000080: f08b 4ebd 838e 4c3e d3d8 f83d df54 71bd
00000090: 4f2a 133b 9a26 9c3d ab7c 8f3d 58dc 423e
000000a0: 5795 d73c 1783 8c3c fa3d 9ebc 0fb2 413e
000000b0: f1cc b3bb fffe d4bd f168 3b3d 4ab5 1fbc
000000c0: 86cd 473d 7209 383e 44d5 b53d f54d 2b3d
000000d0: 8342 693e fe86 fc3d 739f de3c 0f6d d63b
000000e0: aa4f adbd c3cd 063e 391b 3a3e 8b57 453e
000000f0: db0f 583e d084 f9bc 794c 5fbd e52b 2f3e

model.6.weight f4 [1, 64]
0.09409533 -0.04641893 0.052808285 -0.010782326 -0.043962028 0.044260405 0.08872329 -0.10138505
-0.04037233 0.08465199 -0.046297822 0.05440376 0.075534776 0.04997401 0.049311694 -0.07931355
-0.0028199658 -0.013737918 0.04571518 0.00011190941 -0.017955082 -0.06136709 0.08390207 0.04386427
0.05482404 0.076977685 0.042529985 0.084227294 0.046689175 -0.027503023 0.034124114 -0.097311094
-0.05002867 0.103228845 0.11268211 -0.076274805 -0.039455615 0.07846957 -0.10349121 0.038236465
-0.10053261 -0.041654415 -0.05657971 0.03442303 -0.021955898 -0.055304192 0.06506659 -0.040104263
-0.10833433 0.07596599 0.07983581 -0.011098844 0.03702434 0.042320203 0.001061947 -0.010898703
-0.09188696 0.060433112 0.04122017 0.07558137 0.056620635 -0.036941916 -0.047714755 0.041867
00000000: 0db5 c03d c721 3ebd 804d 583d 5aa8 30bc
00000010: 8711 34bd 664a 353d 8eb4 b53d f7a2 cfbd
00000020: 755d 25bd 065e ad3d c9a2 3dbd 7ad6 5e3d
00000030: fab1 9a3d 8cb1 4c3d 0ffb 493d 246f a2bd
00000040: 2dcf 38bb 0115 61bc d73f 3b3d e8b0 ea38
00000050: 8916 93bc 0f5c 7bbd d9d4 ab3d 05ab 333d
00000060: 2c8f 603d 7aa6 9d3d ec33 2e3d 5c7f ac3d
00000070: 263d 3f3d 054e e1bc bac5 0b3d 0a4b c7bd
00000080: ddea 4cbd a569 d33d e1c5 e63d f735 9cbd
00000090: 369c 21bd a7b4 a03d 33f3 d3bd d79d 1c3d
000000a0: 0be4 cdbd d29d 2abd 20c0 67bd 2aff 0c3d
000000b0: dbdc b3bc a686 62bd a241 853d 5e44 24bd
000000c0: 64de ddbd 0f94 9b3d f580 a33d edd7 35bc
000000d0: d6a6 173d f357 2d3d 0731 8b3a 7990 32bc
000000e0: 3b2f bcbd b688 773d 7bd6 283d 68ca 9a3d
000000f0: 0aeb 673d 6850 17bd 8c70 43bd bb7c 2b3d

exp_avg f4 [128, 131]
-1.2923246e-05 -0.0006779053 0.0004579393 0.00033732597 2.7019828e-06 -1.9702027e-06 -3.3118522e-07 -5.652371e-07
-3.882955e-05 0.00024402687 2.8920022e-06 -1.3864812e-05 7.096481e-06 -1.9602949e-06 -0.0005352385 -0.000119175354
-0.0015310447 -2.5168213e-06 1.5241212e-05 -1.3864812e-05 0.00023769276 0.0002305873 -1.3255407e-06 -2.05535e-05
-6.4578426e-06 -1.058157e-05 0.00084268954 1.3870643e-06 1.6865768e-05 -0.00021403888 -6.597765e-05 0.000737608
2.718171e-05 0.0074380715 0.00070376636 -0.0013497509 0.00041094678 9.789061e-06 0.011318371 -0.0007495792
0.0014604535 -0.013273404 0.001675646 0.000782495 0.0035393077 -0.0008555763 0.00045234186 0.00092841755
0.009760142 0.004848769 -0.001136223 -0.0029382964 0.0008927286 0.00013013926 0.006075561 0.003032348
-0.008956135 0.009196446 -0.00088453793 0.0006980535 0.0004127201 0.00052481407 0.0015043404 0.00010234065
-0.0016655202 0.00079856114 -2.900373e-05 0.00085476076 0.00014689568 0.0011351675 -0.0004213926 4.816043e-05
0.00031001624 -0.00022661359 0.0007947294 -6.841375e-05 0.00021407669 0.009126831 -3.3937136e-05 0.0003624922
-0.00044849867 -3.224761e-05 0.000617085 -6.7174155e-10 -1.2579897e-10 0.003978314 0.0005904068 1.469959e-06
-9.705637e-06 0.0004910113 -0.0014648342 -0.002234146 0.00018898347 0.000364857 -0.0005229516 0.0011819137
0.00022555636 0.00069359574 -0.01393476 -0.00068845047 0.0005241409 -0.0008489472 0.0003260401 0.002233615
-0.0015100046 0.002969312 0.0 0.0004890245 0.0013951529 -0.00025922753 -0.0005884544 0.0
-1.3250264e-26 0.00033589522 0.004888215 0.0022086788 0.0 0.0041601323 0.0032726582 0.003572225
0.0005251833 0.013472687 -0.010137305 0.6984628 0.72788525 1.2280807 0.8462664 1.1536521
0.39174932 0.35274643 8.4750185 0.0011958947 -0.029803567 0.041160896 -0.19721135 0.0022755864
0.0702025 1.5015253e-05 0.0003632761 0.010013973 -0.004449846 0.016091509 9.99966e-05 -0.016952766
-0.019449983 -1.2699938e-05 0.0052958988 -0.0031898236 -0.004694438 -0.02706104 -0.005617348 0.0033752725
0.010840277 -0.0027156905 0.0036359925 -0.01645291 0.0040096017 0.00033371465 -0.0014987296 -0.005312246
-0.0046842494 -0.018397488 0.019905284 -0.001145518 0.02214104 -0.0011431172 0.021585643 0.002502825
-0.0069263233 0.048554808 0.022004567 -0.018955097 0.04907416 0.0931921 -0.076274075 -0.000106792206
0.011268882 -0.029394547 0.017262697 0.01619021 -0.05253974 -0.0049196533 -0.008980453 0.020422848
0.018985787 0.07644074 0.010555776 -0.15190561 0.061283648 0.012489247 0.00037418757 -0.02724002
0.020809244 -0.00763478 -0.009521749 0.00791797 0.019760832 -0.0035391517 0.003183389 -0.01590107
0.0062695984 -0.010117014 -0.014953032 0.0033827333 0.0073874607 -0.014634858 0.019795494 0.006454028
-0.008967482 0.014410248 -0.006849891 -0.016541583 0.016254215 -0.011385836 -0.02533035 -0.013908787
-0.01716709 0.035766322 -0.015401793 -0.004064588 0.002252923 -0.0015449714 0.00020136144 -0.03487845
-0.020127172 0.01246183 0.020368781 0.0047252807 0.01315083 0.0022060282 -0.023697246 0.068934724
0.010477714 -0.0134791555 -0.013873727 0.04483961 0.04775095 0.0 -0.09856512 0.050461132
-0.004023159 0.008064647 -0.0854158 0.100808784 -0.0059778914 0.017387636 7.300066e-23 0.0
0.1068689 -0.080066204 -0.05437629 -0.00086297095 -0.041269187 0.12331115 12.286863 10.93631
00000000: ebd0 58b7 74b5 31ba 9317 f039 20db b039
00000010: b653 3536 d337 04b6 c0cd b1b4 ccba 17b5
00000020: e9dc 22b8 77e1 7f39 3814 4236 ea9c 68b7
00000030: 4f1e ee36 9c8d 03b6 3f4f 0cba c8ed f9b8
00000040: 56ad c8ba a9e6 28b6 82b4 7f37 ea9c 68b7
00000050: 2a3d 7939 cfc9 7139 3be9 b1b5 4e6a acb7
00000060: 72b0 d8b6 7f87 31b7 f0e7 5c3a 2b2b ba35
00000070: f67a 8d37 a06f 60b9 7b5d 8ab8 095c 413a
00000080: 4704 e437 11bb f33b f67c 383a 20ea b0ba
00000090: 5874 d739 b23b 2437 b070 393c 697f 44ba
000000a0: b06c bf3a b178 59bc 5aa1 db3a 5a20 4d3a
000000b0: bbf3 673b c148 60ba 4c28 ed39 0c61 733a
000000c0: 01e9 1f3c 6ce2 9e3b 51ed 94ba 6f90 40bb
000000d0: 0106 6a3a fe75 0839 8015 c73b 5bba 463b
000000e0: c1bc 12bc b1ac 163c 56e0 67ba 94fd 363a
000000f0: 5b62 d839 ad93 093a 4a2d c53a b89f d638
00000100: 964d daba 8856 513a 094d f3b7 0612 603a
00000110: 0208 1a39 e7c9 943a 5bee dcb9 deff 4938
00000120: ad89 a239 1f9f 6db9 6355 503a 5a79 8fb8
00000130: c679 6039 b488 153c b957 0eb8 e10c be39
00000140: 7924 ebb9 9c41 07b8 e0c3 213a 9ca5 38b0
00000150: 4351 0aaf 845c 823b 88c5 1a3a 684b c535
00000160: 65d5 22b7 36b7 003a aeff bfba c06a 12bb
00000170: dd29 4639 474a bf39 b016 09ba 71ea 9a3a
00000180: 5383 6c39 6cd2 353a 9f4e 64bc 2179 34ba
00000190: 8066 093a e28b 5eba 5df0 aa39 d761 123b
000001a0: 59eb c5ba ca98 423b 0000 0000 e131 003a
000001b0: 90dd b63a eee8 87b9 8242 1aba 0000 0000
000001c0: 6939 8394 181b b039 522d a03b 7bbf 103b
000001d0: 0000 0000 b851 883b 187a 563b fe1b 6a3b
000001e0: 74ac 093a 8cbc 5c3c f016 26bc 75ce 323f
000001f0: b056 3a3f c031 9d3f eaa4 583f dfaa 933f
00000200: 5e93 c83e 2e9b b43e ad99 0741 91bf 9c3a
00000210: 9c26 f4bc 5498 283d c6f1 49be 0122 153b
00000220: 54c6 8f3d 05ea 7b37 1876 be39 a611 243c
00000230: 04d0 91bb 57d2 833c 44b5 d138 87e0 8abc
00000240: 9255 9fbc d211 55b7 3889 ad3b 5c0c 51bb
00000250: cdd3 99bb 1daf ddbc bb11 b8bb ad33 5d3b
00000260: 6b9b 313c baf9 31bb d549 6e3b 41c8 86bc
00000270: fa62 833b 6cf6 ae39 0571 c4ba 5912 aebb
00000280: 557e 99bb 54b6 96bc 6810 a33c 3525 96ba
00000290: 2061 b53c a6d4 95ba 60d4 b03c 7006 243b
000002a0: 36f6 e2bb 68e1 463d ec42 b43c b847 9bbc
000002b0: fd01 493d 80db be3d 9535 9cbd a1f5 dfb8
000002c0: 1ea1 383c d5cc f0bc 806a 8d3c 55a1 843c
000002d0: e933 57bd 0b35 a1bb c022 13bc d14d a73c
000002e0: 1588 9b3c f68c 9c3d 22f2 2c3c 258d 1bbe
000002f0: 9004 7b3d b39f 4c3c 9b2e c439 7626 dfbc
00000300: 2678 aa3c 2d2d fabb 1c01 1cbc 60ba 013c
00000310: 78e1 a13c 1df1 67bb 68a0 503b f642 82bc
00000320: 3471 cd3b d5c1 25bc 90fd 74bc d9b0 5d3b
00000330: 8312 f23b 0bc7 6fbc 292a a23c 507c d33b
00000340: 58ec 12bc f618 6c3c 0d75 e0bb 3782 87bc
00000350: 8f27 853c a88b 3abc 9881 cfbc aee1 63bc
00000360: ffa1 8cbc b57f 123d cd57 7cbc 3c30 85bb
00000370: c7a5 133b a380 caba 8d24 5339 b5dc 0ebd
00000380: bde1 a4bc b42c 4c3c 6edc a63c 87d6 9a3b
00000390: 9476 573c 0393 103b ba20 c2bc a62d 8d3d
000003a0: b8aa 2b3c add7 5cbc a14e 63bc bda9 373d
000003b0: 8096 433d 0000 0000 82dc c9bd 55b0 4e3d
000003c0: b4d4 83bb 9521 043c 7bee aebd d674 ce3d
000003d0: 30e2 c3bb 8470 8e3c 3881 b01a 0000 0000
000003e0: 15de da3d c0f9 a3bd acb9 5ebd 0039 62ba
000003f0: e109 29bd 8e8a fc3d fe96 4441 20fb 2e41

exp_avg_sq f4 [128, 131]
3.0733042e-06 0.00032208866 0.0003883273 0.003204128 4.0409144e-05 0.00027277737 3.4943787e-06 1.5799009e-05
1.1775876e-05 1.3698093e-05 5.270714e-06 8.1396865e-06 2.1427868e-05 3.072626e-05 2.957354e-05 8.510094e-06
1.0827027e-05 1.1930564e-05 2.4027624e-05 4.531862e-06 2.8801521e-06 1.2505178e-05 1.1797327e-05 1.5690752e-05
1.1219494e-05 9.308381e-06 2.045219e-05 7.718671e-06 6.5710865e-06 7.595507e-06 8.263706e-05 7.1293925e-06
9.492607e-06 0.013601802 7.0110524e-05 0.00048210679 0.00015925632 1.6282267e-05 0.03542065 0.00028339803
0.0004376766 0.00052834157 0.00094894366 0.000507807 0.0007216113 0.00045548574 0.00036624956 0.00032780072
0.0005510145 0.0008450977 0.00052767183 0.0009165212 0.0006187647 0.0011210529 0.0009434248 0.00087530277
0.0026593797 0.0014265659 8.2024606e-05 0.00013077886 6.852717e-05 9.0883914e-05 0.00022725707 9.6129734e-05
7.316203e-05 0.00013443445 7.1489434e-05 9.341908e-05 0.00011165953 7.350884e-05 7.1699375e-05 4.9728103e-05
6.823135e-05 7.675993e-05 7.814967e-05 6.36535e-05 5.3725475e-05 9.3954266e-05 0.00011541162 4.7037527e-05
5.2693063e-05 0.0002629031 0.0002839665 0.00014436789 0.00013104478 0.00019003024 7.474683e-05 0.0001409646
0.00013464996 9.097084e-05 9.985596e-05 4.506431e-05 9.128485e-05 9.091502e-05 9.032805e-05 0.00010896113
5.1466912e-05 0.00010876886 0.00011587481 7.126084e-05 0.00019091276 0.00013195962 6.656065e-05 0.00012577156
0.000119092634 0.00048249797 0.0 0.00010086495 0.00018485209 9.38898e-05 7.027079e-05 0.0
0.0012231166 0.0025956514 0.0038387356 0.0007294368 0.0 0.006387438 0.0073594977 0.0018547844
0.0013340318 0.002401581 0.0021660712 149.81656 135.57698 141.07788 145.17867 144.9604
155.14351 154.72023 15868.278 0.0017890718 0.021354906 0.037009634 0.13696611 0.0005902768
0.025692657 0.00047759732 0.00022169972 0.0007081155 0.001438709 0.0005129618 0.00037376213 0.004520174
0.0011633238 0.00053845556 0.00029795733 0.00029363722 0.0002867818 0.0039759222 0.00025464554 0.00072720466
0.00011394513 0.00041852586 0.001524913 0.0008900186 0.0015134772 0.0012128645 0.0005219525 0.00046109024
0.00048850477 0.005473166 0.0012970527 0.00039994536 0.5490212 0.009099583 0.038274147 0.008008483
0.0013430888 1.3226709 0.00900073 0.02153622 0.0335545 0.078732245 0.02988466 0.02688496
0.021633586 0.023757888 0.022125168 0.037954718 0.04503501 0.034292024 0.056417417 0.035791848
0.03894627 0.052885253 0.059822775 0.11093856 0.077233866 0.0029389842 0.004288307 0.005416162
0.008403788 0.005998262 0.0054356884 0.0060959253 0.0042689014 0.002552305 0.003799924 0.00832347
0.0033396475 0.003305576 0.003842967 0.006854933 0.0042740554 0.0043244604 0.004783547 0.006558261
0.010129906 0.008183764 0.006142204 0.0021200909 0.008167256 0.00691199 0.011523183 0.013313573
0.006636857 0.014611216 0.007448491 0.009007455 0.0048921215 0.0038026487 0.0010841748 0.004540571
0.0053527313 0.004971569 0.004863049 0.003880498 0.003549864 0.0040783896 0.015930135 0.013328106
0.0059814667 0.0025769835 0.005832594 0.02873183 0.032710973 0.0 0.0054333094 0.0174307
0.0058495295 0.0037756343 0.14187367 0.16843176 0.07817814 0.023876105 0.00010135316 0.0
0.23583855 0.3126382 0.06330941 0.07612176 0.1207461 0.13854484 8497.577 7755.917
00000000: f73e 4e36 02de a839 6898 cb39 59fc 513b
00000010: fd7c 2938 8f03 8f39 f880 6a36 1d88 8437
00000020: 0191 4537 ddd0 6537 17db b036 b08f 0837
00000030: ffbf b337 12e0 0038 b214 f837 93c6 0e37
00000040: baa5 3537 6229 4837 ee8e c937 6610 9836
00000050: a348 4136 55cd 5137 22ed 4537 a29f 8337
00000060: 5c3b 3c37 312b 1c37 be90 ab37 717f 0137
00000070: 347d dc36 e9dc fe36 6f4d ad38 0439 ef36
00000080: 7042 1f37 18da 5e3c 4d08 9338 47c3 fc39
00000090: 0bfe 2639 e795 8837 3e15 113d 0a95 9439
000000a0: f577 e539 6780 0a3a 88c2 783a 5a1e 053a
000000b0: 842a 3d3a 43ce ee39 2f05 c039 abdc ab39
000000c0: f571 103a 8c89 5d3a 7553 0a3a b242 703a
000000d0: 9934 223a 4bf0 923a 2b50 773a 9374 653a
000000e0: fd48 2e3b 9cfb ba3a a004 ac38 af21 0939
000000f0: 3fb6 8f38 ee98 be38 db4b 6e39 4299 c938
00000100: 916e 9938 f9f6 0c39 99ec 9538 fde9 c338
00000110: c12a ea38 c228 9a38 4f5d 9638 2593 5038
00000120: 6d17 8f38 2cfa a038 49e4 a338 b67d 8538
00000130: 4a57 6138 5009 c538 2409 f238 294a 4538
00000140: bf02 5d38 42d6 8939 57e1 9439 7661 1739
00000150: 1169 0939 db42 4739 66c1 9c38 e6cf 1339
00000160: d330 0d39 99c7 be38 c369 d138 6f03 3d38
00000170: 2e70 bf38 a1a9 be38 816e bd38 1082 e438
00000180: 2dde 5738 d61a e438 d101 f338 df71 9538
00000190: c12f 4839 a45e 0a39 7a96 8b38 8ce1 0339
000001a0: 5fc1 f938 c8f7 fc39 0000 0000 7587 d338
000001b0: dbd4 4139 b4e6 c438 585e 9338 0000 0000
000001c0: fc50 a03a ce1b 2a3b 4c93 7b3b ad37 3f3a
000001d0: 0000 0000 b74d d13b f127 f13b 3d1c f33a
000001e0: aeda ae3a d863 1d3b a5f4 0d3b 0ad1 1543
000001f0: b593 0743 f013 0d43 bd2d 1143 ddf5 1043
00000200: bd24 1b43 61b8 1a43 1df1 7746 4a7f ea3a
00000210: 7cf0 ae3c 6a97 173d d840 0c3e cebc 1a3a
00000220: 6879 d23c 0766 fa39 1178 6839 d4a0 393a
00000230: 1093 bc3a 4978 063a 81f5 c339 f81d 943b
00000240: ab7a 983a 2427 0d3a 2837 9c39 52f3 9939
00000250: 345b 9639 7448 823b f281 8539 e1a1 3e3a
00000260: d3f5 ee38 976d db39 97df c73a 2350 693a
00000270: de5f c63a fbf8 9e3a a4d3 083a 7cbe f139
00000280: 000f 003a 3e58 b33b de01 aa3a c2af d139
00000290: a78c 0c3f 6b16 153c 5ac5 1c3d 0336 033c
000002a0: 950a b03a 484d a93f cc77 133c ba6c b03c
000002b0: 7270 093d 5f3e a13d add0 f43c d93d dc3c
000002c0: eb38 b13c e79f c23c d73f b53c 6876 1b3d
000002d0: a176 383d cb75 0c3d f315 673d 799a 123d
000002e0: 2086 1f3d 359e 583d ba08 753d c133 e33d
000002f0: ca2c 9e3d f99b 403b ed84 8c3b 0f7a b13b
00000300: 0bb0 093c 128d c43b dc1d b23b 54c0 c73b
00000310: 24e2 8b3b 9344 273b 2508 793b 2a5f 083c
00000320: fddd 5a3b 5da2 583b 4ada 7b3b 599f e03b
00000330: 600d 8c3b 34b4 8d3b 4dbf 9c3b aee6 d63b
00000340: e8f7 253c 3215 063c 8b44 c93b 39f1 0a3b
00000350: f4cf 053c fa7d e23b bccb 3c3c 2c21 5a3c
00000360: fe79 d93b e263 6f3c 7912 f43b 0194 133c
00000370: 174e a03b dc35 793b df1a 8e3a 12c9 943b
00000380: f765 af3b 8be8 a23b 365a 9f3b f44f 7e3b
00000390: d6a4 683b 03a4 853b ea7f 823c 215e 5a3c
000003a0: 2e00 c43b 9ce2 283b 581f bf3b 045f eb3c
000003b0: f1fb 053d 0000 0000 e709 b23b d4ca 8e3c
000003c0: 69ad bf3b a270 773b 5547 113e 6079 2c3e
000003d0: dc1b a03d d297 c33c 908d d438 0000 0000
000003e0: a97f 713e 1d12 a03e 5da8 813d bae5 9b3d
000003f0: bb49 f73d b3de 0d3e 4fc6 0446 565f f245

exp_avg f4 [128]
0.0074327914 0.026802734 -0.07372725 -0.0444311 0.13173294 -0.24492557 0.003533417 0.00077430066
-0.032469857 -0.05106087 0.04039055 0.056627274 0.0096316 -0.012621015 1.074189e-37 1.0668943e-37
0.02407971 -0.026136953 0.05958978 -0.051277176 -0.031056471 -0.114396706 -0.14947191 0.0
0.0 0.024280205 -0.17946449 0.0 0.045122202 -0.11109969 -0.0486233 0.0023248885
-0.07347306 0.0 -0.030857924 0.0 -0.13410084 0.090149716 -0.061479352 1.1259439e-37
-0.011897484 0.008919204 -0.10815351 -0.18006894 0.0 0.0 -0.11738955 -0.14550681
0.0 0.0 -0.06199163 -0.009623471 0.04753857 0.09825015 1.1754326e-37 -0.0019511101
0.013914645 0.0 0.0 -0.016970601 -0.10806669 -0.05820567 -0.021217588 -0.027247846
0.010813281 1.1634173e-37 -0.15527067 0.0 -0.022160336 0.008289139 -0.046850737 0.0
0.011502642 -0.037912782 0.023167666 -0.038195327 -0.012994163 1.1627746e-37 -0.105270505 0.0
-0.50647044 1.147405e-37 1.6524682e-20 -0.011589915 -0.08221353 0.014527211 0.0004585348 0.00868397
-0.038569983 0.0067457184 0.0 0.0 -0.1304608 0.01498801 0.04865596 0.0
-0.11028248 -0.07666961 0.0015831606 0.0 -0.23052153 -0.484605 -0.008629452 0.010038711
-0.030625125 -0.024879292 -0.0024469662 0.018124644 -0.08161723 0.112697214 -0.09978001 -0.0023430688
-0.05172892 -0.07055023 -0.13616721 0.0 1.0639178e-37 0.52171755 1.0746936e-37 -0.059747614
-0.060426794 0.016063701 0.0 0.0027058355 0.031787127 0.05332731 -0.046154007 -0.032070987
00000000: c68e f33b 6891 db3c 50fe 96bd 63fd 35bd
00000010: 00e5 063e c5cd 7abe e690 673b 70fa 4a3a
00000020: 1dff 04bd 3425 51bd 9070 253d 00f2 673d
00000030: dccd 1d3c 60c8 4ebc 0636 1202 d737 1102
00000040: d042 c53c 2a1d d6bc 6a14 743d 0408 52bd
00000050: 246a febc d248 eabd 2a0f 19be 0000 0000
00000060: 0000 0000 48e7 c63c 8ac5 37be 0000 0000
00000070: 0fd2 383d 3c88 e3bd 3a29 47bd 285d 183b
00000080: 0b79 96bd 0000 0000 c2c9 fcbc 0000 0000
00000090: bb51 09be 6aa0 b83d c6d1 7bbd 6b41 1902
000000a0: aaed 42bc da21 123c 967f ddbd fe63 38be
000000b0: 0000 0000 0000 0000 ef69 f0bd bdff 14be
000000c0: 0000 0000 0000 0000 efea 7dbd c3ab 1dbc
000000d0: ceb7 423d 6037 c93d d9fd 1f02 64bc ffba
000000e0: 40fa 633c 0000 0000 0000 0000 ee05 8bbc
000000f0: 1252 ddbd 1269 6ebd 82d0 adbc e036 dfbc
00000100: 302a 313c 2d5b 1e02 46ff 1ebe 0000 0000
00000110: 9889 b5bc 2bcf 073c 8fe6 3fbd 0000 0000
00000120: 9475 3c3c 6f4a 1bbd 1eca bd3c b472 1cbd
00000130: 78e5 54bc c844 1e02 1098 d7bd 0000 0000
00000140: 0ca8 01bf 3b2d 1c02 3b12 9c1e a0e3 3dbc
00000150: 915f a8bd 8a03 6e3c 8067 f039 3647 0e3c
00000160: 8ffb 1dbd 300b dd3b 0000 0000 0000 0000
00000170: 8497 05be 4590 753c 794b 473d 0000 0000
00000180: c8db e1bd f504 9dbd 0e82 cf3a 0000 0000
00000190: d60d 6cbe 261e f8be 8c62 0dbc 6879 243c
000001a0: 8be1 fabc a8cf cbbc 485d 20bb 227a 943c
000001b0: ef26 a7bd cccd e63d 7659 ccbd 2c8e 19bb
000001c0: b4e1 53bd a47c 90bd 6b6f 0bbe 0000 0000
000001d0: 20d0 1002 488f 053f 9b47 1202 eab9 74bd
000001e0: 1682 77bd 0698 833c 0000 0000 6354 313b
000001f0: 3833 023d bd6d 5a3d fc0b 3dbd de5c 03bd

exp_avg_sq f4 [128]
0.013628051 0.5515718 0.08686443 0.09687543 0.33437365 0.088540405 0.009289074 0.025992159
0.16160382 0.19976863 1.4306456 0.21182464 0.054763786 0.007908884 2.0445048e-05 0.00032305738
0.89474297 0.1668639 0.09274408 1.1243438 0.07041046 0.03511957 3.047846 0.0
0.0 0.3479506 0.9066583 0.0 0.09445543 0.8944029 0.22845265 0.048146885
0.07830206 0.0 0.10463023 0.0 0.6915905 0.78301495 0.44495088 2.4336978e-06
0.05792403 0.17592165 0.24001765 0.9119481 0.0 0.0 0.37182796 0.56626266
0.0 0.0 0.16498505 0.06209184 0.9730415 0.5774201 0.0001795261 0.012090657
1.0319543 0.0 0.0 0.0770359 1.093689 0.053718038 0.038972992 0.721988
0.24663997 2.1850963e-06 1.6560498 0.0 0.02919455 0.007205367 0.26970842 0.0
0.016208395 0.03395045 0.04683987 0.14295259 0.028163029 6.1215633e-09 0.623618 0.0
2.312188 9.890693e-06 0.00012559244 0.10853022 0.19700447 0.3812239 0.05104483 0.03934318
0.11189853 0.123632155 0.0 0.0 0.29839376 0.008173966 0.043599293 0.0
0.22533205 0.17670026 0.05868002 0.0 1.7103014 2.61335 0.061035074 0.023519002
0.05872563 0.4265839 0.04976442 0.015206155 0.62977815 0.42909372 0.89658356 0.010482155
0.39002946 0.15110384 0.5561296 0.0 5.8992864e-05 1.5054898 3.070948e-07 0.12325213
0.1472779 0.07826626 0.0 0.16692306 0.11634406 0.07048289 0.22174764 1.0379107
00000000: 3048 5f3c cf33 0d3f fae5 b13d a066 c63d
00000010: 0633 ab3e ac54 b53d 3331 183c 82ed d43c
00000020: 797b 253e 2690 4c3e 651f b73f 8fe8 583e
00000030: fe4f 603d 4494 013c 6881 ab37 0760 a939
00000040: e00d 653f 5fde 2a3e 9cf0 bd3d 7fea 8f3f
00000050: 5c33 903d 8ad9 0f3d e90f 4340 0000 0000
00000060: 0000 0000 9526 b23e c21a 683f 0000 0000
00000070: d971 c13d 97f7 643f 7eef 693e ab35 453d
00000080: d55c a03d 0000 0000 6048 d63d 0000 0000
00000090: 130c 313f ab73 483f 9ad0 e33e 9c52 2336
000000a0: bf41 6d3d ce24 343e 30c7 753e 6e75 693f
000000b0: 0000 0000 0000 0000 3c60 be3e 97f6 103f
000000c0: 0000 0000 0000 0000 d7f1 283e 0354 7e3d
000000d0: 3f19 793f ced1 133f 2c3f 3c39 e417 463c
000000e0: 1417 843f 0000 0000 0000 0000 ffc4 9d3d
000000f0: 00fe 8b3f 7207 5c3d 25a2 1f3d 35d4 383f
00000100: 308f 7c3e aba3 1236 71f9 d33f 0000 0000
00000110: 6929 ef3c 001b ec3b 3917 8a3e 0000 0000
00000120: 78c7 843c a10f 0b3d 2adb 3f3d 2a62 123e
00000130: 27b6 e63c d755 d231 6ea5 1f3f 0000 0000
00000140: e3fa 1340 34f0 2537 77b1 0339 1845 de3d
00000150: 8abb 493e c72f c33e 6214 513d 5026 213d
00000160: 0e2b e53d db32 fd3d 0000 0000 0000 0000
00000170: 11c7 983e 19ec 053c 2c95 323d 0000 0000
00000180: 72bd 663e eaf0 343e 765a 703d 0000 0000
00000190: 28eb da3f 2041 2740 eaff 793d ecaa c03c
000001a0: 498a 703d 3469 da3e c7d5 4b3d 3d23 793c
000001b0: 2439 213f 2cb2 db3e 8086 653f 58bd 2b3c
000001c0: f1b1 c73e f7ba 1a3e 825e 0e3f 0000 0000
000001d0: 1b6f 7738 e4b3 c03f cade a434 9d6b fc3d
000001e0: 05d0 163e 104a a03d 0000 0000 e1ed 2a3e
000001f0: cb45 ee3d 5559 903d d011 633e 42da 843f

exp_avg f4 [64, 128]
-3.0678189 0.49214196 -5.2593737 -6.2689333 2.2986073 -4.0319076 0.0828485 0.1304828
2.444139 1.1790004 0.03307546 -1.8911104 7.2124853 0.053705726 -1.0744767e-37 -1.1019888e-37
1.5107664 -4.1048326 12.137352 2.031825 -4.4600153 -0.27748138 0.300251 0.0
0.0 1.4387975 2.6285412 0.0 0.8668704 -1.5107079 3.793803 3.6140141
-4.983788 0.0 -8.848152 0.0 0.15714145 2.033122 0.6311439 -1.0887337e-37
-6.137907 3.5160146 0.22700214 0.9451461 0.0 0.0 -1.387313 -1.4492259
0.0 0.0 -1.942359 -0.11357628 2.6218214 4.7162333 -1.0691429e-37 0.22449192
3.551424 0.0 0.0 -4.7392263 -1.0424302 -6.916363 0.7141621 4.0880413
3.2740653 -1.1281305e-37 0.29172838 0.0 -2.6921916 -3.1134183 0.6652007 0.0
-0.01473327 -0.019136906 -1.6195571 -0.57395506 0.14034408 1.1220363e-37 -0.8809483 0.0
0.027043104 -1.1624191e-37 -2.4379583e-20 -0.6725626 -3.4441462 2.0061488 -2.568222 -5.121312
-7.61872 0.29702806 0.0 0.0 -0.98921824 -0.21845092 0.25513738 0.0
-0.29701853 -1.0843226 -2.0741293 0.0 -1.8319511 -0.8657193 4.3883157 -0.8581891
-8.34081 1.6426811 -1.6097795 0.7057433 0.57706976 0.850773 -0.4053135 -0.05387366
3.5224009 -0.37838554 1.2768335 0.0 -1.1663208e-37 -0.06280458 -1.0872827e-37 -4.008699
-2.6438713 3.8934171 0.0 -5.2112255 0.49334002 -0.20162387 0.101341724 -1.6462467
0.005776712 4.1973335e-20 2.1565912e-18 0.007165337 0.0040085753 4.2207944e-15 -1.152099e-37 0.0015541503
0.028434701 0.007412453 0.00037872093 0.0052560274 0.011939142 1.1498842e-37 1.1640416e-37 1.1701806e-37
9.877466e-05 0.027547685 0.011271322 0.00053813047 9.016673e-23 1.173644e-37 3.009263e-05 0.0
0.0 0.00646294 0.002102506 0.0 0.015543391 0.005143343 6.3198354e-23 0.025740566
0.0093067875 0.0 0.04278745 0.0 0.0062958947 0.002365403 0.011901911 0.0
0.043252997 1.8399863e-23 0.0035944325 0.0011156562 0.0 0.0 0.0025264167 0.006389074
0.0 0.0 0.018099042 1.1404654e-37 3.016823e-05 0.013628378 1.0988103e-37 0.004320359
0.00076999475 0.0 0.0 0.027437573 0.002624126 0.03163358 0.054257363 0.00060522516
0.013761501 1.1033165e-37 1.9283167e-05 0.0 0.010475401 0.012927221 0.032587767 0.0
0.0020944073 0.013526077 0.024155384 0.011503261 0.0021087206 0.0 3.09315e-05 0.0
8.014961e-07 1.1011811e-37 1.0710777e-37 0.008670324 0.019518247 0.006970274 0.04083678 0.016420484
0.043049134 0.00012501414 0.0 0.0 0.006655538 0.0011158409 0.0020043394 0.0
0.015366235 3.5081295e-05 0.0087250285 0.0 3.4190092e-05 0.00041012396 0.024191432 0.040038746
0.00019921684 -3.6772314e-21 0.0018693095 0.0030693049 0.0006979688 0.0019753706 0.0035810503 1.1617496e-37
0.021451289 0.015455333 0.0031125753 0.0 1.0817112e-37 9.445709e-21 0.0 0.0066527165
0.008193291 0.008815895 0.0 0.028653963 0.00011629527 1.2052445e-20 0.004016962 0.0027626778
00000000: 2557 44c0 08fa fb3e ca4c a8c0 1a9b c8c0
00000010: 621c 1340 6305 81c0 79ac a93d 489d 053e
00000020: c66c 1c40 7ce9 963f 227a 073d e80f f2bf
00000030: aecc e640 89fa 5b3d 0c40 1282 b5fe 1582
00000040: cb60 c13f ca5a 83c0 9832 4241 6c09 0240
00000050: 72b8 8ec0 0a12 8ebe 80ba 993e 0000 0000
00000060: 0000 0000 842a b83f 053a 2840 0000 0000
00000070: 38eb 5d3f e05e c1bf abcd 7240 024c 6740
00000080: 317b 9fc0 0000 0000 0892 0dc1 0000 0000
00000090: b0e9 203e ac1e 0240 a692 213f d530 1482
000000a0: bc69 c4c0 6206 6140 4073 683e 18f5 713f
000000b0: 0000 0000 0000 0000 7993 b1bf 3c80 b9bf
000000c0: 0000 0000 0000 0000 389f f8bf ae9a e8bd
000000d0: eccb 2740 62eb 9640 3186 1182 36e1 653e
000000e0: 884a 6340 0000 0000 0000 0000 bea7 97c0
000000f0: 5a6e 85bf d852 ddc0 54d3 363f 3cd1 8240
00000100: 498a 5140 9c8d 1982 6c5d 953e 0000 0000
00000110: de4c 2cc0 3f42 47c0 984a 2a3f 0000 0000
00000120: d063 71bc 00c5 9cbc a64d cfbf b8ee 12bf
00000130: 5cb6 0f3e 42b9 1802 d485 61bf 0000 0000
00000140: 8089 dd3c 6538 1e82 3742 e69e 102d 2cbf
00000150: e46c 5cc0 be64 0040 c05d 24c0 cae1 a3c0
00000160: 8ecc f3c0 1014 983e 0000 0000 0000 0000
00000170: 683d 7dbf 99b1 5fbe 5ea1 823e 0000 0000
00000180: d012 98be 15cb 8abf 89be 04c0 0000 0000
00000190: 607d eabf c89f 5dbf 156d 8c40 48b2 5bbf
000001a0: f573 05c1 6043 d23f 410d cebf 98ab 343f
000001b0: d8ba 133f 42cc 593f 4085 cfbe a0aa 5cbd
000001c0: 046f 6140 c0bb c1be 486f a33f 0000 0000
000001d0: 59c0 1e82 b09f 80bd 46fe 1382 4347 80c0
000001e0: 3035 29c0 bf2d 7940 0000 0000 5cc2 a6c0
000001f0: 1097 fc3e 7d76 4ebe 408c cf3d 36b8 d2bf
00000200: 934a bd3b a636 461f db20 1f22 34cb ea3b
00000210: 5e5a 833b f511 9827 cad0 1c82 a1b4 cb3a
00000220: e4ef e83c 2ae4 f23b 108f c639 c13a ac3b
00000230: 649c 433c 9e83 1c02 ee70 1e02 d846 1f02
00000240: 3e25 cf38 afab e13c 5aab 383c 5311 0d3a
00000250: 8102 da1a 86bf 1f02 6e6f fc37 0000 0000
00000260: 0000 0000 12c7 d33b 33ca 093b 0000 0000
00000270: b5a9 7e3c 7d89 a83b e3cd 981a e1dd d23c
00000280: 7f7b 183c 0000 0000 e541 2f3d 0000 0000
00000290: cb4d ce3b e104 1b3b 3c00 433c 0000 0000
000002a0: 0e2a 313d dbf3 b119 9290 6b3b 363b 923a
000002b0: 0000 0000 0000 0000 3d92 253b 705b d13b
000002c0: 0000 0000 0000 0000 7144 943c 6b3b 1b02
000002d0: c811 fd37 8f49 5f3c f38f 1502 cc91 8d3b
000002e0: 79d9 493a 0000 0000 0000 0000 c3c4 e03c
000002f0: 87f9 2b3b 3692 013d f83c 5e3d f9a7 1e3a
00000300: eb77 613c f82c 1602 49c2 a137 0000 0000
00000310: 04a1 2b3c b2cc 533c c07a 053d 0000 0000
00000320: 5342 093b 7b9c 5d3c 83e1 c53c 2c78 3c3c
00000330: 7632 0a3b 0000 0000 72bc 0138 0000 0000
00000340: 6526 5735 90e2 1502 9cc9 1102 fa0d 0e3c
00000350: bbe4 9f3c e566 e43b 7844 273d 4084 863c
00000360: 4a54 303d 3a16 0339 0000 0000 0000 0000
00000370: b316 da3b 6841 923a 3c5b 033b 0000 0000
00000380: a9c2 7b3c 4124 1338 6cf3 0e3c 0000 0000
00000390: 5567 0f38 e805 d739 1c2d c63c abff 233d
000003a0: dde4 5039 00ec 8a9d 9e03 f53a 6426 493b
000003b0: e5f7 363a 3875 013b 0eb0 6a3b 1121 1e02
000003c0: 9dba af3c 5d38 7d3c 59fc 4b3b 0000 0000
000003d0: 223c 1302 a56c 321e 0000 0000 08ff d93b
000003e0: 273d 063c 8b70 103c 0000 0000 b7bb ea3c
000003f0: 8ce3 f338 0caa 631e b8a0 833b 0b0e 353b

exp_avg_sq f4 [64, 128]
1925.9459 114.41341 5899.658 6474.491 1362.8842 77.00044 8.947047 344.05643
8340.274 1093.4404 221.15903 504.95496 10417.959 0.14731976 0.0114333015 0.021198818
363.14407 5271.519 5376.8696 437.79675 12200.995 1.8524009 36.877205 0.0
0.0 1699.8499 395.5464 0.0 1366.3577 318.9232 3694.6074 5572.0645
6448.0874 0.0 10201.009 0.0 221.4157 395.71872 2187.5432 3.5218443e-05
6312.8877 12739.185 2399.9485 458.46286 0.0 0.0 1554.5052 477.3152
0.0 0.0 1653.6028 195.50967 581.3627 732.31024 0.0317065 697.8168
783.5035 0.0 0.0 8021.817 419.20633 7651.031 10469.418 785.7571
1021.85474 3.2774584e-05 283.50156 0.0 1170.972 2944.1057 5736.737 0.0
3300.7888 1407.4954 4368.0864 3811.206 63.024704 7.716111e-07 586.2486 0.0
129.79137 1.2377549e-05 0.031455405 9204.672 855.3202 353.14276 7852.9946 3276.6648
5177.746 2266.3552 0.0 0.0 1517.3735 2033.4967 908.03394 0.0
3555.5154 194.01723 2280.2002 0.0 307.7804 85.59362 8496.162 7176.9224
5097.509 506.64603 1549.9526 995.1364 797.2893 603.18115 443.4972 42.088703
4591.8716 1006.3909 819.53516 0.0 0.0036147237 11.3929405 4.713704e-05 3759.0356
3322.3818 5601.906 0.0 3616.127 170.32881 0.70309323 836.0931 398.91318
130.04988 0.0015377866 240.22946 341.1725 41.48463 0.00018133993 1.4389374 49.40386
699.8426 5.7089653 0.05212771 60.366817 334.29883 0.0003169289 0.0059719402 0.008813331
1.2795002 198.07889 150.28163 0.10290545 612.80615 2.5716234e-05 0.0012604257 0.0
0.0 145.5758 0.2691833 0.0 19.972147 0.12382747 106.38947 462.13364
405.7244 0.0 427.76334 0.0 0.005696983 1.4576561 110.96336 0.0
301.13013 555.8125 167.42932 1.0696807 0.0 0.0 124.10811 0.91027105
0.0 0.0 53.084335 35.484962 17.444345 9.960672 0.012420361 48.500004
11.463133 0.0 0.0 571.13684 0.09546012 486.20517 497.34995 0.74339235
40.290035 5.033849e-05 0.025223758 0.0 122.167465 273.35648 238.09631 0.0
325.094 57.253536 475.57077 206.11514 0.9834576 0.0 0.09611558 0.0
0.022009432 2.0815996e-05 0.008762258 579.202 10.765575 6.1551714 464.9798 245.19936
152.29517 44.796127 0.0 0.0 71.75751 228.05386 97.451836 0.0
281.2847 0.0009966088 242.9446 0.0 1.9524254 0.0069431956 538.78235 376.0451
153.47256 1.1412777 171.03638 53.729443 5.282809 0.073613375 0.023179458 8.752015
276.41223 13.262348 18.153038 0.0 0.00017680041 6.696738e-05 0.0 114.56401
299.0069 211.07619 0.0 328.05264 18.869013 0.0002783486 14.3252735 0.7277975
00000000: 45be f044 aad3 e442 445d b845 ee53 ca45
00000010: 4b5c aa44 3a00 9a42 1b27 0f41 3907 ac43
00000020: 1951 0246 18ae 8844 b628 5d43 3c7a fc43
00000030: d6c7 2246 feda 163e be52 3b3c 25a9 ad3c
00000040: 7192 b543 27bc a445 f506 a845 fce5 da43
00000050: fba3 3e46 791b ed3f 4282 1342 0000 0000
00000060: 0000 0000 327b d444 f0c5 c543 0000 0000
00000070: 72cb aa44 2b76 9f43 b8e9 6645 8420 ae45
00000080: b380 c945 0000 0000 0964 1f46 0000 0000
00000090: 6b6a 5d43 ffdb c543 b1b8 0845 84b7 1338
000000a0: 1a47 c545 bd0c 4746 2dff 1545 3f3b e543
000000b0: 0000 0000 0000 0000 2b50 c244 58a8 ee43
000000c0: 0000 0000 0000 0000 4ab3 ce44 7a82 4343
000000d0: 3657 1144 db13 3744 adde 013d 4674 2e44
000000e0: 39e0 4344 0000 0000 0000 0000 89ae fa45
000000f0: 699a d143 3f18 ef45 ac95 2346 7470 4444
00000100: b476 7f44 7177 0938 33c0 8d43 0000 0000
00000110: 1b5f 9244 b101 3845 e545 b345 0000 0000
00000120: 9f4c 4e45 daef af44 b180 8845 4c33 6e45
00000130: 4c19 7c42 b620 4f35 e98f 1244 0000 0000
00000140: 97ca 0143 2ba9 4f37 62d7 003d b0d2 0f46
00000150: 7ed4 5544 4692 b043 f567 f545 a3ca 4c45
00000160: f8cd a145 afa5 0d45 0000 0000 0000 0000
00000170: f4ab bd44 e52f fe44 2c02 6344 0000 0000
00000180: 3f38 5e45 6904 4243 3483 0e45 0000 0000
00000190: e4e3 9943 ef2f ab42 a6c0 0446 6147 e045
000001a0: 124c 9f45 b152 fd43 7cbe c144 bbc8 7844
000001b0: 8452 4744 98cb 1644 a4bf dd43 d55a 2842
000001c0: f97e 8f45 0599 7b44 40e2 4c44 0000 0000
000001d0: 00e5 6c3b 7c49 3641 03b5 4538 92f0 6a45
000001e0: 1ca6 4f45 3f0f af45 0000 0000 0802 6245
000001f0: 2d54 2a43 ebfd 333f f505 5144 e374 c743
00000200: c50c 0243 8e8f c93a be3a 7043 1496 aa43
00000210: 43f0 2542 1126 3e39 1a2f b83f 8d9d 4542
00000220: edf5 2e44 d8af b640 de83 553d 9f77 7142
00000230: 4026 a743 7a29 a639 44b0 c33b ca65 103c
00000240: aac6 a33f 3214 4643 1948 1643 18c0 d23d
00000250: 9833 1944 31b9 d737 de34 a53a 0000 0000
00000260: 0000 0000 6893 1143 65d2 893e 0000 0000
00000270: f5c6 9f41 4299 fd3d 69c7 d442 1b11 e743
00000280: b9dc ca43 0000 0000 b5e1 d543 0000 0000
00000290: c2ad ba3b 7a94 ba3f 3eed dd42 0000 0000
000002a0: a890 9643 00f4 0a44 e86d 2743 4ceb 883f
000002b0: 0000 0000 0000 0000 5a37 f842 8607 693f
000002c0: 0000 0000 0000 0000 5c56 5442 9af0 0d42
000002d0: 058e 8b41 ea5e 1f41 c57e 4b3c 0100 4242
000002e0: fe68 3741 0000 0000 0000 0000 c2c8 0e44
000002f0: 9880 c33d 431a f343 cbac f843 f64e 3e3f
00000300: ff28 2142 8b22 5338 0ea2 ce3c 0000 0000
00000310: be55 f442 a1ad 8843 a818 6e43 0000 0000
00000320: 088c a243 9f03 6542 0fc9 ed43 7a1d 4e43
00000330: e1c3 7b3f 0000 0000 3fd8 c43d 0000 0000
00000340: 204d b43c 039e ae37 938f 0f3c eecc 1044
00000350: cc3f 2c41 2af7 c440 6a7d e843 0933 7543
00000360: 904b 1843 3c2f 3342 0000 0000 0000 0000
00000370: d883 8f42 ca0d 6443 57e7 c242 0000 0000
00000380: 71a4 8c43 a4a0 823a d1f1 7243 0000 0000
00000390: 13e9 f93f bf83 e33b 12b2 0644 c605 bc43
000003a0: fa78 1943 6315 923f 5009 2b43 f3ea 5642
000003b0: c50c a940 9cc2 963d d9e2 bd3c 4108 0c41
000003c0: c434 8a43 9432 5441 6c39 9141 0000 0000
000003d0: 8063 3939 d770 8c38 0000 0000 c620 e542
000003e0: e280 9543 8113 5343 0000 0000 bd06 a443
000003f0: bdf3 9641 51ef 9139 5234 6541 f050 3a3f
